checkpoints/best_model.pt (torch, 183906 bytes, 15 tensors)

prototypes f4 [100, 64]
000000 88 72 29 3e 59 39 90 be 6b 38 5d bd b8 07 0f 40
       0.16547596 -0.28168753 -0.054008882 2.234846
000010 0c cf 2f bf a1 02 26 3f 61 d8 59 3e a1 92 68 bf
       -0.68675303 0.6484776 0.21273948 -0.9084874
000020 67 d4 e4 3d 03 2f 3e 40 2e ea 7f bf 91 81 7f bf
       0.11173325 2.9716194 -0.99966705 -0.9980708
000030 20 16 0f bf 9e fa 86 bf fd 32 24 bf 53 1e d1 3f
       -0.55893135 -1.0545232 -0.641403 1.6337379
000040 06 6c 33 bf d1 be b3 3e 64 a1 81 3f 62 68 bf 3f
       -0.70086706 0.3510652 1.0127378 1.495373
000050 17 4e 0f c0 1b 49 23 be a7 ea be be f5 5e 3a 3e
       -2.2391412 -0.15945856 -0.372884 0.18200286
000060 22 ce 82 3e c9 0a 5c 3e 2c 61 4f 3e 00 56 4f 3f
       0.25547892 0.21488489 0.20251912 0.809906
000070 41 d1 08 bf 34 8e 1c 3f 50 40 ed be 36 b7 b2 3e
       -0.53444296 0.61154485 -0.4633813 0.34905404
000080 43 bd f1 bf 80 de ba 3f dc 3f bb be f3 42 82 3e
       -1.8885883 1.4599152 -0.36572158 0.25441703
000090 15 36 99 be a5 27 4a bf ba 7f 57 3f 44 76 f4 bf
       -0.29924074 -0.7896674 0.8417927 -1.9098592
0000a0 77 82 e5 be 2a a0 1f bb fb 21 99 3f 17 4c f4 3e
       -0.448261 -0.002435694 1.1963495 0.47714302
0000b0 4c 71 9b 3f 49 d8 ec bd 2b 65 91 be cd 52 2b 3e
       1.214395 -0.115646906 -0.28397498 0.16730805
0000c0 94 b4 ed 3f 98 bb df be 52 ad 32 3e cf 1f 08 bf
       1.8570733 -0.4369781 0.17448929 -0.53173536
0000d0 d9 05 33 bf 05 cc 42 bf c2 b2 20 bf 8c b1 fa 3e
       -0.699308 -0.7609256 -0.6277276 0.48963583
0000e0 f4 b5 ab 3f 06 27 8f be 96 1a 23 3e 73 c3 ed bf
       1.3414903 -0.2795946 0.1592811 -1.8575271
0000f0 db d9 41 be ca 92 59 3f 5e 62 a0 be 98 11 a8 3f
       -0.18930762 0.8498961 -0.31325048 1.3130369
000100 37 59 28 bd 5d 41 eb 3f 51 68 89 bf 1e 7a f1 3d
       -0.041100707 1.8379322 -1.073496 0.1179087
000110 ad 45 a4 bf 49 c2 60 bf 63 50 d9 be 96 d8 28 3c
       -1.2833763 -0.87796456 -0.42444143 0.010305544
000120 53 40 d0 be 88 1e fe bd ef a0 05 3e c6 9e 72 3f
       -0.40674075 -0.12408167 0.13049673 0.9477352
000130 28 b7 e2 ba af ad 50 3f af 89 83 bf 32 ac 9e be
       -0.0017297016 0.8151502 -1.0276393 -0.3099075
000140 16 52 13 3f 89 ff 39 3f bb d9 56 bf 01 73 eb be
       0.5754713 0.7265554 -0.8392598 -0.4598618
000150 3f 64 ca 3e ed 0c fd bf bb 28 6e 3f 35 3e ef 3e
       0.39529607 -1.976957 0.930309 0.46727148
000160 84 fe 9a bf 45 b6 dc 3f 44 01 c8 bf 62 8c 24 be
       -1.2108922 1.7243124 -1.5625386 -0.16069177
000170 ff 18 d9 3f 24 98 fe 3e 02 ae 0c 3f da 65 e9 be
       1.6960753 0.4972545 0.54953015 -0.4558552
000180 2e 1d 7d 3f 56 58 8b bf cc 29 eb bf e0 a2 50 be
       0.9887265 -1.0886333 -1.837213 -0.20374632
000190 26 ca aa 3f 71 6b 6c bf 6f 28 c0 be 01 5a e0 be
       1.3342941 -0.9235144 -0.37530848 -0.43818668
0001a0 8d f5 98 bf 9d d5 a6 bf 42 61 98 3c d5 c7 f3 be
       -1.1949936 -1.303394 0.018601064 -0.47613397
0001b0 cb 13 a0 bf f1 96 4e 3e 34 86 d9 3e 94 ac e7 3f
       -1.250604 0.20174767 0.424852 1.8099542
0001c0 52 93 1d be e6 e7 76 be 3c ed f6 bf f8 ec 7f bf
       -0.1538823 -0.241119 -1.9291148 -0.9997096
0001d0 92 7c 11 bd a7 82 95 3f f6 47 38 be 6c 2d 02 3f
       -0.03551919 1.1680497 -0.17996201 0.5085056
0001e0 e6 10 9e bf 11 ae 02 3d 1b f9 b0 bf ac e3 1d bf
       -1.2348907 0.031904284 -1.3826021 -0.61675525
0001f0 e0 35 80 bf 54 eb 68 bf 5c 1b ff bf 99 48 86 3f
       -1.0016441 -0.9098408 -1.9930224 1.0490905
000200 d4 a7 f9 3e 25 64 24 bf 41 3d 27 3f 83 f7 ec bf
       0.48760855 -0.6421531 0.6532784 -1.8513035
000210 d4 d3 d5 3e a4 7d f2 3e fe 9b 5b 3d 76 bd 14 3f
       0.41763175 0.4736148 0.053615563 0.58101594
000220 d1 c1 b3 bf 8d 12 28 3c da 67 3a bf 03 90 c6 3d
       -1.4043523 0.010258329 -0.72814715 0.09695437
000230 da 16 cc 3f 88 0f ae bc 90 52 ed bf 0e e0 11 bf
       1.5944474 -0.02124764 -1.8540821 -0.56982505
000240 a6 96 53 3f e6 36 f2 bf e8 8f 95 3f f7 e3 06 bd
       0.82651746 -1.8923004 1.1684542 -0.032932248
000250 17 89 67 3d 26 f1 b2 bc 6c ee 52 bf 9f b9 4d 40
       0.056527223 -0.021843504 -0.8239505 3.2144544
000260 c0 85 b3 3f 6d 02 be be df ce 8e 3e fe ba 88 bf
       1.4025192 -0.37111226 0.27892205 -1.0682065
000270 b8 1c 99 bd 19 76 58 bf 07 b5 8f 3f f6 ef c5 bf
       -0.07476181 -0.845552 1.122712 -1.5463855
000280 c2 b9 76 3f fc de 2c 3d a1 5d 09 c0 36 8c 4f 3f
       0.96377194 0.042204842 -2.1463397 0.8107332
000290 ad 15 51 bc 15 b9 34 bf 22 e6 8e bf 2f da 02 c0
       -0.012761516 -0.7059491 -1.1163981 -2.0445669
0002a0 85 76 e1 bc da 8a 81 bf b0 e8 8b 3f 8a a5 9b bd
       -0.027522335 -1.0120499 1.0930386 -0.075999334
0002b0 54 87 a5 bf 52 fe a1 be cf 64 cc be a9 e2 f8 3f
       -1.2931924 -0.31639344 -0.3992066 1.9444171
0002c0 c5 8c 10 3f cd af b4 3e 9a 2d 20 bf 12 b6 e1 bf
       0.564648 0.35290375 -0.6256958 -1.7633688
0002d0 47 2d 2d bf c3 81 3d bd a8 8a 7a bf 40 e7 1d bf
       -0.6764721 -0.04626633 -0.9786782 -0.61680984
0002e0 e6 1b 1d bf 1b a2 7a bf 35 dd c8 be 73 9c 81 bf
       -0.61370695 -0.97903603 -0.39231268 -1.012587
0002f0 75 be 10 bf 78 a6 48 3f 57 1f 7b bb 61 d0 66 3f
       -0.56540614 0.7837901 -0.003831824 0.9016171
000300 9c 1b a5 bd 8b c0 af 3f 18 40 98 3e cc 31 96 3f
       -0.08061907 1.3730634 0.297364 1.1733947
000310 d2 96 c2 3e a5 75 08 40 50 2d 06 bf e9 06 5e 3e
       0.38005692 2.1321805 -0.5241289 0.21682324
000320 44 a6 5f 40 92 58 f1 3f 67 27 3f c0 3d 73 dd 3e
       3.494523 1.8855155 -2.98678 0.43251982
000330 8c c8 a6 3e 4f 64 8b 3e 55 0c 57 3f e3 58 32 3e
       0.3257488 0.27224967 0.8400319 0.1741672
000340 be 22 b8 bf 7e 8d a7 bf 21 5a e4 bf 67 57 e5 3e
       -1.4385602 -1.3090055 -1.7840005 0.44793245
000350 7e b7 44 3f 2e 62 6e be bc 67 57 be e3 8d d2 3e
       0.76842487 -0.2327964 -0.21035665 0.41123876
000360 85 17 16 3f 5b 73 87 bf bb f9 80 bf 71 a6 b8 be
       0.5862964 -1.0582079 -1.0076212 -0.36064485
000370 8b 6d b7 3f 5c 2d bb 3b f2 24 83 3f b1 84 ff be
       1.4330305 0.0057121944 1.024565 -0.49905923
000380 32 5e 55 3f 2e d0 ee 3f 93 83 9a be ef d1 8c bf
       0.83346856 1.8657281 -0.30178508 -1.1001567
000390 6e 85 0a bf 03 41 54 3f c7 71 08 3e fd 9d 2f 3f
       -0.5410985 0.829117 0.13324653 0.68600446
0003a0 32 bd bc 3f 13 1b af bf 9d ea ea 3e 77 5b 2f 3f
       1.4745238 -1.3680137 0.4588212 0.6849894
0003b0 89 50 2f bf 89 b0 03 c0 f4 51 bd 3e 5a eb ea 3e
       -0.6848226 -2.0576499 0.36976588 0.45882684
0003c0 bd 3a ef bf bc 07 21 bf 6c 0c 78 bf 05 7a 03 3f
       -1.86898 -0.62902427 -0.96893954 0.5135806
0003d0 ff cc f1 3c b7 57 00 3f 00 79 19 3f 3d b5 ce bd
       0.029516695 0.5013384 0.59950256 -0.10093162
0003e0 82 5d 3d 3f cb d5 78 bf 57 9f e9 be 9f b5 88 3f
       0.73970807 -0.9720122 -0.4562938 1.0680426
0003f0 95 c4 ae 3f f3 f7 ee 3e f4 16 c8 bf 44 9b a5 bf
       1.3653742 0.46673545 -1.5632005 -1.2938008

conv1.bias f4 [64]
000000 71 0f a2 b8 d2 62 fe 37 b2 47 01 39 58 a9 c4 b8
       -7.727638e-05 3.0325176e-05 0.00012329107 -9.377551e-05
000010 aa c2 f0 37 a6 ed 74 b7 c4 52 a0 b8 0f 25 1e 39
       2.8700877e-05 -1.4598865e-05 -7.644811e-05 0.0001508186
000020 e5 04 57 b8 4f c1 0e b9 f0 c4 40 b8 38 b3 dd b8
       -5.1264553e-05 -0.00013614188 -4.595978e-05 -0.00010571483
000030 2b 79 ad 38 92 50 2f 38 59 91 5e b7 03 0d a5 b8
       8.271852e-05 4.179829e-05 -1.32660725e-05 -7.870237e-05
000040 a0 ba 60 39 42 64 2e 38 48 69 8b b8 ed 7d 00 b8
       0.00021431828 4.1578205e-05 -6.647647e-05 -3.0634856e-05
000050 07 cd c3 b8 5e f3 d1 b8 60 b6 72 b6 6a 14 c4 b8
       -9.336514e-05 -0.00010011227 -3.6166966e-06 -9.349811e-05
000060 48 c7 44 b9 f1 b6 fd 38 2a 7f 40 b7 6f a2 3b b7
       -0.00018766255 0.000120980556 -1.14736995e-05 -1.1183888e-05
000070 21 22 81 b8 05 59 43 37 55 92 4d b8 89 86 51 b9
       -6.157556e-05 1.1643632e-05 -4.901209e-05 -0.00019981911
000080 a7 7a cc b8 c0 fb 73 b8 0a 60 4b b8 7e 2d 15 b8
       -9.750324e-05 -5.8170175e-05 -4.8488415e-05 -3.5566736e-05
000090 00 ce 29 b8 bc 8c 38 b8 5e c5 78 38 b2 bf 62 36
       -4.0484592e-05 -4.4000088e-05 5.931162e-05 3.3788206e-06
0000a0 11 6c 8a b9 1d 4d 9a 38 b9 a0 76 b8 6b fc bc 38
       -0.00026401927 7.357656e-05 -5.8800655e-05 9.011555e-05
0000b0 7b 6e 01 39 16 bd 8c 37 2f 2d a5 b9 b4 84 c3 b4
       0.00012343556 1.677735e-05 -0.00031504917 -3.6418135e-07
0000c0 74 88 61 b9 e6 9d 4f b8 0c ca 44 38 7b 79 3f b9
       -0.00021508505 -4.94997e-05 4.6918212e-05 -0.00018260434
0000d0 66 06 4e b8 d3 65 90 38 56 e7 02 37 94 81 41 39
       -4.9120186e-05 6.885421e-05 7.802466e-06 0.00018454186
0000e0 eb ee 77 38 d4 21 fc 36 b5 99 90 37 dc ff 57 38
       5.91119e-05 7.5141234e-06 1.7237713e-05 5.1498282e-05
0000f0 e0 b1 36 b9 c4 24 03 37 79 0d c5 38 41 0c d0 38
       -0.00017423136 7.816769e-06 9.3962015e-05 9.920495e-05

conv1.lin.weight f4 [64, 512]
000000 41 f9 78 bc 98 ff 33 bd dd 64 89 bd 2e ae 30 bd
       -0.0151961455 -0.043944925 -0.06708691 -0.04313486
000010 55 01 92 bd f9 f2 bb bd f5 8b d8 3c bd a9 fd bc
       -0.0712916 -0.09177203 0.026433924 -0.030964727
000020 ff f6 c2 3c 09 10 47 3d 32 fd ab bc 4c 00 45 3c
       0.023799418 0.048599277 -0.020994756 0.012023997
000030 5a fd 08 bd 5e 6e cd bd 3d cc 84 3c 3e b9 87 bd
       -0.03344474 -0.100308165 0.01621067 -0.06627129
000040 a1 05 d8 bd f1 20 2b bd 4c 83 11 bd cc ab e7 3c
       -0.10547949 -0.041779462 -0.035525605 0.028280161
000050 e7 06 3b bd 32 ae 9e 3d cc 7b ff 39 6d 88 89 bc
       -0.04566088 0.07748069 0.00048729626 -0.016788686
000060 f8 a8 23 bb fd 51 65 bd 07 a9 d1 bd a6 bb b9 bd
       -0.002497254 -0.055986393 -0.102373175 -0.09068994
000070 e4 8a 26 bc bd 18 59 3c c0 53 e6 3c ad 9f 07 3c
       -0.01016495 0.013250527 0.028116107 0.008277816
000080 84 e6 d1 3d 97 ca 33 3c 7c cc 1e 3d 13 e1 26 bc
       0.102490455 0.010973594 0.03876923 -0.010185498
000090 b5 a4 7c bd 6f ae 23 bd 7a 5c bb 3d bc 02 3a 3d
       -0.061680514 -0.039961275 0.09148498 0.045412764
0000a0 e0 86 5d 3c 35 45 25 bd 5d 50 d1 bc 69 77 8f 3c
       0.013520926 -0.040349204 -0.025551016 0.017512994
0000b0 3b 68 a3 3d ea d3 36 bc a2 95 ae bd 0b 0e 2c 3c
       0.07978865 -0.011158923 -0.08524634 0.010501395
0000c0 b1 92 5a bd 0c e1 8f bc 8e 4b c0 bd 36 a9 5f 3d
       -0.053362552 -0.017563365 -0.09389411 0.05460473
0000d0 8f 3a 86 3d 77 d6 37 bc ae 69 4d 3d 70 fd 89 bd
       0.06554138 -0.011220566 0.050149612 -0.067377925
0000e0 26 88 8a bd ab 1f 5d 3d 72 66 84 bd 47 f8 7e bd
       -0.067642495 0.05398528 -0.064648524 -0.062248494
0000f0 5f 8d 59 3d f0 83 df bd 0d 39 9b bc 8e e6 b4 bc
       0.053113338 -0.10913837 -0.018948102 -0.022082593
000100 b2 83 81 3d 2c 81 06 3d a5 ef 72 bd dd 93 22 bd
       0.06323947 0.03283803 -0.059310574 -0.039691795
000110 a5 40 53 3d f9 44 39 3d a6 8e b9 3b 13 1e af bc
       0.05157532 0.045231793 0.005662757 -0.021376645
000120 8e d5 93 3c 06 ad 8c bb 56 ab 9f bd 70 ff 4b bd
       0.018046167 -0.004293087 -0.077963516 -0.04980415
000130 84 45 21 3d 01 ec 0c 3d 5c e3 9f bd 06 9e 4c bd
       0.039372936 0.03440476 -0.07807037 -0.04995539
000140 69 80 b9 bd ba 47 2b bc 4e 0a 45 3c 3d af ee b9
       -0.090576954 -0.010454113 0.012026383 -0.0004552546
000150 b9 86 34 bd 7e d2 9c 3b 48 eb f6 3d ca 01 e6 b9
       -0.044073794 0.004785835 0.12056595 -0.00043870352
000160 fb 97 00 3c 5c 3e e3 bc e0 af d8 3c d2 49 eb bd
       0.007848735 -0.027739696 0.026451051 -0.114886895
000170 ab e0 58 3d 88 58 2e bd 4a 5c 72 bd b8 ca 48 bd
       0.052948635 -0.0425649 -0.059170045 -0.049021453
000180 77 32 a8 3d 63 6b 44 bc 77 5b 14 3d 90 4e 6e 3d
       0.082127504 -0.011988494 0.03622004 0.05818039
000190 c3 b8 da 3d 10 87 7f 3c ab 5e 87 3c 49 3e a5 3d
       0.10679772 0.015596166 0.016524633 0.080685206
0001a0 f7 37 cb 3d c3 00 54 3d 41 9c 67 3d 57 da 0e 3d
       0.09922784 0.05175854 0.0565455 0.034876194
0001b0 d6 60 02 bd 49 71 2e 3c 04 2b c0 3c a1 25 b0 3c
       -0.03183063 0.0106471265 0.023458011 0.021502318
0001c0 1e d5 8f bd cb 7b 87 3c 51 5f 78 bd 11 5e 0a bd
       -0.07023071 0.016538521 -0.060637776 -0.033781115
0001d0 8d 09 b6 bc 6b bc aa 3d 8e d5 bd 3d f4 41 94 bd
       -0.022221351 0.08336719 0.09269248 -0.07239142
0001e0 8b 75 2a bd c2 6a 73 3d 6c 41 17 bd e3 a1 7a bd
       -0.041616004 0.059427984 -0.036927626 -0.061189543
0001f0 41 5f 5a 3d 6d fe e3 3d 80 8c 51 bd 9b 42 02 bd
       0.053313497 0.11132512 -0.051159382 -0.0318018
000200 df 4e c1 3d 46 e4 7a bc a6 51 bc bd 68 58 18 3d
       0.094388716 -0.015313214 -0.09195261 0.037193686
000210 6b 32 8c 3d 60 4d 96 bd 07 55 3d bd ef 7c 1f bb
       0.06845554 -0.07338977 -0.046223667 -0.002433594
000220 a6 3f a1 bd 64 65 fd bc 6e 11 25 3c 3d a5 e1 3c
       -0.07873468 -0.030932136 0.010074956 0.027544612
000230 25 ef 88 bd cd 10 94 bc 3b 34 72 bd 4a 88 80 bd
       -0.06686238 -0.018074417 -0.059131842 -0.06275995
000240 c9 34 00 3c d2 26 cd bc 86 fb 16 3d e3 a3 ea bc
       0.007825085 -0.025042925 0.036860965 -0.0286426
000250 c7 0d c6 3d bc 2e 25 bd 96 3b a8 3d f4 1f 9b bd
       0.096705966 -0.040327772 0.0821449 -0.07574454
000260 41 7d 84 3d e9 1a 65 3d 04 e2 19 3d 6b 87 98 3d
       0.06469203 0.055933867 0.03756906 0.07447704
000270 6a 29 57 3d 32 f2 94 bd 40 7a 3c bc 7d 18 de 3d
       0.05252973 -0.072727576 -0.011503756 0.108445145
000280 30 16 90 3c 59 7c 6f bd 46 88 56 3c b4 94 a5 3c
       0.017588705 -0.058468197 0.013094014 0.020212509
000290 b6 18 cc 3d 47 7b b6 3d 7f 0d 7a bd b4 aa 04 3d
       0.09965651 0.08910232 -0.061048027 0.032389358
0002a0 ff 16 fc 3b ed ad 43 bd fe af 9a 3d c6 8d 54 bd
       0.007693171 -0.04777329 0.07553099 -0.05189302
0002b0 97 5b 7a 3d 49 9b 4e bc 0e da 23 bc 7a 63 f1 3c
       0.061122503 -0.012610265 -0.010000719 0.02946638
0002c0 58 bc a3 bd 1e 5c 1c bd ea 47 c7 bd ff 86 84 3b
       -0.07994908 -0.038173787 -0.097305134 0.004044413
0002d0 75 2c 4a 3d cf 13 c4 bd ed 65 f4 bc dd 8f 25 bd
       0.049358804 -0.09574091 -0.029833758 -0.0404204
0002e0 73 51 06 3c a1 f6 6b 3d a4 a4 b6 3d ac 15 8d bc
       0.00819813 0.05760825 0.089181215 -0.017222248
0002f0 21 5d 43 bd 1c 0a ac 3d d4 0e 63 bd 62 56 e0 3b
       -0.047696237 0.08400366 -0.055434063 0.006846235
000300 9f bb 62 bc f9 bc 45 3d 79 0d a4 3d 2a 6a cd bd
       -0.013838678 0.04827592 0.08010382 -0.10030015
000310 9f a8 2e 3d 73 29 9e bd 7c 70 c4 3c 0e 10 00 bd
       0.04264128 -0.077227496 0.023979418 -0.03126531
000320 09 fe 52 bc 7f 00 00 bd 94 73 bd bd 8c d8 e0 3c
       -0.0128779495 -0.031250473 -0.092505604 0.027447008
000330 d7 f6 85 bc 51 3c 2e bd e3 eb a9 3d 86 82 94 bc
       -0.016353054 -0.04253799 0.08296945 -0.018128645
000340 d6 9b 29 bd 3b 04 ed bc b9 c2 36 3d 5c e4 ad 3b
       -0.041408382 -0.028932681 0.044619296 0.0053067636
000350 ad fd b9 bb 3a fd 77 bd f4 b5 d6 bd 00 d5 c1 bd
       -0.0056759925 -0.06054423 -0.104839236 -0.09464455
000360 fe 9e 09 bd 24 38 8a 3d ee bb 8a 3d 0c 10 e9 bc
       -0.033598892 0.06748989 0.06774126 -0.028450035
000370 56 8c a7 3d 1f f5 cd bd 4a 47 86 bd 4a b9 25 3c
       0.08181064 -0.10056519 -0.06556566 0.010114977
000380 92 22 de bc 7b a0 87 bd 7a d8 bd 3c 0b 33 46 bd
       -0.027116094 -0.06622406 0.023174513 -0.048388522
000390 e3 be 14 3d 50 46 9b 3d 43 16 f5 bb ad 09 91 bd
       0.036314856 0.075817704 -0.0074794604 -0.07081924
0003a0 2a e3 63 bd 7d 7c 4d 3d 95 4d 05 bd b3 81 f1 bc
       -0.055636562 0.05016755 -0.03254469 -0.02948079
0003b0 c9 cf b2 39 a9 2a d3 bd e6 72 f8 bd 18 43 93 bc
       0.00034105618 -0.10310871 -0.1213129 -0.017976329
0003c0 7e d2 a4 3d 89 e9 aa 3c 37 68 99 3d 38 dc e7 bd
       0.08047961 0.020863311 0.074905805 -0.113213
0003d0 92 35 2b bd da 88 bb 3c fd cd 7d bd 36 9d d2 bd
       -0.041799136 0.022892404 -0.061964024 -0.10283892
0003e0 ee a0 91 3d 2e 47 36 bd 97 e2 a2 bd 92 99 12 3d
       0.07110773 -0.044501476 -0.07953375 0.035790987
0003f0 41 92 e8 bd 7a 46 c3 3d 3b d7 ad 3b 71 b0 0e 3d
       -0.11356021 0.09534927 0.0053051985 0.034836236

conv2.bias f4 [64]
000000 fc 8b e7 b8 77 4d 9a b8 7b 7e 81 38 18 5b 8d 38
       -0.000110410125 -7.357721e-05 6.174758e-05 6.7403715e-05
000010 a1 e2 2e b6 ec a7 1c b8 04 da be b8 87 74 85 38
       -2.6059936e-06 -3.7349688e-05 -9.1005146e-05 6.363639e-05
000020 6b f0 02 37 d4 f8 dc b6 e6 4c b6 b7 a1 5b 82 b7
       7.8045805e-06 -6.5854783e-06 -2.17319e-05 -1.5539876e-05
000030 61 4b 40 b9 cc 14 6d b9 36 97 f1 b8 e7 c2 16 b7
       -0.00018338628 -0.00022609829 -0.00011519941 -8.986076e-06
000040 39 91 91 b9 84 6e 92 b6 6c 25 04 38 d0 6a 17 b8
       -0.00027764754 -4.364005e-06 3.1506104e-05 -3.6100682e-05
000050 2a aa 5d b9 bb 64 72 38 73 7d e7 b7 dc 63 59 38
       -0.00021139593 5.779111e-05 -2.7595763e-05 5.1829833e-05
000060 aa 65 03 39 ef 32 5e b8 aa 7c cf 39 46 1d 45 39
       0.00012531006 -5.297636e-05 0.00039575 0.00018798289
000070 22 65 1a 3a a6 f7 22 b6 68 6d 9b 39 24 18 85 b7
       0.0005889704 -2.4284031e-06 0.00029645418 -1.5866077e-05
000080 10 a7 ff 38 50 22 29 b9 dc f8 0a b9 3e cb ef 39
       0.00012190465 -0.00016129878 -0.00013253413 0.0004573706
000090 60 6d 08 39 7a 54 95 b8 6b 05 ce 38 d5 f2 ca b8
       0.00013010716 -7.120609e-05 9.8238546e-05 -9.6773416e-05
0000a0 70 fa 87 38 96 d0 9e b6 3c d9 d3 b8 2a 4a 21 ba
       6.483949e-05 -4.7330495e-06 -0.00010101727 -0.0006152714
0000b0 d8 03 6a 37 d0 9e 84 39 92 a3 fd 39 4f 87 e9 b8
       1.3948382e-05 0.00025295326 0.0004837779 -0.00011135509
0000c0 11 5f ba b8 0b 7c 3d b9 d5 b5 64 36 a6 42 02 38
       -8.886879e-05 -0.00018070654 3.4080488e-06 3.1056486e-05
0000d0 b6 b0 97 b8 f7 b9 73 37 6e 07 01 38 0f 4a 06 38
       -7.233156e-05 1.4527227e-05 3.0762916e-05 3.2017062e-05
0000e0 48 bd 61 b6 f6 25 18 b8 34 87 a3 b8 24 78 de b7
       -3.363779e-06 -3.6274978e-05 -7.797629e-05 -2.6520407e-05
0000f0 58 73 73 b9 c7 e4 aa 37 85 7c de 38 cc e8 d6 38
       -0.00023217255 2.0372112e-05 0.000106089785 0.00010247677

conv2.lin.weight f4 [64, 64]
000000 58 dc 71 3d a2 46 22 be e9 38 c2 3c ba 3f 23 3e
       0.059048027 -0.15847257 0.023708778 0.15942279
000010 ab bb d7 3d de 8b 22 3e e8 eb 20 3e fb aa bb 3d
       0.10533842 0.15873668 0.15714991 0.09163471
000020 60 15 35 3d 17 ca 2d 3e bf ec b6 bd 0e e4 ca bd
       0.044209838 0.16971622 -0.089318745 -0.09906779
000030 af 83 38 be f9 13 41 bd 18 8c 7d bc 93 af 73 3e
       -0.18018983 -0.047138188 -0.0154752955 0.23797445
000040 09 7e 40 be 20 ea e3 bc 55 4d db 3d 14 49 cd 3d
       -0.18798079 -0.0278216 0.10708109 0.10023704
000050 5b 2e 88 3e 4d 28 38 bd 95 19 2d be 60 c1 d9 bc
       0.26597866 -0.04496031 -0.1690429 -0.026581466
000060 1a 91 91 3d 39 af 3a 3e 6c 0b 9f 3d 25 26 20 be
       0.07107754 0.18230905 0.077658504 -0.15639551
000070 b5 71 5f bd 57 35 1b 3e 75 7a f8 3a 90 b1 a3 bc
       -0.0545518 0.15157066 0.0018957393 -0.01998213
000080 d6 3a d2 3d 7b 40 53 bd 55 31 96 3d 18 2c 54 bd
       0.10265128 -0.051575165 0.07333628 -0.051799864
000090 ff 35 2f 3d 53 96 0e 3d 02 a1 22 3e 16 0d e3 3d
       0.042776104 0.03481133 0.15881732 0.1108648
0000a0 d3 30 fc bd a9 9b dc 3d 16 2c 36 3d e5 65 a2 3d
       -0.12314 0.10771877 0.044475637 0.07929591
0000b0 a5 5c 10 3e b8 3f cf bd 35 5b 1a 3e 42 87 3a 3d
       0.14097841 -0.10119575 0.15073855 0.04553915
0000c0 d3 a1 b9 3d de 34 cb 3d a9 ee 1d be 07 28 9f bd
       0.09064069 0.09922193 -0.15423073 -0.077713065
0000d0 e4 d0 af 3b bb ed b3 3d 95 ef a2 bd f5 47 8c 3d
       0.005365478 0.08785578 -0.07955853 0.06849662
0000e0 66 8b 33 bd 51 56 43 3e d8 c3 ee 3d f0 de f0 bd
       -0.043834113 0.19075896 0.11658448 -0.11761272
0000f0 38 c7 e6 3d 96 55 bd 3d 57 04 8f 3e 6f d5 08 3e
       0.11268467 0.0924484 0.27933 0.13362668
000100 dd a6 0f 3e 9d 76 2d 3e 4e a2 cd bd 3c 93 3a 3e
       0.14028497 0.16939779 -0.10040723 0.18220228
000110 b0 65 2d be fb 69 c8 bd d5 73 fd 3d a5 6b bb bd
       -0.16933322 -0.09785839 0.12375609 -0.09151391
000120 64 de 9b bd 2a 0d 2a be 84 76 76 3e 89 59 45 3e
       -0.07610777 -0.16606584 0.24068648 0.19272436
000130 de d7 83 3d e1 bf 85 be ff ad 1e 3e 25 a2 65 be
       0.06437658 -0.26122954 0.15496062 -0.22425134
000140 57 8a 22 3d 0a 32 3f be f1 6e ea 3b e2 2c 84 bd
       0.039682712 -0.18671432 0.0071543385 -0.06453873
000150 be 2b ff bd e4 e2 c7 3d ee ea 37 be 28 c8 85 3d
       -0.12459515 0.09760073 -0.17960712 0.065323174
000160 54 50 25 be ca 53 4e 3d a4 c4 7d bd 2d 48 b0 bc
       -0.16143924 0.050372876 -0.06195511 -0.021518791
000170 bc cc d8 3a 08 58 7a be 81 45 35 3c 82 6d de 3d
       0.0016540508 -0.24447644 0.011063934 0.10860731
000180 dc 7f c8 bc 1a b9 9a 3d 88 bc 81 3d be f0 70 be
       -0.02447503 0.075548366 0.063347876 -0.23529336
000190 47 a8 87 bd 5b 6b 8a bd b5 c8 4b 3e 63 2d 18 bc
       -0.06623893 -0.06758758 0.19900782 -0.009288165
0001a0 1f 2d 34 3e 1a 1d f6 3b 2d 60 55 bd 7a d3 10 3a
       0.17595337 0.0075107934 -0.052093673 0.00055246765
0001b0 30 c9 09 3d 48 97 f7 bd fd a7 16 3e bb 78 62 bd
       0.033639133 -0.120894015 0.1471252 -0.05529092
0001c0 97 28 d9 3d cb ab 6e bd 50 69 26 bc dc 36 42 be
       0.10603445 -0.058269303 -0.010156944 -0.1896624
0001d0 ea b0 0a bd 85 d7 16 bd 72 76 02 3e 09 ad 07 bc
       -0.033860125 -0.03682663 0.12740496 -0.008281001
0001e0 f3 69 ea 3d d7 c3 c0 bd 9e ca 1b bd 35 ca f2 bc
       0.114459895 -0.094123535 -0.038035028 -0.029637435
0001f0 49 76 0e 3e 41 02 99 bd 3f 78 fd bd 96 e5 6e bc
       0.1391231 -0.07471133 -0.12376451 -0.014581105
000200 bf 5e 6f 3c 25 b9 d7 3c 9a fd 13 3e 26 cb 00 3e
       0.014609992 0.026333401 0.1445221 0.12577495
000210 04 94 bf bd 48 a3 d7 3d 21 eb 8f bd 19 03 97 3d
       -0.093544036 0.1052919 -0.07027269 0.07373638
000220 2b 33 30 bc 48 ba b9 bd d5 79 fd bd 25 8e ce bd
       -0.010754387 -0.090687335 -0.12376753 -0.10085706
000230 b4 3a cb bc 5d 0f 08 3c 6f 35 5f bd 7c de 58 3e
       -0.024808265 0.008304444 -0.054494318 0.21178621
000240 30 85 1d be f5 47 9b bd 25 cd e5 bd 55 60 cb 3d
       -0.15382838 -0.07582084 -0.11220769 0.09930483
000250 cc a6 93 3c d8 f1 55 be fe 13 08 3e 09 67 de 3d
       0.01802387 -0.20893037 0.13288876 0.10859496
000260 39 9b c2 3d d6 80 59 3e 24 36 29 bc 6c ae 27 be
       0.095022626 0.21240553 -0.01032785 -0.1637513
000270 31 1a c2 bd 15 ea b5 3c 0c 91 58 3e e9 78 0b be
       -0.09477652 0.022206346 0.21149081 -0.13620342
000280 a7 08 e0 bd ac 2e b6 3d 43 c6 77 be 78 b5 61 3e
       -0.1093915 0.08895621 -0.24196725 0.22041881
000290 dc f5 fa 3c 5b e8 d2 bd ac 3d cf bd b8 54 75 3d
       0.030634813 -0.102982245 -0.10119185 0.059895247
0002a0 5f 61 98 3d 01 87 12 3e fa 28 5b 3e 1c 96 0a bd
       0.07440447 0.14309312 0.2140235 -0.03383456
0002b0 86 03 8b 3e 68 a7 82 3d fa ce da 3d 92 d2 52 3d
       0.27151126 0.063795865 0.10684009 0.051470347
0002c0 35 47 e1 3c 1f 01 27 3e 26 c3 41 be fc 3c 2f be
       0.027499774 0.16309021 -0.189221 -0.17113107
0002d0 23 6d c3 bd ac 3f 35 3d 25 46 f5 bd 43 17 84 3e
       -0.095423006 0.044250175 -0.1197627 0.25798997
0002e0 51 25 ac bd 09 49 f4 3d 34 b8 d5 3d 06 24 b5 3d
       -0.08405555 0.11927993 0.104355246 0.088447616
0002f0 fa 34 78 bd 1b 3c 2c bd 5e 4b 86 3e e0 15 b4 bd
       -0.060597397 -0.04204951 0.26229376 -0.08793235
000300 64 dc 63 be ad f4 26 3d 35 6b d0 bd a7 ba 83 be
       -0.22252041 0.040760685 -0.10176698 -0.25728342
000310 2e ba ea 3d 2a 16 de 3d 43 8a 4d 3e 33 42 49 3e
       0.11461292 0.10844071 0.20072274 0.19654159
000320 0e 78 a8 bc 94 16 4c 3d 04 c9 d5 bd 5f 1b af 3d
       -0.020565059 0.04982622 -0.10438731 0.085501425
000330 4f a9 87 bd 31 c2 62 bd 12 e5 17 be 94 c1 51 3e
       -0.0662409 -0.055360977 -0.14833477 0.20484
000340 7e eb a7 bb da 0b 4c 3e 70 db 06 be a5 e9 ba 3d
       -0.0051245084 0.19926396 -0.13169646 0.091265954
000350 bb 73 a0 bd a8 e1 83 3c 62 f5 f8 3d 2c 07 9e 3d
       -0.07834574 0.016098812 0.12156178 0.07716212
000360 b5 1e 60 39 15 32 99 3d b2 89 49 3e 38 32 9c 3d
       0.00021373744 0.074802555 0.19681433 0.07626766
000370 2f c8 da 3d 90 02 3c be 67 c3 a7 bd 50 f2 6d be
       0.10682713 -0.18360353 -0.08191567 -0.23236966
000380 dd 88 26 3d 4c ac dc 3d da b0 80 3d 39 96 26 3d
       0.040657867 0.107750505 0.06283732 0.040670607
000390 7b 33 15 3d 4b 5d 8a be 57 17 d3 3d f8 5a b9 3d
       0.03642605 -0.27024302 0.10307186 0.09050554
0003a0 f5 a6 fe 3d 9d 5b 0d 3e 0f ce ef bd d8 4a 3e bc
       0.12434188 0.13804479 -0.117092244 -0.011614524
0003b0 a1 0f 6b 3d 1b ad 8c bd ce 28 8a be 0e 56 22 be
       0.05738795 -0.06868955 -0.26984257 -0.1585314
0003c0 32 a7 b0 3d 71 44 db 3b 40 66 42 bd 8f 8a b6 3d
       0.0862564 0.0066915085 -0.047460794 0.08913147
0003d0 46 d4 87 be 9a 58 6d 3e 9c 4b 0b 3e 1b 77 08 3e
       -0.2652914 0.2317833 0.13603061 0.13326685
0003e0 1b 96 38 bd 4e d8 9b bd 52 34 cd 3c 9a 9f 06 3e
       -0.045065027 -0.07609616 0.025049362 0.1314682
0003f0 c9 45 d4 3d 87 7f 1b 3e 0f bd 80 be b9 b7 76 bd
       0.10364873 0.15185367 -0.2514424 -0.060233805

bn1.weight f4 [64]
000000 61 ba 87 3f 4f ec 86 3f 78 5c 82 3f c9 76 7b 3f
       1.0603753 1.0540866 1.0184469 0.98228127
000010 49 60 81 3f 00 46 80 3f 06 8b 76 3f e8 ca 76 3f
       1.0107509 1.0021362 0.9630588 0.9640336
000020 4a 65 6b 3f 20 f2 6c 3f e3 ab 72 3f 32 f3 74 3f
       0.9195143 0.92556953 0.9479353 0.95683587
000030 c7 58 69 3f 82 5b 87 3f 77 a4 78 3f 0a f1 7b 3f
       0.9115109 1.0574801 0.97125953 0.9841467
000040 90 10 80 3f f9 a2 70 3f 84 53 73 3f 79 78 6c 3f
       1.0005054 0.93998677 0.9504931 0.92371327
000050 ff 25 7d 3f 60 c0 84 3f 5c 48 7a 3f f7 61 71 3f
       0.988861 1.0371208 0.9776666 0.9429011
000060 0b 52 89 3f 05 8b 87 3f 27 02 71 3f b9 94 6f 3f
       1.0728163 1.05893 0.9414391 0.9358631
000070 50 cb 6f 3f 8d de 7d 3f 86 37 89 3f 25 75 6b 3f
       0.93669605 0.9916771 1.072007 0.91975623
000080 94 37 71 3f 19 46 79 3f 0e d1 81 3f 40 a4 89 3f
       0.9422543 0.97372586 1.0141923 1.075325
000090 8d 8a 86 3f 89 be 89 3f 05 63 75 3f f3 14 80 3f
       1.0511032 1.0761272 0.95854217 1.0006393
0000a0 a8 29 77 3f 77 73 82 3f b6 0d 86 3f 25 6a 89 3f
       0.9654794 1.0191487 1.0472934 1.0735518
0000b0 ff 4b 74 3f 50 2c 72 3f 8a e1 82 3f 5c f8 76 3f
       0.9542846 0.94598866 1.0225079 0.96472716
0000c0 e1 b7 7e 3f 1e 60 72 3f c6 e2 85 3f 59 de 85 3f
       0.99499327 0.94677913 1.0459831 1.045848
0000d0 45 75 71 3f 29 de 88 3f f0 9f 77 3f d3 95 81 3f
       0.94319564 1.0692798 0.9672842 1.0123848
0000e0 31 7c 70 3f c1 89 86 3f 59 a1 80 3f b4 2e 7a 3f
       0.939395 1.0510789 1.0049239 0.97727513
0000f0 5b 6f 70 3f 63 57 87 3f 07 e2 84 3f 79 62 82 3f
       0.93919915 1.0573543 1.0381478 1.0186301

bn1.bias f4 [64]
000000 72 47 00 3d 30 e7 22 3d 9b c8 0e bc aa f0 9e bc
       0.031318136 0.03977126 -0.00871482 -0.019401867
000010 1f b6 c6 bb a5 3d 5f 3c 1e 98 2d bd 96 70 29 bd
       -0.006064191 0.013625537 -0.0423814 -0.041367136
000020 89 a2 a1 bd b8 cf 80 bd 31 c5 74 bd d0 b2 2a bd
       -0.07892329 -0.06289619 -0.05975837 -0.041674435
000030 22 00 82 bd 1c 08 59 3d 21 43 32 bd 52 ff 4a bd
       -0.063476816 0.05298625 -0.04352105 -0.0495599
000040 dd b7 68 3c 3b 38 95 bd 6f 55 41 bc 89 ad 46 bd
       0.014203993 -0.07286116 -0.011800154 -0.04850534
000050 67 a7 35 bc d1 94 72 bb b3 2c 03 3a 2c b9 0f bd
       -0.011087275 -0.003701497 0.0005003914 -0.035088703
000060 b4 7f 82 3d a3 7b 3b 3d 65 1e 6b bd c7 b0 8c bd
       0.06372014 0.045772206 -0.057402033 -0.06869655
000070 7a 20 83 bd 29 19 81 bc e0 45 55 3d ed 1e 87 bd
       -0.06402679 -0.015759068 0.05206859 -0.065976955
000080 fa 53 86 bd 3c ff d0 bc e1 36 31 39 cc 22 61 3d
       -0.06558986 -0.02551233 0.0001690048 0.054964826
000090 63 7d af 3c 02 b6 8d 3d f3 92 4a bc eb e8 1f 3b
       0.021422094 0.06919481 -0.012364137 0.0024400305
0000a0 0d bc 12 bd 04 85 10 3c c5 1a 1f 3d b9 e5 35 3d
       -0.03582387 0.008820776 0.03884389 0.044408534
0000b0 50 13 82 bd 0b 5d 5a bd d9 c8 58 3d 8e 36 9b bb
       -0.0635134 -0.05331139 0.05292592 -0.004736728
0000c0 22 d3 d2 bc 0e 0e 20 bd 3b c2 23 3c 28 21 bc 3c
       -0.025735442 -0.039075904 0.009995039 0.022965029
0000d0 df 32 77 bd c5 ad 71 3d 12 55 fb bb e2 08 04 3a
       -0.06035125 0.05900361 -0.0076700533 0.0005036724
0000e0 bb 79 4c bd b6 1c 20 3c 48 96 f9 3c 24 1a 12 bc
       -0.04992078 0.00977247 0.030467167 -0.008917365
0000f0 5d 72 5b bd 4a fc 06 3d 95 e3 c7 bc 8e dd 14 3d
       -0.053575862 0.032955445 -0.024400512 0.036344104

bn1.running_mean f4 [64]
000000 fc cd cb bf dc 75 0e 3e 67 cd bd bf aa 86 48 c0
       -1.5922236 0.13912147 -1.4828309 -3.1332192
000010 03 16 3d bf 02 05 ad 3e 5d 4e 98 3f 71 15 09 c0
       -0.7386171 0.33792883 1.1898915 -2.1419337
000020 c8 6f c2 3e c5 58 92 3f 07 1d 3e c0 28 c7 2b c0
       0.37975907 1.143334 -2.9705217 -2.6840305
000030 a9 47 dc 3f cc 30 f5 3f 10 fa 46 40 30 4b c5 be
       1.7209369 1.9155517 3.1090126 -0.38533926
000040 64 75 14 40 34 b8 8e bc 08 4e bc bf 5a 9c f0 3f
       2.319665 -0.01742182 -1.4711313 1.8797715
000050 64 12 3b c0 56 19 89 3f 29 fe 34 40 be 5f bd be
       -2.9229975 1.0710857 2.8280127 -0.36987108
000060 10 8c 0b 40 5e 96 fd bf da 69 90 3f ca c4 be be
       2.1804237 -1.9811513 1.1282303 -0.37259513
000070 80 fd 09 c0 5a ce 1f 3d 17 84 28 c0 3c 2a ae bf
       -2.1560974 0.03901515 -2.6330621 -1.3606639
000080 fa 94 be 3f 53 27 ac be 91 47 59 3f 1b 1e c2 bf
       1.4889214 -0.33623752 0.84874827 -1.5165437
000090 6d 41 44 3f 9a e7 39 c0 ff bc 71 3c e5 b7 b2 3e
       0.7666233 -2.9047608 0.014754533 0.34905925
0000a0 7d 2d 0c c0 c8 e6 53 3f a8 e7 3b c0 a7 c9 a2 bf
       -2.1902764 0.8277402 -2.9360142 -1.271779
0000b0 25 5c 4f c0 78 27 54 bf 5a 4c eb bf 4a 63 4a 40
       -3.239999 -0.82872725 -1.8382676 3.1623101
0000c0 54 c4 ff bf 4f 38 8a bf 21 76 37 40 1b d5 19 40
       -1.998179 -1.0798434 2.866585 2.403632
0000d0 9f ad 85 c0 55 82 24 bf 7b 90 45 c0 5b f4 59 c0
       -4.177444 -0.6426137 -3.0869434 -3.4055393
0000e0 0d 83 54 40 47 60 c6 bf 06 de 0d bf e3 10 52 3f
       3.3204987 -1.5498132 -0.55416906 0.8205702
0000f0 2d 23 3f c0 c7 2e 78 3e e7 b8 70 c0 5f 97 25 bf
       -2.986522 0.24236594 -3.7612855 -0.646841

bn1.running_var f4 [64]
000000 8f c9 4d 3f 3e 5b 42 3f 1a 77 58 3f 3e 2a 1a 3f
       0.8038568 0.75920475 0.84556735 0.60220706
000010 5d 38 3f 3f 4a 71 33 3f 26 b6 42 3f 2f 8b 57 3f
       0.7469538 0.7009474 0.76059186 0.8419675
000020 bd fe 20 3f 78 01 2c 3f e6 b9 4f 3f 9c 69 8b 3f
       0.628887 0.6718974 0.81143034 1.0891604
000030 c4 ed 48 3f 95 bf 51 3f 1e cb 4c 3f 78 95 3a 3f
       0.784878 0.81932956 0.7999743 0.7288432
000040 5f 03 0f 3f ff 76 43 3f 77 16 17 3f 52 96 46 3f
       0.5586452 0.7635345 0.59018654 0.7757312
000050 07 15 3a 3f 08 52 4c 3f 9f 16 1b 3f 54 6b 94 3f
       0.72688335 0.7981267 0.6058139 1.1595254
000060 8f 41 42 3f e6 d1 0c 3f bd 3f 5c 3f e9 e0 50 3f
       0.75881284 0.5500778 0.86034757 0.81593186
000070 86 08 f6 3e b8 21 69 3f 71 18 2e 3f 77 29 2f 3f
       0.48053378 0.91067076 0.68006045 0.68422645
000080 c7 6e 5c 3f 16 b4 47 3f 36 a7 4b 3f 12 af 85 3f
       0.8610653 0.78009164 0.7955202 1.0444052
000090 f2 dc 2c 3f 49 4a 27 3f 34 ba 66 3f c1 b3 80 3f
       0.67524636 0.65347725 0.90127873 1.0054857
0000a0 81 f3 97 3f f9 84 65 3f 0e 71 98 3f ac f7 17 3f
       1.1871186 0.89656025 1.1909502 0.5936229
0000b0 a7 3c 45 3f d0 87 90 3f 4d af 33 3f 20 e0 29 3f
       0.77045673 1.1291447 0.7018936 0.6635761
0000c0 fd 21 6d 3f 2d 1d 7e 3f ce ac 52 3f f4 45 4d 3f
       0.92629987 0.9926327 0.8229493 0.80184865
0000d0 80 c6 44 3f 1a 93 27 3f 96 52 4f 3f 36 2a 82 3f
       0.76865387 0.65458834 0.8098539 1.0169132
0000e0 93 55 38 3f 47 c7 65 3f 20 a2 6f 3f 8d aa 51 3f
       0.72005576 0.897572 0.9360676 0.81900865
0000f0 e8 40 08 3f 2d 14 99 3f df 7e 96 3f 6e e1 55 3f
       0.5322404 1.1959282 1.1757468 0.83547103

bn2.weight f4 [64]
000000 90 93 68 3f 28 43 80 3f 14 29 70 3f 7f 77 8c 3f
       0.9085016 1.0020494 0.9381268 1.0973967
000010 0b 27 67 3f b1 4f 8a 3f 7f 65 6b 3f 51 c5 68 3f
       0.9029395 1.080557 0.91951746 0.9092608
000020 f7 07 6e 3f 49 b3 66 3f 04 59 67 3f a4 91 67 3f
       0.92980903 0.9011732 0.903702 0.90456605
000030 a6 6c 7a 3f 8e 8a 89 3f e1 a6 6b 3f d5 91 89 3f
       0.97822034 1.0745409 0.9205151 1.074763
000040 35 8e 81 3f ab bc 89 3f e5 88 8b 3f ef e2 73 3f
       1.0121523 1.0760702 1.0901152 0.9526815
000050 f2 ef 8b 3f b2 6b 6a 3f 44 1f 8d 3f a3 2c 7b 3f
       1.09326 0.9157058 1.1025167 0.98114985
000060 0c 71 65 3f f4 c7 6b 3f b3 e0 8e 3f f5 b3 8c 3f
       0.8962562 0.9210198 1.1162323 1.0992419
000070 a1 2e 6a 3f ea 3a 68 3f 5e 42 66 3f 7f ce 69 3f
       0.914774 0.90714896 0.8994502 0.91330713
000080 44 67 84 3f e3 ec 61 3f 13 08 8b 3f e0 50 8b 3f
       1.0344014 0.88252085 1.0861839 1.0884056
000090 89 d7 67 3f a0 65 6a 3f c7 67 87 3f 56 6e 76 3f
       0.90563256 0.9156132 1.0578545 0.9626211
0000a0 90 8a 69 3f 68 3c 6c 3f 17 64 8b 3f 47 bc 8d 3f
       0.91227055 0.9227967 1.088992 1.1073083
0000b0 3d 09 81 3f 65 d0 8d 3f 61 1b 68 3f cc 11 64 3f
       1.0080944 1.1079222 0.90666777 0.89089656
0000c0 9f b6 82 3f b4 98 8a 3f a4 cf 68 3f 29 43 83 3f
       1.0211982 1.0827851 0.90941834 1.0254871
0000d0 86 c1 88 3f b7 f6 8a 3f 8d b5 8c 3f 24 7d 76 3f
       1.0684059 1.0856541 1.0992905 0.962847
0000e0 ba 1b 83 3f 6a e2 6c 3f 95 26 8d 3f 3e c1 74 3f
       1.0242836 0.9253298 1.1027399 0.95607364
0000f0 7c a6 66 3f a7 0f 6a 3f 78 08 68 3f 6d de 80 3f
       0.90097785 0.91430134 0.9063792 1.0067879

bn2.bias f4 [64]
000000 a3 64 b1 bd 30 bc 56 bd c9 07 08 bd 6a 2d c7 3d
       -0.08661773 -0.052425563 -0.03321055 0.09725459
000010 f2 8c ac bd 33 c3 be 3d 99 8f ad bd 9b 0d 2b bd
       -0.08425321 0.09314575 -0.08474655 -0.041761022
000020 d6 b4 91 bd 2b 65 b8 bd 44 07 99 bd ea ed b8 bd
       -0.0711457 -0.09003671 -0.07472089 -0.090297535
000030 32 5e 70 bc 58 a5 90 3d 97 77 9c bd 2c 82 be 3c
       -0.014670895 0.07062787 -0.076399975 0.02325543
000040 a5 37 19 bd 53 d8 41 3d 96 5b 52 3d a1 64 c2 bd
       -0.037406582 0.047325443 0.051356874 -0.0949185
000050 48 e3 d4 3d 01 6b ce bd 21 11 df 3d bb 35 1c bd
       0.10394913 -0.10079003 0.10891939 -0.03813718
000060 78 3c d1 bd aa 67 8d bd ee 86 ad 3d 17 96 db 3d
       -0.102166116 -0.06904538 0.084730014 0.10721987
000070 16 86 90 bd 97 45 aa bd cf 61 15 be 87 b8 a0 bd
       -0.07056825 -0.083140545 -0.14588092 -0.07847696
000080 3c 3e a8 3c c2 62 d4 bd 4c 1d d3 3d 69 15 be 3d
       0.020537488 -0.10370399 0.10308322 0.092814274
000090 34 9c b7 bd 29 ea a0 bd d7 e6 50 3d 78 4f 9f bc
       -0.0896534 -0.078571625 0.051001396 -0.019447073
0000a0 30 41 a1 bd 66 49 af bd e4 03 be 3d 25 f0 9f 3d
       -0.07873762 -0.085589215 0.09278086 0.07809476
0000b0 85 da 5f 3c e0 ad fa 3d 55 a4 be bd 8e d3 cd bd
       0.013662939 0.12240195 -0.093086876 -0.100501165
0000c0 84 25 8a bd 6a d1 ab 3d c2 79 aa bd dc 67 81 3d
       -0.06745437 0.08389552 -0.08324005 0.06318638
0000d0 50 ae 9d 3d 79 9c d5 3d e2 f9 eb 3d 73 fd b6 bc
       0.07699263 0.104302354 0.11522271 -0.02233765
0000e0 46 4c 56 3d fa 2c 92 bd 64 77 b2 3d c7 15 d3 3d
       0.052318834 -0.07137485 0.08714178 0.10306888
0000f0 7a d1 ef bd 6b 15 88 bd 5d 0a d7 bd c6 54 a6 bd
       -0.11709876 -0.0664471 -0.105000235 -0.08121638

bn2.running_mean f4 [64]
000000 5d 54 7e 3f 10 07 b1 be 12 b7 fa 3e 34 3f 2c 3e
       0.9934748 -0.345757 0.48967797 0.16820985
000010 dd d7 05 3d 25 b0 19 bf f6 17 05 bf d3 6b 96 be
       0.032676566 -0.600344 -0.51989686 -0.29379138
000020 10 37 a0 be 0b 68 f1 3e ab dd 1f bc 8d bf 35 3d
       -0.3129201 0.4714969 -0.00975744 0.04437213
000030 b6 32 d5 3e d6 9d 17 3f ea 9d dd 3e b6 65 92 3d
       0.41640252 0.59225214 0.4328454 0.07148306
000040 16 d7 de 3e 4b 75 06 3f de 95 55 3f 03 51 44 bf
       0.43523473 0.52522725 0.83431804 -0.76686114
000050 c8 7b 25 bf a5 dd 0e 3f ea 92 fa bd 9a 99 c8 bc
       -0.64642 0.5580695 -0.12235053 -0.024487305
000060 13 22 87 be a3 b5 52 3f 58 62 4c 3f 37 cf 2e 3f
       -0.26393184 0.82308406 0.7983756 0.68284935
000070 48 a6 47 bf fc 7c 31 be 68 d7 a0 be 20 b5 8e 3f
       -0.779881 -0.17332834 -0.31414342 1.1149025
000080 0e 25 fe 3e 93 dc a1 be b3 f8 f5 3e 38 b9 69 3f
       0.49637645 -0.31613597 0.48041305 0.91298246
000090 97 5a 3f 3f 4d b9 44 3f 7e 8f bc 3d ac 5d 5f 3f
       0.74747604 0.76845247 0.092070565 0.87252307
0000a0 6c 6b 97 3f 22 86 8e 3f 93 5e c8 3d b1 8e 2c 3f
       1.1829658 1.1134684 0.097836636 0.6740523
0000b0 65 b2 2d 3f 5c f6 b9 be e6 61 37 bf d0 cf 5b 3f
       0.67850333 -0.3632077 -0.71633756 0.8586397
0000c0 80 46 dc 3d fd 55 81 3f 73 67 b0 3d 9d 26 22 bd
       0.10755634 1.0104367 0.086134814 -0.039587606
0000d0 bb 77 ab be 0e 1a 65 bf 2e 25 74 3c ae 19 95 be
       -0.33489785 -0.8949288 0.014901442 -0.29121155
0000e0 d2 d2 3c 3b a4 f1 32 3f 57 da f4 bb b8 b9 70 be
       0.0028812182 0.69899964 -0.007472317 -0.23508346
0000f0 92 69 3f bf 50 dd cd 3e af 15 11 3e d7 26 ce 3e
       -0.7477046 0.4020791 0.14168428 0.40264007

bn2.running_var f4 [64]
000000 54 2f 92 3e 2c 0c 0a 3f 1a 07 f3 3e 88 46 1e 3f
       0.28551733 0.5392482 0.47466356 0.6182637
000010 bc e7 d3 3e bf 89 e7 3e ef 32 08 3f dc bf 92 3e
       0.41387737 0.4522228 0.5320272 0.28662002
000020 fb 31 58 3f 5a c8 04 3f c9 1e bd 3e 45 89 07 3f
       0.84451264 0.5186821 0.3693755 0.5294383
000030 be 65 b3 3e c9 95 1b 3f 46 02 24 3f 92 2d 44 3f
       0.3503856 0.6077543 0.6406597 0.76632035
000040 00 44 0d 3f 33 da 40 3f 35 c1 b3 3e c8 28 a1 3e
       0.55181885 0.75332946 0.35108343 0.31476426
000050 d6 a3 03 3f 28 2c 9b 3e f7 fc c3 3e a2 48 c7 3e
       0.5142187 0.30307126 0.38278934 0.38922602
000060 6d 83 63 3f ed 89 0b 3f c1 cc 7f 3f 99 f2 36 3f
       0.88872415 0.54507333 0.99921805 0.71463925
000070 cc 2a 60 3f dc ba 2b 3f 36 29 28 3f 0d 06 1d 3f
       0.875653 0.67082 0.6568788 0.6133736
000080 1d 0b 27 3f b2 57 cf 3e ad d1 f9 3e 38 26 fd 3e
       0.6525133 0.40496594 0.48792782 0.4944322
000090 d3 c6 2f 3f cf d9 72 3e 44 2a 0d 3f 17 01 21 3f
       0.68662757 0.237159 0.5514262 0.6289229
0000a0 15 59 13 3f 12 91 ea 3e 1a 97 01 3f 61 4d 1a 3f
       0.57557803 0.45813805 0.5062119 0.6027432
0000b0 74 93 58 3f eb 9e 5d 3e 6b 98 21 3f f7 dd 99 3e
       0.84599996 0.21642654 0.63123196 0.30052158
0000c0 66 54 c8 3e 77 d6 36 3f ba 4d 08 3f fa 73 20 3f
       0.3912689 0.71421 0.532436 0.62676966
0000d0 ed e7 1e 3f 11 46 3d 3f fa bb 34 3f 1c 6a 8f 3e
       0.6207264 0.7393504 0.7059933 0.28010643
0000e0 ed 7a d8 3e b6 bd 25 3f ea ff 17 3f d4 89 04 3f
       0.42281285 0.647426 0.5937487 0.5177281
0000f0 b3 94 52 3f df 7b 2c 3f 8f 20 a8 3e 07 39 ff 3e
       0.82258147 0.6737651 0.3283734 0.49848196

classifier.weight f4 [10, 64]
000000 46 c9 ac 3d e1 19 29 3e 5c b6 bb 3c 45 91 99 bc
       0.08436827 0.16513778 0.022914104 -0.018746028
000010 67 e6 4f 3e d2 64 45 3c 04 a1 59 be be 1f 21 be
       0.20302735 0.012047963 -0.21252829 -0.15734765
000020 4b 36 69 3e 26 80 8c bd fc ce 05 be 28 9b 2b 3e
       0.22774617 -0.0686038 -0.1306724 0.16758406
000030 cd d5 c4 bc a3 2d 0c 3c 2f 19 45 3c f0 d6 03 be
       -0.02402773 0.0085558025 0.01202993 -0.12874961
000040 16 ac 5e bd b5 68 f4 bd 38 71 0e 3e d2 57 28 be
       -0.054363333 -0.11934034 0.13910377 -0.16439751
000050 c5 71 f4 3c 12 77 96 bd fe 50 3d be cf f9 04 be
       0.029839406 -0.073469296 -0.18487927 -0.1298592
000060 f1 32 b4 bd 9f c5 f0 bd 77 3a 29 3e 5e f8 a4 bd
       -0.08798779 -0.11756443 0.16526209 -0.08055185
000070 83 86 0f 3e e3 51 57 be 71 f7 22 3d f8 e5 28 bd
       0.14016156 -0.21027331 0.03978676 -0.04123494
000080 28 3e 45 be 2e f0 13 3e 17 aa 0c be 47 66 0a 3d
       -0.19261992 0.1444709 -0.13736759 0.033788946
000090 b0 d9 26 bd 96 c7 16 3e 4e 1b 76 3e ec 1f 52 be
       -0.040734947 0.14724573 0.24033853 -0.2051999
0000a0 79 02 ec bd e3 ef 36 be 45 dc d5 3d 68 dc a1 bd
       -0.11523909 -0.17864947 0.10442404 -0.07903367
0000b0 9c 8f b2 bc 42 67 65 bd 20 97 93 3c 05 54 b3 3d
       -0.021796994 -0.056006677 0.018016398 0.0875626
0000c0 58 dc 04 bd c2 4b 9a 3c c4 a7 4c bd 83 ae a8 3c
       -0.0324367 0.018834952 -0.04996468 0.020591026
0000d0 a3 f4 6e bc 5f 7f 5e bd 41 df 03 be 25 de 8c bc
       -0.014584693 -0.05432069 -0.12878133 -0.01719577
0000e0 eb 0f 98 3b 08 12 3b bd 7b 03 55 be 36 03 29 3e
       0.0046405694 -0.045671493 -0.20802109 0.16505131
0000f0 65 9d 80 3d de 9e 9c bd 23 3b 12 be 98 50 16 be
       0.062800206 -0.07647489 -0.14280371 -0.14679182
000100 a6 ae 94 bd e4 c3 fb 3c b3 13 4b be 9a 29 2e be
       -0.07259874 0.030733056 -0.19831733 -0.17008057
000110 7d 50 6e 3e 5c 2b 69 3e 67 c6 47 be 1b a6 a9 3d
       0.23272891 0.22770447 -0.19509278 0.08283635
000120 72 6a 05 3e 3a ab 7d 3c ec c3 0f 3e fe bf 18 3e
       0.13028887 0.015482718 0.14039582 0.14916989
000130 11 7f 22 3c b6 44 08 3b 22 05 11 be 10 30 78 bd
       0.00991799 0.0020792908 -0.14162114 -0.06059271
000140 5a 02 75 bd 5c 9c ee bc 6f 3e 0e bd f6 79 c4 3d
       -0.059816696 -0.029127292 -0.03472751 0.09593575
000150 3c fd 3c 3e 2c 8b 3d bd f4 24 27 be ed c0 73 bb
       0.18455976 -0.046275303 -0.1632269 -0.003719385
000160 a1 13 08 3d ab d7 00 3e 45 2d 1e 3d c7 ab b9 bd
       0.033221845 0.12582271 0.03861739 -0.09065967
000170 ac f6 7d 3e 02 02 d8 bc c3 70 8f bd f4 ae 57 bd
       0.24801129 -0.026368145 -0.070039295 -0.052657083
000180 2a 07 1b be c1 73 09 3d e2 fb 14 bd b4 59 b4 3d
       -0.15139452 0.033557657 -0.036373027 0.08806172
000190 97 5b fd 3d 17 57 16 3d 0a 2e 1d 3e b8 20 45 be
       0.12370985 0.03670415 0.15349594 -0.19250762
0001a0 fc 4f 15 be ef 4b e7 bd 4e 7c 2b be d5 d9 b4 bc
       -0.14581293 -0.1129378 -0.16746637 -0.022076527
0001b0 97 9e bd bd e6 50 31 39 8e 63 5a 3d ef b5 f9 bc
       -0.09258764 0.00016910172 0.0533176 -0.03048226
0001c0 c8 d8 bd bc 79 7e a2 bc 33 b4 13 be 13 d3 f0 ba
       -0.023174658 -0.019835697 -0.1442421 -0.0018373452
0001d0 6d fc 4a bc 8f 6b a6 3d 0b bc e3 3d 97 e6 34 3e
       -0.012389285 0.08125984 0.11119851 0.17666088
0001e0 d1 04 e7 3c bc f7 41 3e b8 85 a8 bd 99 b1 c1 3d
       0.028200539 0.1894216 -0.0822863 0.09457702
0001f0 c6 5f 65 3d 78 25 89 3d 58 66 bb bd 92 0d ec bc
       0.05599954 0.066966 -0.0915038 -0.028815065
000200 15 ca 10 3d 80 ae 0a 3c 28 57 22 3e 98 54 9e 3d
       0.03534897 0.008464456 0.1585356 0.07730979
000210 c6 9f 1d be 76 2f f2 bd 31 a3 b5 3c 80 0d 10 be
       -0.1539298 -0.11825459 0.022172542 -0.1406765
000220 44 39 e4 bc 6c 19 cf 3d 46 7a 53 3d 33 38 47 be
       -0.027859338 0.10112271 0.05163028 -0.19455032
000230 c0 55 82 bc 04 4b ad bd 6c b6 f9 3c 00 56 2b 3b
       -0.01591003 -0.08461574 0.030482493 0.002614379
000240 11 56 b4 3d 57 e8 d9 3c 0f 56 52 3e 90 c3 95 3d
       0.08805478 0.026600046 0.20540641 0.07312691
000250 78 4f 3f be 75 b1 08 3e 2f 70 91 bc f3 d8 14 3d
       -0.18682659 0.13348944 -0.017753689 0.03633971
000260 ef bf 1e 3e 6f 8c 07 3c 55 cf 81 3c 70 cf d1 3c
       0.15502904 0.008273228 0.015845934 0.02561161
000270 0a 4a 53 be cc f5 9b bc 14 75 c7 3d c3 8d c7 bd
       -0.20633712 -0.019038104 0.09739128 -0.09743836
000280 95 e8 3f bc 67 59 f5 bc c0 2e 0e be 27 53 0a be
       -0.011713167 -0.029949857 -0.13885021 -0.13508283
000290 47 19 f6 3c aa 6d bf 3d 34 31 56 be ba 66 df 3b
       0.03004135 0.09347089 -0.20917207 0.006817666
0002a0 cb eb 8c bc 9d aa 6c 3d 9e 02 88 bd 98 a4 33 3e
       -0.017202279 0.057779897 -0.06641124 0.17543256
0002b0 cf d5 57 3e f9 3c bd 3d af 07 36 bd bf 7c 24 bd
       0.21077655 0.09240145 -0.04444092 -0.04015803
0002c0 da 2a fe 3c e2 ab 2b 3d 3c 18 18 3e dc d1 40 be
       0.031026293 0.041911967 0.14852995 -0.18830055
0002d0 cf fc e8 bd e2 97 d1 3d 5b ef f9 3d 76 08 8c 3d
       -0.113763444 0.102340475 0.122038566 0.06837551
0002e0 d8 38 f0 bd f8 e1 db bd 00 7c 1e 3c 56 f9 3a be
       -0.11729592 -0.107364595 0.009673119 -0.18259177
0002f0 a5 04 30 bd 84 d1 95 3d 4e d6 af bd 11 53 82 3d
       -0.04297318 0.073153526 -0.08585797 0.063635
000300 32 f5 70 bd a4 f0 f4 bd 07 cb 9c 3c da bb 48 3e
       -0.058827586 -0.11959961 0.01913978 0.1960291
000310 be de 8c bd 13 30 b7 bc 26 5e 1a be 70 1c f7 3d
       -0.06878422 -0.02236179 -0.15074977 0.12065971
000320 96 65 7d bd 18 77 9b 3d 6f 4f 41 3e a0 ad 05 be
       -0.061864458 0.07591075 0.18877958 -0.13054514
000330 99 51 ca ba 1b 78 f2 3d 91 4d b2 bc 76 09 12 3e
       -0.0015435695 0.118393146 -0.021765502 0.14261422
000340 05 fe 89 3d 1f 2a 3b 3d f1 1c 91 3c b1 fa c1 bd
       0.067379035 0.045694467 0.017713996 -0.09471644
000350 a1 8c 18 bd f1 82 f1 3d 31 14 85 3d 24 ec 96 3d
       -0.03724349 0.11792553 0.06497992 0.07369259
000360 02 54 2c be 26 72 86 3d a7 dd d0 3d ea ff 40 3e
       -0.16828921 0.06564741 0.10198527 0.18847623
000370 d6 98 49 be b4 5b 67 bd 97 84 10 be 28 8e 89 3d
       -0.19687209 -0.05648394 -0.14113079 0.06716567
000380 7b da 20 3e a8 ab 08 be dd 92 53 3e df 11 f1 3b
       0.15708344 -0.13346732 0.20661493 0.0073568667
000390 6d 02 00 3e 76 cf 92 3b 1d 13 02 be 5c 3c 9a 3d
       0.12500925 0.0044802977 -0.12702604 0.07531044
0003a0 b9 c5 42 3e 90 d1 8c 3d 30 df e6 bd b2 10 19 3e
       0.19020738 0.068759084 -0.112730384 0.14947775
0003b0 f2 d5 3b 3c 65 95 3e 3e f7 c7 56 be d8 14 82 3d
       0.011464583 0.18611677 -0.20974718 0.06351632
0003c0 c5 83 ca bd c3 be 12 3c c1 5a 85 3d a7 c0 36 be
       -0.09888414 0.008956614 0.065114506 -0.17846929
0003d0 07 b0 0c 3e 5b cb 70 3d a8 fb e8 3c a0 01 97 3d
       0.13739024 0.058787685 0.028440312 0.07373357
0003e0 24 e3 87 bd 31 a6 8f 3d 1a 3a 56 3e bd e3 ec bc
       -0.066351205 0.0701412 0.20920601 -0.028917188
0003f0 a6 2d 58 be f6 77 0a 3e a4 95 61 bc ec ee 69 bc
       -0.21111163 0.13522324 -0.013768587 -0.014278155

classifier.bias f4 [10]
000000 56 23 11 3d 6a 33 8e 3c 7a 28 b6 3c 4f b9 9c 3d
       0.03543409 0.0173585 0.022236098 0.07652532
000010 65 49 e4 bb fa 81 d2 3c 65 9d 97 bc c0 e4 0b 3d
       -0.006966757 0.025696743 -0.018507669 0.0341537
000020 a5 c9 5e bc 35 39 17 3c
       -0.0135978805 0.009229948
