checkpoints/checkpoint_epoch_45.pt (torch, 547720 bytes, 37 tensors)

prototypes f4 [100, 64]
0.1280997 -0.2717677 -0.11683551 2.2167153 -0.6156293 0.7116941 0.20621407 -0.864158
0.061327174 2.941226 -1.015789 -0.9522741 -0.55678374 -1.0176262 -0.66136396 1.6710919
-0.75829977 0.40862355 0.97413826 1.5560448 -2.1736639 -0.20163232 -0.43967578 0.13132407
0.27561855 0.2731955 0.23900169 0.74970806 -0.48701754 0.5736451 -0.38976023 0.28431347
-1.8735082 1.5096304 -0.34911048 0.24526604 -0.2549028 -0.8429906 0.9062384 -1.9196533
-0.49114618 0.06724873 1.1577445 0.42191526 1.2316414 -0.18921514 -0.23120816 0.23977947
1.9066582 -0.47370875 0.24518506 -0.5956629 -0.6941483 -0.83253 -0.6001374 0.54291606
1.2736607 -0.25376073 0.087495044 -1.9112124 -0.23513432 0.8919195 -0.28126106 1.3723127
-0.06638642 1.795853 -1.136217 0.16311234 -1.3086574 -0.9170734 -0.41264418 0.055445448
-0.4570596 -0.14342041 0.13111132 0.9969861 0.027821582 0.86668056 -0.99596417 -0.26652053
0.51910317 0.79000247 -0.8281898 -0.5428368 0.33738846 -2.0051425 0.86179745 0.45973468
-1.2026235 1.7860297 -1.5182698 -0.22345546 1.6545157 0.46600986 0.6261089 -0.51715106
1.030107 -1.0491933 -1.7904078 -0.15421058 1.3805513 -0.9776457 -0.392904 -0.3985082
-1.1609807 -1.2342771 -0.020833673 -0.42288113 -1.2155472 0.12645864 0.36134714 1.8835435
-0.103269756 -0.2732799 -1.861682 -1.0610948 -0.06783611 1.0994643 -0.11243173 0.5409014
-1.3022351 0.06417774 -1.3387113 -0.67293906 -1.049154 -0.8692053 -1.9553387 1.1091818
0.45670724 -0.68173486 0.5922406 -1.8116087 0.4865318 0.5471295 -0.0004371117 0.6307191
-1.4547769 0.00602675 -0.66607046 0.14556412 1.5382357 0.02923437 -1.8588232 -0.5261354
0.7734664 -1.8339539 1.1409298 0.0468265 0.12658536 -0.057607997 -0.8887304 3.1944554
1.3577632 -0.3131283 0.3290222 -1.1287633 -0.02033345 -0.8876566 1.1992772 -1.6110747
1.0056971 0.088483915 -2.1011336 0.87582666 0.032268852 -0.75656414 -1.044579 -2.010691
-0.010944468 -0.94171035 1.0511382 -0.021637583 -1.260899 -0.39019597 -0.36714485 2.0172455
0.61521035 0.34242597 -0.55714035 -1.8252208 -0.64119726 -0.11404235 -0.9190361 -0.5551056
-0.68274647 -0.9409719 -0.35096338 -1.0657 -0.61062205 0.82872826 0.036286812 0.96525985
-0.10158519 1.3244585 0.23138873 1.2280204 0.32537475 2.078111 -0.4880388 0.26724866
3.4430356 1.9123294 -3.0310397 0.37294 0.36690822 0.35325518 0.8867906 0.22226824
-1.4972051 -1.2436228 -1.7571933 0.37804353 0.70146376 -0.2232854 -0.28045258 0.47616166
0.60159713 -0.9972768 -0.95639074 -0.42671847 1.3668526 0.0532626 1.1025618 -0.5590924
0.88321424 1.8940806 -0.22837369 -1.1363269 -0.4970806 0.7727495 0.073533565 0.7373297
1.5454148 -1.2987945 0.40243196 0.74715555 -0.64147866 -2.1350849 0.30660975 0.53063476
-1.818321 -0.6613983 -0.90009993 0.45156163 -0.0066426294 0.43136054 0.62765926 -0.097838216
0.6735278 -0.95045245 -0.40050957 1.0097476 1.321925 0.5167233 -1.5248047 -1.2341214
00000000: 912c 033e 2325 8bbe 7547 efbd aade 0d40
00000010: e299 1dbf 9631 363f c829 533e 7539 5dbf
00000020: 3432 7b3d 0c3d 3c40 6005 82bf 3cc8 73bf
00000030: 6189 0ebf 9341 82bf 264f 29bf 57e6 d53f
00000040: ef1f 42bf 1b37 d13e 2061 793f 7a2c c73f
00000050: 4f1d 0bc0 b478 4ebe 2f1d e1be d179 063e
00000060: e01d 8d3e 48e0 8b3e dcbc 743e deec 3f3f
00000070: 5d5a f9be 68da 123f a78e c7be 8991 913e
00000080: 1ecf efbf 923b c13f 9cbe b2be 0527 7b3e
00000090: 9f82 82be 3bce 57bf 3dff 673f 33b7 f5bf
000000a0: 8377 fbbe b4b9 893d f930 943f 4705 d83e
000000b0: 6da6 9d3f 9dc1 41be d5c1 6cbe c088 753e
000000c0: 600d f43f f489 f2be cb11 7b3e 5d7d 18bf
000000d0: b4b3 31bf b020 55bf 9ba2 19bf 8cfc 0a3f
000000e0: 5007 a33f edec 81be 9a30 b33d 9ca2 f4bf
000000f0: 0dc7 70be d654 643f 7301 90be f1a7 af3f
00000100: 9af5 87bd 83de e53f 8f6f 91bf ec06 273e
00000110: 1682 a7bf 53c5 6abf 1946 d3be c41a 633d
00000120: b703 eabe cddc 12be 0c42 063e 7b3a 7f3f
00000130: 16ea e33c c7de 5d3f 82f7 7ebf 6175 88be
00000140: f2e3 043f 9a3d 4a3f 3f04 54bf 5af7 0abf
00000150: 2ebe ac3e 4154 00c0 c29e 5c3f 5862 eb3e
00000160: 91ef 99bf 9f9c e43f aa56 c2bf 82d1 64be
00000170: 2cc7 d33f d898 ee3e ac48 203f 0364 04bf
00000180: 8cda 833f f74b 86bf 152c e5bf 61e9 1dbe
00000190: e8b5 b03f fd46 7abf b72a c9be 4409 ccbe
000001a0: 049b 94bf cbfc 9dbf 61ab aabc e083 d8be
000001b0: 0d97 9bbf 607e 013e 7e02 b93e f417 f13f
000001c0: 187f d3bd 58eb 8bbe 994b eebf f4d1 87bf
000001d0: a9ed 8abd 3fbb 8c3f 9b42 e6bd 8478 0a3f
000001e0: a4af a6bf 9e6f 833d e45a abbf bc45 2cbf
000001f0: ae4a 86bf 3d84 5ebf 8a48 fabf abf9 8d3f
00000200: 88d5 e93e 2d86 2ebf 149d 173f cbe2 e7bf
00000210: b21a f93e ae10 0c3f 242c e5b9 cf76 213f
00000220: 2136 babf 0b7c c53b 9883 2abf c30e 153e
00000230: e8e4 c43f eb7c ef3c ebed edbf cfb0 06bf
00000240: e501 463f 00bf eabf fd09 923f 25cd 3f3d
00000250: 989f 013e 5df6 6bbd d683 63bf f571 4c40
00000260: 2fcb ad3f 5a52 a0be 9975 a83e 517b 90bf
00000270: 5692 a6bc 773d 63bf ea81 993f b237 cebf
00000280: afba 803f 0e37 b53d f978 06c0 2d36 603f
00000290: 582c 043d 30ae 41bf c4b4 85bf 29af 00c0
000002a0: 6d50 33bc ee13 71bf b28b 863f 4d41 b1bc
000002b0: 2365 a1bf c4c7 c7be 69fa bbbe 8d1a 0140
000002c0: 6d7e 1d3f 7552 af3e c0a0 0ebf d6a0 e9bf
000002d0: 8125 24bf 098f e9bd f345 6bbf 671b 0ebf
000002e0: 79c8 2ebf 89e3 70bf 79b1 b3be dc68 88bf
000002f0: ba51 1cbf 8927 543f 7ba1 143d 451b 773f
00000300: e50b d0bd db87 a93f 2bf1 6c3e c62f 9d3f
00000310: 8597 a63e c5ff 0440 39e0 f9be d1d4 883e
00000320: b25a 5c40 36c7 f43f 8efc 41c0 fef1 be3e
00000330: 65db bb3e dddd b43e b504 633f 499a 633e
00000340: 6ba4 bfbf 082f 9fbf b6eb e0bf ec8e c13e
00000350: 2193 333f eea4 64be 7b97 8fbe 76cb f33e
00000360: 4502 1a3f 884d 7fbf 06d6 74bf d87a dabe
00000370: 07f5 ae3f e229 5a3d bf20 8d3f ae20 0fbf
00000380: 541a 623f 3c71 f23f cbda 69be 2973 91bf
00000390: 5981 febe e9d2 453f c498 963d a4c1 3c3f
000003a0: 27d0 c53f e63e a6bf 900b ce3e 9645 3f3f
000003b0: f237 24bf 3ba5 08c0 f4fb 9c3e aed7 073f
000003c0: bebe e8bf 6651 29bf f36c 66bf 1633 e73e
000003d0: 6aaa d9bb 4adb dc3e 47ae 203f 675f c8bd
000003e0: 516c 2c3f da50 73bf 970f cdbe 693f 813f
000003f0: d734 a93f fa47 043f cd2c c3bf b1f7 9dbf

conv1.bias f4 [64]
-3.9687575e-06 -0.00011192497 0.00011206509 0.0002225954 -3.10666e-05 4.1521587e-05 2.938349e-05 -6.659264e-05
-6.598634e-05 0.00017602937 -0.0002520937 -0.00029843554 -0.00021935001 0.00032880422 -0.00012293624 3.815002e-05
-0.00012552741 -5.0900795e-05 -7.773e-05 0.00022891043 -0.0001714303 5.584509e-05 -1.2899003e-05 -5.2538726e-06
6.908466e-05 -3.331072e-05 6.9146074e-07 4.851935e-05 0.00023617155 -4.793436e-05 0.00010774331 -3.0310668e-05
-8.3539744e-05 -1.1775694e-05 4.617891e-05 -9.2919945e-05 -7.721079e-05 0.0003912183 -6.9623457e-07 7.439975e-05
-9.148592e-05 2.637577e-05 2.099193e-06 -8.664309e-05 -6.7376895e-05 8.842738e-06 -4.6365752e-05 7.2879746e-05
-6.2034764e-05 -2.6004724e-05 8.9774876e-05 -0.00010089158 1.8727245e-05 2.8589791e-05 -0.0001985288 3.769773e-05
-0.000119781886 8.1884245e-05 4.6488818e-05 1.1342488e-05 -0.00023084422 -7.2670766e-05 -4.4274988e-05 -8.9442474e-05
00000000: 5e2b 85b6 43b9 eab8 7d04 eb38 7f68 6939
00000010: 824d 02b8 7727 2e38 907c f637 a7a7 8bb8
00000020: 2662 8ab8 8694 3839 722b 84b9 5777 9cb9
00000030: 5201 66b9 5b63 ac39 72e8 00b9 4603 2038
00000040: 02a0 03b9 507e 55b8 fa02 a3b8 ad07 7039
00000050: f9c1 33b9 353b 6a38 cc68 58b7 6c4a b0b6
00000060: 8be1 9038 1db7 0bb8 d29c 3935 4181 4b38
00000070: d1a4 7739 210d 49b8 40f4 e138 aa43 feb7
00000080: 0f32 afb8 3890 45b7 3ab0 4138 04de c2b8
00000090: 3aec a1b8 6e1c cd39 e0e4 3ab5 1007 9c38
000000a0: 21dc bfb8 8941 dd37 dcdf 0c36 28b4 b5b8
000000b0: b24c 8db8 455b 1437 d978 42b8 04d7 9838
000000c0: a918 82b8 b824 dab7 8545 bc38 c195 d3b8
000000d0: 7418 9d37 1cd4 ef37 2b2c 50b9 a11d 1e38
000000e0: 6933 fbb8 45b9 ab38 fdfc 4238 9d4b 3e37
000000f0: c60e 72b9 d266 98b8 e8b3 39b8 1093 bbb8

conv1.lin.weight f4 [64, 512]
-0.021471985 -0.023349116 -0.04866592 -0.042900003 -0.07469685 -0.09473233 0.034053534 -0.028713757
0.023714323 0.04118538 -0.026098788 0.018465266 -0.040835448 -0.10185896 0.009306008 -0.0695484
-0.088052325 -0.03741344 -0.031965725 0.0486514 -0.04217724 0.069541246 0.0054285806 0.0006016379
0.008221953 -0.05896885 -0.10567308 -0.09058292 -0.028851703 0.012062678 0.03042586 -0.0076051583
0.10335818 0.01974171 0.053785007 -0.016622247 -0.048168946 -0.034732778 0.096173845 0.055824697
0.01321356 -0.04082632 -0.015829923 0.011989074 0.07975491 -0.009718078 -0.08830125 0.025123186
-0.050443217 -0.024801685 -0.091224805 0.04717188 0.07355099 -0.0029512928 0.05039791 -0.07651186
-0.06500486 0.047667984 -0.051352724 -0.06903864 0.059931524 -0.110856034 -0.014141251 -0.015536284
0.057659317 0.03922418 -0.04220269 -0.039414868 0.06963783 0.045849495 0.004787709 -0.0056590424
0.035522114 -0.009848764 -0.06598326 -0.023531305 0.03610574 0.03732917 -0.07776797 -0.0375719
-0.08638069 -0.007972294 0.00754102 -0.021034677 -0.022925735 0.015555397 0.10633908 0.0067413324
0.030287746 -0.00483348 0.040414706 -0.110949725 0.06498754 -0.03362368 -0.061477903 -0.056130692
0.09459265 -0.0022692266 0.053391766 0.072560236 0.09073059 0.007499239 0.022533698 0.09501263
0.09766644 0.055362742 0.057308022 0.036251992 -0.034571856 0.032203063 0.014602554 0.04202251
-0.065922126 0.03747029 -0.04992856 -0.018268554 -0.012391396 0.09128654 0.081319936 -0.06841948
-0.045804057 0.07320108 -0.028728737 -0.049674015 0.05318387 0.08935462 -0.055525247 -0.030787766
0.10687772 -0.009750943 -0.0766808 0.0501655 0.077963345 -0.06864356 -0.039895795 0.012555417
-0.08781153 -0.022896377 -0.00095781696 0.031013243 -0.06427648 -0.013392562 -0.047468282 -0.05626514
0.0032301953 -0.022440137 0.037104 -0.012346536 0.095553525 -0.025372162 0.08204229 -0.080763906
0.060235202 0.039498232 0.0570062 0.07458593 0.037508152 -0.08622646 -0.017581744 0.09923076
0.03792917 -0.060083475 0.021639055 0.02232423 0.10017104 0.09011859 -0.04572683 0.02749414
-0.003075001 -0.045039065 0.08418305 -0.04578253 0.060722712 -0.0163546 0.007875058 0.03775394
-0.08003585 -0.038604718 -0.09509543 5.3835465e-05 0.06286475 -0.08867767 -0.03071522 -0.02192009
0.018737173 0.056451004 0.09357289 -0.01301741 -0.033905476 0.09770774 -0.034228377 0.024329038
-0.0065155397 0.06226539 0.09329612 -0.09306279 0.04928036 -0.06883826 0.028790941 -0.017280146
-0.0053737974 -0.0284646 -0.0870931 0.024756154 -0.017289689 -0.029146424 0.09405564 -0.018006908
-0.030907527 -0.04683847 0.047634132 0.005234072 0.0037420425 -0.057930555 -0.099063866 -0.091650136
-0.020637797 0.057200193 0.07711062 -0.025974203 0.08639267 -0.096183494 -0.06021186 0.025099784
-0.010222577 -0.07574124 0.017487383 -0.035754643 0.048281923 0.08325322 -5.4953776e-05 -0.063486144
-0.043718707 0.052363224 -0.01682779 -0.024561595 0.007932124 -0.08937006 -0.11548842 -0.020338839
0.07736298 0.021514349 0.06369445 -0.106496125 -0.04513547 0.0162279 -0.04019158 -0.10268469
0.068037905 -0.051387858 -0.09036203 0.03848465 -0.10881242 0.10760011 0.023951124 0.040311776
00000000: 04e6 afbc a546 bfbc ea55 47bd eab7 2fbd
00000010: a9fa 98bd 0603 c2bd b87b 0b3d 1d39 ebbc
00000020: 8a44 c23c 00b2 283d 20cd d5bc 7844 973c
00000030: 1243 27bd 6e9b d0bd 3a78 183c 646f 8ebd
00000040: c754 b4bd d63e 19bd 7eee 02bd b146 473d
00000050: 0bc2 2cbd a46b 8e3d 3ce2 b13b 3cb7 1d3a
00000060: 5fb5 063c 5289 71bd 216b d8bd 8a83 b9bd
00000070: 685a ecbc 8aa2 453c a73f f93c b134 f9bb
00000080: 74ad d33d 5eb9 a13c ab4d 5c3d 612b 88bc
00000090: cd4c 45bd f543 0ebd cbf6 c43d 70a8 643d
000000a0: b07d 583c 8039 27bd c1ad 81bc d26d 443c
000000b0: 8b56 a33d 9338 1fbc 49d7 b4bd 24cf cd3c
000000c0: 8c9d 4ebd e72c cbbc 12d4 babd 4d37 413d
000000d0: e7a1 963d 7a6a 41bb 0a6e 4e3d 40b2 9cbd
000000e0: 4521 85bd 813f 433d 3c57 52bd 2164 8dbd
000000f0: c27a 753d 7d08 e3bd b5b0 67bc e68b 7ebc
00000100: 2d2c 6c3d 89a9 203d badc 2cbd 7c71 21bd
00000110: 479e 8e3d aecc 3b3d 37e2 9c3b 7d6f b9bb
00000120: a37f 113d b65c 21bc 3b22 87bd b9c4 c0bc
00000130: 9de3 133d 79e6 183d d044 9fbd fee4 19bd
00000140: 5ce8 b0bd 3a9e 02bc a91a f73b ea50 acbc
00000150: c0ce bbbc 10dc 7e3c 4ec8 d93d 65e6 dc3b
00000160: 021e f83c 2b62 9ebb e489 253d 9c39 e3bd
00000170: 3018 853d fcb8 09bd 41d0 7bbd 4ce9 65bd
00000180: cbb9 c13d 4eb7 14bb 53b1 5a3d 769a 943d
00000190: f6d0 b93d 2dbc f53b 9798 b83c fb95 c23d
000001a0: 5805 c83d 0bc4 623d d1bb 6a3d f87c 143d
000001b0: 389b 0dbd 5ce7 033d 8d3f 6f3c cc1f 2c3d
000001c0: 2e02 87bd 727a 193d e481 4cbd efa7 95bc
000001d0: 4805 4bbc 70f4 ba3d 118b a63d 831f 8cbd
000001e0: 099d 3bbd 73ea 953d 8758 ebbc fb76 4bbd
000001f0: 54d7 593d 8eff b63d 716e 63bd a036 fcbc
00000200: b5e2 da3d 6bc2 1fbc d30a 9dbd 577a 4d3d
00000210: 3fab 9f3d ff94 8cbd c669 23bd 3cb5 4d3c
00000220: 88d6 b3bd 2f91 bbbc 0216 7bba 7c0f fe3c
00000230: 63a3 83bd 7a6c 5bbc 1a6e 42bd 4776 66bd
00000240: afb1 533b 61d4 b7bc 5dfa 173d 2049 4abc
00000250: 91b1 c33d 48d9 cfbc ca05 a83d 8c67 a5bd
00000260: 30b9 763d e6c8 213d 557f 693d 82c0 983d
00000270: 26a2 193d 8097 b0bd 9707 90bc 7f39 cb3d
00000280: 9e5b 1b3d 171a 76bd 6344 b13c 4ee1 b63c
00000290: 7926 cd3d 1890 b83d 0e4c 3bbd 643b e13c
000002a0: f585 49bb e27a 38bd 2a68 ac3d 7686 3bbd
000002b0: 61b8 783d 15fa 85bc 6306 013c e0a3 1a3d
000002c0: d6e9 a3bd fb1f 1ebd 65c1 c2bd 64cd 6138
000002d0: 3cbf 803d a39c b5bd 7c9e fbbc c391 b3bc
000002e0: b37e 993c 2b39 673d 25a3 bf3d fa46 55bc
000002f0: 78e0 0abd ff1a c83d 0e33 0cbd b14d c73c
00000300: 4f80 d5bb fe09 7f3d 0912 bf3d b497 bebd
00000310: 34da 493d 13fb 8cbd fbda eb3c 188f 8dbc
00000320: ae16 b0bb 982e e9bc de5d b2bd 6bcd ca3c
00000330: 1ba3 8dbc 7bc4 eebc 3ea0 c03d 3983 93bc
00000340: c831 fdbc b2d9 3fbd 021c 433d 9482 ab3b
00000350: 0e3d 753b 9748 6dbd ffe1 cabd 11b3 bbbd
00000360: 9910 a9bc c04a 6a3d 2cec 9d3d dac7 d4bc
00000370: a4ee b03d dafb c4bd b6a0 76bd 109e cd3c
00000380: 987c 27bc 391e 9bbd b341 8f3c 7673 12bd
00000390: 44c3 453d aa80 aa3d 2b7e 66b8 0605 82bd
000003a0: 6312 33bd d27a 563d 6fda 89bc 6635 c9bc
000003b0: bdf5 013c a607 b7bd 3185 ecbd a39d a6bc
000003c0: 7b70 9e3d dc3e b03c 3c72 823d a41a dabd
000003d0: f8df 38bd 5ff0 843c ed9f 24bd 5a4c d2bd
000003e0: 7557 8b3d 137c 52bd ba0f b9bd 15a2 1d3d
000003f0: 0cd9 debd 725d dc3d 2635 c43c f61d 253d

conv2.bias f4 [64]
-0.00052829745 7.228585e-05 -3.0192894e-05 0.0007599039 2.4562669e-06 -0.00017070948 0.0004329724 -1.28076235e-05
6.161933e-05 -0.00021703691 -7.454631e-05 -3.82766e-05 9.76049e-06 1.890063e-05 -0.00011868157 5.7324316e-05
3.7238216e-05 -0.0001933656 0.00013098144 -3.4302461e-06 3.6740646e-05 -3.0443785e-05 0.00010326074 -6.5813714e-05
0.00016764269 0.00012733268 0.0005354369 2.223097e-06 0.0003742785 3.09264e-05 0.0006227319 0.00023398518
6.2629704e-05 -9.35301e-05 0.0007004475 0.00022705454 0.00016510203 -0.00021532098 -7.0163405e-05 -0.00012653328
-0.00014775594 -0.00024940795 -6.675634e-05 5.6775254e-05 -2.8175791e-05 3.2488646e-05 3.728523e-05 0.00039413734
-5.5407534e-05 0.00027156048 -6.5364375e-06 4.192911e-05 0.00019619142 -0.00023535613 8.8389264e-05 -6.800553e-05
-6.258099e-06 -7.1534145e-05 -4.453244e-05 9.595044e-05 -0.00018451699 -4.967082e-05 1.3300423e-05 -6.21359e-05
00000000: 717d 0aba 2c98 9738 bf46 fdb7 4a34 473a
00000010: 58d6 2436 7a00 33b9 9200 e339 53e0 56b7
00000020: a039 8138 6794 63b9 bf55 9cb8 308b 20b8
00000030: fcc0 2337 cb8c 9e37 afe4 f8b8 846f 7038
00000040: 3b30 1c38 2fc2 4ab9 1058 0939 2e33 66b6
00000050: f819 1a38 8861 ffb7 b08d d838 7805 8ab8
00000060: 3ec9 2f39 9b84 0539 905c 0c3a 8430 1536
00000070: cf3a c439 f8b6 0138 d53e 233a eb59 7539
00000080: 1158 8338 9725 c4b8 3c9e 373a 7d15 6e39
00000090: 3d1f 2d39 c9c7 61b9 b124 93b8 05ae 04b9
000000a0: efee 1ab9 f8c2 82b9 8aff 8bb8 f721 6e38
000000b0: 0d5b ecb7 6b44 0838 b662 1c38 38a4 ce39
000000c0: 6365 68b8 3b60 8e39 9253 dbb6 0add 2f38
000000d0: bcb8 4d39 eec9 76b9 a05d b938 319e 8eb8
000000e0: a9fc d1b6 9a04 96b8 58c8 3ab8 0039 c938
000000f0: e77a 41b9 a355 50b8 e224 5f37 f54e 82b8

conv2.lin.weight f4 [64, 64]
0.023403656 -0.17111051 0.00018433123 0.123259865 0.09181301 0.14535654 0.149529 0.0703745
0.017431393 0.19797924 -0.13215567 -0.14147994 -0.18044697 -0.025323633 -0.011493185 0.24180596
-0.18858087 -0.037737638 0.08361834 0.11374264 0.2478945 -0.07393224 -0.1791785 -0.045605
0.103165105 0.1636523 0.11035776 -0.18196385 -0.081348 0.14067224 -0.025621869 -0.053336643
0.11588182 -0.07905227 0.06814824 -0.07225518 0.02587457 0.009541476 0.14778456 0.096587665
-0.16646825 0.10131254 0.014208369 0.065386735 0.11042219 -0.13571145 0.13418022 0.048941065
0.075163394 0.10894573 -0.1808142 -0.10304783 -0.03922205 0.0740885 -0.12410286 0.041000705
-0.036739048 0.17525715 0.10280593 -0.1433282 0.07917078 0.0866168 0.24841025 0.13144581
0.12912941 0.1951815 -0.09063567 0.17979068 -0.14772482 -0.09328125 0.12991905 -0.08470759
-0.10766888 -0.14846447 0.2143643 0.17203508 0.052125473 -0.24427196 0.18370306 -0.20746925
0.021629713 -0.17335829 0.00020129529 -0.09659926 -0.13647482 0.11540513 -0.17210424 0.0840008
-0.13952997 0.07271936 -0.036993366 -0.003474324 0.02121309 -0.23178549 0.02543566 0.100938275
-0.011567229 0.06273922 0.089166194 -0.21724634 -0.12003529 -0.07366073 0.2099449 -0.009533134
0.16194563 0.032990128 -0.084579885 0.023423906 0.018840443 -0.14831541 0.15356949 -0.07614024
0.122618034 -0.07227516 0.013561455 -0.18147153 -0.04237098 -0.026044026 0.110531345 -0.0056693326
0.12898839 -0.07657553 -0.04935749 -0.00924157 0.12286274 -0.055566393 -0.16922663 -0.059417885
8.401644e-05 0.041644953 0.13046138 0.09151744 -0.12129481 0.10678755 -0.088071235 0.038186386
-0.05079664 -0.08399169 -0.16914323 -0.13713583 -0.0027112002 0.035521485 -0.032627665 0.21855815
-0.18480004 -0.08145561 -0.15111099 0.11419676 -0.016421324 -0.20546858 0.16415086 0.11510166
0.11954873 0.191279 0.018246451 -0.17937984 -0.12760171 0.026235206 0.18864886 -0.16520727
-0.09417055 0.059800953 -0.22936903 0.20726259 0.00014871516 -0.1337913 -0.11855692 0.06967716
0.039500915 0.1565585 0.18991841 -0.033096362 0.2455366 0.061677326 0.11036404 0.08074262
-0.0018101991 0.17155172 -0.20383991 -0.16126913 -0.14226304 0.036016837 -0.16268358 0.23418324
-0.06347478 0.110553205 0.096151546 0.10560859 -0.09715025 -0.026654528 0.23376684 -0.08051735
-0.18750606 0.0018383401 -0.12793037 -0.23813735 0.115278944 0.09670797 0.20881198 0.22284828
-0.02517087 0.037697867 -0.07858656 0.11457341 -0.046965044 -0.08019386 -0.17219862 0.1922009
-0.017617114 0.1868008 -0.102014504 0.11521808 -0.071033016 0.04443051 0.10559739 0.07286164
-0.024820054 0.09641135 0.17579927 0.119622275 0.15035081 -0.14925215 -0.09122437 -0.20999438
0.06628136 0.12089012 0.07760096 0.01059544 0.033053946 -0.23268038 0.1375617 0.12320701
0.14804117 0.12370279 -0.10476959 0.039955497 0.0839634 -0.027576309 -0.23824479 -0.16343191
0.07192909 0.038725916 -0.05021405 0.109604634 -0.23552832 0.21968648 0.1586404 0.15967064
-0.06562884 -0.034472752 0.06569665 0.16842662 0.13034613 0.19256966 -0.22778663 -0.018812817
00000000: 06b9 bf3c 9837 2fbe 0a49 4139 ab6f fc3d
00000010: 7608 bc3d 58d8 143e 211e 193e 8120 903d
00000020: 48cc 8e3c 12bb 4a3e d153 07be 1ee0 10be
00000030: 17c7 38be 8273 cfbc e94d 3cbc fb9b 773e
00000040: 581b 41be c892 1abd 1840 ab3d e7f1 e83d
00000050: 0ed8 7d3e c969 97bd 927a 37be 4fcc 3abd
00000060: 3a48 d33d 7894 273e 4003 e23d bb54 3abe
00000070: c899 a6bd 620c 103e f4e4 d1bc 8677 5abd
00000080: 7353 ed3d 28e6 a1bd 4e91 8b3d 86fa 93bd
00000090: e8f6 d33c da53 1c3c d654 173e c1cf c53d
000000a0: a776 2abe f37c cf3d 38ca 683c 7be9 853d
000000b0: 0725 e23d f1f7 0abe 8a66 093e 6d76 483d
000000c0: 44ef 993d f01e df3d 5c27 39be be0a d3bd
000000d0: 4da7 20bd b6bb 973d a429 febd 5bf0 273d
000000e0: af7b 16bd 9c76 333e ea8b d23d a1c4 12be
000000f0: 4a24 a23d 2664 b13d 425f 7e3e bb99 063e
00000100: 803a 043e a9dd 473e 329f b9bd 0c1b 383e
00000110: 2d45 17be 3d0a bfbd 8009 053e 2c7b adbd
00000120: 8081 dcbd 1207 18be 5182 5b3e f729 303e
00000130: 8581 553d 6e22 7abe a81c 3c3e d272 54be
00000140: cc30 b13c d684 31be cb12 5339 d5d5 c5bd
00000150: 0ec0 0bbe 8659 ec3d 183c 30be 9d08 ac3d
00000160: f2e0 0ebe e3ed 943d 5b86 17bd 7cb1 63bb
00000170: 13c7 ad3c 2d59 6dbe 725e d03c bab8 ce3d
00000180: 7a84 3dbc 6c7d 803d c49c b63d d375 5ebe
00000190: 10d5 f5bd 70db 96bd ccfb 563e dd30 1cbc
000001a0: 13d5 253e a820 073d 3838 adbd 7ee3 bf3c
000001b0: 4657 9a3c ffdf 17be 5241 1d3e 6aef 9bbd
000001c0: 2a1f fb3d 0005 94bd dd30 5e3c acd3 39be
000001d0: 318d 2dbd 485a d5bc 425e e23d cfc5 b9bb
000001e0: 8815 043e a2d3 9cbd 142b 4abd f469 17bc
000001f0: 769f fb3d 9699 63bd bf49 2dbe 2b60 73bd
00000200: fc31 b038 e693 2a3d ab97 053e 7f6d bb3d
00000210: 6a69 f8bd 6eb3 da3d b15e b4bd 5469 1c3d
00000220: 2310 50bd d603 acbd e233 2dbe 566d 0cbe
00000230: 64ae 31bb fa7e 113d 96a4 05bd b5cd 5f3e
00000240: 393c 3dbe 33d2 a6bd d7bc 1abe fedf e93d
00000250: 0386 86bc 5b66 52be 2a17 283e 6bba eb3d
00000260: f7d5 f43d a4de 433e 9579 953c 59af 37be
00000270: 06aa 02be 37eb d63c 2b2d 413e 182c 29be
00000280: 7ddc c0bd d8f1 743d b7df 6abe a53c 543e
00000290: 6cf0 1b39 9600 09be f8cd f2bd e6b2 8e3d
000002a0: b6cb 213d df50 203e f979 423e 0d90 07bd
000002b0: f26d 7b3e 5da1 7c3d 8b06 e23d 635c a53d
000002c0: 3444 edba 41ab 2f3e 69bb 50be bc23 25be
000002d0: 67ad 11be 6486 133d 8696 26be bbcd 6f3e
000002e0: 11ff 81bd b869 e23d 1aeb c43d 5149 d83d
000002f0: b6f6 c6bd 995a dabc 9360 6f3e 48e6 a4bd
00000300: 9701 40be 75f4 f03a 2e00 03be 47da 73be
00000310: 5e17 ec3d d40e c63d cfd2 553e 5732 643e
00000320: 2433 cebc 1469 1a3d fef1 a0bd 77a5 ea3d
00000330: 6b5e 40bd ae3c a4bd d654 30be 50d0 443e
00000340: c451 90bc b548 3f3e fbec d0bd 75f7 eb3d
00000350: c279 91bd c4fc 353d 7243 d83d 7c38 953d
00000360: 6d53 cbbc 5073 c53d b904 343e 86fc f43d
00000370: 90f5 193e 8ed5 18be d8d3 babd c408 57be
00000380: 86be 873d 3d95 f73d 41ed 9e3d 7f98 2d3c
00000390: 9363 073d c443 6ebe f9dc 0c3e f553 fc3d
000003a0: 1b98 173e e357 fd3d 7091 d6bd 60a8 233d
000003b0: 01f5 ab3d b6e7 e1bc 71f6 73be b25a 27be
000003c0: 8f4f 933d 119f 1e3d 3fad 4dbd 6578 e03d
000003d0: 562e 71be 7ef5 603e a172 223e b380 233e
000003e0: 6a68 86bd 4d33 0dbd f78b 863d 0778 2c3e
000003f0: 7579 053e fb30 453e e640 69be 561d 9abc

bn1.weight f4 [64]
1.0301689 1.0095891 1.0185919 0.9827602 1.0155997 1.0030062 0.9733394 0.97985804
0.96641827 0.95705134 0.959825 0.9685513 0.9573608 1.0390705 0.9789966 0.9866406
1.0264983 0.9640814 0.9710098 0.9631712 0.9854723 1.0329901 0.98131716 0.96399283
1.0444783 1.0390114 0.96622235 0.9626341 0.9577919 1.0038067 1.0396401 0.9547818
0.9649162 0.97104764 1.0188972 1.0434326 1.0327462 1.0398961 0.9758888 1.0149088
0.97434545 1.0010165 1.0297616 1.0376052 0.9636803 0.9625829 1.0159205 1.0084941
0.98213786 0.9735817 1.0178534 1.0372385 0.9575221 1.0403488 0.99231756 1.0041201
0.96470064 1.0276092 1.0237257 1.0051438 0.9595185 1.046048 1.0045794 1.0254908
00000000: 93dc 833f 373a 813f 3861 823f 2c96 7b3f
00000010: 2cff 813f 8262 803f c52c 793f fad7 7a3f
00000020: 3067 773f 5101 753f 17b7 753f faf2 773f
00000030: 9915 753f 4300 853f 859f 7a3f 7a94 7c3f
00000040: 4c64 833f 0ace 763f 1994 783f 6392 763f
00000050: ea47 7c3f 0539 843f 9a37 7b3f 3cc8 763f
00000060: 77b1 853f 53fe 843f 595a 773f 306f 763f
00000070: da31 753f bd7c 803f ed12 853f 946c 743f
00000080: c004 773f 9496 783f 396b 823f 338f 853f
00000090: 0731 843f 511b 853f d9d3 793f 88e8 813f
000000a0: b46e 793f 4f21 803f 3acf 833f 3fd0 843f
000000b0: c1b3 763f d56b 763f af09 823f 5616 813f
000000c0: 636d 7b3f a63c 793f 0549 823f 3bc4 843f
000000d0: 2b20 753f 262a 853f 8608 7e3f 0287 803f
000000e0: 9ff6 763f b388 833f 7209 833f 8da8 803f
000000f0: 01a3 753f e7e4 853f 0f96 803f 4843 833f

bn1.bias f4 [64]
0.028602948 0.009132134 0.01222274 -0.0004959993 0.006791709 0.0074581034 -0.02353727 -0.016836395
-0.031036623 -0.03601712 -0.03765057 -0.012126861 -0.023189422 0.03729021 -0.023276538 -0.021545498
0.029771945 -0.03812968 -0.015933748 -0.022867724 -0.009083505 0.027497832 -0.005197786 -0.029052593
0.04319373 0.037931856 -0.035215866 -0.035506755 -0.03572258 0.013708416 0.036763526 -0.034280576
-0.03414368 -0.023636593 0.017221779 0.03785583 0.027041735 0.039815176 -0.000835421 0.020847784
-0.005783665 0.0022998436 0.031695735 0.035298537 -0.03683462 -0.03714265 0.030929444 0.018650727
-0.027554346 -0.010943373 0.014300557 0.034492604 -0.041254763 0.037103128 0.0077379053 0.014833557
-0.029455611 0.02274496 0.031270444 0.010603767 -0.0314439 0.04177873 -0.0025585725 0.032569133
00000000: bb50 ea3c f29e 153c e341 483c f305 02ba
00000010: fc8c de3b 1b63 f43b 3cd1 c0bc 7bec 89bc
00000020: 8440 febc b086 13bd 7c37 1abd beaf 46bc
00000030: bef7 bdbc 9fbd 183d 70ae bebc 2f80 b0bc
00000040: 4be4 f33c de2d 1cbd 7e87 82bc 1855 bbbc
00000050: fbd2 14bc 2243 e13c 3052 aabb b4ff edbc
00000060: e9eb 303d 6f5e 1b3d 833e 10bd 886f 11bd
00000070: d751 12bd 4499 603c 5a95 163d ca69 0cbd
00000080: 3eda 0bbd 87a1 c1bc b014 8d3c b70e 1b3d
00000090: a186 dd3c 3d15 233d 2700 5bba f9c8 aa3c
000000a0: e684 bdbb f9b8 163b 63d3 013d 3395 103d
000000b0: e6df 16bd e422 18bd bf5f fd3c 69c9 983c
000000c0: a7b9 e1bc d54b 33bc e24c 6a3c 1e48 0d3d
000000d0: c1fa 28bd 73f9 173d 418e fd3b 7308 733c
000000e0: e54c f1bc a353 ba3c 7015 003d 6cbb 2d3c
000000f0: 52cb 00bd 2c20 2b3d b9ad 27bb 3667 053d

bn1.running_mean f4 [64]
-0.12909093 -0.47502896 -0.84190965 -1.9702735 -0.5605762 0.06206164 0.51975477 -0.7353817
0.50234175 1.3573923 -2.006014 -1.6657779 1.2542907 1.2857163 2.693922 -0.5866097
1.8986745 0.5767743 -0.44903937 1.5777326 -2.055149 0.82747674 1.9344507 -0.089659564
1.3159857 -1.0887421 0.5344322 0.299922 -0.97577786 0.2887781 -1.5642618 -0.29198754
1.1300621 0.15906738 0.45343116 -1.1859916 0.63794905 -1.9729314 0.3825009 0.40888503
-1.3284374 0.32912883 -1.6554273 -0.17460275 -2.5929086 -0.17292164 -0.7116863 2.4819803
-0.22135392 -0.36874637 2.2169495 1.8138874 -3.1122077 -0.26113486 -1.7860937 -2.4422786
2.8258326 -0.2887125 0.46698448 0.31004718 -2.0186262 0.8023286 -2.3580537 0.37684453
00000000: 6a30 04be ff36 f3be 6487 57bf ec31 fcbf
00000010: ec81 0fbf 5934 7e3d a60e 053f fa41 3cbf
00000020: 7899 003f 08bf ad3f 8962 00c0 3638 d5bf
00000030: 998c a03f 5a92 a43f 3869 2c40 0e2c 16bf
00000040: c407 f33f 7ba7 133f 7de8 e5be 24f3 c93f
00000050: 9087 03c0 84d5 533f 159c f73f 6f9f b7bd
00000060: 3872 a83f e75b 8bbf 8cd0 083f 608f 993e
00000070: 94cc 79bf b9da 933e bb39 c8bf 647f 95be
00000080: e0a5 903f 8fe2 223e 2128 e83e 93ce 97bf
00000090: a150 233f 0489 fcbf 28d7 c33e 6159 d13e
000000a0: 3d0a aabf 9383 a83e 0be5 d3bf 10cb 32be
000000b0: 37f2 25c0 5f12 31be 1331 36bf c4d8 1e40
000000c0: 9aaa 62be 53cc bcbe 80e2 0d40 762d e83f
000000d0: 692e 47c0 78b3 85be b89e e4bf 4b4e 1cc0
000000e0: 71da 3440 20d2 93be 9718 ef3e 81be 9e3e
000000f0: 2c31 01c0 6865 4d3f 5aea 16c0 c4f1 c03e

bn1.running_var f4 [64]
0.8041267 0.3486956 0.62554646 0.452727 0.53592086 0.50223523 0.63167745 0.5492083
0.38397372 0.42696527 0.53419656 0.6259762 0.6353108 0.6173703 0.64497095 0.50284547
0.49310327 0.48159364 0.4398767 0.6156644 0.47308436 0.60393125 0.3756534 0.64920646
0.4868084 0.3615068 0.5017642 0.6853689 0.31254956 0.6039866 0.60801595 0.64765126
0.6397486 0.5574318 0.49812117 0.72043294 0.5333432 0.4638404 0.59234536 0.7678239
0.6060771 0.5725561 1.1834528 0.36180764 0.6058856 0.75012213 0.5372083 0.5150594
0.5984287 0.8126201 0.55232495 0.5912914 0.50160486 0.39801636 0.78946835 0.73324484
0.40773046 0.68099344 0.75666004 0.50753987 0.38378143 0.8841073 0.9679383 0.5774368
00000000: 3fdb 4d3f 3b88 b23e d023 203f d5cb e73e
00000010: 1c32 093f 7d92 003f 9db5 213f ea98 0c3f
00000020: 3498 c43e 319b da3e 1bc1 083f fa3f 203f
00000030: bba3 223f fb0b 1e3f d11c 253f 7bba 003f
00000040: 0878 fc3e 7193 f63e 8537 e13e 2f9c 1d3f
00000050: 1d38 f23e 3d9b 1a3f a455 c03e 6532 263f
00000060: f33e f93e 6b17 b93e 9e73 003f 5674 2f3f
00000070: 7f06 a03e de9e 1a3f efa6 1b3f 79cc 253f
00000080: 90c6 233f dab3 0e3f bd09 ff3e 4b6e 383f
00000090: 2e89 083f 7d7c ed3e f2a3 173f 1b90 443f
000000a0: de27 1b3f 0993 123f 627b 973f da3e b93e
000000b0: 521b 1b3f 0108 403f 7c86 093f efda 033f
000000c0: a032 193f df07 503f 2b65 0d3f e05e 173f
000000d0: 2d69 003f cdc8 cb3e 991a 4a3f efb5 3b3f
000000e0: 0cc2 d03e 9655 2e3f 79b4 413f 22ee 013f
000000f0: 007f c43e db54 623f ceca 773f e6d2 133f

bn2.weight f4 [64]
0.9547263 1.0291436 0.96460325 1.0496421 0.94821894 1.043635 0.9492536 0.9511828
0.9981373 0.9843108 0.9497595 0.9525691 0.9629822 1.0300685 0.9603555 1.0442019
1.0379647 1.0416992 1.0268509 1.0137382 1.0439577 0.9835515 1.0553288 0.97008234
0.9523119 0.9582825 1.0528021 1.052922 0.9507234 0.95011383 0.9921749 0.9511114
0.9849064 0.9419657 1.0426419 1.0411093 0.9562081 0.95814294 1.0435312 0.9680134
0.9512625 0.99502474 1.0404447 1.0457442 0.97933203 1.0480745 0.95399153 0.9497173
1.0300796 1.0263957 0.9858665 1.0334437 1.0363276 1.0404497 1.0465182 0.9692674
1.0331388 0.9582731 1.0548481 0.9874482 0.97336704 0.95897835 0.9809027 1.0220128
00000000: f168 743f faba 833f 3df0 763f ac5a 863f
00000010: 7abe 723f d595 853f 4902 733f b780 733f
00000020: ed85 7f3f cbfb 7b3f 7023 733f 92db 733f
00000030: 0086 763f 49d9 833f dcd9 753f 68a8 853f
00000040: 07dc 843f 6656 853f da6f 833f 2cc2 813f
00000050: 68a0 853f 08ca 7b3f 0415 873f 5157 783f
00000060: b6ca 733f 0052 753f 38c2 863f 26c6 863f
00000070: 9c62 733f a93a 733f 2dff 7d3f 097c 733f
00000080: d322 7c3f aa24 713f 4a75 853f 1243 853f
00000090: 0eca 743f db48 753f 6e92 853f bacf 773f
000000a0: f085 733f f1b9 7e3f 4b2d 853f f2da 853f
000000b0: 81b5 7a3f 4e27 863f ca38 743f ac20 733f
000000c0: a6d9 833f ef60 833f bf61 7c3f e247 843f
000000d0: 62a6 843f 752d 853f 4ff4 853f e921 783f
000000e0: e43d 843f 6351 753f 4305 873f 68c9 7c3f
000000f0: 952e 793f 9b7f 753f 701c 7b3f 51d1 823f

bn2.bias f4 [64]
-0.04336114 0.022624983 -0.02894514 0.042046808 -0.04783658 0.047080778 -0.04592345 -0.04007398
-0.006630181 -0.034425758 -0.04251408 -0.04618241 -0.03553844 0.016563194 -0.03864397 -0.00902052
0.029900158 0.017359756 -0.010623148 -0.03461376 0.04932142 -0.048537806 0.048531827 -0.036262844
-0.04326626 -0.03776174 0.014739708 0.047688972 -0.045441333 -0.044556927 -0.058695517 -0.046564855
-0.023661688 -0.04973627 0.049454298 0.033247165 -0.040881004 -0.040300805 0.047642786 -0.030323833
-0.045979127 -0.03791087 0.042339142 0.009273088 -0.022847777 0.051860396 -0.045315534 -0.04673518
0.00020511396 0.019437129 -0.02894465 0.03825868 0.03240067 0.046645623 0.052765183 -0.029518358
0.039861377 -0.040537477 0.0452102 0.040483486 -0.049492784 -0.03784765 -0.047187433 -0.037106715
00000000: 739b 31bd 0758 b93c 5c1e edbc 4639 2c3d
00000010: 4af0 43bd c6d7 403d 3a1a 3cbd 9d24 24bd
00000020: fd41 d9bb 0602 0dbd 3e23 2ebd c429 3dbd
00000030: c190 11bd 89af 873c 2449 1ebd ceca 13bc
00000040: 2df1 f43c 0c36 8e3c b60c 2ebc 28c7 0dbd
00000050: 4205 4a3d 94cf 46bd 4fc9 463d 5988 14bd
00000060: f637 31bd 0eac 1abd d17e 713c 8355 433d
00000070: b120 3abd 5381 36bd b66a 70bd caba 3ebd
00000080: 28d6 c1bc 42b8 4bbd 9790 4a3d 2e2e 083d
00000090: d772 27bd 7512 25bd 1525 433d b069 f8bc
000000a0: 9c54 3cbd 6e48 1bbd cf6b 2d3d 26ee 173c
000000b0: 432b bbbc 916b 543d c89c 39bd 636d 3fbd
000000c0: dc13 5739 9d3a 9f3c 551d edbc 22b5 1c3d
000000d0: 91b6 043d 7b0f 3f3d 4e20 583d 7cd0 f1bc
000000e0: af45 233d a00a 26bd 552e 393d 03d2 253d
000000f0: f2b8 4abd 2306 1bbd 9c47 41bd 36fd 17bd

bn2.running_mean f4 [64]
0.60650927 -0.28904498 0.22912928 0.49975765 0.14182293 -0.22723009 -0.57138056 0.10829903
-0.54775465 0.48368597 -0.06263003 -0.052133933 0.49107552 0.69757044 0.34717935 -0.1404532
0.5091284 0.42164165 0.5783022 -0.18916777 -0.053570535 0.24977657 -0.024279792 -0.29980808
-0.2946796 0.6144509 0.64314926 0.5766953 -0.38873744 0.061222352 -0.47186038 0.90111077
0.21208185 -0.26529494 0.48197213 0.6054143 0.5085325 0.47969145 0.2733215 0.66508937
0.8227942 0.7963484 0.001522694 0.33734384 0.43580925 -0.046448812 -0.27643722 0.4870044
-0.120102495 0.8752607 0.113788106 -0.10178904 -0.38154793 -0.45167089 -0.053411625 -0.27977744
0.11082628 0.50578433 -0.057034425 -0.1538281 -0.7655852 0.10691953 0.086295195 0.22221181
00000000: 3144 1b3f b4fd 93be dea0 6a3e 3ce0 ff3e
00000010: 083a 113e 01af 68be ff45 12bf e2cb dd3d
00000020: a639 0cbf b0a5 f73e 2c44 80bd 648a 55bd
00000030: 406e fb3e fa93 323f 7ec1 b13e f7d2 0fbe
00000040: 3d56 023f 6ae1 d73e 9d0b 143f 32b5 41be
00000050: c76c 5bbd 6ec5 7f3e 6ae6 c6bc 7280 99be
00000060: 3fe0 96be a74c 1d3f 6ea5 243f 4ea2 133f
00000070: 9808 c7be 4ac4 7a3d af97 f1be 32af 663f
00000080: fc2b 593e bdd4 87be 0dc5 f63e 6efc 1a3f
00000090: 302f 023f 1e9a f53e ccf0 8b3e 4c43 2a3f
000000a0: a4a2 523f 7ddd 4b3f 2295 c73a 55b8 ac3e
000000b0: 6422 df3e 1c41 3ebd 2e89 8dbe a458 f93e
000000c0: 4cf8 f5bd 1611 603f bd09 e93d c676 d0bd
000000d0: 405a c3be 6841 e7be 26c6 5abd fd3e 8fbe
000000e0: e4f8 e23d 157b 013f ee9c 69bd 1d85 1dbe
000000f0: 64fd 43bf a0f8 da3d 89bb b03d 7e8b 633e

bn2.running_var f4 [64]
0.17419651 0.30293536 0.34060004 0.61838925 0.21494754 0.26847288 0.27441403 0.21983975
0.79819095 0.39670593 0.23276365 0.3589144 0.21450077 0.35717118 0.41109124 0.6265352
0.35421178 0.35609624 0.26471692 0.1548244 0.2608497 0.25134543 0.35181224 0.22570214
0.49929768 0.25915736 0.5248922 0.4830322 0.48561263 0.360699 0.33193573 0.3325144
0.34861767 0.22984773 0.2599212 0.2761375 0.35781673 0.13043891 0.30831784 0.29268435
0.3127383 0.2121101 0.342678 0.29912114 0.41355187 0.29885712 0.32232192 0.20427121
0.29222748 0.29923227 0.42307097 0.49184415 0.44795305 0.3841916 0.42189884 0.20863162
0.29158956 0.33385605 0.48999608 0.31683314 0.4258607 0.39611292 0.2945043 0.36172438
00000000: 9260 323e 581a 9b3e 2163 ae3e c24e 1e3f
00000010: 351b 5c3e 4775 893e ff7f 8c3e ac1d 613e
00000020: 3e56 4c3f 0a1d cb3e 9859 6e3e a1c3 b73e
00000030: 17a6 5b3e 24df b63e 8d7a d23e 9c64 203f
00000040: 3f5b b53e 3f52 b63e fa88 873e 4a8a 1e3e
00000050: 188e 853e 59b0 803e bc20 b43e 761e 673e
00000060: f2a3 ff3e 46b0 843e 565f 063f ff4f f73e
00000070: 38a2 f83e 8aad b83e 7bf3 a93e 543f aa3e
00000080: 047e b23e 345d 6b3e 6414 853e e561 8d3e
00000090: c133 b73e c791 053e d6db 9d3e b9da 953e
000000a0: 3c1f a03e 6433 593e 7e73 af3e 6826 993e
000000b0: 12bd d33e cd03 993e 6107 a53e 792c 513e
000000c0: d79e 953e f934 993e c29c d83e ffd2 fb3e
000000d0: 1a5a e53e c3b4 c43e 2003 d83e 87a3 553e
000000e0: 3a4b 953e 2eef aa3e c4e0 fa3e f437 a23e
000000f0: 6a0a da3e 50cf ca3e 45c9 963e f033 b93e

classifier.weight f4 [10, 64]
0.072546616 0.09961216 0.055948827 0.049733166 0.1271825 -0.05000684 -0.1575272 -0.09897137
0.16740267 -0.0024088402 -0.058146875 0.10303169 -0.083090164 0.07452863 0.0747473 -0.07112204
0.0057679224 -0.09383713 0.12606172 -0.11481447 -0.040470257 -0.0136290295 -0.12693322 -0.0641637
-0.13694988 -0.11294634 0.14841019 -0.030251548 0.068541475 -0.15903986 0.07030904 -0.076907806
-0.11523601 0.08030682 -0.09249905 -0.024821643 -0.08621044 0.102315344 0.17456879 -0.13905609
-0.06829738 -0.13646762 0.018543338 -0.00516332 0.043481417 -0.009703807 -0.045310576 0.10286633
0.016851133 0.006473338 -0.0024767253 -0.039919965 -0.025080772 -0.08133373 -0.040493615 0.05122935
-0.058116708 -0.007942334 -0.13890429 0.10164361 0.061425284 -0.024064662 -0.10095612 -0.09863975
-0.010574864 -0.027835196 -0.14020903 -0.10600519 0.17395423 0.16579722 -0.14454964 0.032139838
0.08017974 0.08166203 0.12225069 0.08075883 0.06541992 -0.036568396 -0.07742802 -0.006877744
-0.0007240045 -0.070413105 0.030191459 0.023499524 0.11276189 0.01341593 -0.11472096 0.0651543
0.055615436 0.10628266 0.0057216818 -0.029837182 0.1787743 0.026553217 -0.043783057 -0.06852542
-0.07277883 -0.029298885 -0.039983608 0.08770104 0.078947276 0.0050313077 0.0770932 -0.12739632
-0.09139365 -0.06418172 -0.12526652 0.044534083 -0.026678503 0.03245635 -0.015791204 0.005136457
0.028850283 -0.044411 -0.09876237 -0.051788848 -0.062132295 0.02515689 0.08488486 0.12413651
-0.018243138 0.15305917 -0.01566684 0.041960742 0.047392804 0.053253025 -0.051397875 0.019869866
0.004920444 0.057631843 0.12538569 0.015900485 -0.08662576 -0.049761895 -0.03783044 -0.12999345
0.030691316 0.06195494 0.036759272 -0.13971992 -0.06870656 -0.10588819 -0.00074279367 -0.033877216
0.042588126 0.0441341 0.14859387 0.1183007 -0.11706451 0.08425969 -0.047118146 -0.020568183
0.11698515 0.014869182 0.032167725 -0.005438317 -0.14870505 -0.065151885 0.0927721 -0.088251725
-0.072863564 0.01693001 -0.12152119 -0.08507924 0.053332917 0.106604695 -0.1448868 -0.054121416
-0.06106378 0.024350327 -0.08217679 0.11257038 0.14781481 0.06793104 0.029290374 -0.05649563
-0.026767265 0.038131308 0.11817068 -0.13577256 -0.06763918 0.13272807 0.098360926 0.03055243
-0.06691382 -0.10841141 -0.05629203 -0.12577045 -0.060206518 0.057906672 -0.092964955 0.013064836
-0.08907292 -0.057148624 0.0097180735 0.1357662 -0.0075350855 0.03454468 -0.11089225 0.09630489
-0.00398156 0.022631252 0.12410446 -0.07007534 0.06574472 0.03316652 -0.07096134 0.083848216
0.06134733 -0.02038306 -0.04022368 -0.027001103 0.029250251 0.08144547 0.013066921 0.010669965
-0.09826556 0.009423459 0.02088584 0.13829325 -0.13644223 0.012636022 -0.103072874 0.03713724
0.08431055 -0.0857806 0.13070525 -0.056063384 0.07867621 0.010077468 -0.057752874 0.0075686635
0.14541854 0.028967857 -0.038109314 0.0867031 -0.05308163 0.1369794 -0.13993974 0.08260551
-0.056044508 -0.067533664 0.033659317 -0.1252796 0.08475225 0.10793236 -0.043322735 -0.00026174466
-0.012573337 -0.008229987 0.14871055 0.018927325 -0.14623125 0.07396432 -0.062476777 -0.0071095573
00000000: 5293 943d 7601 cc3d 992a 653d 01b5 4b3d
00000010: 213c 023e f9d3 4cbd cf4e 21be 80b1 cabd
00000020: 9b6b 2b3e a2dd 1dbb 6b2b 6ebd 4702 d33d
00000030: 2d2b aabd 77a2 983d 1d15 993d 6fa8 91bd
00000040: d700 bd3b ae2d c0bd 5316 013e d923 ebbd
00000050: 24c4 25bd 4b4c 5fbc c8fa 01be 4268 83bd
00000060: 973c 0cbe 6950 e7bd d7f8 173e 18d2 f7bc
00000070: 795f 8c3d 58db 22be 30fe 8f3d d781 9dbd
00000080: db00 ecbd e777 a43d 2470 bdbd c256 cbbc
00000090: 198f b0bd b58a d13d 29c2 323e b864 0ebe
000000a0: 7fdf 8bbd 2bbe 0bbe 33e8 973c 1131 a9bb
000000b0: 9219 323d b7fc 1ebc 9597 39bd 95ab d23d
000000c0: 630b 8a3c 4c1e d43b 8e50 22bb 1e83 23bd
000000d0: 3176 cdbc 4c92 a6bd a2dc 25bd ded5 513d
000000e0: c90b 6ebd 9020 02bc ed3c 0ebe 862a d03d
000000f0: 1499 7b3d 4123 c5bc 15c2 cebd a303 cabd
00000100: 3242 2dbc a306 e4bc f592 0fbe 4019 d9bd
00000110: 0f21 323e bfc6 293e d204 14be 10a5 033d
00000120: 4735 a43d 6c3e a73d 925e fa3d e364 a53d
00000130: e1fa 853d bec8 15bd 9592 9ebd b35e e1bb
00000140: 1fcb 3dba bf34 90bd 1454 f73c 1382 c03c
00000150: b5ef e63d 7dce 5b3c d3f2 eabd 9e6f 853d
00000160: 03cd 633d b9aa d93d f27c bb3b 1b6d f4bc
00000170: 9c10 373e 2286 d93c dd55 33bd 0e57 8cbd
00000180: 110d 95bd 3704 f0bc dac5 23bd 9a9c b33d
00000190: 1caf a13d abdd a43b 0ae3 9d3d 2e74 02be
000001a0: 982c bbbd b571 83bd de45 00be 5f69 363d
000001b0: e08c dabc f3f0 043d 8e5c 81bc b94f a83b
000001c0: 6e57 ec3c 4fe8 35bd ed43 cabd 8b20 54bd
000001d0: 6f7e 7ebd d215 ce3c 1dd8 ad3d 483b fe3d
000001e0: a272 95bc 8bbb 1c3e bf57 80bc 07df 2b3d
000001f0: f51e 423d d81f 5a3d 9486 52bd 21c6 a23c
00000200: ad3b a13b 5e0f 6c3d 1b65 003e bc41 823c
00000210: d968 b1bd 21d3 4bbd 17f4 1abd 011d 05be
00000220: 5b6c fb3c 77c4 7d3d e490 163d bd12 0fbe
00000230: 06b6 8cbd e8db d8bd 0ab8 42ba d6c2 0abd
00000240: e370 2e3d f5c5 343d fe28 183e a347 f23d
00000250: 85bf efbd 5890 ac3d f5fe 40bd 9b7e a8bc
00000260: e995 ef3d df9d 733c 4ec2 033d e933 b2bb
00000270: 2346 18be 5a6e 85bd 4cff bd3d 52bd b4bd
00000280: 7e39 95bd ceb0 8a3c 1ae0 f8bd 063e aebd
00000290: 9e73 5a3d 9053 da3d 355d 14be 6bae 5dbd
000002a0: 041e 7abd 567a c73c 4e4c a8bd 4d8b e63d
000002b0: c45c 173e 6e1f 8b3d 5ef2 ef3c f667 67bd
000002c0: 0647 dbbc 932f 1c3d 7803 f23d f607 0bbe
000002d0: 6986 8abd dee9 073e 7471 c93d 1749 fa3c
000002e0: 1d0a 89bd cd06 debd 7992 66bd f8c9 00be
000002f0: 1c9b 76bd 8c2f 6d3d 6964 bebd e50d 563c
00000300: dd6b b6bd ad14 6abd 8e38 1f3c 4b06 0b3e
00000310: e1e8 f6bb b97e 0d3d 7a1b e3bd 803b c53d
00000320: bf77 82bb 2d65 b93c 7b2a fe3d a983 8fbd
00000330: 2ba5 863d 9ed9 073d 2e54 91bd 9db8 ab3d
00000340: 5747 7b3d 60fa a6bc 96c1 24bd 6b31 ddbc
00000350: 399e ef3c e2cc a63d a416 563c 14d1 2e3c
00000360: 743f c9bd da64 1a3c c818 ab3c bf9c 0d3e
00000370: 83b7 0bbe 5107 4f3c df17 d3bd 381d 183d
00000380: 02ab ac3d bdad afbd 99d7 053e b8a2 65bd
00000390: fe20 a13d f71b 253c 478e 6cbd 8d02 f83b
000003a0: 99e8 143e 004e ed3c 8318 1cbd 6591 b13d
000003b0: 206c 59bd 5444 0c3e 5d4c 0fbe 142d a93d
000003c0: ed8e 65bd 174f 8abd 5ade 093d 4c49 00be
000003d0: 9692 ad3d a40b dd3d 2e73 31bd c63a 89b9
000003e0: 6600 4ebc 11d7 06bc 9447 183e 7a0d 9b3c
000003f0: a5bd 15be 9b7a 973d a6e7 7fbd 4af7 e8bb

classifier.bias f4 [10]
0.051948633 0.022190759 0.03463454 0.09022864 -0.008115489 0.024018962 -0.04053668 0.037234668
-0.03724765 0.02140665
00000000: 17c8 543d 65c9 b53c f3dc 0d3d cbc9 b83d
00000010: d4f6 04bc 6ac3 c43c ca09 26bd 6183 183d
00000020: fe90 18bd 005d af3c

exp_avg f4 [100, 64]
-0.0011246349 -8.047237e-06 -0.0030355628 7.050339e-05 0.00026268043 7.663385e-05 0.0002117597 0.0018573002
-0.001432841 -0.001033189 -0.00022140316 0.00097519875 0.0001305746 0.0005900931 8.647256e-05 0.0009528623
-0.002257735 0.0030642368 -0.0005742722 0.00015178828 0.0009171257 -0.0009728747 -0.0037722597 -0.0005984593
0.0004911895 0.0027452486 0.00038391954 -0.0030719594 0.0010424892 -0.0006388084 0.0063875257 -0.0026629171
0.000558412 0.0015624368 0.00016873344 -0.00015274671 0.0017628017 -0.0021539207 0.00018719034 9.0837166e-05
-0.00032555396 0.0043299566 -0.0003566449 -0.00031920423 0.0005043172 -0.006043234 0.00044118083 0.004897103
0.0017220338 -0.00096443354 0.003467128 -0.0024118097 -0.00030321936 -0.0039385078 3.5791948e-06 7.450344e-05
-0.0034106425 0.00042526197 -0.00020017786 -0.0019432219 -0.001423956 0.0013520505 0.0009359436 0.0022351649
-0.00066050555 -0.00088085514 -0.0024332432 0.0007950165 -0.00018912926 -0.0008205126 0.00023657737 0.0012552376
-0.00193128 -0.00041040964 -7.11443e-05 0.0003024454 0.00014788158 0.0001531136 0.0005074361 0.0015783239
-0.0017643214 0.0023167743 -0.00013905182 -0.00018957077 -0.0003570003 -0.00058278895 -0.002907365 -0.00017431838
0.0003208834 0.0023709065 0.0005367716 -0.0020768088 -4.6564062e-05 -0.0002803535 0.005400836 -0.0025351567
0.0009419255 0.001157054 0.0004774574 9.9605495e-05 0.0013931388 -0.0019654268 -0.00010375748 0.0005611207
1.7552635e-05 0.0044226428 -0.0003961249 0.0005520855 0.0009407791 -0.004981633 -0.0003392042 0.0046265004
0.0018586544 -0.0010701785 0.0038812817 -0.0028546122 -0.0009965604 -0.004787827 0.00015926822 0.00010027507
-0.0034701596 0.00033562267 0.00053298136 -0.0023193187 -0.001649825 0.0013552513 0.0014008788 0.0025753232
-0.0009147596 -0.0003713497 -0.0029597436 0.00045671218 0.00040837488 0.00022440038 -0.00023134591 0.0019141119
-0.001475468 -0.00028799937 0.00012606528 0.0009791745 -0.0003658893 0.0008122302 0.00013856427 0.001658233
-0.0025558684 0.0030991326 -0.0006030068 7.811173e-05 0.0005585458 -0.0010778952 -0.003344174 -0.00058424455
-9.355915e-05 0.0028307394 0.0011247011 -0.0024932087 0.0006456053 -0.0009831185 0.0053629596 -0.0023758446
0.0011346879 0.0018468384 0.00079635205 0.00027191982 0.0020285086 -0.0018913847 0.00028707524 0.00042266794
-2.0797454e-05 0.004102976 -0.0010433439 0.00041843054 0.0008762272 -0.005230497 -3.2078235e-05 0.0045971875
0.0012731941 -0.00044413257 0.00367732 -0.002514225 -0.00014990968 -0.004423804 0.00072021235 0.0004900992
-0.002999178 0.00073898607 0.00034109 -0.0017568851 -0.001910739 0.0018780682 0.0013398691 0.001878069
-0.0007364108 -0.0018177441 -0.0022149784 0.0011790028 -0.0007989174 -0.002053511 0.00050118315 0.0011065545
-0.0030914107 -0.00012830833 -0.00044827847 -0.00075892685 0.00038948827 0.00016174854 0.00083335204 0.001825262
-0.001748117 0.0023080462 -8.820033e-05 -0.0007190038 -0.0015581675 -0.00025515782 -0.0030927605 0.00026474314
0.00033465037 0.0025339203 0.00030484065 -0.0019965474 -0.00074141636 5.705638e-06 0.0061653526 -0.0031555365
0.0015965275 0.0004004944 0.0003319142 -0.0001985144 0.0013118485 -0.0019672725 -0.0015484404 0.0009107906
0.0005166441 0.0052087 -0.0004678702 0.00096790446 0.0011407369 -0.0054116477 -0.00083323667 0.005699373
0.0023604555 -0.0012851291 0.0044550546 -0.0043884944 -0.0016228994 -0.005659219 -3.3745822e-05 -3.215157e-05
-0.005346603 0.00014582936 0.00085317116 -0.0036985464 -0.0021122433 0.0014954393 0.0014802319 0.0030646694
00000000: 7c68 93ba 9f02 07b7 4bf0 46bb 38db 9338
00000010: 5fb8 8939 7cb6 a038 d00b 5e39 a770 f33a
00000020: 2ace bbba 126c 87ba 7528 68b9 7ba4 7f3a
00000030: daea 0839 7ab0 1a3a 9a58 b538 82c9 793a
00000040: 82f6 13bb 5dd1 483b c18a 16ba 5b29 1f39
00000050: 446b 703a 8408 7fba 0438 77bb ece1 1cba
00000060: 2bc3 003a a1e9 333b cf48 c939 ed52 49bb
00000070: 22a4 883a b575 27ba 734e d13b 5684 2ebb
00000080: 6562 123a aeca cc3a 0aee 3039 a22a 20b9
00000090: cf0d e73a cb28 0dbb 8648 4439 d57f be38
000000a0: 1daf aab9 4fe2 8d3b 11fc bab9 de5a a7b9
000000b0: 2834 043a 5206 c6bb 4a4e e739 e177 a03b
000000c0: deb5 e13a 0ad2 7cba c138 633b 740f 1ebb
000000d0: 6af9 9eb9 990e 81bb 1932 7036 bb3e 9c38
000000e0: 1685 5fbb b2f5 de39 d6e6 51b9 b5b3 feba
000000f0: 09a4 baba 4937 b13a 1d5a 753a d87b 123b
00000100: c725 2dba 30e9 66ba 0c77 1fbb a768 503a
00000110: 0051 46b9 ab17 57ba c111 7839 c986 a43a
00000120: 0123 fdba 402c d7b9 4e33 95b8 8991 9e39
00000130: a910 1b39 1e8d 2039 7605 053a c3df ce3a
00000140: cd40 e7ba 06d5 173b 70ce 11b9 84c7 46b9
00000150: c52b bbb9 4ec6 18ba 7e89 3ebb 3cc9 36b9
00000160: 3e3c a839 3661 1b3b 22b6 0c3a 121b 08bb
00000170: c84d 43b8 69fc 92b9 7ff9 b03b df24 26bb
00000180: 8deb 763a 4aa8 973a 3f53 fa39 4be3 d038
00000190: fb99 b63a 64ce 00bb 5f98 d9b8 2c18 133a
000001a0: ff3d 9337 d1eb 903b fcae cfb9 d5b9 103a
000001b0: 9e9e 763a f73c a3bb 38d7 b1b9 e699 973b
000001c0: 189e f33a 3b45 8cba 1a5d 7e3b 7214 3bbb
000001d0: 059f 82ba 34e3 9cbb 3d01 2739 c54a d238
000001e0: 9e6b 63bb 83f6 af39 c6b7 0b3a b6ff 17bb
000001f0: f13e d8ba b0a2 b13a b19d b73a c1c6 283b
00000200: 7acc 6fba b7b1 c2b9 42f8 41bb df72 ef39
00000210: 261b d639 054d 6b39 7295 72b9 f0e2 fa3a
00000220: 7e64 c1ba 9ffe 96b9 6430 0439 a557 803a
00000230: d5d4 bfb9 d9eb 543a 904b 1139 1159 d93a
00000240: 5b80 27bb d11a 4b3b 1a13 1eba eacf a338
00000250: 606b 123a 2948 8dba ee29 5bbb fd27 19ba
00000260: 3035 c4b8 ed83 393b b56a 933a 1a65 23bb
00000270: d73d 293a fcdb 80ba c4bb af3b 0fb4 1bbb
00000280: cfb9 943a 9d11 f23a 48c2 503a 7690 8e39
00000290: baf0 043b 57e8 f7ba 9682 9639 8899 dd39
000002a0: 3176 aeb7 4272 863b d0c0 88ba cc60 db39
000002b0: 9db2 653a 9764 abbb be8b 06b8 01a4 963b
000002c0: 4ee1 a63a 77da e8b9 31ff 703b b2c5 24bb
000002d0: 1331 1db9 8ff5 90bb a2cc 3c3a 007a 003a
000002e0: db8d 44bb 84b8 413a 53d4 b239 4847 e6ba
000002f0: c371 faba 8329 f63a 8c9e af3a 8a29 f63a
00000300: b10b 41ba 5f41 eeba 2c29 11bb c588 9a3a
00000310: 706e 51ba 3394 06bb d561 033a cf09 913a
00000320: 4499 4abb 818a 06b9 eb06 ebb9 b8f2 46ba
00000330: 3b34 cc39 0b9b 2939 4f75 5a3a a13d ef3a
00000340: 1321 e5ba 9742 173b 31f8 b8b8 877b 3cba
00000350: 6d3b ccba b4c6 85b9 e9af 4abb 39cd 8a39
00000360: 0374 af39 2110 263b 05d3 9f39 82d8 02bb
00000370: 9c5b 42ba 0f73 bf36 ba06 ca3b 1ecd 4ebb
00000380: 9342 d13a 73f9 d139 c504 ae39 4e28 50b9
00000390: 55f2 ab3a 5bed 00bb 0af5 caba 1fc2 6e3a
000003a0: 666f 073a bead aa3b 7a4c f5b9 f8ba 7d3a
000003b0: c784 953a 3154 b1bb 916d 5aba cec1 ba3b
000003c0: dfb1 1a3b c771 a8ba b5fb 913b 5ccd 8fbb
000003d0: 78b7 d4ba f870 b9bb 4d8a 0db8 7cda 06b8
000003e0: 8f32 afbb c5e9 1839 59a7 5f3a 5063 72bb
000003f0: 906d 0abb 9e02 c43a 5704 c23a 9fd8 483b
