checkpoints/checkpoint_epoch_35.pt (torch, 547720 bytes, 37 tensors)

prototypes f4 [100, 64]
0.11821796 -0.27275145 -0.12821288 2.2203963 -0.6009299 0.7121328 0.21250215 -0.85415393
0.050956354 2.932325 -1.0233929 -0.94243455 -0.552345 -1.0090803 -0.6583448 1.6814303
-0.7694145 0.41940928 0.9649082 1.5619253 -2.1604373 -0.21247096 -0.451331 0.12072164
0.28496253 0.28427964 0.24665786 0.73872435 -0.47730088 0.56554544 -0.3779935 0.272819
-1.8670944 1.5212349 -0.3452505 0.23922646 -0.24394579 -0.8537722 0.9137134 -1.9157298
-0.4991882 0.07869476 1.1489109 0.41119897 1.2396653 -0.20113163 -0.22017828 0.25171518
1.9175171 -0.4836719 0.25697747 -0.60684174 -0.70161265 -0.84436595 -0.6007843 0.5472462
1.2624956 -0.24654603 0.076259054 -1.9215219 -0.24515148 0.9020956 -0.27146882 1.3834713
-0.07490167 1.785962 -1.1472532 0.1733287 -1.3165734 -0.92675793 -0.40623364 0.06543774
-0.46775174 -0.1514942 0.12779097 1.006435 0.03379452 0.8771722 -0.9877358 -0.2562833
0.50837386 0.8017259 -0.8329216 -0.561835 0.3246406 -2.0138297 0.8505249 0.45467815
-1.196475 1.7977777 -1.509109 -0.23436688 1.6496893 0.45845273 0.63827753 -0.52794474
1.040843 -1.0400345 -1.7808533 -0.15174052 1.3909538 -0.9882254 -0.39953876 -0.38927937
-1.1599858 -1.2225715 -0.030388113 -0.41145343 -1.2062676 0.11466001 0.34722596 1.8958017
-0.0926802 -0.28241667 -1.8501303 -1.072356 -0.07723516 1.087846 -0.097265415 0.5508129
-1.3138782 0.0719191 -1.3286045 -0.6841845 -1.059924 -0.8591513 -1.9456773 1.1207057
0.44773632 -0.69210243 0.58094627 -1.8037318 0.500659 0.55250037 -0.008501338 0.64158815
-1.4653312 -0.0017121102 -0.6615443 0.15597977 1.5239617 0.03995109 -1.8548348 -0.51594055
0.76252216 -1.8227638 1.1330727 0.05463654 0.14017598 -0.067207724 -0.89983135 3.1869678
1.3546516 -0.301785 0.3395791 -1.1398053 -0.009896123 -0.8977024 1.2112979 -1.6224487
1.0157391 0.09907245 -2.0922053 0.88469815 0.042851716 -0.7666418 -1.029768 -2.0028737
-0.014612476 -0.9299942 1.0406423 -0.010514517 -1.2519393 -0.40195683 -0.36948642 2.029142
0.62500334 0.33517087 -0.5455164 -1.8363153 -0.64580554 -0.12581468 -0.9062687 -0.5420412
-0.69434804 -0.93205714 -0.34313086 -1.076091 -0.621355 0.83928436 0.04649072 0.97694576
-0.10946828 1.3134519 0.22008407 1.2398865 0.31453305 2.0672767 -0.47997427 0.27804458
3.4320107 1.9092629 -3.040748 0.35973182 0.37531704 0.36515266 0.8971696 0.23315293
-1.5080295 -1.2322625 -1.7615529 0.36330062 0.6865508 -0.22902983 -0.29200783 0.48237583
0.6081262 -0.9862575 -0.94764715 -0.43808958 1.352485 0.05371839 1.1149721 -0.57000345
0.8943745 1.9012475 -0.21232812 -1.1443349 -0.4877665 0.7619383 0.061137047 0.7481376
1.5609895 -1.2870752 0.39132234 0.76023906 -0.63112783 -2.147405 0.29375792 0.54245764
-1.8077658 -0.67095697 -0.88825303 0.4397452 -0.016491044 0.4194243 0.6254033 -0.10137563
0.66154593 -0.94482994 -0.38866976 0.99809355 1.311894 0.528633 -1.5150342 -1.2228408
00000000: 421c f23d 14a6 8bbe 3d4a 03be f91a 0e40
00000010: 8bd6 19bf 564e 363f 2a9a 593e d5a9 5abf
00000020: 9cb7 503d 36ab 3b40 8afe 82bf 6443 71bf
00000030: 7b66 0dbf 8b29 81bf 4989 28bf 1c39 d73f
00000040: 59f8 44bf d0bc d63e 3904 773f 2bed c73f
00000050: 9b44 0ac0 fd91 59be db14 e7be e83c f73d
00000060: 9ce6 913e 1a8d 913e e193 7c3e 0a1d 3d3f
00000070: c860 f4be 96c7 103f 5d88 c1be efae 8b3e
00000080: f3fc eebf d3b7 c23f acc4 b0be c8f7 743e
00000090: edcc 79be d190 5abf 1fe9 693f a236 f5bf
000000a0: 9995 ffbe b82a a13d 830f 933f ac88 d23e
000000b0: 5aad 9e3f 73f5 4dbe 6a76 61be d0e0 803e
000000c0: 3371 f53f d8a3 f7be 8d92 833e fb59 1bbf
000000d0: e39c 33bf 5e28 58bf 00cd 19bf 5418 0c3f
000000e0: 7599 a13f 9076 7cbe b52d 9c3d 6ef4 f5bf
000000f0: fd08 7bbe bdef 663f f6fd 8abe 9615 b13f
00000100: 0c66 99bd 679a e43f 31d9 92bf 147d 313e
00000110: 7a85 a8bf 0240 6dbf dbfd cfbe 3904 863d
00000120: 287d efbe 4c21 1bbe a3db 023e ddd2 803f
00000130: 1f6c 0a3d 5b8e 603f 41dc 7cbf 9137 83be
00000140: ca24 023f e93d 4d3f 5a3a 55bf 6bd4 0fbf
00000150: 4b37 a63e 96e2 00c0 00bc 593f 93cb e83e
00000160: 1826 99bf 941d e63f 7c2a c1bf dffd 6fbe
00000170: 0529 d33f 51ba ea3e 2866 233f 6327 07bf
00000180: 583a 853f da1f 85bf 00f3 e3bf de61 1bbe
00000190: c60a b23f 57fc 7cbf 5890 ccbe a04f c7be
000001a0: 6a7a 94bf 397d 9cbf 7ef0 f8bc 06aa d2be
000001b0: fa66 9abf ded2 ea3d 9ac7 b13e a1a9 f23f
000001c0: 1ecf bdbd eb98 90be 12d1 ecbf f642 89bf
000001d0: 782d 9ebd 8a3e 8b3f 1733 c7bd 1302 0d3f
000001e0: 292d a8bf 524a 933d b60f aabf b726 2fbf
000001f0: 97ab 87bf 57f1 5bbf f40b f9bf 4973 8f3f
00000200: b23d e53e a02d 31bf e5b8 143f afe0 e6bf
00000210: 302b 003f aa70 0d3f 3249 0bbc 1f3f 243f
00000220: f98f bbbf e368 e0ba f85a 29bf 29b9 1f3e
00000230: 2d11 c33f c1a3 233d 3a6b edbf ae14 04bf
00000240: a734 433f 5350 e9bf 8708 913f 91ca 5f3d
00000250: 4b8a 0f3e 34a4 89bd 595b 66bf 48f7 4b40
00000260: 3965 ad3f 9083 9abe 50dd ad3e 24e5 91bf
00000270: 5923 22bc d3cf 65bf cf0b 9b3f 66ac cfbf
00000280: bd03 823f 7fe6 ca3d b1e6 05c0 947b 623f
00000290: 4885 2f3d a342 44bf 70cf 83bf 152f 00c0
000002a0: 2b69 6fbc 1a14 6ebf c433 853f 1545 2cbc
000002b0: 8c3f a0bf 49cd cdbe 532d bdbe 76dd 0140
000002c0: 3800 203f 849b ab3e f6a6 0bbf 610c ebbf
000002d0: 8353 25bf 90d5 00be 3a01 68bf 36c3 0abf
000002e0: cbc0 31bf 4c9b 6ebf d9ae afbe 5abd 89bf
000002f0: 1f11 1fbf 57db 563f 0e6d 3e3d 1e19 7a3f
00000300: e830 e0bd 311f a83f b85d 613e 9ab4 9e3f
00000310: 7a0a a13e 434e 0440 30bf f5be dc5b 8e3e
00000320: 10a6 5b40 ba62 f43f 9d9b 42c0 c52e b83e
00000330: 8e29 c03e 4af5 ba3e e8ac 653f a4bf 6e3e
00000340: 1c07 c1bf c7ba 9dbf 917a e1bf 8a02 ba3e
00000350: cbc1 2f3f cc86 6abe 0d82 95be f7f9 f63e
00000360: 29ae 1b3f 5f7b 7cbf 0199 72bf 474d e0be
00000370: 3a1e ad3f d107 5c3d 68b7 8e3f bfeb 11bf
00000380: baf5 643f 145c f33f 8b6c 59be 9179 92bf
00000390: 88bc f9be 630e 433f d76a 7a3d f285 3f3f
000003a0: 81ce c73f e1be a4bf 675b c83e 079f 423f
000003b0: 9891 21bf 156f 09c0 7067 963e 81de 0a3f
000003c0: df64 e7bf d6c3 2bbf 8d64 63bf 4826 e13e
000003d0: 3a18 87bc c8be d63e 6e1a 203f 079e cfbd
000003e0: 135b 293f 60e0 71bf b9ff c6be 0f83 7f3f
000003f0: 25ec a73f 7e54 073f a4ec c1bf 0c86 9cbf

conv1.bias f4 [64]
-1.8007106e-05 -0.000103310784 2.294932e-05 0.0001804909 3.5975223e-05 -1.2933722e-05 2.3654095e-05 -7.205186e-05
-7.0377595e-05 0.00012909764 -0.00010418874 -0.0001605921 0.00015749942 -9.8885066e-05 3.5001078e-05 -2.3054658e-05
4.3473134e-05 7.488217e-05 7.194398e-05 -5.5617325e-05 0.00014980022 -0.000114058756 -1.3359777e-06 0.00013266635
9.290149e-05 5.709132e-05 -6.8683206e-05 8.366872e-05 0.000100700534 -2.5043404e-05 0.00021981925 -5.404657e-05
-6.9894944e-05 5.6641744e-05 1.1185566e-05 2.2704242e-05 2.0933458e-05 0.0005420936 4.457368e-06 3.2787964e-05
9.821193e-05 -3.4491703e-05 -0.00011926384 -2.149693e-05 0.00023027281 1.0625437e-05 -8.425657e-05 5.6497513e-05
1.7473727e-05 4.8933487e-07 -4.155336e-05 -0.00036541847 -0.00022115809 4.7928028e-05 -0.00014098073 -0.00015187956
8.4759595e-05 2.4230823e-05 0.00010614649 1.1272557e-06 -0.00013107863 -0.00013576508 6.204974e-05 -3.2732423e-05
00000000: f70d 97b7 8ea8 d8b8 4a83 c037 2842 3d39
00000010: 1ae4 1638 eafd 58b7 c86c c637 8c1a 97b8
00000020: af97 93b8 625e 0739 e77f dab8 9d64 28b9
00000030: 6e26 2539 8460 cfb8 1fce 1238 8065 c1b7
00000040: ec56 3638 0f0a 9d38 a1e0 9638 a646 69b8
00000050: b113 1d39 d432 efb8 d84f b3b5 5a1c 0b39
00000060: 1cd4 c238 5775 6f38 040a 90b8 4d77 af38
00000070: 302f d338 4d14 d2b7 487f 6639 10b0 62b8
00000080: 9094 92b8 9c92 6d38 a4a9 3b37 fd74 be37
00000090: 429a af37 491b 0e3a 8090 9536 cf85 0938
000000a0: 21f7 cd38 2fab 10b8 491d fab8 4e54 b4b7
000000b0: 6375 7139 e843 3237 e7b2 b0b8 bef7 6c38
000000c0: 8b94 9237 d65a 0335 9549 2eb8 a395 bfb9
000000d0: ace6 67b9 5406 4938 3ad4 13b9 dc41 1fb9
000000e0: f6c0 b138 4c43 cb37 f79a de38 364c 9735
000000f0: 2772 09b9 295c 0eb9 b320 8238 2c4a 09b8

conv1.lin.weight f4 [64, 512]
-0.021686414 -0.017513718 -0.043790784 -0.04670461 -0.07609481 -0.096914016 0.038481653 -0.027439073
0.024121208 0.040267106 -0.026962483 0.020977717 -0.043155327 -0.10308156 0.008226571 -0.06766532
-0.083770365 -0.034473795 -0.030800484 0.05523879 -0.041128334 0.06922869 0.005324948 0.0014340024
0.013139108 -0.0618583 -0.10461758 -0.088475354 -0.032298286 0.009981114 0.028869493 -0.012935454
0.100816734 0.018473947 0.056647006 -0.019321086 -0.047724128 -0.03279393 0.09649474 0.062269963
0.011837006 -0.043271422 -0.013638881 0.011168971 0.08172507 -0.010751565 -0.08806008 0.028410178
-0.049996004 -0.023278143 -0.09119968 0.04458124 0.072639346 8.469107e-05 0.046990376 -0.07848979
-0.06723297 0.04743252 -0.04826641 -0.07013926 0.06306011 -0.10956739 -0.013984284 -0.013768301
0.058538023 0.044619318 -0.035607122 -0.037339825 0.07582367 0.0446471 0.0036722084 -0.0018804929
0.03882238 -0.013744038 -0.061603215 -0.016140461 0.03507624 0.036186595 -0.07638985 -0.036343656
-0.08670249 -0.009887551 0.0050812927 -0.025806317 -0.01661991 0.015729565 0.10192943 0.009259958
0.036919862 0.001156618 0.04408312 -0.10994318 0.06893181 -0.034900945 -0.06054502 -0.059116077
0.09542053 0.0009603723 0.058009967 0.07714778 0.08878477 0.0033828216 0.022868145 0.09578316
0.09464914 0.05417283 0.057051428 0.03459127 -0.036681097 0.037791684 0.013627952 0.04937533
-0.06810575 0.040827595 -0.04742695 -0.014850715 -0.0122190155 0.09328517 0.08077944 -0.06985626
-0.04567498 0.079735965 -0.028061194 -0.0455483 0.053852465 0.08552512 -0.05864931 -0.032756224
0.10724897 -0.008524949 -0.07489542 0.051651504 0.08214205 -0.06934152 -0.04104816 0.013248797
-0.08914123 -0.023284446 -0.003497536 0.027878297 -0.06596381 -0.00894559 -0.04493676 -0.05578284
0.00052964647 -0.020918056 0.03937702 -0.008161906 0.09573821 -0.01848823 0.08288661 -0.07921712
0.05952516 0.035614286 0.0636912 0.07344969 0.032933384 -0.08850213 -0.020080077 0.09682111
0.042318333 -0.05915976 0.024543334 0.023945602 0.099873036 0.09021607 -0.04277376 0.026900884
-0.007580925 -0.04807656 0.08455274 -0.0433229 0.060576323 -0.015604878 0.013534806 0.03483147
-0.082680605 -0.040785402 -0.09380357 -0.0027728896 0.067165576 -0.084323905 -0.031505745 -0.017732289
0.018024126 0.054799628 0.09410949 -0.014651185 -0.031047538 0.09726071 -0.028530449 0.030482387
-0.008587705 0.06349513 0.094106026 -0.09418233 0.04884635 -0.065255165 0.027858352 -0.015101585
-0.007387598 -0.025075288 -0.08456428 0.021829432 -0.015933212 -0.023887109 0.09558755 -0.017649597
-0.025285423 -0.051130775 0.046514653 0.0043258527 0.0040565315 -0.057700273 -0.09801467 -0.09108436
-0.017326174 0.055852033 0.081869625 -0.024381544 0.08563039 -0.09464744 -0.05807458 0.031061338
-0.004275442 -0.07597675 0.014814615 -0.031792168 0.051457383 0.082868375 0.00068340864 -0.06173219
-0.04052602 0.051732633 -0.015285562 -0.02573901 0.0067936815 -0.087059416 -0.11238081 -0.019394806
0.07739613 0.01912867 0.06288409 -0.105510235 -0.046538934 0.01205662 -0.03357841 -0.10225855
0.06385792 -0.04977537 -0.09003446 0.039689124 -0.10412859 0.1074285 0.029086256 0.044393864
00000000: b5a7 b1bc ee78 8fbc f75d 33bd 554d 3fbd
00000010: 99d7 9bbd db7a c6bd f09e 1d3d e8c7 e0bc
00000020: d799 c53c 1fef 243d 6de0 dcbc 76d9 ab3c
00000030: a4c3 30bd 6d1c d3bd bdc8 063c 1e94 8abd
00000040: cc8f abbd 6534 0dbd 4c51 fcbc 1242 623d
00000050: 2f76 28bd c5c7 8d3d e77c ae3b 23f5 bb3a
00000060: 6a45 573c 215f 7dbd be41 d6bd 9132 b5bd
00000070: 354b 04bd d487 233c b77f ec3c 3aef 53bc
00000080: 0179 ce3d ad56 973c b106 683d 4147 9ebc
00000090: 607a 43bd ee52 06bd 099f c53d ca0e 7f3d
000000a0: 00f0 413c 603d 31bd 9d75 5fbc 0ffe 363c
000000b0: 795f a73d 5527 30bc d858 b4bd 76bc e83c
000000c0: 9cc8 4cbd ceb1 bebc e6c6 babd d19a 363d
000000d0: f0c3 943d 2c9c b138 fb78 403d 41bf a0bd
000000e0: 70b1 89bd 9a48 423d 00b3 45bd 2ca5 8fbd
000000f0: a925 813d de64 e0bd 571e 65bc 7194 61bc
00000100: 91c5 6f3d bfc2 363d c6d8 11bd a5f1 18bd
00000110: 7149 9b3d e1df 363d 6fa9 703b df7a f6ba
00000120: 3704 1f3d ac2e 61bc a753 7cbd 0039 84bc
00000130: 1aac 0f3d 6538 143d 4872 9cbd 16dd 14bd
00000140: 1391 b1bd 65ff 21bc f980 a63b c567 d3bc
00000150: 7a26 88bc 4adb 803c 61c0 d03d 14b7 173c
00000160: 4839 173d a999 973a 8090 343d e429 e1bd
00000170: 1f2c 8d3d 4bf4 0ebd 0efe 77bd b323 72bd
00000180: d76b c33d 7ec1 7b3a dc9b 6d3d a8ff 9d3d
00000190: cad4 b53d 54b2 5d3b fa55 bb3c f629 c43d
000001a0: 69d7 c13d 54e4 5d3d c2ae 693d 93af 0d3d
000001b0: eb3e 16bd 74cb 1a3d c647 5f3c c93d 4a3d
000001c0: 077b 8bbd d63a 273d c342 42bd 6a50 73bc
000001d0: 4432 48bc 4c0c bf3d b16f a53d cd10 8fbd
000001e0: b015 3bbd 9c4c a33d 97e0 e5bc db90 3abd
000001f0: 6794 5c3d cb27 af3d 423a 70bd 642b 06bd
00000200: 59a5 db3d 3aac 0bbc c562 99bd 8790 533d
00000210: 173a a83d ed02 8ebd 1e22 28bd 7b11 593c
00000220: ad8f b6bd 06bf bebc eb36 65bb 0761 e43c
00000230: 0918 87bd 8690 12bc 9c0f 38bd 8c7c 64bd
00000240: f9d7 0a3a 585c abbc cc49 213d 84b9 05bc
00000250: 6512 c43d a174 97bc 74c0 a93d 963c a2bd
00000260: a7d0 733d 49e0 113d 8870 823d cb6c 963d
00000270: 28e5 063d 9b40 b5bd f97e a4bc 254a c63d
00000280: fd55 2d3d 8151 72bd 1a0f c93c 9129 c43c
00000290: 3c8a cc3d 34c3 b83d 8a33 2fbd 3e5f dc3c
000002a0: 6869 f8bb edeb 44bd fd29 ad3d 5a73 31bd
000002b0: e11e 783d 9aab 7fbc 17c1 5d3c 72ab 0e3d
000002c0: 7354 a9bd 980e 27bd 161c c0bd 5eb9 35bb
000002d0: 1b8e 893d 03b2 acbd 2b0c 01bd 4e43 91bc
000002e0: 55a7 933c 9375 603d 7abc c03d 860b 70bc
000002f0: 6857 febc a030 c73d b0b8 e9bc 33b6 f93c
00000300: 72b3 0cbc bc09 823d a9ba c03d aae2 c0bd
00000310: 1c13 483d 80a4 85bd 3337 e43c a36c 77bc
00000320: aa13 f2bb b16a cdbc 0a30 adbd a3d3 b23c
00000330: 5e86 82bc e6ae c3bc 68c3 c33d e395 90bc
00000340: 6023 cfbc 816e 51bd 2686 3e3d e2bf 8d3b
00000350: a7ec 843b 1f57 6cbd eabb c8bd 708a babd
00000360: 9fef 8dbc 1ac5 643d 43ab a73d cebb c7bc
00000370: fc5e af3d 84d6 c1bd 9cdf 6dbd 5974 fe3c
00000380: 0219 8cbb b399 9bbd 00b9 723c 8138 02bd
00000390: fac4 523d e5b6 a93d c726 333a e5da 7cbd
000003a0: 9dfe 25bd 99e5 533d 4b70 7abc 9eda d2bc
000003b0: 889d de3b 354c b2bd e927 e6bd dbe1 9ebc
000003c0: dd81 9e3d bbb3 9c3c 60c9 803d c015 d8bd
000003d0: 9c9f 3ebd 2189 453c 8489 09bd ee6c d1bd
000003e0: f1c7 823d 42e1 4bbd fd63 b8bd 1091 223d
000003f0: 5f41 d5bd 7903 dc3d 4d46 ee3c 57d6 353d

conv2.bias f4 [64]
-0.00022404116 8.75811e-05 0.00020122636 -0.00021335097 -2.8416705e-05 8.5801556e-05 0.00065749674 -3.0158095e-05
0.00017129767 -1.6453487e-05 0.0001500657 0.00024934445 0.00017327518 0.00013492357 -0.0002559756 3.5713783e-05
0.00013294858 -0.00015098321 0.00022069084 2.0072686e-05 8.02781e-06 1.0222593e-06 9.80547e-06 -0.00011810145
-5.4025804e-08 -7.337936e-05 -9.97278e-05 -0.00033462496 0.00010143826 -6.640042e-05 0.00010273558 0.00047391944
-4.130725e-05 -0.00014671368 -0.00023481227 -0.0002926919 0.00019019435 -0.0005496417 -9.524509e-05 -6.330783e-05
9.630702e-05 8.742267e-05 -3.8245675e-05 -0.0003787103 6.406533e-05 -4.060554e-05 6.11212e-05 -0.00020769011
-4.6189143e-05 5.5337165e-05 0.000108758766 -6.3117895e-06 0.00018601735 -3.28047e-06 6.922247e-05 3.1470394e-05
-3.7746206e-05 -7.258958e-05 -1.8529941e-05 -0.00015383401 -0.00016497097 -1.1637384e-06 4.5142624e-05 -6.879326e-05
00000000: 97ec 6ab9 bfab b738 4a00 5339 f7b6 5fb9
00000010: 6960 eeb7 5cf0 b338 dc5b 2c3a 04fc fcb7
00000020: 5e9e 3339 9805 8ab7 f45a 1d39 72ba 8239
00000030: 34b1 3539 457a 0d39 7734 86b9 62cb 1538
00000040: 1d68 0b39 3f51 1eb9 3f69 6739 c461 a837
00000050: 2eaf 0637 9034 8935 2c82 2437 3cad f7b8
00000060: 000a 68b3 3ee3 99b8 f424 d1b8 9a70 afb9
00000070: 40bb d438 7440 8bb8 bf73 d738 6478 f839
00000080: 5241 2db8 27d7 19b9 f037 76b9 7174 99b9
00000090: e86e 4739 d515 10ba 51be c7b8 22c4 84b8
000000a0: 70f8 c938 b056 b738 fb69 20b8 a38d c6b9
000000b0: d05a 8638 de4f 2ab8 322e 8038 64c7 59b9
000000c0: 37bb 41b8 d419 6838 6b15 e438 dcc9 d3b6
000000d0: a70d 4339 0c26 5cb6 882b 9138 14ff 0338
000000e0: ae51 1eb8 3c3b 98b8 bf70 9bb7 814e 21b9
000000f0: 0ffc 2cb9 bf31 9cb5 8657 3d38 1a45 90b8

conv2.lin.weight f4 [64, 64]
0.015779655 -0.17756344 -0.006761067 0.11425483 0.08560398 0.13912839 0.14491443 0.063625626
0.015559722 0.20276947 -0.14127927 -0.15184559 -0.17848253 -0.022997325 -0.009200873 0.23910962
-0.18476512 -0.042128213 0.079568855 0.11731251 0.24065089 -0.08062578 -0.18113266 -0.051622797
0.10813989 0.15756524 0.11323063 -0.1882526 -0.089384265 0.13759549 -0.033083715 -0.060448617
0.11844153 -0.08703073 0.06395791 -0.07842561 0.020981422 0.002898098 0.14709924 0.0946894
-0.17727713 0.094809316 0.006400073 0.059946004 0.10203361 -0.14254816 0.13073924 0.049426258
0.07093039 0.11242007 -0.1877697 -0.110712446 -0.04888906 0.0682573 -0.13528033 0.033330556
-0.035108592 0.17118536 0.10185359 -0.15196452 0.07083822 0.082840465 0.2397781 0.133219
0.13117392 0.20368916 -0.084656864 0.18129618 -0.1399948 -0.088445954 0.13428174 -0.08014517
-0.114428885 -0.14257811 0.21178588 0.16707271 0.051092535 -0.23871288 0.19305786 -0.20175685
0.01616512 -0.16713873 -0.000501327 -0.10157944 -0.13410331 0.120255105 -0.16913617 0.08901487
-0.1330224 0.08038693 -0.028909147 0.0042194263 0.027707888 -0.2254632 0.03058378 0.102037266
-0.0044935183 0.064266585 0.09575238 -0.20985511 -0.13152184 -0.06940221 0.21551467 -0.006271644
0.16115063 0.040026452 -0.0861562 0.030174341 0.020985195 -0.15032732 0.1599165 -0.080319464
0.12924886 -0.07217582 0.02128007 -0.17555092 -0.040190782 -0.020968372 0.107859574 -0.0028998794
0.13323113 -0.069671415 -0.050242547 -0.0016272048 0.11840978 -0.049129497 -0.17933822 -0.06531206
0.0023589004 0.046824064 0.12568454 0.08356196 -0.12877928 0.10689214 -0.09313615 0.02839266
-0.05943194 -0.08317308 -0.1785892 -0.14605747 0.0042835413 0.0423833 -0.02406939 0.2197997
-0.1915419 -0.08232011 -0.15542635 0.120085664 -0.025704157 -0.20174952 0.17317192 0.11821352
0.12649843 0.18645096 0.025809297 -0.17841546 -0.13189664 0.030472083 0.18376426 -0.1650521
-0.08921918 0.05113497 -0.22393881 0.20371561 -0.009121921 -0.14005695 -0.11861884 0.075079255
0.02942929 0.15650006 0.18277821 -0.029232271 0.23884894 0.064892136 0.11360106 0.08874859
-0.0066427486 0.1769756 -0.20320942 -0.15540591 -0.15367815 0.03542756 -0.17026103 0.22649872
-0.05759763 0.11326045 0.09828668 0.11101827 -0.10534684 -0.020482667 0.22598048 -0.07449763
-0.17981139 -0.007414387 -0.1330074 -0.23229729 0.11477227 0.09269295 0.20899403 0.22483121
-0.027200256 0.032780517 -0.070781514 0.12162507 -0.042324338 -0.08556675 -0.17757683 0.18856719
-0.020173827 0.18118107 -0.09420101 0.11994582 -0.06671537 0.048906896 0.09897447 0.07138678
-0.030201852 0.10037905 0.16850206 0.12878528 0.16108686 -0.1413326 -0.091363534 -0.204342
0.07170132 0.12317514 0.07803604 0.0049486645 0.03275543 -0.22298343 0.14374575 0.12945496
0.15613641 0.1191835 -0.0989664 0.05046488 0.09139972 -0.017690472 -0.22942019 -0.16370066
0.06671959 0.045561012 -0.050784633 0.113614276 -0.22706784 0.21527064 0.16432206 0.16580284
-0.070071995 -0.025393467 0.07537538 0.17753267 0.13672645 0.19820789 -0.2195633 -0.009921384
00000000: 5644 813c 31d3 35be f18b ddbb 70fe e93d
00000010: 2451 af3d ac77 0e3e 7364 143e 274e 823d
00000020: 34ee 7e3c cda2 4f3e 83ab 10be 697d 1bbe
00000030: 20c4 36be e364 bcbc 42bf 16bc 27d9 743e
00000040: 1133 3dbe a28e 2cbd fff4 a23d 8b41 f03d
00000050: 306d 763e 211f a5bd d77a 39be 6d72 53bd
00000060: 7278 dd3d c858 213e 76e5 e73d 4ac5 40be
00000070: 190f b7bd d5e5 0c3e ca82 07bd f898 77bd
00000080: 7991 f23d 2b3d b2bd 5dfc 823d 9b9d a0bd
00000090: 3be1 ab3c 04ee 3d3b 2fa1 163e 84ec c13d
000000a0: 2388 35be 632b c23d b4b7 d13b f189 753d
000000b0: fff6 d03d 25f8 11be 82e0 053e 3073 4a3d
000000c0: f443 913d 7e3c e63d b346 40be 35bd e2bd
000000d0: e53f 48bd 7cca 8b3d ed86 0abe 9f85 083d
000000e0: 07ce 0fbd 374b 2f3e 9d98 d03d 969c 1bbe
000000f0: a113 913d 43a8 a93d 6488 753e 906a 083e
00000100: 7552 063e e493 503e 9460 adbd b5a5 393e
00000110: cc5a 0fbe 2723 b5bd 2781 093e 2723 a4bd
00000120: b159 eabd ffff 11be 66de 583e 1c15 2b3e
00000130: 6846 513d 2671 74be f6b0 453e 5999 4ebe
00000140: b76c 843c 6a26 2bbe 7c6b 03ba e208 d0bd
00000150: 6152 09be 4f48 f63d 0832 2dbe 6e4d b63d
00000160: 0637 08be e7a1 a43d e0d2 ecbc 1d43 8a3b
00000170: a7fb e23c d3df 66be d68a fa3c eaf8 d03d
00000180: 5d3e 93bb 339e 833d d319 c43d 42e4 56be
00000190: a9ad 06be bf22 8ebd e1af 5c3e 5d82 cdbb
000001a0: ac04 253e c7f2 233d a972 b0bd 2e30 f73c
000001b0: 25e9 ab3c 68ef 19be 27c1 233e 887e a4bd
000001c0: d059 043e ebd0 93bd 8b53 ae3c 9fc3 33be
000001d0: 179f 24bd ddc5 abbc 7be5 dc3d e70b 3ebb
000001e0: be6d 083e e3af 8ebd 21cb 4dbd ef47 d5ba
000001f0: d480 f23d 033c 49bd 70a4 37be 54c2 85bd
00000200: c897 1a3b 97ca 3f3d 73b3 003e 8822 ab3d
00000210: b7de 03be 44ea da3d 2abe bebd b997 e83c
00000220: e86e 73bd a656 aabd 16e0 36be 1790 15be
00000230: f35c 8c3b 1c9a 2d3d 2b2d c5bc 2c13 613e
00000240: 8f23 44be 7297 a8bd 1628 1fbe 79ef f53d
00000250: 8691 d2bc 6d97 4ebe fb53 313e ee19 f23d
00000260: ce88 013e 00ed 3e3e 056e d33c 8bb2 36be
00000270: ea0f 07be 97a0 f93c b32c 3c3e 6b03 29be
00000280: 8cb8 b6bd e772 513d 3750 65be d39a 503e
00000290: 1c74 15bc 176b 0fbe 6fee f2bd 27c3 993d
000002a0: b215 f13c 8d41 203e 362a 3b3e 8478 efbc
000002b0: d194 743e 2be6 843d aca7 e83d d2c1 b53d
000002c0: 6aab d9bb 1739 353e 2116 50be ba22 1fbe
000002d0: ce5d 1dbe 7d1c 113d e858 2ebe 48ef 673e
000002e0: 7eeb 6bbd 18f5 e73d 874a c93d 8c5d e33d
000002f0: 16c0 d7bd 44cb a7bc 6d67 673e 3792 98bd
00000300: 7a20 38be 63f4 f2bb 1833 08be 57df 6dbe
00000310: b90d eb3d cdd5 bd3d 8802 563e 273a 663e
00000320: 12d3 debc dd44 063d e6f5 90bd 9116 f93d
00000330: 495c 2dbd 9f3d afbd b3d6 35be c217 413e
00000340: 9543 a5bc 8887 393e 76ec c0bd 27a6 f53d
00000350: 11a2 88bd 9952 483d 20b3 ca3d 3b33 923d
00000360: e069 f7bc 8893 cd3d ce8b 2c3e 4ae0 033e
00000370: f4f3 243e 7eb9 10be ce1c bbbd 073f 51be
00000380: 24d8 923d 3f43 fc3d 5cd1 9f3d 6828 a23b
00000390: 8f2a 063d c555 64be 1632 133e d78f 043e
000003a0: 39e2 1f3e 7b16 f43d e5ae cabd 43b4 4e3d
000003b0: c72f bb3d 9ceb 90bc 20ed 6abe 25a1 27be
000003c0: 48a4 883d 2f9e 3a3d 8c03 50bd 9aae e83d
000003d0: 7984 68be e86f 5c3e 0b44 283e 38c8 293e
000003e0: e881 8fbd f605 d0bc 685e 9a3d 20cb 353e
000003f0: 0502 0c3e 02f7 4a3e 34d5 60be 4d8d 22bc

bn1.weight f4 [64]
1.0242625 1.0061975 1.0135527 0.9891776 1.0140523 1.0030158 0.97622496 0.98327863
0.97516066 0.9654151 0.9662601 0.9764146 0.9686675 1.0321285 0.98246443 0.9927492
1.0258803 0.97092474 0.97332084 0.9706724 0.9856414 1.0276603 0.98300964 0.9699079
1.0352683 1.0307107 0.97149867 0.96930754 0.9672116 1.0035619 1.0322946 0.9639036
0.9703441 0.9741931 1.0136454 1.0338464 1.0270786 1.0314773 0.97959614 1.0141888
0.98217505 0.99737513 1.0257095 1.0257021 0.9695706 0.9677009 1.0132307 1.0136594
0.9865474 0.9805273 1.0095983 1.0319446 0.96446097 1.0332977 0.99850774 1.0067095
0.97057396 1.0210989 1.0230227 1.0094075 0.96831316 1.0374485 0.99928164 1.0229677
00000000: 091b 833f 14cb 803f 18bc 813f be3a 7d3f
00000010: 77cc 813f d262 803f e1e9 793f 26b8 7b3f
00000020: 21a4 793f 7225 773f d25c 773f 4ff6 793f
00000030: 98fa 773f c91c 843f ca82 7b3f d024 7e3f
00000040: 0c50 833f 868e 783f 8e2b 793f fd7d 783f
00000050: ff52 7c3f 5f8a 833f 85a6 7b3f e24b 783f
00000060: ac83 843f 54ee 833f 23b4 783f 8a24 783f
00000070: 2e9b 773f b774 803f 3b22 843f 63c2 763f
00000080: 7968 783f b864 793f 22bf 813f 1455 843f
00000090: 5077 833f 7307 843f d0c6 7a3f f0d0 813f
000000a0: d36f 7b3f fa53 7f3f 734a 833f 354a 833f
000000b0: c735 783f 3fbb 773f 8bb1 813f 97bf 813f
000000c0: 5f8e 7c3f d603 7b3f 843a 813f c316 843f
000000d0: eae6 763f 1943 843f 349e 7f3f dbdb 803f
000000e0: 8977 783f 5eb3 823f 68f2 823f 4434 813f
000000f0: 5fe3 773f 1dcb 843f ecd0 7f3f 9bf0 823f

bn1.bias f4 [64]
0.024779538 0.006124753 0.012570169 0.003667492 0.007816644 0.0055663325 -0.020616554 -0.0139613375
-0.022927308 -0.028758695 -0.031296235 -0.0053872187 -0.014843892 0.030647473 -0.018731661 -0.0127961375
0.027781926 -0.029760694 -0.018440036 -0.016710969 -0.011001211 0.026050176 -0.0071805525 -0.025794057
0.035136573 0.029788738 -0.028289292 -0.028718103 -0.025709482 0.013383016 0.030979456 -0.025400015
-0.028507853 -0.022458248 0.014912501 0.03020919 0.022527376 0.0312882 -0.000776789 0.018963419
-0.00012599943 -0.0002831599 0.027735215 0.02523972 -0.029988348 -0.0317746 0.024916196 0.019111011
-0.022575114 -0.006268993 0.011140162 0.030389482 -0.03422542 0.031310182 0.008866389 0.015812518
-0.025102481 0.019244414 0.027386976 0.013141352 -0.022841668 0.035090886 -0.0005163392 0.027737048
00000000: 75fe ca3c 27b2 c83b 1cf3 4d3c 4e5a 703b
00000010: 6211 003c c865 b63b 0ce4 a8bc 18be 64bc
00000020: 0dd2 bbbc 5b97 ebbc 7b30 00bd 4487 b0bb
00000030: cc33 73bc 6910 fb3c 2473 99bc e4a6 51bc
00000040: ec96 e33c b3cc f3bc 8f0f 97bc 71e5 88bc
00000050: 6c3e 34bc 2e67 d53c d74a ebbb 0f4e d3bc
00000060: 5eeb 0f3d 8307 f43c f2be e7bc 3a42 ebbc
00000070: b19c d2bc 7044 5b3c a1c8 fd3c b113 d0bc
00000080: 4d89 e9bc 5cfa b7bc 9053 743c 4379 f73c
00000090: 558b b83c 0e28 003d 6da1 4bba 2c59 9b3c
000000a0: b71e 04b9 1475 94b9 f634 e33c 87c3 ce3c
000000b0: 20aa f5bc 1526 02bd 0d1d cc3c b28e 9c3c
000000c0: 72ef b8bc 206c cdbb 3a85 363c 5df3 f83c
000000d0: f42f 0cbd 1b3f 003d 5544 113c 4189 813c
000000e0: b8a3 cdbc 76a6 9d3c a75a e03c d34e 573c
000000f0: 731e bbbc 76bb 0f3d f05a 07ba ce38 e33c

bn1.running_mean f4 [64]
0.21914062 -0.66632736 -0.80682224 -1.6380527 -0.5111731 0.0047284113 0.26394016 -0.5420576
0.44662017 1.3786013 -1.791496 -1.413454 1.10069 1.1785992 2.4982176 -0.6968421
1.6762903 0.76864886 -0.26716876 1.5154926 -1.7722028 0.7098075 1.5793121 -0.16333644
1.084113 -0.93169725 0.3691143 0.29721227 -0.5924256 0.26649728 -1.4651651 -0.13622162
0.95729625 0.16679302 0.27286622 -1.318845 0.5016957 -1.7173616 0.43717778 0.30590254
-1.1471875 0.23483846 -1.3535937 0.008365842 -2.393866 -0.049551517 -0.49472123 2.2245166
0.18788444 -0.26286814 2.11572 1.6738728 -2.7714822 -0.23384441 -1.4344047 -2.1048121
2.5354302 -0.15385705 0.71486354 0.1440153 -1.6634058 0.8161925 -1.9423363 0.54736114
00000000: 6666 603e 6e94 2abf e78b 4ebf b6ab d1bf
00000010: 3edc 02bf caf0 9a3b 2a23 873e 49c4 0abf
00000020: 66ab e43e 0276 b03f be4f e5bf 10ec b4bf
00000030: 69e3 8c3f 57dc 963f cce2 1f40 3e64 32bf
00000040: ae90 d63f 2cc6 443f 58ca 88be a9fb c13f
00000050: 8bd7 e2bf f2b5 353f e626 ca3f ab41 27be
00000060: 37c4 8a3f b683 6ebf 8dfc bc3e 352c 983e
00000070: 34a9 17bf 5572 883e 888a bbbf ae7d 0bbe
00000080: 5e11 753f cacb 2a3e 1fb5 8b3e eacf a8bf
00000090: 216f 003f 81d2 dbbf c4d5 df3e 429f 9c3e
000000a0: 0ad7 92bf 7e79 703e 8f42 adbf e210 093c
000000b0: 1a35 19c0 88f6 4abd 1a4c fdbe 7b5e 0e40
000000c0: c764 403e a796 86be f567 0740 7741 d63f
000000d0: f75f 31c0 e974 6fbe 939a b7bf 3eb5 06c0
000000e0: 7d44 2240 b48c 1dbe 4c01 373f bf78 133e
000000f0: 7bea d4bf fef1 503f 7a9e f8bf dc1f 0c3f

bn1.running_var f4 [64]
0.7512381 0.25404984 0.5323039 0.40197554 0.44673645 0.43133911 0.5413088 0.47600237
0.33704448 0.36905038 0.4428454 0.49594215 0.5755657 0.54575974 0.57174075 0.41178244
0.45085806 0.40999538 0.3539068 0.50836414 0.3952519 0.5396291 0.31117633 0.51786953
0.3908022 0.28597355 0.3908546 0.59912723 0.2654691 0.5011135 0.5470729 0.583903
0.52349675 0.4823324 0.41236857 0.58426976 0.47048172 0.4007303 0.48808712 0.65725106
0.48273924 0.49028412 1.092951 0.29633686 0.5378841 0.61949646 0.4478939 0.4409678
0.5221223 0.7162069 0.468948 0.5053846 0.40666708 0.3173868 0.70853454 0.6595424
0.3383783 0.55408216 0.6322127 0.41636828 0.32131737 0.7433754 0.84737027 0.4970266
00000000: 2451 403f d212 823e 1245 083f bdcf cd3e
00000010: a4ba e43e 7bd8 dc3e 3793 0a3f 95b6 f33e
00000020: 1891 ac3e 2cf4 bc3e a2bc e23e 21ec fd3e
00000030: 4658 133f e9b6 0b3f 9a5d 123f 26d5 d23e
00000040: ded6 e63e eaea d13e 4633 b53e 2724 023f
00000050: 755e ca3e 2225 0a3f 8152 9f3e 1993 043f
00000060: 3a17 c83e 206b 923e 181e c83e 6760 193f
00000070: 91eb 873e f948 003f f80c 0c3f ab7a 153f
00000080: e203 063f 46f4 f63e f921 d33e b492 153f
00000090: fbe2 f03e 862c cd3e 8ee6 f93e 9b41 283f
000000a0: 9929 f73e 8506 fb3e d2e5 8b3f 77b9 973e
000000b0: c6b2 093f 5297 1e3f 5952 e53e 88c6 e13e
000000c0: cfa9 053f 5659 373f f419 f03e e360 013f
000000d0: ab36 d03e 8680 a23e 8562 353f c5d7 283f
000000e0: ec3f ad3e 54d8 0d3f b1d8 213f 392e d53e
000000f0: b683 a43e da4d 3e3f 42ed 583f 457a fe3e

bn2.weight f4 [64]
0.9640932 1.0264691 0.9714689 1.0388864 0.9593264 1.0347888 0.9605159 0.96195817
1.0065213 0.989994 0.9606864 0.96271473 0.9690889 1.0249206 0.96816385 1.0361582
1.0322603 1.0341656 1.0155402 1.0195347 1.0337083 0.9946483 1.0433402 0.97316617
0.9625109 0.9670008 1.0390098 1.0419023 0.9604593 0.96218514 1.0071523 0.9608716
0.97992045 0.9565603 1.0329256 1.031853 0.9656364 0.9666985 1.0342915 0.9724102
0.96147203 0.9948448 1.0318838 1.0315809 0.9787826 1.0373377 0.963497 0.96095943
1.0267036 1.0145704 0.9911298 1.0300543 1.0300852 1.0314509 1.0361861 0.97386825
1.0283688 0.96616113 1.0429196 0.995427 0.98666435 0.96777314 0.99692255 1.0212902
00000000: d0ce 763f 5763 833f 30b2 783f 3bfa 843f
00000010: 6a96 753f f673 843f 5fe4 753f e442 763f
00000020: b1d5 803f 3f70 7d3f 8bef 753f 7974 763f
00000030: 3616 783f 9930 833f 96d9 773f d5a0 843f
00000040: 1b21 843f 8a5f 843f 39fd 813f 1d80 823f
00000050: 8e50 843f 45a1 7e3f 2c8c 853f 6b21 793f
00000060: 1d67 763f 5d8d 773f 46fe 843f 0e5d 853f
00000070: a9e0 753f c451 763f 5eea 803f aefb 753f
00000080: 11dc 7a3f 23e1 743f e836 843f c213 843f
00000090: f233 773f 8e79 773f aa63 843f e0ef 783f
000000a0: 0823 763f 26ae 7e3f c514 843f d80a 843f
000000b0: 7f91 7a3f 7bc7 843f bda7 763f 7001 763f
000000c0: 066b 833f 71dd 813f afba 7d3f d2d8 833f
000000d0: d5d9 833f 9506 843f bfa1 843f 6e4f 793f
000000e0: 97a1 833f 5656 773f 647e 853f 4ed4 7e3f
000000f0: 0996 7c3f fbbf 773f 5136 7f3f a3b9 823f

bn2.bias f4 [64]
-0.03450474 0.0246752 -0.024594676 0.029223807 -0.037534334 0.036943823 -0.035738684 -0.031775232
0.004610839 -0.02745143 -0.033972338 -0.036380798 -0.029482845 0.016621305 -0.031146996 -0.010005543
0.026267659 0.010719948 -0.015424768 -0.022190206 0.037424233 -0.03808036 0.034983087 -0.031499833
-0.03346037 -0.03022982 0.0021828795 0.034633253 -0.036540896 -0.033479813 -0.042073563 -0.037135676
-0.024064507 -0.037257865 0.03645638 0.021426966 -0.031682916 -0.032313004 0.037081476 -0.027147572
-0.036603898 -0.032041445 0.033388052 -0.0029523957 -0.02289487 0.03979738 -0.035693992 -0.036364216
0.00984533 0.006945453 -0.02307651 0.033492245 0.028390879 0.035801217 0.040825237 -0.025999708
0.032974955 -0.032817546 0.032278948 0.030640967 -0.03759168 -0.030902904 -0.035402764 -0.028367756
00000000: d854 0dbd a523 ca3c c67a c9bc c466 ef3c
00000010: 9abd 19bd 6852 173d ba62 12bd bf26 02bd
00000020: 8516 973b d2e1 e0bc 9426 0bbd 0804 15bd
00000030: 0286 f1bc 6729 883c fc27 ffbc 4aee 23bc
00000040: 462f d73c b9a2 2f3c 2bb8 7cbc 3cc8 b5bc
00000050: 274a 193d 27fa 1bbd 6d4a 0f3d f805 01bd
00000060: be0d 09bd 87a4 f7bc a40e 0f3b 99db 0d3d
00000070: e8ab 15bd 2122 09bd 5455 2cbd 941b 18bd
00000080: ee22 c5bc b49b 18bd 4953 153d 9b87 af3c
00000090: f2c5 01bd a45a 04bd bfe2 173d 9664 debc
000000a0: f8ed 15bd e43d 03bd e9c1 083d fb7c 41bb
000000b0: 068e bbbc 9402 233d dd33 12bd a5f2 14bd
000000c0: 4f4e 213c af96 e33b f30a bdbc 2a2f 093d
000000d0: fd93 e83c 4ca4 123d 5d38 273d 57fd d4bc
000000e0: bf10 073d b16b 06bd ee36 043d c402 fb3c
000000f0: bcf9 19bd 1628 fdbc 7d02 11bd 7f63 e8bc

bn2.running_mean f4 [64]
0.4920564 -0.22132325 0.20681582 0.5726897 0.11483778 -0.17099267 -0.51386786 0.1572299
-0.5805657 0.48746067 -0.10367931 -0.104314774 0.5436238 0.68703926 0.31498358 -0.22638454
0.55909324 0.36448556 0.5262423 -0.02371677 0.10877005 0.17675479 -0.009629743 -0.406188
-0.23214546 0.5491779 0.58487165 0.5531795 -0.31592 0.13718437 -0.43267342 0.81702584
0.13723572 -0.25684732 0.4472847 0.50149596 0.46001926 0.3585557 0.3469718 0.59556496
0.7038652 0.710917 0.034858804 0.25914514 0.38299987 -0.056842428 -0.14555666 0.3895095
-0.16760598 0.8054701 0.11169773 -0.12811756 -0.4664568 -0.3400534 -0.10414314 -0.3054773
0.15303509 0.41611633 -0.0038687917 -0.13480982 -0.74611765 0.011326107 0.062208034 0.19500463
00000000: d1ee fb3e 90a2 62be 87c7 533e cb9b 123f
00000010: 1230 eb3d b418 2fbe d88c 03bf e000 213e
00000020: f49f 14bf 7294 f93e d155 d4bd fca2 d5bd
00000030: ee2a 0b3f cee1 2f3f 8745 a13e 59d1 67be
00000040: bc20 0f3f da9d ba3e d1b7 063f ac49 c2bc
00000050: d5c2 de3d 35ff 343e 12c6 1dbc e0f7 cfbe
00000060: 8ab7 6dbe ec96 0c3f 26ba 153f 2c9d 0d3f
00000070: 44c0 a1be 0f7a 0c3e 5f87 ddbe 9b28 513f
00000080: 8587 0c3e 7e81 83be 8002 e53e 0a62 003f
00000090: a587 eb3e 9d94 b73e 4aa6 b13e f276 183f
000000a0: 8230 343f a8fe 353f 1bc8 0e3d acae 843e
000000b0: 8f18 c43e 9bd3 68bd ce0c 15be ca6d c73e
000000c0: e7a0 2bbe 4a33 4e3f c8c1 e43d 4031 03be
000000d0: 6dd3 eebe 7b1b aebe 0049 d5bd 8567 9cbe
000000e0: 3bb5 1c3e 330d d53e 8e8b 7dbb 960b 0abe
000000f0: 9101 3fbf 2391 393c dacd 7e3d 4baf 473e

bn2.running_var f4 [64]
0.15169407 0.25483724 0.3138599 0.54143137 0.17702553 0.23510718 0.22826356 0.21852043
0.76326805 0.3319646 0.19281594 0.30387244 0.18012325 0.29300767 0.3325261 0.5285545
0.308398 0.28424573 0.24130285 0.13570315 0.20309329 0.23501107 0.30437863 0.21186809
0.38613302 0.21113665 0.41913596 0.39916292 0.37716845 0.33678016 0.26065546 0.27839383
0.27436543 0.17574829 0.19468482 0.22631164 0.29471698 0.10899359 0.24398643 0.2207017
0.2741083 0.17117621 0.28565502 0.22931837 0.335911 0.24871612 0.24924965 0.21175773
0.2556684 0.23916066 0.38553017 0.42043942 0.4443011 0.31764093 0.32781672 0.18143535
0.23383196 0.26383662 0.43436646 0.24418877 0.33680835 0.3545625 0.24853481 0.3166529
00000000: b155 1b3e 077a 823e 3fb2 a03e 3f9b 0a3f
00000010: 2e46 353e f0bf 703e ecbd 693e d2c3 5f3e
00000020: 8965 433f 44f7 a93e 8b71 453e 2b95 9b3e
00000030: 3b72 383e 1a05 963e dc40 aa3e 594f 073f
00000040: 58e6 9d3e a888 913e 1818 773e c4f5 0a3e
00000050: b0f7 4f3e bea6 703e 84d7 9b3e f3f3 583e
00000060: 3ab3 c53e 3534 583e fd98 d63e 155f cc3e
00000070: 391c c13e 736e ac3e a274 853e a389 8e3e
00000080: a079 8c3e 5cf7 333e 755b 473e 3dbe 673e
00000090: 25e5 963e 0838 df3d 94d7 793e a0ff 613e
000000a0: ec57 8c3e d148 2f3e 6041 923e 6fd2 6a3e
000000b0: 87fc ab3e 70af 7e3e 4d3b 7f3e 05d7 583e
000000c0: f8e6 823e 88e6 743e 3664 c53e d643 d73e
000000d0: 6f7b e33e d5a1 a23e 98d7 a73e 30ca 393e
000000e0: a571 6f3e 9815 873e 4865 de3e 9f0c 7a3e
000000f0: 2572 ac3e 3789 b53e e97f 7e3e 5420 a23e

classifier.weight f4 [10, 64]
0.06816428 0.08749304 0.060491204 0.062489305 0.11168518 -0.0608792 -0.14704683 -0.08826208
0.15534365 0.010064698 -0.0460761 0.0901146 -0.08562204 0.0777175 0.0858882 -0.06212808
0.018090304 -0.09607162 0.118726805 -0.10331106 -0.053398665 -0.00394281 -0.117459856 -0.05137922
-0.13737273 -0.11513737 0.13832098 -0.02194267 0.056063276 -0.14864363 0.07663229 -0.08512883
-0.10046504 0.068173744 -0.0928856 -0.037237737 -0.096361235 0.09614522 0.16090727 -0.12938051
-0.0595654 -0.13030368 0.003095678 0.008069225 0.05498126 -0.0024518154 -0.04047883 0.10535273
0.02623515 -0.0010843899 0.006126354 -0.05147535 -0.03127151 -0.08309632 -0.032536082 0.06385724
-0.070459284 -0.010474329 -0.12519963 0.08904338 0.064647675 -0.017524498 -0.093681894 -0.08992666
0.00043033613 -0.036957815 -0.1297378 -0.0954146 0.16202839 0.15382491 -0.13505611 0.02028057
0.07153006 0.08996074 0.116012536 0.06826274 0.07665221 -0.04810478 -0.06571504 0.0015865203
0.01123753 -0.081751704 0.042990748 0.008302991 0.099320225 0.025299199 -0.10939097 0.078564934
0.06301291 0.09982604 -0.0042621633 -0.018737534 0.16581456 0.036238864 -0.037196994 -0.07520142
-0.061336506 -0.042207073 -0.04728973 0.08595886 0.06702405 0.0006115269 0.06436487 -0.11987208
-0.0832091 -0.05536385 -0.114078395 0.056286275 -0.016658295 0.033824377 -0.028755063 0.012128144
0.03893665 -0.05307017 -0.08955448 -0.060427632 -0.07284141 0.016498754 0.07506862 0.110650234
-0.026221681 0.14313683 -0.0027991831 0.032677148 0.04794894 0.04777692 -0.042939615 0.029242694
-0.0003343443 0.06779226 0.11912002 0.004926232 -0.07364608 -0.03678259 -0.04923769 -0.12622552
0.041595146 0.055188607 0.03394446 -0.1291228 -0.07873449 -0.101978935 -0.0017561078 -0.03666856
0.033673413 0.050387606 0.13968349 0.115383975 -0.10385948 0.07574023 -0.053118993 -0.03110213
0.10814918 0.019138262 0.038646817 -0.011579703 -0.13866414 -0.07378842 0.09376991 -0.084830984
-0.07976211 0.026359756 -0.11535394 -0.076821804 0.06045978 0.10575971 -0.13209926 -0.06206254
-0.067467965 0.02151995 -0.088438235 0.10121689 0.13696371 0.06295157 0.040909316 -0.056676894
-0.037694648 0.041043457 0.11457823 -0.12631309 -0.057530012 0.13388243 0.100385115 0.022461832
-0.057820167 -0.10370712 -0.06934196 -0.11649627 -0.06539627 0.058462795 -0.09430768 0.0058310395
-0.09402132 -0.045049835 0.0053161723 0.123876125 0.0061961184 0.04733008 -0.11033742 0.098157845
0.0070870374 0.011826352 0.11220342 -0.057352643 0.07842933 0.02956036 -0.080874465 0.072402574
0.05655569 -0.024829172 -0.050726794 -0.01733297 0.04231244 0.0741935 0.0030268803 -0.0018755489
-0.08417202 0.004472211 0.005338721 0.12830141 -0.124756604 0.01899723 -0.09693962 0.036617212
0.069753155 -0.07725566 0.11514542 -0.06556303 0.081136346 0.010139407 -0.042970877 -0.005315605
0.13877925 0.02433138 -0.024133144 0.07474384 -0.06624513 0.12798983 -0.12624095 0.08565366
-0.049238607 -0.07595613 0.02613405 -0.11546293 0.08682547 0.114574276 -0.055997573 -0.012772683
-0.0029406087 -0.013627567 0.13553043 0.027476378 -0.1353098 0.06371998 -0.07269926 -0.007876184
00000000: b799 8b3d 8d2f b33d a0c5 773d c9f4 7f3d
00000010: 33bb e43d 785c 79bd 7293 16be c0c2 b4bd
00000020: 6812 1f3e 67e6 243c 4bba 3cbd 018e b83d
00000030: 9c5a afbd 5a2a 9f3d 27e6 af3d 037a 7ebd
00000040: 1e32 943c 33c1 c4bd 0a27 f33d c094 d3bd
00000050: 8fb8 5abd b032 81bb cb8e f0bd 0473 52bd
00000060: 70ab 0cbe 24cd ebbd 04a4 0d3e 1dc1 b3bc
00000070: 9ba2 653d 0936 18be 64f1 9c3d 0658 aebd
00000080: 9dc0 cdbd ad9e 8b3d ce3a bebd 9986 18bd
00000090: 0a59 c5bd c9e7 c43d e0c4 243e 537c 04be
000000a0: d9fa 73bd 546e 05be dce0 4a3b c834 043c
000000b0: 0834 613d a3ae 20bb 21cd 25bd 2cc3 d73d
000000c0: 19eb d63c 1622 8eba 95bf c83b d1d7 52bd
000000d0: 8e16 00bd 672e aabd 8e44 05bd 96c7 823d
000000e0: f54c 90bd 859c 2bbc 5534 00be 605c b63d
000000f0: 0066 843d 898f 8fbc 4bdc bfbd 782b b8bd
00000100: bd9e e139 1461 17bd fcd9 04be bb68 c3bd
00000110: c5ea 253e 4784 1d3e 264c 0abe 7023 a63c
00000120: 5a7e 923d 563d b83d fb97 ed3d 56cd 8b3d
00000130: d5fb 9c3d 8509 45bd 9b95 86bd caf2 cf3a
00000140: 9e1d 383c 706d a7bd 1117 303d 4509 083c
00000150: 6768 cb3d 4440 cf3c 5f08 e0bd a7e6 a03d
00000160: ea0c 813d 9871 cc3d 9ea9 8bbb 757f 99bc
00000170: 4bcb 293e 346f 143d e05b 18bd 3403 9abd
00000180: fd3b 7bbd 53e1 2cbd e0b2 41bd 330b b03d
00000190: e843 893d e04e 203a bbd1 833d 7e7f f5bd
000001a0: 8869 aabd 34c5 62bd efa1 e9bd 708c 663d
000001b0: fa76 88bc 6e8b 0a3d bd8f ebbc 1fb5 463c
000001c0: 097c 1f3d 1b60 59bd 5768 b7bd f782 77bd
000001d0: e12d 95bd 6528 873c 94bd 993d 979c e23d
000001e0: dace d6bc 7692 123e 8072 37bb 79d8 053d
000001f0: 1c66 443d bbb1 433d 73e1 2fbd 608e ef3c
00000200: ef4a afb9 abd6 8a3d 32f5 f33d 3b6c a13b
00000210: c2d3 96bd 57a9 16bd 76ad 49bd 4341 01be
00000220: ac5f 2a3d 730d 623d 5909 0b3d c438 04be
00000230: 8c3f a1bd 55da d0bd 332d e6ba c631 16bd
00000240: 22ed 093d 3c63 4e3d 3009 0f3e 6f4e ec3d
00000250: 47b4 d4bd b21d 9b3d 4d93 59bd e5c9 febc
00000260: 517d dd3d d8c7 9c3c 204c 1e3d cbb8 3dbc
00000270: f9fd 0dbe 621e 97bd 700a c03d debb adbd
00000280: 515a a3bd 6af0 d73c b03e ecbd c054 9dbd
00000290: ada4 773d 8c98 d83d 0745 07be 4a35 7ebd
000002a0: a52c 8abd 9b4a b03c 1b1f b5bd cd4a cf3d
000002b0: 3740 0c3e c1ec 803d 8790 273d 0826 68bd
000002c0: b465 1abd 2f1d 283d fea7 ea3d 3858 01be
000002d0: 97a4 6bbd 7a18 093e b696 cd3d e001 b83c
000002e0: d7d4 6cbd 6664 d4bd 2803 8ebd 9995 eebd
000002f0: 7bee 85bd af76 6f3d 6324 c1bd 4e12 bf3b
00000300: 408e c0bd 2d86 38bd 4933 ae3b c4b2 fd3d
00000310: cf08 cb3b 30dd 413d 96f8 e1bd fb06 c93d
00000320: 613a e83b 51c3 413c e8ca e53d 9bea 6abd
00000330: 8e9f a03d 9128 f23c 83a1 a5bd cd47 943d
00000340: f0a6 673d 8c66 cbbc e6c6 4fbd dffd 8dbc
00000350: cf4f 2d3d c3f2 973d a05e 463b fad4 f5ba
00000360: 6162 acbd a08b 923b 70f0 ae3b 7261 033e
00000370: 6480 ffbd 14a0 9b3c 4888 c6bd eefb 153d
00000380: beda 8e3d 3738 9ebd 5dd1 eb3d e945 86bd
00000390: d02a a63d c11f 263c 3b02 30bd 872e aebb
000003a0: 261c 0e3e 9a52 c73c dfb2 c5bc 4c13 993d
000003b0: 87ab 87bd c40f 033e 4f45 01be 306b af3d
000003c0: 6cae 49bd e38e 9bbd 1317 d63c d477 ecbd
000003d0: 8dd1 b13d eba5 ea3d b65d 65bd 8444 51bc
000003e0: 3ab7 40bb 2946 5fbc 7dc8 0a3e 2416 e13c
000003f0: a78e 0abe 9f7f 823d 5ae3 94bd 1c0b 01bc

classifier.bias f4 [10]
0.0544192 0.025065 0.038139805 0.0932049 -0.009551989 0.02496485 -0.04571337 0.037702527
-0.042376067 0.024116
00000000: abe6 5e3d 1d55 cd3c 7c38 1c3d 36e2 be3d
00000010: f27f 1cbc 1683 cc3c f13d 3bbd f76d 1a3d
00000020: 8792 2dbd eb8e c53c

exp_avg f4 [100, 64]
-0.0011819503 -4.8279115e-05 -0.0028366675 0.00014571453 0.0001960651 -6.15381e-05 0.0003154813 0.0018918434
-0.0013898291 -0.0011349545 -0.00028563399 0.0010032178 0.00020536878 0.000687834 0.00019799004 0.00097173033
-0.0021546597 0.0029633793 -0.00064587226 5.9860748e-05 0.0008040261 -0.0010098483 -0.0034783673 -0.0006001304
0.00056639034 0.002633852 0.00042264888 -0.0029029364 0.0010895843 -0.00072314416 0.00571306 -0.0024316474
0.0007002442 0.0015255329 0.00020524708 -0.0002083945 0.0017960549 -0.002098849 9.875293e-05 0.00015658708
-0.00034950554 0.003939903 -0.00038289547 -0.00033371738 0.0005989665 -0.0054052216 0.0004407781 0.0044000885
0.0016639628 -0.0009587692 0.003105743 -0.0022511764 -0.00038084434 -0.0035646237 -1.704452e-05 3.766019e-05
-0.003133448 0.0005572109 -0.00016838356 -0.0018807362 -0.0014455576 0.0013591716 0.0009904656 0.002106535
-0.00073046156 -0.0009417554 -0.002267805 0.0008381146 -0.00026325235 -0.0008918554 0.00032253267 0.0012517029
-0.0019279271 -0.00046775214 -0.00014451183 0.00026601774 0.00021664255 0.00012380042 0.0006078853 0.0016165306
-0.0016747789 0.0021069136 -0.00024016136 -0.000101854006 -0.00034816767 -0.0006505707 -0.0026302931 -0.0002492955
0.0004430733 0.0021969643 0.00055122556 -0.0019235 -5.865221e-05 -0.00029271794 0.0047463397 -0.0024254434
0.0009835276 0.0012111906 0.0004840669 8.483383e-06 0.0013667657 -0.0018984358 -0.000139271 0.00062604557
2.594613e-06 0.004038954 -0.00041315492 0.0005485327 0.0010406318 -0.0044110967 -0.00031215942 0.004124363
0.0018332266 -0.0011881874 0.0035764268 -0.00270746 -0.0011018005 -0.004370623 0.00011659252 0.00012461747
-0.0032258448 0.00036995963 0.0005704423 -0.0022182916 -0.0016224291 0.0013996089 0.0014761937 0.0024236515
-0.0009880592 -0.00036540293 -0.0027867905 0.0004910139 0.0003153965 0.00010053342 -0.00016077048 0.0018947484
-0.001425944 -0.00034293678 5.33281e-05 0.0009953307 -0.0002937288 0.00084931165 0.00025455022 0.0017082711
-0.0025193868 0.0029654321 -0.0007450914 4.622116e-05 0.00048692527 -0.0011913853 -0.0031168754 -0.0007423064
-3.945796e-05 0.0027134465 0.0011328048 -0.0023469012 0.00064616604 -0.0010452495 0.0046817954 -0.002181538
0.0012042128 0.0018890711 0.0008371344 0.00017357223 0.0020578755 -0.0018968008 0.00023685549 0.0004720796
-6.523907e-05 0.0036771738 -0.0010774465 0.00040974416 0.0009840068 -0.0046885945 3.0751444e-06 0.0041005756
0.001194644 -0.0005008204 0.0033368277 -0.0023702495 -0.00025572345 -0.004092428 0.00068546284 0.0004652498
-0.0027225597 0.00083487405 0.0003679418 -0.0016753525 -0.0019460289 0.0019126708 0.0013891573 0.0016960264
-0.00083451485 -0.0018411608 -0.0020283086 0.0011586429 -0.000754115 -0.0019732143 0.0005608406 0.0010453757
-0.0030201378 -0.0002942503 -0.00047729423 -0.0007321324 0.00045394123 0.00010126672 0.0008874302 0.0018153376
-0.0016322148 0.0020749983 -0.0001456832 -0.00056570885 -0.0012764368 -0.000343884 -0.0027574676 0.00012839983
0.00045628284 0.0023740395 0.00028062187 -0.0018003616 -0.0006496058 7.641188e-06 0.0053580487 -0.0030819257
0.0016200229 0.0003709862 0.0002568725 -0.00019853393 0.0013034085 -0.0018650447 -0.0014507922 0.00091331353
0.0004318973 0.004764336 -0.00043101667 0.000891039 0.001195962 -0.004705492 -0.0007629269 0.0051456694
0.0023278217 -0.0014142002 0.0040571727 -0.004072284 -0.0017588367 -0.005076758 -0.00017122066 -3.0824096e-05
-0.004939611 0.00016045665 0.00084277807 -0.003471678 -0.0021351988 0.0014322845 0.0015563908 0.0028880115
00000000: aceb 9aba 4e7f 4ab8 62e7 39bb f2ca 1839
00000010: d396 4d39 040e 81b8 2f67 a539 bbf7 f73a
00000020: ed2a b6ba c1c2 94ba 25c1 95b9 677e 833a
00000030: 4358 5739 c24f 343a 8c9b 4f39 b8bb 7e3a
00000040: 3135 0dbb 4135 423b c14f 29ba fd12 7b38
00000050: 47c5 523a e35c 84ba 52f5 63bb 1252 1dba
00000060: d079 143a b49c 2c3b f996 dd39 313f 3ebb
00000070: 62d0 8e3a 6291 3dba 9f34 bb3b 465c 1fbb
00000080: 9890 373a 64f4 c73a 9837 5739 7984 5ab9
00000090: 9a69 eb3a d88c 09bb 9319 cf38 8631 2439
000000a0: d73d b7b9 4d1a 813b 5cbf c8b9 caf6 aeb9
000000b0: f603 1d3a 491e b1bb 3c18 e739 9e2e 903b
000000c0: 5419 da3a e955 7bba b989 4b3b 7988 13bb
000000d0: 10ac c7b9 769c 69bb d4fa 8eb7 52f5 1d38
000000e0: 895a 4dbb ca11 123a 1e90 30b9 0983 f6ba
000000f0: dd78 bdba 3b26 b23a 83d2 813a cb0d 0a3b
00000100: 727c 3fba 23e0 76ba 749f 14bb ebb4 5b3a
00000110: 2205 8ab9 67cb 69ba 9a19 a939 2e10 a43a
00000120: 80b2 fcba a13c f5b9 1988 17b9 4c78 8b39
00000130: 8b2a 6339 6cd0 0139 7e5a 1f3a c4e1 d33a
00000140: 4184 dbba 2514 0a3b d3d3 7bb9 749a d5b8
00000150: 468a b6b9 108b 2aba ff60 2cbb e0b3 82b9
00000160: 4b4c e839 f2fa 0f3b 1f80 103a f31d fcba
00000170: 5501 76b8 f077 99b9 2f87 9b3b 30f4 1ebb
00000180: b6e9 803a d0c0 9e3a 5cca fd39 da53 0e37
00000190: 0c25 b33a efd4 f8ba 4609 12b9 351d 243a
000001a0: 1d1f 2e36 3459 843b b79c d8b9 68cb 0f3a
000001b0: cf65 883a f68a 90bb 54a9 a3b9 aa25 873b
000001c0: e148 f03a f4bc 9bba 7c62 6a3b a46f 31bb
000001d0: 4a6a 90ba 7137 8fbb 2283 f438 bfab 0239
000001e0: b268 53bb 24f7 c139 bc89 153a c260 11bb
000001f0: b0a7 d4ba 1573 b73a d77c c13a 20d6 1e3b
00000200: c481 81ba 8d93 bfb9 96a2 36bb 63b7 003a
00000210: cd5b a539 78d5 d238 7f94 28b9 3559 f83a
00000220: bee6 baba 32cc b3b9 9dac 5f38 c275 823a
00000230: 9dff 99b9 57a4 5e3a 2775 8539 11e8 df3a
00000240: 4c1c 25bb b257 423b 3d52 43ba 98dd 4138
00000250: 014a ff39 4228 9cba 7e44 4cbb 5797 42ba
00000260: a97f 25b8 14d4 313b 9f7a 943a 78ce 19bb
00000270: 7863 293a c100 89ba bf69 993b 22f8 0ebb
00000280: add6 9d3a b59a f73a 2373 5b3a f100 3639
00000290: 6cdd 063b 139e f8ba 695c 7839 7481 f739
000002a0: f6d0 88b8 bdfc 703b 1b39 8dba eed2 d639
000002b0: caf9 803a c8a2 99bb 945e 4e36 1f5e 863b
000002c0: 9a95 9c3a 7d49 03ba aeae 5a3b 3056 1bbb
000002d0: 9f12 86b9 c619 86bb a2b0 333a c5ec f339
000002e0: f96c 32bb 73db 5a3a 50e8 c039 8097 dbba
000002f0: e511 ffba 95b2 fa3a 6214 b63a 344d de3a
00000300: 58c3 5aba 1b53 f1ba 5fed 04bb 9bdd 973a
00000310: cdaf 45ba 0b51 01bb 6005 133a fd04 893a
00000320: 81ed 45bb 9b45 9ab9 593d fab9 93ec 3fba
00000330: f6fe ed39 285f d438 6fa2 683a 9ff0 ed3a
00000340: 0af0 d5ba b2fc 073b 89c2 18b9 144c 14ba
00000350: 1d4e a7ba 544b b4b9 a1b6 34bb 11a3 0639
00000360: 3f39 ef39 c695 1b3b 6e20 9339 1cfa ebba
00000370: 4f4a 2aba a732 0037 9292 af3b 22fa 49bb
00000380: f356 d43a ed80 c239 d8ac 8639 8c2d 50b9
00000390: 22d7 aa3a 8474 f4ba 8228 beba 6f6b 6f3a
000003a0: 4670 e239 261e 9c3b 14fa e1b9 9d94 693a
000003b0: d3c1 9c3a 8730 9abb 28ff 47ba 019d a83b
000003c0: 5e8e 183b af5c b9ba 08f2 843b cb70 85bb
000003d0: c488 e6ba ef5a a6bb b289 33b9 1f49 01b8
000003e0: 76dc a1bb 4140 2839 e1ed 5c3a 1785 63bb
000003f0: b1ee 0bbb 7ebb bb3a cfff cb3a cb44 3d3b
