checkpoints/checkpoint_epoch_80.pt (torch, 547720 bytes, 37 tensors)

prototypes f4 [100, 64]
0.1563343 -0.27859083 -0.07604529 2.2208805 -0.66460985 0.6760173 0.20254295 -0.89562243
0.0964374 2.9649887 -1.0019288 -0.9840097 -0.56203467 -1.042222 -0.65456975 1.6413606
-0.7198737 0.37086505 1.0002068 1.5174694 -2.2179642 -0.17099231 -0.39702573 0.16516574
0.25566965 0.23457451 0.21432851 0.7890116 -0.5188093 0.5990002 -0.43521848 0.32632416
-1.8874167 1.4739605 -0.36074182 0.25404757 -0.28764942 -0.806518 0.8626547 -1.9189422
-0.4638287 0.023592455 1.1841172 0.45777035 1.2147094 -0.14355712 -0.2669462 0.19455275
1.871079 -0.44415078 0.20056564 -0.5543144 -0.68411607 -0.7877234 -0.6128296 0.5104977
1.316234 -0.27179158 0.1338243 -1.874877 -0.2026509 0.8607139 -0.30844277 1.3327852
-0.044022176 1.8253981 -1.0957001 0.1320859 -1.2906789 -0.88944995 -0.4233357 0.022819394
-0.4221154 -0.12428134 0.13256302 0.9626747 0.009679961 0.8310575 -1.0181414 -0.29777065
0.5568474 0.7481732 -0.8288108 -0.4857458 0.3769628 -1.9822148 0.90508497 0.4674732
-1.2125497 1.745018 -1.5482343 -0.18274745 1.6790589 0.4887129 0.57884943 -0.47772458
1.0003744 -1.0782294 -1.8220435 -0.1837703 1.3467548 -0.9409221 -0.38009867 -0.4256217
-1.179799 -1.2777928 0.0077212593 -0.45886943 -1.2411484 0.17289504 0.4044404 1.837491
-0.13881166 -0.2476399 -1.9043106 -1.021137 -0.0429215 1.1427207 -0.15984143 0.5151818
-1.2596394 0.04176631 -1.3689392 -0.6347985 -1.0151685 -0.89945084 -1.9837255 1.0691981
0.48142546 -0.65207857 0.6321324 -1.8376355 0.43983942 0.50280714 0.036333922 0.5960591
-1.4193902 0.019056864 -0.70445293 0.11247798 1.5793607 -0.0040998077 -1.8597276 -0.5574225
0.8095687 -1.872445 1.1612154 -0.0019601053 0.081234194 -0.031022903 -0.84755814 3.2111244
1.3839118 -0.35168773 0.2953637 -1.0891731 -0.055568215 -0.85798675 1.1519679 -1.5691692
0.9764404 0.055707034 -2.1310654 0.83360994 -0.00025830092 -0.7220178 -1.0929998 -2.0337996
-0.017109828 -0.9860018 1.0815008 -0.05830154 -1.2848748 -0.34455663 -0.3694026 1.9718199
0.579697 0.359576 -0.60048264 -1.7849019 -0.65023094 -0.07118531 -0.9590906 -0.5962231
-0.63914514 -0.96679485 -0.37728697 -1.0292163 -0.5780399 0.7964968 0.006089172 0.9230476
-0.08166311 1.3585726 0.27383393 1.1908377 0.36212388 2.1150258 -0.51164556 0.23112088
3.4789689 1.9036435 -2.9999313 0.41363132 0.34017423 0.29950368 0.8553116 0.18815355
-1.4580524 -1.2861527 -1.764049 0.42692387 0.74842745 -0.21908976 -0.23607154 0.43453428
0.5889321 -1.0372812 -0.989155 -0.38380826 1.4126459 0.03137793 1.0542908 -0.5203203
0.84904236 1.8693366 -0.27834094 -1.1097089 -0.5290313 0.81090754 0.11441813 0.7027807
1.4968925 -1.3424108 0.44074923 0.70499223 -0.6719485 -2.0870514 0.34960997 0.48578006
-1.8537003 -0.6350542 -0.9436939 0.4925204 0.020516703 0.4758134 0.615594 -0.08959559
0.7161738 -0.96409947 -0.43801394 1.0494118 1.3535411 0.4802098 -1.5535158 -1.2737496
00000000: 1916 203e 75a3 8ebe a2bd 9bbd e822 0e40
00000010: df23 2abf 780f 2d3f 6b67 4f3e 8347 65bf
00000020: f980 c53d 60c2 3d40 343f 80bf 0fe8 7bbf
00000030: 81e1 0fbf 8867 85bf e291 27bf 1b18 d23f
00000040: a549 38bf 06e2 bd3e c706 803f 703c c23f
00000050: 20f3 0dc0 9c18 2fbe f546 cbbe 3521 293e
00000060: 22e7 823e 4d34 703e ef78 5b3e aafc 493f
00000070: b0d0 04bf 1458 193f f5d4 debe f613 a73e
00000080: df96 f1bf bdaa bc3f 27b3 b8be 8612 823e
00000090: c946 93be f777 4ebf f0d6 5c3f e69f f5bf
000000a0: f57a edbe f744 c13c 2791 973f e060 ea3e
000000b0: 997b 9b3f a300 13be 2cad 88be d638 473e
000000c0: 847f ef3f bb67 e3be 1461 4d3e 8ce7 0dbf
000000d0: 3b22 2fbf 3ea8 49bf 67e2 1cbf faaf 023f
000000e0: 5b7a a83f 4428 8bbe 3d09 093e f8fb efbf
000000f0: b883 4fbe bf57 5c3f 36ec 9dbe b598 aa3f
00000100: 9950 34bd a5a6 e93f e73f 8cbf 8741 073e
00000110: f734 a5bf feb2 63bf 75bf d8be bdef ba3c
00000120: 821f d8be 3787 febd 9abe 073e d971 763f
00000130: b398 1e3c 2fc0 543f 7552 82bf 6575 98be
00000140: 8d8d 0e3f 4788 3f3f f22c 54bf acb3 f8be
00000150: 4501 c13e 37b9 fdbf a6b3 673f a658 ef3e
00000160: d434 9bbf c05c df3f 8b2c c6bf 2622 3bbe
00000170: 67eb d63f 9438 fa3e 7a2f 143f 5198 f4be
00000180: 450c 803f 6c03 8abf b938 e9bf 482e 3cbe
00000190: 7662 ac3f 45e0 70bf 4b9c c2be 16eb d9be
000001a0: a703 97bf b78e a3bf 9e02 fd3b eff0 eabe
000001b0: f3dd 9ebf 660b 313e d012 cf3e e832 eb3f
000001c0: a524 0ebe 5095 7dbe 73c0 f3bf 9eb4 82bf
000001d0: 74ce 2fbd ac44 923f 79ad 23be f4e2 033f
000001e0: dd3b a1bf 2613 2b3d 6639 afbf 2882 22bf
000001f0: 0bf1 81bf 6942 66bf b8ea fdbf 7cdb 883f
00000200: 667d f63e 9fee 26bf 6ed3 213f a437 ebbf
00000210: a232 e13e f8b7 003f e1d2 143d 5497 183f
00000220: 94ae b5bf 241d 9c3c 0757 34bf db5a e63d
00000230: 7e28 ca3f ae57 86bb 8e0b eebf 3eb3 0ebf
00000240: e53f 4f3f 47ac efbf b5a2 943f 1c75 00bb
00000250: 1d5e a63d be23 febc 92f9 58bf 1083 4d40
00000260: 0624 b13f 6a10 b4be e939 973e 066a 8bbf
00000270: 7f9b 63bd 05a5 5bbf af73 933f 89da c8bf
00000280: 00f8 793f 0f2d 643d 6063 08c0 7667 553f
00000290: 906c 87b9 29d6 38bf 6be7 8bbf c629 02c0
000002a0: e929 8cbc 9d6a 7cbf 9e6e 8a3f 98cd 6ebd
000002b0: c776 a4bf ba69 b0be 5622 bdbe 9864 fc3f
000002c0: 0667 143f 581a b83e 3bb9 19bf aa77 e4bf
000002d0: 8975 26bf 9bc9 91bd f686 75bf 14a2 18bf
000002e0: 049f 23bf de7f 77bf c22b c1be 5cbd 83bf
000002f0: 6cfa 13bf 37e7 4b3f ad87 c73b d94c 6c3f
00000300: fd3e a7bd b5e5 ad3f f633 8c3e 5f6d 983f
00000310: 4d68 b93e 955c 0740 34fb 02bf f4aa 6c3e
00000320: 6da7 5e40 97aa f33f e0fe 3fc0 7cc7 d33e
00000330: 512b ae3e 8c58 993e b3f5 5a3f 53ab 403e
00000340: 76a1 babf a7a0 a4bf 5ccc e1bf c495 da3e
00000350: f198 3f3f 1159 60be bdbc 71be 477b de3e
00000360: 41c4 163f a1c5 84bf 4339 7dbf 8482 c4be
00000370: 95d1 b43f 2586 003d 00f3 863f b633 05bf
00000380: d75a 593f 6c46 ef3f b482 8ebe f10a 8ebf
00000390: 986e 07bf a397 4f3f 0d54 ea3d 70e9 333f
000003a0: 2c9a bf3f 1ed4 abbf e2a9 e13e 5f7a 343f
000003b0: d104 2cbf 4092 05c0 1400 b33e 2ab8 f83e
000003c0: 0d46 edbf e992 22bf ec95 71bf a22b fc3e
000003d0: a512 a83c d09d f33e 9297 1d3f e57d b7bd
000003e0: 2b57 373f 39cf 76bf 5d43 e0be 2053 863f
000003f0: d640 ad3f 0fde f53e 9bd9 c6bf 3a0a a3bf

conv1.bias f4 [64]
-0.00014484493 -4.9965893e-06 5.037556e-05 -1.0825873e-05 0.00011000559 8.961817e-05 0.00010766847 -7.958662e-05
-3.559321e-05 -0.0001586942 7.836375e-05 8.0458914e-05 0.0002378172 0.00016169876 -6.167494e-05 6.538463e-06
-1.2022774e-05 1.45023805e-05 0.0001804935 6.891553e-05 -4.7402373e-05 -8.743386e-05 6.6256405e-05 6.357688e-05
2.3214543e-06 -4.4565237e-05 -3.8348917e-05 -5.8725727e-06 -0.000114707174 1.0112013e-05 0.00017023493 0.00015816343
6.158013e-05 3.6175843e-05 6.5824126e-05 -4.6478184e-05 -4.7994658e-05 -0.00077502604 -1.0117215e-05 -5.0905077e-05
0.00012393024 -1.0143327e-05 0.00016562303 -0.00013558278 4.2009742e-05 2.3423845e-05 -0.00043832572 0.0002016241
-9.57294e-05 -8.6001426e-05 9.688131e-06 -6.527237e-05 -2.693864e-05 0.00017175695 -0.00010599604 8.574653e-05
-5.2927506e-05 -0.000114358205 -1.2128414e-05 -2.986571e-05 -6.738635e-05 -5.0797926e-06 -5.8370733e-07 -5.2577736e-05
00000000: 84e1 17b9 60a8 a7b6 584a 5338 c5a0 35b7
00000010: cdb2 e638 63f1 bb38 12cc e138 bee7 a6b8
00000020: eb49 15b8 2667 26b9 3857 a438 0dbc a838
00000030: 925e 7939 ae8d 2939 7b57 81b8 f864 db36
00000040: 6cb5 49b7 404f 7337 db42 3d39 be86 9038
00000050: e9d1 46b8 b25c b7b8 23f3 8a38 9454 8538
00000060: 48ca 1b36 8feb 3ab8 d6d8 20b8 040d c5b6
00000070: f28e f0b8 c4a6 2937 1781 3239 acd8 2539
00000080: 9524 8138 84bb 1738 0f0b 8a38 92f1 42b8
00000090: df4d 49b8 1e2b 4bba 1cbd 29b7 e982 55b8
000000a0: 45f3 0139 422d 2ab7 18ab 2d39 3a2b 0eb9
000000b0: 9e33 3038 537e c437 15cf e5b9 0f6b 5339
000000c0: 55c2 c8b8 aa5b b4b8 358a 2237 d6e2 88b8
000000d0: 4afa e1b7 a819 3439 314a deb8 d1d2 b338
000000e0: 7afe 5db8 98d3 efb8 247b 4bb7 2088 fab7
000000f0: c551 8db8 1673 aab6 10b0 1cb5 ea86 5cb8

conv1.lin.weight f4 [64, 512]
-0.018023307 -0.03926274 -0.062429726 -0.042541582 -0.071268305 -0.09294292 0.027757442 -0.030749768
0.024043327 0.046430547 -0.020677257 0.013349984 -0.03741162 -0.10120549 0.014900197 -0.06809461
-0.10292845 -0.04045202 -0.03293774 0.033552017 -0.045661252 0.07569266 0.0026899267 -0.008412015
-0.0012030681 -0.05574254 -0.10594133 -0.08913753 -0.017646061 0.012448839 0.029142229 0.002462122
0.103979565 0.016174875 0.041719165 -0.012027446 -0.055830885 -0.037562266 0.094015025 0.046700545
0.013906635 -0.038843263 -0.022696579 0.017514076 0.07877685 -0.008157174 -0.086032964 0.017539017
-0.053684946 -0.020238899 -0.09284447 0.054101344 0.06650996 -0.0086076 0.052843284 -0.070599645
-0.06703989 0.051761657 -0.06065429 -0.064501114 0.055265766 -0.10969639 -0.015125109 -0.019607646
0.062200133 0.03311896 -0.055450875 -0.040590346 0.055202838 0.04799994 0.00713998 -0.01663128
0.022931984 -0.0033044012 -0.07512314 -0.041379694 0.039574225 0.036877763 -0.079659164 -0.04186888
-0.08897899 -0.006882925 0.012488594 -0.0073187808 -0.03646663 0.009256488 0.116407655 0.0006290967
0.014442799 -0.01937589 0.031015817 -0.11338258 0.05697096 -0.03971535 -0.059932347 -0.051336445
0.08913876 -0.008168158 0.040542535 0.060870998 0.10054734 0.013645135 0.018453207 0.08648872
0.09933318 0.055311214 0.056779675 0.037196405 -0.029976912 0.01776369 0.02228619 0.027257279
-0.06752153 0.024308167 -0.056303144 -0.025151322 -0.017870847 0.08596632 0.08900855 -0.07236553
-0.044693492 0.06236387 -0.034777764 -0.057324342 0.055614233 0.10400538 -0.051705565 -0.032233734
0.098011315 -0.012089768 -0.085883126 0.042912696 0.072010174 -0.06964121 -0.045557495 0.0056344247
-0.08290316 -0.029100146 0.0082938 0.029283002 -0.06539124 -0.019659597 -0.056412138 -0.061232675
0.0071550473 -0.02368651 0.03779498 -0.022337537 0.097156905 -0.036986053 0.08116484 -0.07901898
0.062582456 0.052052874 0.04260346 0.0758111 0.049749505 -0.077178426 -0.012445322 0.10480738
0.022722958 -0.058256514 0.014678343 0.022786668 0.10000318 0.091004215 -0.054393895 0.0315826
0.0040390715 -0.044065222 0.07973219 -0.051003266 0.060993493 -0.014408117 -0.004534359 0.034691624
-0.07849799 -0.034860693 -0.09710275 0.005009345 0.051989365 -0.09505561 -0.03023768 -0.033527967
0.013237977 0.056777205 0.09395607 -0.015602533 -0.041538123 0.093437634 -0.047918182 0.00935121
-0.009372309 0.053035308 0.0887323 -0.098609604 0.046928186 -0.074924484 0.02780942 -0.026447939
-0.0101842545 -0.029826606 -0.09132929 0.02785169 -0.019038113 -0.03843896 0.08637525 -0.017305082
-0.038468555 -0.034795072 0.04580463 0.0078122467 -0.0039655357 -0.05838064 -0.10118043 -0.094365254
-0.029491924 0.064422406 0.07033989 -0.027785448 0.08538498 -0.10034345 -0.06317645 0.01371968
-0.023172215 -0.069531575 0.023495091 -0.044114295 0.04167422 0.07791937 -0.005108815 -0.06619103
-0.05174886 0.05036682 -0.023379223 -0.028540872 0.005348669 -0.0978421 -0.118946046 -0.017438155
0.07902551 0.023979042 0.06946283 -0.11201538 -0.042224284 0.023533149 -0.057464264 -0.10089871
0.07325407 -0.048692156 -0.08213812 0.034549773 -0.11472388 0.10159583 0.010771852 0.036029305
00000000: 9da5 93bc f8d1 20bd 50b6 7fbd 1540 2ebd
00000010: 1ef5 91bd dc58 bebd 9363 e33c f0e6 fbbc
00000020: 83f6 c43c f52d 3e3d 5a63 a9bc e4b9 5a3c
00000030: ed3c 19bd d344 cfbd f51f 743c 3075 8bbd
00000040: 27cc d2bd 04b1 25bd b9e9 06bd d76d 093d
00000050: 4b07 3bbd c104 9b3d 7b49 303b 8cd2 09bc
00000060: 44b0 9dba 4a52 64bd c5f7 d8bd bd8d b6bd
00000070: 798e 90bc 37f6 4b3c afbb ee3c 8d5b 213b
00000080: 3df3 d43d 2c81 843c b7e1 2a3d c40e 45bc
00000090: edae 64bd e4da 19bd f38a c03d 1249 3f3d
000000a0: a8d8 633c 1d1a 1fbd 2dee b9bc ae79 8f3c
000000b0: c255 a13d aba5 05bc 0d32 b0bd fcad 8f3c
000000c0: bfe4 5bbd 0ccc a5bc 3e25 bebd 5f99 5d3d
000000d0: 6036 883d e406 0dbc 3372 583d 8c96 90bd
000000e0: 364c 89bd 0804 543d a270 78bd 2919 84bd
000000f0: 5b5e 623d 80a8 e0bd 4ecf 77bc 37a0 a0bc
00000100: 91c5 7e3d bfa7 073d 7520 63bd 1042 26bd
00000110: 5f1c 623d 969b 443d 7ef6 e93b 523e 88bc
00000120: dbdb bb3c a78e 58bb 29da 99bd c17d 29bd
00000130: 9518 223d 230d 173d 5824 a3bd b47e 2bbd
00000140: 9e3a b6bd 298a e1bb f69c 4c3c 62d2 efbb
00000150: 085e 15bd 86a8 173c 2367 ee3d f7e9 243a
00000160: 7da1 6c3c 30ba 9ebc e214 fe3c 2035 e8bd
00000170: 625a 693d 90ac 22bd 9f7b 75bd 2a46 52bd
00000180: 628e b63d bdd3 05bc ee0f 263d de53 793d
00000190: c4eb cd3d d88f 5f3c 2e2b 973c ff20 b13d
000001a0: 326f cb3d 038e 623d ce91 683d 425b 183d
000001b0: 2492 f5bc 2885 913c 8791 b63c a84a df3c
000001c0: ba48 8abd ec21 c73c 209e 66bd 250a cebc
000001d0: e265 92bc 1c0f b03d 1d4a b63d 6134 94bd
000001e0: 8610 37bd 4271 7f3d 2173 0ebd eecc 6abd
000001f0: c0cb 633d c600 d53d 37c9 53bd 8507 04bd
00000200: 28ba c83d 2a14 46bc 7ee3 afbd 39c5 2f3d
00000210: 127a 933d 0da0 8ebd 7f9a 3abd fba0 b83b
00000220: 22c9 a9bd 6e63 eebc b8e2 073c e8e2 ef3c
00000230: d8eb 85bd 2a0d a1bc 6a10 67bd 1dcf 7abd
00000240: e374 ea3b 360a c2bc e9ce 1a3d 36fd b6bc
00000250: 33fa c63d b07e 17bd c039 a63d b4d4 a1bd
00000260: 3b2b 803d 6535 553d f780 2e3d da42 9b3d
00000270: 23c6 4b3d b90f 9ebd 77e7 4bbc 40a5 d63d
00000280: 7f25 ba3c 629e 6ebd 6f7d 703c 1bab ba3c
00000290: 78ce cc3d 6b60 ba3d 22cc 5ebd c25c 013d
000002a0: 305a 843b bc7d 34bd a14a a33d cde8 50bd
000002b0: 50d4 793d 0610 6cbc f694 94bb ce18 0e3d
000002c0: 8ec3 a0bd 16ca 0ebd cedd c6bd 6e25 a43b
000002d0: cdf2 543d 84ac c2bd 03b5 f7bc 9f54 09bd
000002e0: 1ae4 583c 378f 683d 0a6c c03d c4a1 7fbc
000002f0: e123 2abd 3b5c bf3d db45 44bd d135 193c
00000300: 508e 19bc 8d3b 593d 48b9 b53d d5f3 c9bd
00000310: c537 403d 0272 99bd 95d0 e33c 59a9 d8bc
00000320: dcdb 26bc ed56 f4bc da0a bbbd 3a29 e43c
00000330: d1f5 9bbc 2c72 1dbd 82e5 b03d 63c3 8dbc
00000340: 3491 1dbd 4785 0ebd a39d 3b3d e0fd ff3b
00000350: 53f1 81bb 8a20 6fbd af37 cfbd 9242 c1bd
00000360: 0c99 f1bc e5ef 833d 5c0e 903d 4f9e e3bc
00000370: 52de ae3d de80 cdbd a862 81bd 82c8 603c
00000380: a8d3 bdbc 9266 8ebd c778 c03c 31b1 34bd
00000390: 96b2 2a3d 3194 9f3d d967 a7bb 2a8f 87bd
000003a0: 9df6 53bd 704d 4e3d c985 bfbc 8cce e9bc
000003b0: e343 af3b 7061 c8bd fc99 f3bd 76da 8ebc
000003c0: 20d8 a13d b26f c43c 8742 8e3d 5268 e5bd
000003d0: 5ff3 2cbd 97c8 c03c a65f 6bbd fca3 cebd
000003e0: 3b06 963d 6d71 47bd 0838 a8bd 1084 0d3d
000003f0: 5bf4 eabd 7911 d03d 6c7c 303c 7793 133d

conv2.bias f4 [64]
0.00025353057 -1.5096191e-05 2.5385025e-05 -6.597506e-05 0.00015530155 1.881905e-05 -0.00035548623 1.1926327e-06
4.6791894e-05 -8.5001826e-05 -1.5657633e-07 -1.4570426e-05 1.8250461e-05 -1.9228863e-05 2.6072556e-05 3.013607e-05
-8.100435e-05 -7.983594e-05 -0.0003456609 0.00027329504 1.7796112e-05 1.2016792e-05 -8.798996e-05 -1.3538675e-05
-0.00015829018 -7.651592e-05 6.42931e-05 -0.00041533314 -2.2104101e-05 2.5196301e-05 3.18832e-05 -4.2273932e-05
5.6982837e-05 0.00014849799 0.00031051703 -0.00014718741 -0.00019672759 -0.00041580986 1.2508004e-05 1.6301237e-05
0.00065732806 -8.09177e-05 7.313982e-05 -3.2089123e-05 7.566402e-05 -0.0002555154 -0.00013779015 -0.00011514891
-8.46532e-05 -0.00020903764 -9.283141e-06 -2.4698951e-05 1.6737296e-05 8.939654e-05 -5.739209e-05 1.7822088e-06
1.6401309e-06 -0.00013569025 3.390175e-05 4.604484e-05 -0.00015575015 0.000106009065 9.0000365e-05 -1.5615702e-05
00000000: 4cec 8439 a645 7db7 edf1 d437 175c 8ab8
00000010: 71d8 2239 9add 9d37 8e60 bab9 8c12 a035
00000020: 6a42 4438 0243 b2b8 601f 28b4 8173 74b7
00000030: 9118 9937 ab4d a1b7 63b6 da37 b8cc fc37
00000040: e1e0 a9b8 986d a7b8 d239 b5b9 0a49 8f39
00000050: dc48 9537 bb9b 4937 4087 b8b8 2b24 63b7
00000060: b2fa 25b9 2c77 a0b8 18d5 8638 12c1 d9b9
00000070: 326c b9b7 a55c d337 53ba 0538 4a4f 31b8
00000080: db00 6f38 20b6 1b39 e4cc a239 5256 1ab9
00000090: a948 4eb9 0e01 dab9 78d9 5137 a4be 8837
000000a0: 8a50 2c3a 5cb2 a9b8 a462 9938 6f97 06b8
000000b0: d0ad 9e38 b2f6 85b9 c37b 10b9 1a7c f1b8
000000c0: d787 b1b8 1d31 5bb9 c9be 1bb7 9830 cfb7
000000d0: 1267 8c37 677a bb38 4ab8 70b8 3a34 ef35
000000e0: 7822 dc35 1348 0eb9 ba31 0e38 4520 4138
000000f0: dd50 23b9 2f51 de38 94be bc38 77fe 82b7

conv2.lin.weight f4 [64, 64]
0.048658855 -0.16037162 0.017681912 0.14873931 0.10327136 0.15697837 0.1566901 0.086196885
0.033913475 0.17905656 -0.10301435 -0.110923864 -0.18155408 -0.038814865 -0.014638604 0.24163774
-0.19057779 -0.0299989 0.09909777 0.10401413 0.26235917 -0.053308602 -0.17181712 -0.03132678
0.08226014 0.17794476 0.090448774 -0.16416462 -0.062253788 0.14947383 -0.006124649 -0.029955223
0.10658607 -0.059188705 0.07322189 -0.057441596 0.039480753 0.027407324 0.15494874 0.10664426
-0.13569467 0.10862182 0.035423703 0.0766975 0.1324588 -0.11252365 0.14593294 0.04685008
0.0862299 0.10080426 -0.16179289 -0.083668455 -0.008316664 0.08537789 -0.092835516 0.06072382
-0.041495696 0.18682492 0.111446396 -0.12354535 0.102570966 0.0932215 0.27099648 0.13127586
0.13064708 0.17417303 -0.10111582 0.17692566 -0.16611971 -0.10032606 0.1227239 -0.09308134
-0.08691527 -0.16193938 0.22846404 0.18408644 0.06028601 -0.25770292 0.1617397 -0.22132745
0.035371784 -0.18738724 0.0019133319 -0.076559015 -0.13295035 0.102432735 -0.17776701 0.06968227
-0.15556303 0.05432866 -0.05671449 -0.017532105 0.006334669 -0.24267901 0.012486436 0.10153381
-0.02329611 0.06693831 0.07065734 -0.23360552 -0.08395486 -0.074367896 0.19905536 -0.013196861
0.16900323 0.013753561 -0.066016234 0.0061004865 0.023129009 -0.13398427 0.14557531 -0.06233482
0.10794029 -0.066626646 -0.0041587236 -0.19092025 -0.040895905 -0.037965026 0.120065175 -0.010104366
0.11827637 -0.09118014 -0.04515335 -0.025492897 0.13214454 -0.07085253 -0.13990444 -0.031484984
0.0048598335 0.030238718 0.14144696 0.11584535 -0.10032605 0.1076056 -0.07464621 0.06378351
-0.02248658 -0.08839637 -0.13769594 -0.111251906 -0.020346086 0.016557172 -0.049340818 0.21443966
-0.16440122 -0.07718799 -0.1259359 0.10169677 0.008911087 -0.21039483 0.14145605 0.10955417
0.10253524 0.20629464 -0.0015499172 -0.17194104 -0.105977185 0.0213289 0.20370194 -0.15086544
-0.106753 0.08170628 -0.24020669 0.21679775 0.024183203 -0.1133305 -0.11098095 0.05945896
0.06575836 0.14872847 0.20764224 -0.03600126 0.2640778 0.060657665 0.10571334 0.058826026
0.017850773 0.16264793 -0.1964554 -0.16939671 -0.10840612 0.042019982 -0.1342235 0.25202948
-0.079712495 0.111281954 0.097609475 0.09279306 -0.07230156 -0.03931161 0.25459275 -0.08893829
-0.21350272 0.027946029 -0.11205003 -0.254223 0.11472754 0.105068125 0.20246111 0.20468745
-0.023224887 0.04746598 -0.098202586 0.09342691 -0.060840864 -0.06381716 -0.15890649 0.20133802
-0.009811825 0.197147 -0.122903466 0.09909715 -0.08067691 0.024518361 0.11777769 0.0754162
-0.0093867555 0.07950644 0.19235739 0.08879975 0.11841638 -0.17484921 -0.08952279 -0.22648853
0.048164554 0.11027081 0.06795023 0.03130223 0.031683862 -0.26092726 0.11446959 0.100704536
0.12852992 0.13421576 -0.118330404 0.0030152996 0.063677594 -0.0567254 -0.26147172 -0.162284
0.08253955 0.016800968 -0.049987298 0.09401799 -0.25839323 0.22789046 0.14271095 0.14012606
-0.052000623 -0.06403735 0.036949143 0.13944574 0.11169002 0.16484705 -0.24659109 -0.04801265
00000000: 824e 473d 7538 24be a8d9 903c 1e4f 183e
00000010: ef7f d33d f0be 203e 5f73 203e fe87 b03d
00000020: dbe8 0a3d 9a5a 373e 30f9 d2bd 0d2c e3bd
00000030: 50e9 39be 56fc 1ebd c1d6 6fbc e26f 773e
00000040: d326 43be 41c0 f5bc c6f3 ca3d 5c05 d53d
00000050: f153 863e 1f5a 5abd d4f0 2fbe 8250 00bd
00000060: 0178 a83d 2737 363e 353d b93d c51a 28be
00000070: d4fd 7ebd ab0f 193e 48b1 c8bb a864 f5bc
00000080: cc49 da3d db6f 72bd 5cf5 953d e147 6bbd
00000090: 92b6 213d 5385 e03c e2aa 1e3e 4e68 da3d
000000a0: 8bf3 0abe 1e75 de3d 7218 113d 9413 9d3d
000000b0: 48a3 073e cd72 e6bd 726f 153e dfe5 3f3d
000000c0: 4d99 b03d 7772 ce3d 09ad 25be 5e5a abbd
000000d0: 9e42 08bc 9ada ae3d 8c20 bebd 8ab9 783d
000000e0: 64f7 29bd 084f 3f3e 023e e43d 5805 fdbd
000000f0: ba10 d23d eaea be3d 0dc0 8a3e 2e6d 063e
00000100: 59c8 053e 6a5a 323e d015 cfbd 002c 353e
00000110: 491b 2abe c077 cdbd ab56 fb3d 6ea1 bebd
00000120: a200 b2bd 70d3 25be 7af2 693e 2881 3c3e
00000130: 77ee 763d a3f1 83be 189f 253e aaa3 62be
00000140: 01e2 103d 71e2 3fbe c4c8 fa3a f9ca 9cbd
00000150: 2324 08be 41c8 d13d 8e08 36be 94b5 8e3d
00000160: ea4b 1fbe bb87 5e3d 744d 68bd 7d9f 8fbc
00000170: 0e93 cf3b d980 78be e993 4c3c f5f0 cf3d
00000180: 7cd7 bebc f416 893d ccb4 903d 4936 6fbe
00000190: 87f0 abbd 324e 98bd 2bd5 4b3e a637 58bc
000001a0: 2f0f 2d3e 9e56 613c 8533 87bd 97e6 c73b
000001b0: 0c79 bd3c 2c33 09be b211 153e cc52 7fbd
000001c0: cc0f dd3d 8d73 88bd e745 88bb 9980 43be
000001d0: 7782 27bd 3781 1bbd bbe4 f53d c88c 25bc
000001e0: e23a f23d a7bc babd b8f2 38bd 7bd6 d0bc
000001f0: e650 073e 221b 91bd 1c43 0fbe 66f6 00bd
00000200: 3d3f 9f3b 30b7 f73c 79d7 103e 5440 ed3d
00000210: be77 cdbd 5360 dc3d 1de0 98bd eea0 823d
00000220: c735 b8bc 2809 b5bd 2a00 0dbe 0ad8 e3bd
00000230: d6ac a6bc e8a2 873c 9919 4abd 1296 5b3e
00000240: cb58 28be bd14 9ebd 57f5 00be 6546 d03d
00000250: cfff 113c be71 57be dbd9 103e f05d e03d
00000260: fffd d13d e73e 533e 9726 cbba 5011 30be
00000270: 910a d9bd f2b9 ae3c 3e97 503e 787c 1abe
00000280: 51a1 dabd 9f55 a73d bef8 75be 3b00 5e3e
00000290: da1b c63c d219 e8bd fb49 e3bd 3d8b 733d
000002a0: 52ac 863d 474c 183e 2ba0 543e 0f76 13bd
000002b0: 3535 873e 2c74 783d 3c80 d83d 8ff3 703d
000002c0: c93b 923c 2e8d 263e 9b2b 49be 5576 2dbe
000002d0: 0704 debd 251d 2c3d e371 09be 020a 813e
000002e0: 4e40 a3bd cbe7 e33d 7ae7 c73d 4a0a be3d
000002f0: d712 94bd 3605 21bd fb59 823e 4725 b6bd
00000300: 75a0 5abe 12ef e43c 7c7a e5bd 8429 82be
00000310: 46f6 ea3d f52d d73d f751 4f3e 9699 513e
00000320: 1e42 bebc b06b 423d 701e c9bd 9c56 bf3d
00000330: 4534 79bd 92b2 82bd 62b8 22be 8e2b 4e3e
00000340: c7c1 20bc e7e0 493e d0b4 fbbd 72f3 ca3d
00000350: f039 a5bd bbda c83c 6e35 f13d cf73 9a3d
00000360: e8ca 19bc 46d4 a23d 56f9 443e a5dc b53d
00000370: 4984 f23d ac0b 33be b957 b7bd 9cec 67be
00000380: 3248 453d aad5 e13d 7d29 8b3d c436 003d
00000390: f0c6 013d 4298 85be 086f ea3d 2e3e ce3d
000003a0: 599d 033e db6f 093e 3657 f2bd 559c 453b
000003b0: 6669 823d e558 68bd 9fdf 85be c72d 26be
000003c0: 7f0a a93d 2fa2 893c 7bbf 4cbd 818c c03d
000003d0: 1e4c 84be 1e5c 693e d222 123e 357d 0f3e
000003e0: 9bfe 54bd 0426 83bd fc57 173d ddca 0e3e
000003f0: bdbd e43d aacd 283e 6082 7cbe eaa8 44bd

bn1.weight f4 [64]
1.0519793 1.0356865 1.023398 0.9772269 1.0153383 1.002744 0.96542877 0.9672496
0.9338711 0.9346964 0.94729865 0.9566646 0.92636275 1.0547827 0.97519004 0.9810999
1.0120798 0.9467023 0.95867026 0.9365577 0.98656267 1.03824 0.97716796 0.94989884
1.0648706 1.0545455 0.9507584 0.9441268 0.93994725 0.9996556 1.0614527 0.93134147
0.9502811 0.9706619 1.0207335 1.0686514 1.0465208 1.0656397 0.9617432 1.0070261
0.96412325 1.0114915 1.0418531 1.0659325 0.95362276 0.9515272 1.022706 0.97985595
0.9856558 0.9541444 1.0402578 1.045274 0.9452392 1.060007 0.97224516 1.0047826
0.94660634 1.0455037 1.0126723 0.9867788 0.942213 1.0586052 1.0261332 1.0224671
00000000: 42a7 863f 6091 843f b5fe 823f 8b2b 7a3f
00000010: 9bf6 813f ea59 803f 5726 773f ab9d 773f
00000020: 2d12 6f3f 4348 6f3f 2a82 723f f9e7 743f
00000030: 1c26 6d3f 1f03 873f 0ea6 793f 5d29 7b3f
00000040: d58b 813f 155b 723f 6a6b 753f 3fc2 6f3f
00000050: 5f8f 7c3f 0ce5 843f ae27 7a3f 922c 733f
00000060: ae4d 883f 59fb 863f e764 733f 4bb2 713f
00000070: 62a0 703f 6ee9 7f3f afdd 873f 656c 6e3f
00000080: 9f45 733f 4c7d 783f 65a7 823f 92c9 883f
00000090: 65f4 853f e266 883f cd34 763f 3be6 803f
000000a0: c8d0 763f 8e78 813f 715b 853f 7a70 883f
000000b0: 9f20 743f 4997 733f 08e8 823f d7d7 7a3f
000000c0: f053 7c3f cf42 743f 2b27 853f 8acb 853f
000000d0: 32fb 713f 4fae 873f 0fe5 783f b79c 803f
000000e0: cb54 723f 11d3 853f 3f9f 813f 899d 7c3f
000000f0: df34 713f 6080 873f 5558 833f 34e0 823f

bn1.bias f4 [64]
0.03496181 0.028238252 0.0010066504 -0.013394969 -0.0005304097 0.013037952 -0.03359825 -0.033424858
-0.06316468 -0.055654198 -0.054182816 -0.031956445 -0.050407782 0.050539665 -0.03700655 -0.04144065
0.022556894 -0.061523557 -0.012066611 -0.040453326 -0.008368403 0.011795806 -0.001908182 -0.031828213
0.059111655 0.048926227 -0.050852504 -0.0573831 -0.056593888 0.00056409877 0.04962183 -0.056525905
-0.053897914 -0.02423487 0.008768423 0.05526713 0.02760977 0.062277183 -0.009130391 0.012574585
-0.026600527 0.006575026 0.03828841 0.050790142 -0.054989073 -0.04884339 0.04793065 0.0046869786
-0.027727012 -0.027641637 0.015544657 0.030870486 -0.056170776 0.052881286 -0.0036614356 0.006337063
-0.04349089 0.019808283 0.03370842 -0.0013794072 -0.049244698 0.042468198 -0.01494412 0.037149258
00000000: 1d34 0f3d e853 e73c 95f1 833a 9276 5bbc
00000010: 310b 0bba 229d 553c 529e 09bd 81e8 08bd
00000020: 7c5c 81bd a8f5 63bd cdee 5dbd c3e4 02bd
00000030: 6478 4ebd ae02 4f3d 2e94 17bd acbd 29bd
00000040: 3cc9 b83c 2000 7cbd 09b3 45bc 63b2 25bd
00000050: a01b 09bc 3243 413c f71b faba 4d5e 02bd
00000060: 101f 723d de66 483d b74a 50bd 8b0a 6bbd
00000070: fece 67bd 07e0 133a 4340 4b3d b587 67bd
00000080: 0fc4 5cbd 3588 c6bc 6fa9 0f3c c95f 623d
00000090: e22d e23c 5c16 7f3d a397 15bc a205 4e3c
000000a0: 59e9 d9bc 5173 d73b 4fd4 1c3d 5309 503d
000000b0: 393c 61bd 0210 48bd ee52 443d 3a95 993b
000000c0: c223 e3bc b770 e2bc 04af 7e3c 1ae4 fc3c
000000d0: 5413 66bd 0c9a 583d b2f4 6fbb 23a7 cf3b
000000e0: 8123 32bd fb44 a23c d711 0a3d 3acd b4ba
000000f0: cfb4 49bd 22f3 2d3d 2fd8 74bc d229 183d

bn1.running_mean f4 [64]
-1.0573056 -0.019135784 -1.2313614 -2.873618 -0.7934719 0.13034987 0.9688659 -1.654509
0.5222248 1.2480104 -2.662795 -2.3719842 1.6029156 1.6196973 2.9177592 -0.41717467
2.3300579 0.13335033 -1.0227203 1.833303 -2.7154727 1.0448203 2.667427 -0.2212402
1.8453102 -1.6812967 0.8845402 -0.09361811 -1.8421081 0.050784536 -2.2545037 -0.960059
1.4100301 -0.28031838 0.79757386 -1.4194603 0.625499 -2.647577 0.27417222 0.5844817
-1.9527355 0.5830482 -2.561472 -0.8724894 -3.0966086 -0.6490007 -1.4157054 3.0924163
-1.5440116 -0.7805697 2.609296 2.190404 -3.8710082 -0.5490042 -2.738098 -3.1181996
3.2466342 -1.070603 -0.15539815 0.6824032 -2.7589004 0.6141531 -3.4161277 -0.16635811
00000000: ca55 87bf a6c2 9cbc 409d 9dbf 5be9 37c0
00000010: f920 4bbf 707a 053e 9807 783f f3c6 d3bf
00000020: 86b0 053f cebe 9f3f 3c6b 2ac0 97ce 17c0
00000030: 572c cd3f 3e52 cf3f 91bc 3a40 eb97 d5be
00000040: ab1f 1540 fd8c 083e 80e8 82bf aca9 ea3f
00000050: 4eca 2dc0 acbc 853f 20b7 2a40 ca8c 62be
00000060: 2033 ec3f bb34 d7bf 3a71 623f daba bfbd
00000070: 33ca ebbf 7203 503d ca49 10c0 6dc6 75bf
00000080: de7b b43f e485 8fbe cd2d 4c3f e0b0 b5bf
00000090: b420 203f e771 29c0 4d60 8c3e 98a0 153f
000000a0: 3df3 f9bf a642 153f 28ef 23c0 775b 5fbf
000000b0: d62e 46c0 e924 26bf d635 b5bf 26ea 4540
000000c0: 2ca2 c5bf 6ad3 47bf b5fe 2640 942f 0c40
000000d0: 99be 77c0 8a8b 0cbf ff3c 2fc0 9590 47c0
000000e0: dbc8 4f40 8509 89bf b120 1fbe fab1 2e3f
000000f0: d391 30c0 2339 1d3f d6a1 5ac0 c859 2abe

bn1.running_var f4 [64]
0.8327891 0.6280032 0.8267506 0.58845115 0.72286177 0.669136 0.7564268 0.7760685
0.52688277 0.6209291 0.75600827 0.9704594 0.7629496 0.7925991 0.7761206 0.69168437
0.54002815 0.67451453 0.60875946 0.770633 0.6796154 0.7761514 0.55645174 1.0070329
0.7119088 0.53174627 0.76840407 0.8039353 0.42933494 0.82237166 0.7096339 0.68119496
0.81429374 0.7778918 0.7099681 0.9877637 0.6861342 0.6191793 0.8332249 0.974251
1.0227855 0.80849373 1.276831 0.56685615 0.75704116 1.0265169 0.69825774 0.6269133
0.84003377 0.9811448 0.7670742 0.785163 0.7241391 0.61197174 0.857635 0.96463495
0.6004183 0.8885032 0.9642978 0.72601146 0.50575686 1.1684076 1.1756883 0.79252833
00000000: ab31 553f d1c4 203f eda5 533f bca4 163f
00000010: 780d 393f 7f4c 2b3f 30a5 413f 6dac 463f
00000020: cae1 063f 36f5 1e3f c289 413f 0770 783f
00000030: aa50 433f c6e7 4a3f d7af 463f 3a12 313f
00000040: 493f 0a3f fcac 2c3f a9d7 1b3f 3448 453f
00000050: 46fb 2d3f dcb1 463f 9f73 0e3f 74e6 803f
00000060: a83f 363f 8620 083f 21b6 443f b4ce 4d3f
00000070: cad1 db3e f386 523f 91aa 353f cb62 2e3f
00000080: 8e75 503f eb23 473f 78c0 353f 15de 7c3f
00000090: 7ea6 2f3f 8982 1e3f 3a4e 553f 8368 793f
000000a0: a3ea 823f 72f9 4e3f 336f a33f 7c1d 113f
000000b0: 73cd 413f e864 833f 05c1 323f 647d 203f
000000c0: 740c 573f 4e2c 7b3f fa5e 443f 7100 493f
000000d0: 2e61 393f 2eaa 1c3f f88d 5b3f 51f2 763f
000000e0: 04b5 193f f274 633f 38dc 763f e3db 393f
000000f0: 4879 013f 618e 953f f47c 963f 23e3 4a3f

bn2.weight f4 [64]
0.9239695 1.0209002 0.94463235 1.0825347 0.91603374 1.0688376 0.9223986 0.9209693
0.9556687 0.9326088 0.91693765 0.9205703 0.96148455 1.0572475 0.934137 1.0657495
1.032795 1.0663669 1.0668759 0.97349787 1.078111 0.93858653 1.0886046 0.9764746
0.91683805 0.93258774 1.0961757 1.0849723 0.9239482 0.9167697 0.9318604 0.9253497
1.0183829 0.89940685 1.0727485 1.073111 0.9230934 0.92992634 1.0614722 0.96262217
0.922751 0.96073365 1.071436 1.0888932 0.99507725 1.0857685 0.9224378 0.9118817
1.029955 1.067438 0.93696415 1.0321628 1.0546964 1.0699621 1.0816072 0.96084905
1.0333493 0.93581086 1.0892828 0.96087223 0.92692894 0.9304718 0.92992586 1.0123603
00000000: 4489 6c3f dcac 823f 6dd3 713f 7f90 8a3f
00000010: 3081 6a3f accf 883f 5122 6c3f a5c4 6b3f
00000020: b4a6 743f 73bf 6e3f 6dbc 6a3f 7faa 6b3f
00000030: da23 763f e353 873f 9a23 6f3f 7b6a 883f
00000040: a032 843f b67e 883f 648f 883f 2837 793f
00000050: 8bff 893f 3547 703f 6557 8b3f 3dfa 793f
00000060: e6b5 6a3f 12be 6e3f 7c4f 8c3f 5fe0 8a3f
00000070: df87 6c3f 6bb1 6a3f 678e 6e3f b8e3 6c3f
00000080: 5f5a 823f 873f 663f d34f 893f b45b 893f
00000090: d94f 6c3f a70f 6e3f 52de 873f 686e 763f
000000a0: 6939 6c3f a4f2 753f d124 893f da60 8b3f
000000b0: 62bd 7e3f 76fa 8a3f e224 6c3f 1471 693f
000000c0: 91d5 833f cfa1 883f e2dc 6f3f e91d 843f
000000d0: 4b00 873f 85f4 883f 1b72 8a3f 34fa 753f
000000e0: ca44 843f 4d91 6f3f 9e6d 8b3f b9fb 753f
000000f0: 374b 6d3f 6633 6e3f 9f0f 6e3f 0695 813f

bn2.bias f4 [64]
-0.0721413 -0.019309312 -0.036227483 0.08046757 -0.07629808 0.07764435 -0.07554368 -0.05104472
-0.048249472 -0.0675366 -0.06684023 -0.0762955 -0.034877215 0.045093857 -0.06331465 0.007939033
-0.0042389547 0.035475597 0.024965737 -0.0781969 0.08685236 -0.08312975 0.08916045 -0.03938873
-0.080116816 -0.0598714 0.06082575 0.0873118 -0.067695856 -0.07616672 -0.11562926 -0.06915556
0.0016126884 -0.088744804 0.08690088 0.07459993 -0.07314619 -0.06599118 0.062058017 -0.026953468
-0.070978746 -0.06287143 0.07370912 0.05653926 -0.004397481 0.09580957 -0.07740384 -0.081099376
-0.0429084 0.064334415 -0.062158104 0.051642995 0.05259139 0.08338932 0.09360603 -0.030975424
0.050655443 -0.06216199 0.07773422 0.076671466 -0.09173818 -0.05725774 -0.08589017 -0.06773031
00000000: d1be 93bd 902e 9ebc 4563 14bd 2ecc a43d
00000010: 2b42 9cbd 0004 9f3d a5b6 9abd 4514 51bd
00000020: 3da1 45bd a150 8abd 88e3 88bd d140 9cbd
00000030: 69db 0ebd 56b4 383d 1cab 81bd b812 023c
00000040: eee6 8abb dc4e 113d f284 cc3c b225 a0bd
00000050: a6df b13d ee3f aabd c199 b63d 1456 21bd
00000060: 4914 a4bd b73b 75bd 6c24 793d 87d0 b23d
00000070: 20a4 8abd 4cfd 9bbd 09cf ecbd 6ea1 8dbd
00000080: d860 d33a d6bf b5bd 17f9 b13d d9c7 983d
00000090: abcd 95bd 6226 87bd 8c30 7e3d 85cd dcbc
000000a0: 4e5d 91bd bcc2 80bd cff4 963d b695 673d
000000b0: bf18 90bb cf37 c43d e885 9ebd 6e17 a6bd
000000c0: b8c0 2fbd c3c1 833d 7f99 7ebd 9b87 533d
000000d0: 126a 573d 05c8 aa3d 85b4 bf3d 2cc0 fdbc
000000e0: 157c 4f3d 929d 7ebd 1e33 9f3d ee05 9d3d
000000f0: 3ae1 bbbd 1887 6abd 2fe7 afbd 30b6 8abd

bn2.running_mean f4 [64]
0.8993601 -0.40789038 0.38726604 0.2422921 0.1356033 -0.48962834 -0.5815841 -0.13189152
-0.4017021 0.4608882 0.016175186 0.037231676 0.4423434 0.67519015 0.40611908 0.031878266
0.4416004 0.5420406 0.7724906 -0.62663853 -0.5032289 0.47642568 -0.09460962 -0.07441389
-0.34129715 0.77731913 0.7870161 0.6613692 -0.66704273 -0.109282136 -0.44695306 1.0655494
0.43696648 -0.2743063 0.4895928 0.8437315 0.6793405 0.7225444 0.11287083 0.8240279
1.1078013 1.0287466 0.047471397 0.5600296 0.61582196 -0.14912692 -0.6135783 0.74944
0.04395363 1.0001231 0.10294402 -0.01152427 -0.25094795 -0.77421135 0.03414033 -0.24859384
0.029493162 0.6810924 -0.063061014 -0.18587735 -0.8094068 0.32905295 0.108129345 0.33011857
00000000: 773c 663f 02d7 d0be bc47 c63e 6c1b 783e
00000010: 97db 0a3e 91b0 fabe b2e2 14bf 920e 07be
00000020: e6ab cdbe 8af9 eb3e d381 843c 3e80 183d
00000030: d67a e23e 43d9 2c3f d7ee cf3e c992 023d
00000040: 7319 e23e 2cc3 0a3f f2c1 453f 626b 20bf
00000050: 9cd3 00bf 11ee f33e b0c2 c1bd 4f66 98bd
00000060: 80be aebe 63fe 463f e379 493f 7e4f 293f
00000070: 50c3 2abf 50cf dfbd 08d7 e4be ec63 883f
00000080: 12ba df3e e071 8cbe e8ab fa3e cafe 573f
00000090: 42e9 2d3f abf8 383f d228 e73d 7ef3 523f
000000a0: 6fcc 8d3f f8ad 833f 5e71 423d 1a5e 0f3f
000000b0: 82a6 1d3f bab4 18be 7813 1dbf 4ddb 3f3f
000000c0: b908 343d 0904 803f 50d4 d23d 4bd0 3cbc
000000d0: 407c 80be b732 46bf bbd6 0b3d 628f 7ebe
000000e0: a59b f13c 125c 2e3f 2226 81bd a256 3ebe
000000f0: 4935 4fbf a179 a83e eb72 dd3d 4d05 a93e

bn2.running_var f4 [64]
0.25022155 0.4904268 0.42194182 0.63351876 0.3540971 0.3826937 0.46957695 0.2712634
0.862656 0.4743432 0.34231746 0.48172188 0.30109537 0.55541116 0.5705027 0.76980025
0.49318823 0.65305305 0.32577124 0.25340176 0.43385375 0.28780255 0.39182487 0.32803988
0.8122058 0.4723725 0.86991525 0.70239097 0.77279675 0.54928774 0.56895447 0.5347758
0.5819083 0.35315496 0.44253835 0.4279709 0.58876336 0.20638986 0.4969579 0.5387633
0.51330453 0.3855748 0.4637615 0.5040952 0.7091355 0.31012946 0.5424568 0.2469436
0.37738866 0.58564216 0.50001603 0.5817186 0.5477983 0.63044214 0.65590966 0.27879146
0.4095104 0.5778912 0.5722626 0.47781926 0.70560884 0.5852642 0.3334587 0.45765024
00000000: 0a1d 803e 3919 fb3e c208 d83e 492e 223f
00000010: 374c b53e 6ef0 c33e 646c f03e 09e3 8a3e
00000020: 06d7 5c3f 1ddd f23e 3c44 af3e 40a4 f63e
00000030: 2c29 9a3e 6d2f 0e3f 770c 123f a111 453f
00000040: 2b83 fc3e 7c2e 273f 7dcb a63e e0bd 813e
00000050: 1422 de3e db5a 933e 459d c83e d8f4 a73e
00000060: b8ec 4f3f cfda f13e c4b2 5e3f e5cf 333f
00000070: 02d6 453f 1f9e 0c3f 00a7 113f 11e7 083f
00000080: f1f7 143f bad0 b43e 6394 e23e 001f db3e
00000090: 32b9 163f dd57 533e 4471 fe3e 64ec 093f
000000a0: ed67 033f 0f6a c53e 2672 ed3e 620c 013f
000000b0: e789 353f 4ac9 9e3e 73de 0a3f c8de 7c3e
000000c0: 1639 c13e a5ec 153f 0d01 003f 83eb 143f
000000d0: 823c 0c3f a864 213f b2e9 273f c1bd 8e3e
000000e0: 59ab d13e adf0 133f cd7f 123f baa4 f43e
000000f0: c8a2 343f e0d3 153f 19bb aa3e 2251 ea3e

classifier.weight f4 [10, 64]
0.082687795 0.14131738 0.035890814 0.0059732366 0.17683117 -0.011706342 -0.19319363 -0.13694298
0.20669535 -0.044788055 -0.10464002 0.14500259 -0.051064834 0.035400644 0.035225436 -0.106145374
-0.033678036 -0.10328137 0.14418082 -0.14940417 0.0041322117 -0.051113617 -0.16321717 -0.10676618
-0.112947725 -0.11249063 0.16784555 -0.0607403 0.11351825 -0.1926622 0.050031137 -0.052537322
-0.16543277 0.12145439 -0.11227128 0.014377504 -0.055171035 0.12871073 0.21761143 -0.17942181
-0.09772753 -0.16160485 0.07390754 -0.051887944 0.002458375 -0.03801539 -0.020700421 0.09391979
-0.015550817 0.020107323 -0.0326837 -0.00079676986 -0.015153071 -0.06917207 -0.09624802 0.0069367085
-0.017254593 -0.023650995 -0.1837787 0.14305845 0.058566876 -0.055774033 -0.12632525 -0.12962052
-0.05024806 0.008178007 -0.1778856 -0.14608611 0.21199618 0.2058066 -0.1770585 0.06621886
0.11158462 0.04049895 0.13572781 0.12462381 0.029248454 -0.008855085 -0.117688246 -0.039548162
-0.039705276 -0.04136672 -0.011597208 0.07092925 0.15917343 -0.025263764 -0.14358066 0.020463431
0.03828749 0.12181653 0.030632993 -0.06878083 0.22320162 -0.0072848476 -0.061750002 -0.055149443
-0.12298071 0.012097729 -0.029353755 0.091000326 0.11035364 0.023380712 0.12639417 -0.16597775
-0.1244106 -0.09506639 -0.15526246 0.0022141992 -0.06763121 0.015282537 0.028233824 -0.017858494
-0.004898116 -0.02529921 -0.12812424 -0.020373518 -0.0294861 0.059669312 0.106602974 0.16019784
0.010936409 0.17865326 -0.058603458 0.07527782 0.05039309 0.066438906 -0.07727039 -0.011474674
0.02348243 0.025265919 0.14654687 0.054826017 -0.13023794 -0.09402527 0.0010833405 -0.13768475
-0.007248973 0.08604924 0.04842583 -0.17489925 -0.035487954 -0.096897945 0.014079258 -0.013903325
0.071899876 0.030897915 0.18361089 0.09750199 -0.16230462 0.11467621 -0.027841501 0.015581998
0.1419628 0.008189488 0.019419003 0.014635861 -0.18501589 -0.035705943 0.093704775 -0.09505167
-0.035095602 -0.013227348 -0.1350161 -0.117305696 0.03651723 0.10140755 -0.18691906 -0.015780447
-0.035812113 0.042945627 -0.06934594 0.15251237 0.18793282 0.08431535 -0.016344117 -0.04875514
0.010423153 0.03779975 0.1355048 -0.16901754 -0.096517906 0.117865175 0.10899109 0.055632535
-0.09908991 -0.11072257 -0.013468962 -0.16156778 -0.04839914 0.065707505 -0.088711865 0.043978922
-0.07023875 -0.09756881 0.019059464 0.17505501 -0.04826523 -0.0033901078 -0.13016444 0.10699576
-0.041787125 0.057372477 0.16552758 -0.11026595 0.02225538 0.087199666 -0.037058942 0.121781655
0.07009664 0.019258698 -0.0035404423 -0.069286734 -0.0141266305 0.10718109 0.046941385 0.05372819
-0.14419974 0.042265955 0.07399189 0.17087162 -0.17532946 -0.029274879 -0.12658364 0.052564558
0.13214707 -0.11690797 0.18051396 -0.017228637 0.09969622 0.008172091 -0.10400744 0.051204417
0.1730791 0.052854087 -0.0866413 0.12732555 -0.010901302 0.16843203 -0.18514097 0.07049185
-0.081687324 -0.018873401 0.055510517 -0.15977484 0.11115927 0.0781727 0.0028125022 0.04782927
-0.04737697 0.04045853 0.1889319 -0.012455736 -0.18793008 0.11268546 -0.030401712 -0.008411575
00000000: 3858 a93d 81b5 103e 3f02 133d 24bb c33b
00000010: 3b13 353e f5cb 3fbc 8dd4 45be c83a 0cbe
00000020: f2a7 533e ae73 37bd 824d d6bd 8f7b 143e
00000030: 5c29 51bd 4400 113d 8c48 103d bf62 d9bd
00000040: fbf1 09bd 2f85 d3bd 23a4 133e 68fd 18be
00000050: 8167 873b 835c 51bd 6722 27be 3aa8 dabd
00000060: 2351 e7bd 7d61 e6bd b4df 2b3e d2ca 78bd
00000070: 427c e83d 3d49 45be 73ed 4c3d 6031 57bd
00000080: 3567 29be 14bd f83d 7cee e5bd 9f8f 6b3c
00000090: 06fb 61bd bfcc 033e 88d5 5e3e 5aba 37be
000000a0: 5f25 c8bd be7b 25be d65c 973d 7488 54bd
000000b0: b01c 213b 07b6 1bbd ee93 a9bc 0559 c03d
000000c0: dbc8 7ebc 1db8 a43c 58df 05bd 52de 50ba
000000d0: 9644 78bc 16aa 8dbd af1d c5bd 544d e33b
000000e0: 8159 8dbc bbbf c1bc 7c30 3cbe ea7d 123e
000000f0: d2e3 6f3d 5073 64bd 685b 01be 3ebb 04be
00000100: e9d0 4dbd 0cfd 053c a527 36be 9997 15be
00000110: 8715 593e f7be 523e d34e 35be c19d 873d
00000120: 7a86 e43d 3ae2 253d 3bfc 0a3e c53a ff3d
00000130: 749a ef3c eb14 11bc 8906 f1bd 41fd 21bd
00000140: 00a2 22bd 2670 29bd 3702 3ebc 5b43 913d
00000150: 5cfe 223e f4f5 cebc cf06 13be eda2 a73c
00000160: 58d3 1c3d f27a f93d 0bf2 fa3c f7dc 8cbd
00000170: f78e 643e bbb5 eebb 92ed 7cbd 62e4 61bd
00000180: 4fdd fbbd 8e35 463c 4977 f0bc 615e ba3d
00000190: 1701 e23d e888 bf3c 796d 013e 12f6 29be
000001a0: fcca febd 2bb2 c2bd 1ffd 1ebe 191c 113b
000001b0: 3b82 8abd 9b63 7a3c 9f4a e73c fa4b 92bc
000001c0: 6080 a0bb 4a40 cfbc 0033 03be 5de6 a6bc
000001d0: d58c f1bc cf67 743d a952 da3d e70a 243e
000001e0: a02e 333c e1f0 363e 2e0a 70bd 422b 9a3d
000001f0: fc68 4e3d 1f11 883d f03f 9ebd 4500 3cbc
00000200: 3a5e c03c 79fa ce3c 6210 163e 3f91 603d
00000210: 185d 05be 5290 c0bd e0fe 8d3a 3bfd 0cbe
00000220: cb88 edbb 953a b03d 2a5a 463d ca18 33be
00000230: d15b 11bd 6e72 c6bd b0ac 663c c6ca 63bc
00000240: 3e40 933d a01d fd3c 7e04 3c3e 20af c73d
00000250: 2f33 26be 5cdb ea3d dc13 e4bc a34b 7f3c
00000260: b25e 113e 342d 063c 9a14 9f3c 40cb 6f3c
00000270: ce74 3dbe 6540 12bd 4ae8 bf3d 73aa c2bd
00000280: 68c0 0fbd 85b7 58bc a941 0abe f83d f0bd
00000290: 1793 153d c3ae cf3d b667 3fbe ff45 81bc
000002a0: b9af 12bd c1e7 2f3d 3f05 8ebd 342c 1c3e
000002b0: 7671 403e 87ad ac3d 19e4 85bc 78b3 47bd
000002c0: dfc5 2a3c e9d3 1a3d c5c1 0a3e ef12 2dbe
000002d0: 2eab c5bd 4c63 f13d b836 df3d f1de 633d
000002e0: a7ef cabd 84c2 e2bd ecac 5cbc 0672 25be
000002f0: 2d3e 46bd a891 863d 91ae b5bd 3e23 343d
00000300: 55d9 8fbd 28d2 c7bd 9822 9c3c 9f41 333e
00000310: c3b1 45bd 922c 5ebb d449 05be 9820 db3d
00000320: fa28 2bbd 67ff 6a3d 1080 293e 1dd3 e1bd
00000330: ea50 b63c bd95 b23d 1ecb 17bd a968 f93d
00000340: d48e 8f3d 6bc4 9d3c c406 68bb 34e6 8dbd
00000350: 6273 67bc c281 db3d 9c45 403d 1712 5c3d
00000360: 19a9 13be 111f 2d3d 0f89 973d f8f8 2e3e
00000370: 9189 33be dfd1 efbc 249f 01be ef4d 573d
00000380: 9051 073e 726d efbd a7d8 383e 1223 8dbc
00000390: 882d cc3d 3ce4 053c da01 d5bd b9bb 513d
000003a0: a63b 313e 877d 583d fe70 b1bd a161 023e
000003b0: 609b 32bc 7279 2c3e 9895 3dbe 085e 903d
000003c0: af4b a7bd 649c 9abc ff5e 633d 049c 23be
000003d0: 79a7 e33d 0219 a03d f551 383b a0e8 433d
000003e0: 5b0e 42bd d8b7 253d 5d77 413e 2513 4cbc
000003f0: be70 40be a2c7 e63d 030d f9bc b4d0 09bc

classifier.bias f4 [10]
0.04252119 0.017604152 0.025216311 0.08116918 -0.0068292427 0.023722604 -0.025731245 0.035159625
-0.020756133 0.013487381
00000000: b32a 2e3d 9536 903c 7092 ce3c 073c a63d
00000010: d7c7 dfbb e855 c23c 55ca d2bc 8a03 103d
00000020: c408 aabc 2dfa 5c3c

exp_avg f4 [100, 64]
-0.0006124337 5.1951014e-05 -0.0035240343 -9.852094e-05 0.00031952764 0.00042093341 -9.970627e-05 0.0013503669
-0.0012436319 -0.00045204832 -3.8645787e-05 0.0007419005 -9.505061e-06 0.00039254912 -0.00015374049 0.0005165866
-0.00230804 0.0031717562 -0.0003611299 0.00024297679 0.0010254161 -0.0005899568 -0.0048028477 -0.00050041516
8.741422e-05 0.002868594 0.0002852915 -0.003394013 0.0008585116 -0.00046185683 0.009619761 -0.003226198
0.00011739519 0.001193573 0.00010186733 -8.931485e-06 0.0011934129 -0.0019944082 0.00031911847 -6.690881e-05
-0.00026575 0.006018622 -0.00024146744 -0.00031308708 8.633121e-05 -0.009054049 0.0003954403 0.0071171857
0.0014132641 -0.00051049766 0.0048456276 -0.0029443866 0.00011256513 -0.0056461385 5.678791e-05 0.0001253192
-0.004566681 0.00021005492 -0.00031015027 -0.0018782105 -0.001079757 0.0008775701 0.00042392506 0.0024024616
-0.00021816241 -0.0005846385 -0.0028682204 0.00058050617 -7.731021e-05 -0.0004944951 2.7580909e-05 0.0009310798
-0.0016200058 -8.512692e-05 1.7328051e-05 0.0002657963 0.00013029676 0.0001242686 0.0002781745 0.0010665342
-0.0017819405 0.002657883 0.00010621902 -0.00027580262 -0.00033091177 -0.00022135783 -0.003969085 -9.054589e-06
-9.11252e-08 0.0025987998 0.00041000007 -0.0024917051 -6.1029637e-05 -0.00015297545 0.008659769 -0.0029380596
0.0005521479 0.0007708454 0.00037456624 0.00019834732 0.001033932 -0.0018882275 -3.282647e-05 0.00037768716
4.5236342e-05 0.005928774 -0.00023435814 0.00047383006 0.00049889245 -0.007893224 -0.00033552598 0.0068067745
0.0016112245 -0.0005165965 0.0050154957 -0.003208952 -0.000457532 -0.0063505094 0.00016328203 4.1737272e-05
-0.0044649905 0.00019271609 0.00036656338 -0.0022459899 -0.0012500538 0.0008462653 0.00080952625 0.0027497779
-0.0004011396 -0.00018982822 -0.0032636675 0.0003463044 0.00046182008 0.0005749791 -0.0002622785 0.0015350381
-0.0012412806 4.056478e-05 0.00024724685 0.00077978167 -0.00026609143 0.00067492644 -5.7747184e-05 0.0011349833
-0.0022911269 0.003166564 -0.0002824387 0.0002012274 0.00068251864 -0.00057818886 -0.0041603725 -0.00017285101
-0.00018593727 0.002851518 0.00093749043 -0.0027724635 0.0006222273 -0.00065521506 0.008682481 -0.0029119754
0.0007226981 0.0013547466 0.00064339995 0.00038588612 0.0014298408 -0.001710259 0.00036009576 0.00025916484
2.840415e-05 0.0056978627 -0.00064549793 0.00037531124 0.0004150697 -0.00797556 6.500888e-05 0.00676842
0.0011935178 -2.0348087e-05 0.0048839287 -0.0028949855 0.0003147647 -0.0056969933 0.0006792306 0.0004788322
-0.004056991 0.0004785063 0.0002543855 -0.0016523842 -0.0013425819 0.0012977037 0.0008084705 0.0021928668
-0.00020036453 -0.0013929498 -0.0028380284 0.0010308081 -0.0007286965 -0.0019092662 0.00031578366 0.0009205401
-0.002630151 0.00033785295 -0.00034581832 -0.00070264033 0.0003169609 0.00030468244 0.0006360327 0.001375324
-0.0019056527 0.0028787237 0.00015279197 -0.00088120945 -0.0017011798 0.00015942445 -0.0043517016 0.00046747245
6.105247e-05 0.0028648532 0.0002925887 -0.0025740955 -0.0008061713 0.0001120029 0.010189864 -0.003501873
0.0012386951 0.00020599949 0.0004050931 -0.00013113106 0.0010077165 -0.0019921206 -0.0015449622 0.0007824642
0.0006131919 0.007012447 -0.00044179492 0.0010056692 0.0007463769 -0.00887099 -0.0009081631 0.008197274
0.0020506575 -0.00058211153 0.0058767875 -0.004828027 -0.00086603226 -0.0077109416 0.000211666 -5.4700627e-06
-0.0065378365 6.6487584e-05 0.00076559285 -0.0037423703 -0.0014893154 0.0011111674 0.000853938 0.0032962451
00000000: bb8b 20ba fae5 5938 7cf3 66bb 079d ceb8
00000010: 4686 a739 bab0 dc39 6519 d1b8 cbfe b03a
00000020: 5d01 a3ba e600 edb9 9917 22b8 1a7c 423a
00000030: ed77 1fb7 0dcf cd39 6635 21b9 8a6b 073a
00000040: 7c42 17bb 3ddd 4f3b 0956 bdb9 96c7 7e39
00000050: 4167 863a 55a7 1aba 3561 9dbb 4b2e 03ba
00000060: 2752 b738 05ff 3b3b 2d93 9539 176e 5ebb
00000070: bd0d 613a 6025 f2b9 349c 1d3c 9f6e 53bb
00000080: 1032 f638 aa71 9c3a 9ba1 d538 70d8 15b7
00000090: 4b6c 9c3a 9eb4 02bb 5b4f a739 6551 8cb8
000000a0: 5c54 8bb9 dc37 c53b 6c32 7db9 d625 a4b9
000000b0: b70c b538 6f57 14bc 1953 cf39 4837 e93b
000000c0: 463d b93a ebd2 05ba 12c8 9e3b 9cf6 40bb
000000d0: f210 ec38 3e03 b9bb 8e2f 6e38 1e68 0339
000000e0: 19a4 95bb 3042 5c39 aa9b a2b9 492e f6ba
000000f0: a286 8dba bc0c 663a 4242 de39 9e72 1d3b
00000100: 87c2 64b9 6d42 19ba c1f8 3bbb 1c2d 183a
00000110: 9a21 a2b8 01a1 01ba 8d5d e737 b513 743a
00000120: 6056 d4ba 2b86 b2b8 b55b 9137 935a 8b39
00000130: 45a0 0839 194e 0239 f3d7 9139 f3ca 8b3a
00000140: 0090 e9ba e12f 2e3b e7c1 de38 9a99 90b9
00000150: 3a7e adb9 4a1c 68b9 190f 82bb 2ae9 17b7
00000160: 9cb0 c3b3 a050 2a3b 47f5 d639 e04b 23bb
00000170: 13fa 7fb8 0968 20b9 b4e1 0d3c 768c 40bb
00000180: 05be 103a 8f12 4a3a 6e61 c439 74fb 4f39
00000190: 0085 873a 677e f7ba 27af 09b8 5004 c639
000001a0: 27bc 3d38 2946 c23b 09be 75b9 656c f839
000001b0: 1bc8 023a 9552 01bc 89e9 afb9 5d0b df3b
000001c0: b92f d33a 346c 07ba 0759 a43b 484d 52bb
000001d0: e8e0 efb9 ef17 d0bb b036 2b39 0e0f 2f38
000001e0: 0e4f 92bb d513 4a39 4e2f c039 7531 13bb
000001f0: d8d8 a3ba e7d7 5d3a 6336 543a 9e35 343b
00000200: 0c50 d2b9 a00c 47b9 41e3 55bb 3190 b539
00000210: 7120 f239 32ba 163a 6d82 89b9 5533 c93a
00000220: 77b2 a2ba 1a24 2a38 e9a0 8139 436a 4c3a
00000230: 3082 8bb9 8ced 303a 9135 72b8 b8c3 943a
00000240: bb26 16bb 2186 4f3b 4814 94b9 9200 5339
00000250: 0deb 323a 9991 17ba bc53 88bb 573f 35b9
00000260: 28f8 42b9 89e0 3a3b ebc1 753a 38b2 35bb
00000270: f81c 233a bdc2 2bba f740 0e3c d7d6 3ebb
00000280: 7373 3d3a c191 b13a d7a9 283a c250 ca39
00000290: 7f69 bb3a c52a e0ba 3ccb bc39 84e0 8739
000002a0: 7345 ee37 23b5 ba3b a236 29ba 6cc5 c439
000002b0: b69d d939 ecab 02bc 6055 8838 9fc9 dd3b
000002c0: d06f 9c3a 2fb1 aab7 5d09 a03b ccb9 3dbb
000002d0: 0107 a539 d8ad babb 650e 323a c50b fb39
000002e0: 82f0 84bb 07e0 fa39 0b5f 8539 d094 d8ba
000002f0: 93f9 afba b617 aa3a 89ef 533a 33b6 0f3b
00000300: f218 52b9 a493 b6ba 37fe 39bb 2e1c 873a
00000310: ff05 3fba 5840 faba c48f a539 6650 713a
00000320: 9d5e 2cbb db21 b139 f34e b5b9 6531 38ba
00000330: c62d a639 c9bd 9f39 6fbb 263a 3744 b43a
00000340: 18c7 f9ba f8a8 3c3b c836 2039 f700 67ba
00000350: 1ffa deba 2d2b 2739 b898 8ebb 1717 f539
00000360: 4c09 8038 43c0 3b3b 9766 9939 28b2 28bb
00000370: 3d55 53ba 19e3 ea38 63f3 263c ae7f 65bb
00000380: b65b a23a 9101 5839 ad62 d439 3a80 09b9
00000390: 5b15 843a 3d8e 02bb 5480 caba 491e 4d3a
000003a0: 9dbe 203a abc8 e53b b6a0 e7b9 a9d0 833a
000003b0: 82a8 433a a157 11bc cb11 6eba dc4d 063c
000003c0: 5364 063b d898 18ba 1192 c03b 6d34 9ebb
000003d0: 7106 63ba 11ac fcbb a9f2 5d39 7b8b b7b6
000003e0: 593b d6bb 406f 8b38 11b2 483a 8e42 75bb
000003f0: 2235 c3ba 97a4 913a cfda 5f3a d105 583b
