checkpoints/checkpoint_epoch_70.pt (torch, 547720 bytes, 37 tensors)

prototypes f4 [100, 64]
000000 37 43 19 3e 9b 1b 8d be 06 9c b3 bd 55 db 0d 40
       0.14967047 -0.27560124 -0.087699935 2.216512
000010 90 d3 26 bf 8a af 30 3f 6d 22 4d 3e 98 2f 63 bf
       -0.6516657 0.6901785 0.20032664 -0.887445
000020 57 2b b2 3d ad 6b 3d 40 8f 89 80 bf 89 c1 79 bf
       0.08699673 2.959697 -1.004198 -0.97560936
000030 61 de 0f bf 8a 90 84 bf 84 c2 28 bf 28 f9 d2 3f
       -0.561987 -1.035661 -0.6592181 1.6482286
000040 d4 05 3b bf 93 59 c3 3e cc 54 7e 3f e8 c7 c3 3f
       -0.7305577 0.38154277 0.9934814 1.5295382
000050 4e 2d 0d c0 d7 a2 36 be ac 9b d1 be d7 bf 1f 3e
       -2.2058902 -0.17835556 -0.4093908 0.15600525
000060 3b 88 84 3e 7d 4b 7b 3e d8 5f 62 3e 25 1e 47 3f
       0.25885186 0.24540515 0.22106874 0.7778037
000070 6b 99 02 bf 77 98 17 3f dc dc d7 be 9b eb a0 3e
       -0.5101535 0.5921702 -0.4216069 0.31429753
000080 df 4a f1 bf 7a d3 bd 3f ed 25 b7 be bd a4 81 3e
       -1.8850974 1.4830163 -0.35771123 0.25320998
000090 ca 19 8f be 0b 04 51 bf 11 23 60 3f 66 f7 f5 bf
       -0.27949363 -0.81646794 0.8755351 -1.9216125
0000a0 70 7b f1 be 27 93 15 3d 9b b2 96 3f a2 2d e5 3e
       -0.47164488 0.03651729 1.1773256 0.44761378
0000b0 f7 ce 9b 3f 38 f4 20 be a6 a5 83 be 46 f1 54 3e
       1.2172536 -0.15718162 -0.25712317 0.20795164
0000c0 b9 b2 f0 3f 18 e1 e6 be 9b d0 5a 3e ea f5 10 bf
       1.8804542 -0.45093608 0.21368639 -0.56625235
0000d0 0e c2 2e bf ca 0d 4d bf b3 65 1b bf ca 57 05 3f
       -0.68264854 -0.80099165 -0.60702056 0.5208708
0000e0 e0 dd a6 3f a7 e2 88 be 99 2d f6 3d 15 47 f1 bf
       1.3036461 -0.26735422 0.12020416 -1.8849818
0000f0 08 34 58 be bb 52 5e 3f 9b e3 9a be 5e 04 ac 3f
       -0.21113598 0.86844987 -0.30251774 1.3438833
000100 b4 c1 46 bd e2 ae e8 3f 7e be 8d bf ed 90 0f 3e
       -0.048524573 1.817837 -1.1073759 0.14020129
000110 23 b9 a5 bf d6 76 65 bf 8b 13 d8 be 93 da ff 3c
       -1.2947124 -0.89634454 -0.4220241 0.031232154
000120 87 ea dc be 34 8b 02 be 9d 78 08 3e b4 cc 78 3f
       -0.4314768 -0.12748414 0.1332726 0.9718735
000130 e5 94 77 3c c2 1c 57 3f 32 9e 81 bf ba 6b 94 be
       0.015111183 0.84028256 -1.0126402 -0.2898844
000140 aa de 0b 3f ea 8a 42 3f 31 62 53 bf d3 27 00 bf
       0.54636633 0.75993216 -0.82571703 -0.50060767
000150 03 97 bb 3e de 57 fe bf 17 6e 64 3f 80 eb ee 3e
       0.3663865 -1.9870565 0.89230484 0.46664047
000160 de 16 9b bf 97 d3 e0 3f 4e 25 c5 bf 5f 2a 47 be
       -1.2116354 1.7564572 -1.540201 -0.19449757
000170 94 cb d5 3f 35 6d f7 3e af d1 17 3f 6b 71 fa be
       1.6702752 0.48325506 0.59304327 -0.48914656
000180 25 f7 80 3f 8c 13 89 bf 6e 20 e8 bf 39 b0 31 be
       1.0075423 -1.070909 -1.8134897 -0.1735238
000190 af 7e ad 3f 94 78 73 bf f0 fb c3 be df 4b d6 be
       1.3554286 -0.9510586 -0.3827815 -0.4185476
0001a0 91 18 96 bf 0f ec a1 bf 1c db 6f 3a 53 04 e6 be
       -1.1726247 -1.2650164 0.00091497763 -0.44925174
0001b0 56 16 9e bf b7 b9 22 3e f2 34 c9 3e 65 f0 ec 3f
       -1.2350566 0.15891157 0.39298207 1.8510863
0001c0 9b 59 04 be ea cf 81 be ee 27 f2 bf 12 2a 84 bf
       -0.12924807 -0.25353938 -1.8918436 -1.0325339
0001d0 b2 da 46 bd 35 a5 90 3f c1 68 17 be 97 6e 05 3f
       -0.048548408 1.1300417 -0.14786054 0.5212187
0001e0 e1 d3 a2 bf dc 75 42 3d be 39 ae bf 83 31 25 bf
       -1.272091 0.04747568 -1.3611372 -0.64528674
0001f0 f9 10 83 bf ec 59 64 bf 2f 09 fd bf 56 49 8a 3f
       -1.0239555 -0.8919971 -1.9768428 1.080363
000200 34 a9 f3 3e 77 b8 28 bf 3d ee 1e 3f b3 4d ea bf
       0.4759003 -0.6590647 0.6208227 -1.8304962
000210 ed 92 e7 3e 71 8f 04 3f 27 00 d2 3c dc ec 1a 3f
       0.45229283 0.51781374 0.025634838 0.6051767
000220 e7 e3 b6 bf 4a 6d 9a 3c 8b 21 31 bf f6 6e f8 3d
       -1.42883 0.018850941 -0.6919181 0.12130539
000230 19 dd c8 3f 35 6d a2 3b 1b 42 ee bf 76 aa 0c bf
       1.5692474 0.004956866 -1.8613924 -0.549476
000240 8f be 4c 3f 8f 4b ee bf 46 05 94 3f 09 79 62 3c
       0.7997827 -1.8616809 1.1564109 0.013822802
000250 2b dc c0 3d b8 ce 18 bd 60 0e 5c bf 1c 4b 4d 40
       0.09416994 -0.037306517 -0.85959435 3.2077093
000260 b8 e5 af 3f 49 94 ae be 26 de 9b 3e bd db 8c bf
       1.374198 -0.34097508 0.30442923 -1.1004559
000270 af 04 3b bd 33 93 5d bf 5a 45 95 3f 88 65 ca bf
       -0.045658763 -0.86552733 1.166179 -1.5812235
000280 33 d9 7b 3f 53 4f 83 3d ae db 07 c0 50 8a 58 3f
       0.98378295 0.06411614 -2.1227832 0.8458605
000290 dd 4f 03 3c 83 45 3b bf d9 36 8a bf 30 c8 01 c0
       0.008014646 -0.7315294 -1.0797988 -2.0278435
0002a0 df e6 51 bc 90 15 79 bf d1 78 89 3f 50 c3 46 bd
       -0.012811392 -0.97298527 1.0739995 -0.04852611
0002b0 0a c3 a3 bf d3 6c b7 be f8 08 b9 be ae 1e fe 3f
       -1.2793896 -0.35825214 -0.36139655 1.9853113
0002c0 ca e4 16 3f e5 f0 b6 3e 78 79 16 bf c7 f1 e5 bf
       0.58942854 0.35730663 -0.58779097 -1.796441
0002d0 75 60 24 bf a9 5b ab bd 9d c6 72 bf fe c9 15 bf
       -0.6420968 -0.08367092 -0.9483431 -0.5851134
0002e0 0e e6 26 bf d1 c6 75 bf bc 6d bd be 7f 06 85 bf
       -0.65194786 -0.96006495 -0.36997783 -1.0392607
0002f0 fc 18 16 bf 0c ff 4d 3f ee 00 5c 3c 0e 5a 6f 3f
       -0.58631873 0.80467296 0.013427956 0.9349679
000300 74 fb ae bd a6 c3 ac 3f ba df 85 3e 94 af 99 3f
       -0.085440546 1.3497207 0.26147252 1.2006707
000310 36 4c b4 3e 8b b8 06 40 e9 6c 01 bf 5a 53 76 3e
       0.35214394 2.1050136 -0.5055681 0.24055234
000320 44 0b 5e 40 0b 74 f4 3f 54 86 40 c0 61 4b ce 3e
       3.4694376 1.9097914 -3.0081987 0.40291885
000330 f6 04 b2 3e 76 d2 a0 3e d3 1a 5d 3f e5 a7 49 3e
       0.3476941 0.3141057 0.86369056 0.19692953
000340 b3 0a bc bf 28 11 a3 bf 15 01 e1 bf 6b fe d3 3e
       -1.4690765 -1.2739611 -1.7578455 0.41405043
000350 01 78 3c 3f 9b c4 5d be 4d 2a 7f be ee f1 e4 3e
       0.7362061 -0.2165703 -0.2491848 0.44715828
000360 7e 4e 17 3f 5f 51 83 bf a8 d6 7a bf a0 e2 ca be
       0.59104145 -1.0259207 -0.9798379 -0.39626026
000370 60 44 b3 3f 30 7d 2a 3d 5c cd 88 3f 87 0f 08 bf
       1.4005241 0.041623294 1.0687671 -0.5314869
000380 5a 9d 5b 3f 3b 0b f0 3f a2 c9 87 be 19 e8 8e bf
       0.85786974 1.8753427 -0.2652102 -1.116458
000390 c1 49 05 bf 48 e0 4c 3f 9d d6 d3 3d 48 49 36 3f
       -0.52065665 0.80029726 0.103436686 0.7120557
0003a0 69 3b c1 3f c2 30 aa bf c0 79 dc 3e ef 5b 37 3f
       1.5096256 -1.329613 0.43061638 0.71624655
0003b0 fd 13 2a bf f5 7d 06 c0 43 fa ac 3e d2 84 ff 3e
       -0.6643675 -2.1014378 0.33784685 0.4990602
0003c0 78 0e ec bf 06 1b 24 bf 5b 54 6e bf e5 4d f6 3e
       -1.8441916 -0.64103734 -0.93097466 0.48106304
0003d0 7b a2 67 3c 7e f9 ec 3e af 24 1f 3f 71 1a b8 bd
       0.014137859 0.46284097 0.6216535 -0.08989418
0003e0 8d 38 34 3f 42 01 76 bf 8a 25 db be ac ef 84 3f
       0.7039879 -0.9609567 -0.42802078 1.0385642
0003f0 d9 37 ac 3f fd 89 fa 3e 53 f5 c5 bf 85 9e a1 bf
       1.3454543 0.48933402 -1.5465492 -1.2626501

conv1.bias f4 [64]
000000 52 ce 97 b7 31 75 b0 b7 c6 6d aa b8 a9 aa 06 b9
       -1.8096678e-05 -2.1035406e-05 -8.1266786e-05 -0.00012842812
000010 21 03 30 b8 f2 dd 39 36 6a 68 51 b7 b2 01 53 39
       -4.1964584e-05 2.7696337e-06 -1.2481682e-05 0.0002012316
000020 d8 1c b2 b7 95 12 69 b9 14 bb 7e b7 fe 98 f4 36
       -2.1232685e-05 -0.00022227534 -1.5183137e-05 7.2895773e-06
000030 d1 c0 c6 38 b2 16 9a 38 57 51 0c b8 44 e3 1c 38
       9.4772906e-05 7.3475196e-05 -3.3454355e-05 3.7404956e-05
000040 a8 89 a8 39 d4 c9 40 b8 95 26 30 38 b4 44 de b7
       0.0003214602 -4.5964334e-05 4.1997602e-05 -2.6496455e-05
000050 6e 39 6c b9 3c 76 a3 38 89 3e 4f b9 71 38 f5 b7
       -0.00022528108 7.7944685e-05 -0.00019764355 -2.9232559e-05
000060 68 4e fd b7 25 65 17 b8 50 e5 6a 39 8e 7f 60 35
       -3.0196461e-05 -3.6095404e-05 0.00022401405 8.363212e-07
000070 04 31 12 39 a2 60 ef b7 29 f5 06 b8 84 af b1 38
       0.00013941905 -2.8536018e-05 -3.2176413e-05 8.47271e-05
000080 f4 ca 09 39 89 23 74 37 ea 3f 67 38 a8 b3 ce b8
       0.00013140944 1.4551807e-05 5.5134216e-05 -9.856309e-05
000090 78 93 e4 b7 9b cc 1c b9 a7 b1 19 b7 ec 32 70 38
       -2.7248389e-05 -0.00014953541 -9.160874e-06 5.7267884e-05
0000a0 a1 83 42 38 4a 4c 94 b5 13 06 04 ba 5b d7 c1 b9
       4.6375793e-05 -1.1049062e-06 -0.00050363055 -0.0003697228
0000b0 f8 4a 92 38 37 f3 56 b8 9e fe c8 b7 c8 81 80 37
       6.9757865e-05 -5.1248087e-05 -2.3960423e-05 1.5319223e-05
0000c0 4b 42 1b 38 1a d8 c8 37 89 17 88 b7 e3 bb 2b b8
       3.701662e-05 2.3942488e-05 -1.6223423e-05 -4.094456e-05
0000d0 c2 b9 97 b8 50 bf da 37 b6 f8 ef 38 68 63 a8 37
       -7.234841e-05 2.6076712e-05 0.00011442734 2.007345e-05
0000e0 6b 39 1f b9 af c5 86 b9 27 92 fe b7 27 b3 44 38
       -0.00015184811 -0.00025705757 -3.0347217e-05 4.689689e-05
0000f0 53 03 5f b8 74 c9 f0 37 95 70 42 39 3b 1d da 37
       -5.317044e-05 2.8704038e-05 0.00018543222 2.6001237e-05

conv1.lin.weight f4 [64, 512]
000000 2f 6d a8 bc 57 52 13 bd 0b 1e 72 bd 8a d5 2b bd
       -0.020559875 -0.035967197 -0.059110682 -0.041951694
000010 c1 6f 92 bd 59 86 c0 bd 27 63 e8 3c 00 ef 02 bd
       -0.071502216 -0.09400625 0.028367592 -0.03196621
000020 bc 8e be 3c 1c 44 36 3d 94 d6 b5 bc 65 f5 52 3c
       0.02326142 0.044498548 -0.022197045 0.012875889
000030 1a 74 19 bd 64 d7 cf bd 10 5b 57 3c aa 2e 8f bd
       -0.03746424 -0.101485044 0.01314427 -0.06991322
000040 c7 aa cd bd 2a bb 25 bd cd 87 04 bd 8c 4c 15 3d
       -0.10042339 -0.040461697 -0.032356072 0.036449954
000050 f5 fd 39 bd f0 42 95 3d 8d e9 15 3b 75 1c bc bb
       -0.045408208 0.07288158 0.0022874803 -0.005740697
000060 3b 04 64 b9 02 0c 67 bd b0 83 d9 bd 2d 8b b7 bd
       -0.0002174535 -0.056407936 -0.106208205 -0.089620925
000070 9f c6 a1 bc 77 8f 4a 3c d3 51 f9 3c 1a b2 46 3a
       -0.01974803 0.012363306 0.030434525 0.000757964
000080 18 b6 d5 3d a4 3d 94 3c 73 2a 36 3d 09 32 52 bc
       0.10435122 0.018095799 0.044474076 -0.012829312
000090 be d0 58 bd 12 c0 1a bd f4 de c0 3d a9 97 41 3d
       -0.052933447 -0.03778083 0.09417525 0.047263775
0000a0 42 61 67 3c 20 ba 21 bd 83 86 af bc aa 4d 8a 3c
       0.014122309 -0.039484143 -0.021426445 0.016882736
0000b0 ed f3 9f 3d d0 0c f8 bb 6d 90 af bd bd dd 93 3c
       0.07810197 -0.0075698867 -0.08572469 0.018050069
0000c0 e1 84 52 bd bc 72 ae bc 49 eb bb bd 88 8b 58 3d
       -0.051396254 -0.021294944 -0.091757365 0.052867442
0000d0 9a 4e 8b 3d a0 31 e3 bb 98 a0 59 3d 2e e7 93 bd
       0.068021014 -0.006933406 0.05313167 -0.072218284
0000e0 4c 61 87 bd 7f 0a 54 3d c4 20 71 bd d2 ca 88 bd
       -0.06610355 0.051767822 -0.05886914 -0.0667931
0000f0 fc 89 64 3d 12 17 e2 bd b0 f8 66 bc 1a 03 95 bc
       0.055795655 -0.110395566 -0.014097378 -0.018189956
000100 81 3c 7c 3d 9b 3e 08 3d e4 9e 59 bd ff 6c 28 bd
       0.06158114 0.03326283 -0.053130046 -0.04111957
000110 39 94 6d 3d e4 24 40 3d 00 70 b4 3b f8 dd 56 bc
       0.058002684 0.04691018 0.0055065155 -0.013114445
000120 a3 92 ca 3c 5d 98 8c bb 5e 33 96 bd aa 9e 19 bd
       0.024728125 -0.004290624 -0.07334016 -0.03750483
000130 cd 98 22 3d 2b a8 1d 3d 5c 1d a4 bd 61 04 26 bd
       0.039696503 0.038490456 -0.08013412 -0.04053152
000140 da 4c b4 bd c5 9b c7 bb 9f 70 2e 3c 12 59 2a bc
       -0.08803721 -0.006091567 0.010646968 -0.010397213
000150 d4 ce 0a bd cb 01 3f 3c 33 67 ea 3d 5c 9b ce 3a
       -0.033888653 0.011658142 0.11445465 0.0015762853
000160 8f bc 98 3c 21 39 8a bc d8 9a 08 3d 86 76 e8 bd
       0.0186446 -0.016872944 0.033350796 -0.113507316
000170 f9 c0 6f 3d 19 71 1a bd 23 64 73 bd 22 8e 54 bd
       0.058533642 -0.037705515 -0.05942167 -0.05189336
000180 18 df b9 3d 0d 63 b5 bb 03 d5 30 3d b3 33 81 3d
       0.09075755 -0.0055354894 0.043171894 0.06308689
000190 06 ca c8 3d 9f d8 44 3c ee 11 a6 3c 81 00 b6 3d
       0.09804158 0.012014537 0.020272221 0.08886815
0001a0 61 17 cc 3d 93 7f 66 3d 4b 74 6a 3d b1 66 19 3d
       0.09965397 0.056274008 0.057239812 0.03745145
0001b0 4e 79 00 bd f6 1d ab 3c 2c 97 a7 3c 09 4d fa 3c
       -0.031365685 0.02088831 0.020457827 0.030554311
0001c0 c8 17 8a bd 4d 67 e1 3c fc 4d 5e bd ef 05 b4 bc
       -0.06742817 0.027515078 -0.05427359 -0.021975486
0001d0 64 ed 7e bc a5 30 b4 3d 63 f1 b0 3d 4b 5b 91 bd
       -0.015559528 0.08798341 0.08639791 -0.07097491
0001e0 6d b5 35 bd 5b 4c 82 3d 59 0b 09 bd 73 0d 67 bd
       -0.044362474 0.0636222 -0.033458088 -0.05640931
0001f0 93 3b 61 3d c3 9b cc 3d 9d df 56 bd be e3 ff bc
       0.054988455 0.09990647 -0.052459348 -0.031236526
000200 f5 73 cc 3d 63 19 46 bc 47 19 aa bd 91 46 35 3d
       0.099830545 -0.012091014 -0.083056025 0.04425675
000210 4e b2 94 3d fb d7 8a bd 07 89 34 bd 87 9c f4 3b
       0.072605714 -0.06779476 -0.044075992 0.0074649486
000220 3e 57 ad bd e2 7a e1 bc 3f 59 bc 3b 7c c8 fc 3c
       -0.08463906 -0.027524415 0.0057479437 0.030857317
000230 d6 d9 84 bd 53 5f 9e bc 99 0b 60 bd b2 17 76 bd
       -0.064868614 -0.019332564 -0.05469856 -0.06008119
000240 29 f5 b6 3b a7 2c c8 bc d9 2b 19 3d 73 09 a8 bc
       0.0055834246 -0.024435354 0.037395332 -0.020512318
000250 69 b3 c4 3d 4a 2c 10 bd 3f 6d a5 3d 7a 3b a4 bd
       0.09604532 -0.035198487 0.08077478 -0.08019157
000260 6e cf 7f 3d e0 dd 49 3d a7 e3 39 3d d1 cb 99 3d
       0.06245368 0.049283862 0.04538312 0.07509578
000270 f6 d6 3e 3d fe 1d a3 bd 00 1d 56 bc d9 93 d3 3d
       0.04659172 -0.07964705 -0.013068438 0.10330934
000280 31 aa d5 3c 79 4f 76 bd 3c f8 7b 3c 78 9d ba 3c
       0.02608213 -0.060134385 0.015379008 0.022780165
000290 bf fa ca 3d b4 e6 b8 3d 09 6b 52 bd 82 85 f9 3c
       0.09911107 0.09028378 -0.051371608 0.03045917
0002a0 b2 a3 16 3b 38 b7 30 bd f0 0a a4 3d 0f 7c 4f bd
       0.0022985754 -0.04314348 0.08009899 -0.05065542
0002b0 2c 51 77 3d f6 24 7f bc 0a 26 1e bb 8e fb 14 3d
       0.060380146 -0.015572777 -0.002413156 0.036372714
0002c0 9f 15 a1 bd 9f 4a 10 bd 32 0b c7 bd c0 65 5b 3b
       -0.07865452 -0.035227414 -0.09718932 0.0033477396
0002d0 0e d8 5c 3d cc 66 bf bd f7 70 ff bc 63 95 fa bc
       0.053916983 -0.09345779 -0.031181796 -0.030588811
0002e0 bb c8 7f 3c 2e 7a 67 3d 9b 55 c0 3d f7 e1 6d bc
       0.015611823 0.056513004 0.09391328 -0.014519206
0002f0 10 cc 24 bd 78 e9 c3 3d d6 0b 39 bd 58 68 3c 3c
       -0.04023367 0.09566015 -0.045177303 0.011499487
000300 97 32 0e bc bd 72 61 3d 15 6c bb 3d e6 f2 c7 bd
       -0.008679054 0.055041064 0.091514744 -0.09763126
000310 87 58 43 3d 6c 46 97 bd ce 7a e8 3c 53 30 cc bc
       0.047691848 -0.07386479 0.02837887 -0.024925387
000320 49 c9 09 bc 0d 38 fb bc 98 c4 b8 bd b0 0b e2 3c
       -0.0084098065 -0.030666376 -0.09021872 0.027593464
000330 84 9d 94 bc 57 64 15 bd a7 55 b5 3d 0f 20 93 bc
       -0.018141516 -0.036472645 0.088542275 -0.017959623
000340 dc d5 19 bd cf 00 1d bd b1 f1 3e 3d c0 87 00 3c
       -0.037557468 -0.03833085 0.046617214 0.007844865
000350 0f df 0d bb d6 fc 71 bd 0d 9f cc bd 01 37 c2 bd
       -0.0021647846 -0.059079014 -0.09991274 -0.094831474
000360 4f 88 e0 bc 32 c2 81 3d 04 00 91 3d 99 d6 e2 bc
       -0.027408747 0.06335868 0.07080081 -0.027690219
000370 4d e5 b0 3d 76 43 cb bd 7c 7f 7d bd e9 5f 85 3c
       0.08637486 -0.099249765 -0.061889157 0.016281085
000380 76 8d aa bc 61 f6 92 bd 4b 7c bd 3c 72 b0 2f bd
       -0.020819407 -0.07175899 0.023130557 -0.04289288
000390 64 4f 30 3d 87 5e a1 3d 30 2c 35 bb b8 ca 86 bd
       0.043044463 0.07879358 -0.0027644746 -0.06581634
0003a0 6e c1 4c bd 75 fe 51 3d 46 91 b0 bc c3 04 e1 bc
       -0.049989156 0.05126806 -0.021553647 -0.02746809
0003b0 ee c0 fa 3b ee 30 c3 bd dc 1c f3 bd b7 23 9a bc
       0.0076523935 -0.09530817 -0.11870739 -0.018815858
0003c0 7a 76 a0 3d 92 db c6 3c f1 ce 8a 3d 9d 38 e6 bd
       0.078350976 0.024274621 0.06777752 -0.11241267
0003d0 95 85 2a bd a6 43 b8 3c ef 4f 5d bd 76 b8 cf bd
       -0.0416313 0.022493195 -0.05403131 -0.10142605
0003e0 3e 3d 94 3d a2 29 4c bd e5 63 ab bd 26 de 0e 3d
       0.072382435 -0.04984439 -0.08368663 0.034879826
0003f0 49 01 e9 bd 2b 27 d4 3d b4 de 6a 3c b9 c7 17 3d
       -0.11377198 0.10359033 0.014335323 0.037055705

conv2.bias f4 [64]
000000 54 d3 87 39 40 6e 7a b7 81 ff 2d b8 3a 72 05 39
       0.00025906658 -1.4926831e-05 -4.148437e-05 0.00012726421
000010 48 b6 7d 38 ae aa 10 3a 38 34 7e b9 8c 97 21 b7
       6.0489663e-05 0.00055185973 -0.0002424278 -9.631633e-06
000020 7b 21 8d b8 5d 1f 4f 38 fe 31 e3 35 10 68 52 b8
       -6.72964e-05 4.9381855e-05 1.6927368e-06 -5.0164817e-05
000030 d2 c9 f9 b8 71 9c 11 38 e1 a4 d9 39 5c 4d 34 38
       -0.00011910837 3.471639e-05 0.0004151231 4.298739e-05
000040 bf 69 0c 39 3a 82 76 38 9f 20 2a 3a d4 b7 93 b8
       0.00013390834 5.8772253e-05 0.0006489846 -7.043747e-05
000050 ce ff 91 37 42 19 3f 38 e9 41 50 38 df a7 81 36
       1.7404465e-05 4.556147e-05 4.9652448e-05 3.8640424e-06
000060 26 c4 c3 b8 b6 58 51 b8 33 33 57 b9 2d 27 39 b9
       -9.33486e-05 -4.99121e-05 -0.00020523071 -0.00017657569
000070 c7 70 00 ba 3c cd cc 36 ed 6a c4 39 c4 a8 62 b9
       -0.00048996176 6.103566e-06 0.000374637 -0.0002161591
000080 d0 da 7c b9 bf 29 68 b9 f4 bb 0f b9 fa f3 ba 39
       -0.00024114107 -0.00022140796 -0.0001370756 0.0003565846
000090 12 cd 79 39 ea c1 45 ba cc c1 af b8 4c 48 34 38
       0.00023822885 -0.0007543849 -8.380748e-05 4.2982676e-05
0000a0 f7 c4 29 b9 a0 68 e0 39 85 9f ee b6 7c 56 f6 39
       -0.00016190471 0.0004280256 -7.1115232e-06 0.00046985212
0000b0 38 16 45 39 b1 d9 10 39 42 bb 2f 39 64 c0 31 b9
       0.00018795661 0.00013814007 0.0001675906 -0.00016951706
0000c0 54 ba 48 b8 c2 b4 0c 3a 96 34 58 b8 9e d0 5e b6
       -4.7857247e-05 0.0005367511 -5.1547388e-05 -3.320201e-06
0000d0 ad e5 97 38 74 37 df b8 cf ef 13 b9 e9 1d 50 38
       7.2430215e-05 -0.000106437976 -0.00014108348 4.961892e-05
0000e0 f9 a2 b0 b6 2b 76 69 39 8f 09 60 38 f8 fb 02 34
       -5.2641813e-06 0.00022264633 5.3414664e-05 1.2198859e-07
0000f0 9b 7c 23 b8 98 f3 a0 b4 2f 17 13 b8 b8 32 e7 b7
       -3.8978276e-05 -2.997956e-07 -3.5069123e-05 -2.7560964e-05

conv2.lin.weight f4 [64, 64]
000000 73 ba 2d 3d a0 57 26 be e5 43 60 3c a4 e9 11 3e
       0.04241414 -0.16244364 0.013688062 0.14249283
000010 cf 48 ce 3d 0b e2 1e 3e 8a 8e 1f 3e 19 61 a8 3d
       0.10072481 0.15515916 0.15581718 0.08221645
000020 c6 3f eb 3c 8a eb 3b 3e 0e 77 e2 bd 20 53 f2 bd
       0.028716933 0.1835157 -0.11057864 -0.11832261
000030 b5 e8 39 be b0 40 0f bd 12 ac 68 bc f6 62 78 3e
       -0.18155177 -0.0349738 -0.014201181 0.242565
000040 fa 4d 44 be d3 5b 02 bd a3 76 c2 3d 81 8f da 3d
       -0.1917037 -0.03182585 0.094952844 0.106719024
000050 05 a9 84 3e 97 92 70 bd df 56 32 be ca 01 0e bd
       0.25910202 -0.05873355 -0.17415951 -0.034669675
000060 20 eb b3 3d 76 84 32 3e 91 53 c5 3d f4 ae 2c be
       0.08785081 0.17433342 0.0963508 -0.16863614
000070 f2 71 88 bd 14 64 16 3e a8 7d 36 bc 19 97 15 bd
       -0.06662358 0.14686614 -0.011138357 -0.03652105
000080 1f c5 df 3d e6 bc 82 bd ac 10 95 3d 39 74 79 bd
       0.1092627 -0.06383686 0.072785705 -0.060901854
000090 66 12 15 3d e1 d6 bd 3c fb 23 1d 3e f7 4d d5 3d
       0.0363945 0.023173751 0.15345757 0.10415261
0000a0 91 a2 12 be e0 27 de 3d f5 72 f7 3c d2 28 98 3d
       -0.14319827 0.10847449 0.030206183 0.07429661
0000b0 84 bb 01 3e 01 39 f2 bd a9 aa 12 3e cf ef 41 3d
       0.12669188 -0.11827279 0.14322914 0.04734784
0000c0 d0 b9 aa 3d 58 12 d2 3d 44 0f 2b be 56 59 b5 bd
       0.08336222 0.10257405 -0.16705042 -0.0885493
0000d0 d4 35 86 bc 58 f3 a9 3d 92 67 ce bd 8c 65 65 3d
       -0.01638309 0.08298367 -0.10078348 0.056005046
0000e0 f1 55 26 bd 83 7d 3c 3e aa b9 df 3d 09 cd 03 be
       -0.040609304 0.18407254 0.109240845 -0.12871183
0000f0 d9 41 c6 3d b9 ae bc 3d da 3a 88 3e 2d 96 06 3e
       0.09680528 0.09213013 0.266074 0.13143225
000100 d8 c6 02 3e 47 42 37 3e 4d a2 cb bd 0e 8d 34 3e
       0.12771165 0.17896377 -0.09943066 0.17631933
000110 00 d1 26 be e4 6b cc bd 29 fd fd 3d 32 3d bc bd
       -0.16290665 -0.09981516 0.12401802 -0.091913596
000120 2d 06 bc bd 04 75 22 be 56 ba 64 3e a0 f9 37 3e
       -0.091808654 -0.1586495 0.22336707 0.17966318
000130 81 ce 6c 3d 88 81 82 be c1 26 2b 3e 9e 2a 5f be
       0.057814125 -0.2548945 0.16714002 -0.21793601
000140 82 e7 05 3d eb a4 3d be 30 fd ea 3a ef a5 a8 bd
       0.032691486 -0.18519942 0.0017928239 -0.08234774
000150 29 0b 0a be ee d7 d7 3d c1 9a 34 be 6b 59 95 3d
       -0.1348082 0.10539232 -0.17637159 0.07292446
000160 58 84 1b be ef a4 6e 3d 23 ac 55 bd c2 e0 79 bc
       -0.15187204 0.05826276 -0.052166115 -0.01525134
000170 f8 0e 1e 3c cd b3 76 be 47 6a 6a 3c 05 96 cd 3d
       0.0096471235 -0.24092026 0.014307565 0.100383796
000180 ba b5 aa bc c9 9d 83 3d 80 e7 99 3d 59 b4 6c be
       -0.020838607 0.064265795 0.07514858 -0.23115672
000190 76 0c be bd 2a d8 9c bd ae b8 4d 3e 36 5b 5d bc
       -0.092797205 -0.076584175 0.20089981 -0.013510516
0001a0 b3 ac 2a 3e 23 4c 97 3c 4f 15 95 bd 1e 8b 24 3c
       0.16667442 0.018468922 -0.07279455 0.010042934
0001b0 c3 47 a6 3c c1 88 0f be fa 65 15 3e 8a b7 86 bd
       0.02029789 -0.14017011 0.14589682 -0.06577976
0001c0 45 7d e3 3d 89 78 8e bd a0 e3 db 36 5b ee 40 be
       0.11107878 -0.06956584 6.5532076e-06 -0.18840925
0001d0 7c 38 2b bd b7 98 13 bd 60 51 f0 3d 0a cc 21 bc
       -0.041801915 -0.036034312 0.11734271 -0.009875307
0001e0 c3 91 f8 3d 5f 7e b4 bd 33 4f 43 bd f6 46 b5 bc
       0.12137177 -0.08813166 -0.047682952 -0.022128563
0001f0 f4 8b 04 3e 21 bb 8b bd d4 27 18 be d0 1a 24 bd
       0.12944013 -0.068228014 -0.14858943 -0.040064633
000200 87 64 0d 3b 33 35 08 3d 01 e3 0d 3e 38 79 e0 3d
       0.0021574812 0.03325386 0.13856126 0.10960621
000210 68 32 d8 bd e9 1e dd 3d cc 09 a0 bd e1 b9 69 3d
       -0.10556489 0.10796911 -0.078143686 0.057062034
000220 15 20 f0 bc 19 d5 b5 bd 64 82 15 be f0 e6 f0 bd
       -0.029312173 -0.08878536 -0.14600521 -0.11762798
000230 16 e5 86 bc 01 08 a8 3c 12 d9 3b bd 8c 3b 5c 3e
       -0.016466659 0.020511629 -0.04586131 0.2150709
000240 dd 48 2e be 12 9c a0 bd 61 15 0a be 08 01 d6 3d
       -0.17019983 -0.07842268 -0.13484718 0.104494154
000250 ce 20 30 3b 35 47 57 be 6b 21 16 3e 95 0a e0 3d
       0.0026875022 -0.21023257 0.14661185 0.10939518
000260 26 3a da 3d d5 23 4f 3e b7 6d 41 3b 10 81 33 be
       0.10655622 0.20228513 0.0029514858 -0.17529702
000270 18 00 e6 bd f8 17 ab 3c 57 27 4c 3e 07 a7 20 be
       -0.11230487 0.020885453 0.19936882 -0.15688716
000280 06 c3 d5 bd f8 55 9d 3d 88 0b 74 be 2f a7 5b 3e
       -0.104375884 0.07682413 -0.23832524 0.21450494
000290 7e 3e 9a 3c ad 37 f3 bd fb d3 ea bd 02 8c 7a 3d
       0.018828627 -0.11875854 -0.11466213 0.061168678
0002a0 4e ab 75 3d ab e3 1b 3e 72 2e 50 3e 16 95 12 bd
       0.059977822 0.15223567 0.20330217 -0.03578671
0002b0 1f da 84 3e 63 47 74 3d ab fc d8 3d 2f 92 82 3d
       0.25947663 0.059638392 0.105950676 0.063755386
0002c0 42 0c 48 3c 59 67 28 3e 12 bf 4c be 6a 47 2c be
       0.012209954 0.16445674 -0.19994763 -0.16824117
0002d0 9c 01 ef bd 5c b1 23 3d 8d a8 11 be 73 41 7e 3e
       -0.11670229 0.039964065 -0.14224453 0.24829654
0002e0 35 55 9c bd 63 c8 de 3d 71 c8 c3 3d 03 35 c4 3d
       -0.076334395 0.108780645 0.095597155 0.09580424
0002f0 f0 35 a2 bd 7b 3c 16 bd 94 96 7f 3e 94 c1 b3 bd
       -0.07920444 -0.036678772 0.24959785 -0.087771565
000300 c6 b4 53 be 8e b8 b0 3c 05 f5 ee bd 29 64 80 be
       -0.20674428 0.021572378 -0.116678275 -0.25076416
000310 ea 6c ec 3d 13 ac d3 3d 46 a0 51 3e b9 ac 57 3e
       0.11544211 0.10335555 0.20471296 0.21061982
000320 de 22 c3 bc 00 bd 3b 3d 74 64 c1 bd 43 41 ca 3d
       -0.023820337 0.04583454 -0.09442988 0.09875729
000330 26 73 6b bd 6e ce 8b bd 26 ce 26 be 2a 04 4c 3e
       -0.05748286 -0.06826483 -0.16289577 0.19923463
000340 6d ed 31 bc 2c 60 47 3e ab 46 f1 bd 7a be d3 3d
       -0.010859829 0.1947028 -0.11781057 0.10339065
000350 79 9b a3 bd cf f1 f4 3c bb 07 ec 3d a4 c9 99 3d
       -0.079886384 0.02990046 0.11524912 0.07509163
000360 00 db 64 bc 84 6b aa 3d bd 87 40 3e ca d2 c6 3d
       -0.013968229 0.08321288 0.1880178 0.097081736
000370 9b ca 02 3e 1d 74 2d be fc db ba bd 8a 44 63 be
       0.127726 -0.16938825 -0.0912399 -0.22194114
000380 cb 5e 59 3d 4c 03 e7 3d 63 92 91 3d d2 8f d6 3c
       0.053068917 0.11279926 0.07107999 0.026191626
000390 c3 4c fe 3c 9c 01 82 be 0a 67 f7 3d c5 18 db 3d
       0.031042462 -0.25391853 0.120802 0.10698084
0003a0 74 d6 07 3e 3a 15 06 3e b2 54 ed bd a6 d5 43 3c
       0.13265401 0.13094035 -0.1158842 0.011952793
0003b0 33 d1 8a 3d a8 3b 49 bd 28 f1 82 be c7 ed 26 be
       0.06778183 -0.04912916 -0.25574613 -0.16301642
0003c0 5f 72 a5 3d 37 47 b8 3c 88 d4 4c bd c0 ce c7 3d
       0.08078455 0.022494895 -0.050007373 0.09756231
0003d0 c0 34 82 be 17 44 67 3e 53 28 16 3e 73 01 14 3e
       -0.2543087 0.22584568 0.1466382 0.14453678
0003e0 a3 aa 62 bd a2 26 67 bd 0c aa 36 3d 84 6b 16 3e
       -0.055338513 -0.056433327 0.044595763 0.14689451
0003f0 b8 2d ee 3d de 49 31 3e 94 55 79 be a5 7d 27 bd
       0.11629814 0.17313334 -0.24349052 -0.04089131

bn1.weight f4 [64]
000000 1a e9 85 3f 9a 80 83 3f f8 fa 82 3f 28 ee 79 3f
       1.0461762 1.0273621 1.023284 0.9762902
000010 6e 32 82 3f 0e 2f 80 3f 63 af 77 3f e6 53 78 3f
       1.017164 1.001436 0.96751994 0.9700302
000020 3b 61 71 3f ca c7 70 3f ea 0e 73 3f 45 58 75 3f
       0.94288987 0.94054854 0.9494463 0.95837814
000030 19 48 6f 3f 70 98 86 3f 9f b4 79 3f de 5b 7b 3f
       0.9346939 1.051527 0.9754123 0.98187053
000040 8e 5a 82 3f e8 5f 73 3f 42 76 76 3f da 81 71 3f
       1.0183885 0.95068216 0.962742 0.9433876
000050 b6 3f 7c 3f ba f1 84 3f fc 70 7a 3f dd 07 74 3f
       0.98534715 1.0386269 0.9782865 0.953245
000060 36 b6 87 3f 57 85 86 3f fe 72 74 3f 52 dd 72 3f
       1.0602481 1.0509442 0.95487964 0.9486896
000070 f8 a4 71 3f dc 5c 80 3f f0 2e 87 3f 30 e3 6f 3f
       0.9439235 1.0028338 1.0561199 0.93706036
000080 26 56 74 3f 92 4f 78 3f 8e e2 82 3f 7c 0c 88 3f
       0.9544395 0.96996415 1.0225389 1.062881
000090 5b 87 85 3f 60 93 87 3f 9b 43 77 3f b1 35 81 3f
       1.0431932 1.059185 0.9658753 1.009451
0000a0 c0 fe 76 3f a5 fb 80 3f 6f ed 84 3f 7e a8 87 3f
       0.9648247 1.0076796 1.0384959 1.0598295
0000b0 24 74 74 3f 96 58 74 3f 96 ac 82 3f 43 d9 7c 3f
       0.95489717 0.9544767 1.0208919 0.98769015
0000c0 a3 6b 7b 3f 57 c3 75 3f 1a 73 84 3f fc 94 85 3f
       0.98211116 0.9600119 1.0347626 1.0436091
0000d0 b6 92 72 3f b8 f6 86 3f 8e 2d 7a 3f 8e 51 80 3f
       0.94755113 1.0544043 0.9772576 1.0024889
0000e0 aa 74 73 3f 44 4f 85 3f 98 2a 82 3f d1 c7 7d 3f
       0.9509989 1.0414815 1.0169249 0.9913302
0000f0 27 e7 71 3f f3 5a 87 3f 41 9d 82 3f 65 21 83 3f
       0.94493335 1.057463 1.020424 1.0244566

bn1.bias f4 [64]
000000 55 a7 0a 3d de 88 b5 3c 0e cf 97 3b 8e ae 23 bc
       0.033850987 0.02215999 0.004632837 -0.009990348
000010 62 a0 18 3b 97 92 33 3c 92 7a f6 bc 89 5f eb bc
       0.0023288955 0.010960243 -0.030087743 -0.028732078
000020 23 71 5f bd 5b 1f 4f bd d6 79 4c bd c1 cb da bc
       -0.054551255 -0.050567012 -0.04992088 -0.026708486
000030 4f 1a 33 bd 53 78 44 3d 87 45 0c bd bd eb 12 bd
       -0.04372626 0.047966313 -0.034245994 -0.03586935
000040 b2 6b d9 3c ba a2 63 bd 66 a4 58 bc b2 e8 15 bd
       0.026540611 -0.05557511 -0.013222789 -0.03659887
000050 78 a5 04 bc 31 91 9b 3c 3a 5b 25 bb 4e e5 00 bd
       -0.008096091 0.018990131 -0.0025231377 -0.031468682
000060 61 31 65 3d bd e0 44 3d 5a 0d 43 bd 17 85 52 bd
       0.055955295 0.04806589 -0.047620155 -0.051396456
000070 96 4e 52 bd 60 0b eb 3b 18 a8 41 3d 64 a9 54 bd
       -0.051344477 0.007172987 0.047279447 -0.051919356
000080 4b f5 44 bd 0e 10 c3 bc 1b b3 5f 3c 72 b3 57 3d
       -0.048085492 -0.023811366 0.013653542 0.052661367
000090 b4 f8 f3 3c fa 14 6a 3d 1d b2 b6 bb a0 75 83 3c
       0.029781677 0.05714891 -0.005575432 0.016047299
0000a0 cc c5 b2 bc 62 5d b1 3b d3 0b 18 3d f1 78 4c 3d
       -0.021822833 0.0054127434 0.03712065 0.049920026
0000b0 10 53 50 bd 05 83 3d bd 50 87 31 3d 5d 5f 17 3c
       -0.050860465 -0.046267528 0.043341935 0.009239045
0000c0 ca 84 f0 bc c9 94 aa bc a6 5c 83 3c 59 50 06 3d
       -0.029360194 -0.0208229 0.01603539 0.03279147
0000d0 01 56 58 bd da 4a 46 3d b6 05 1f 39 89 34 0b 3c
       -0.052816395 0.048411228 0.00015165549 0.008496412
0000e0 69 2c 23 bd 9b 26 bf 3c 84 e0 0c 3d 3b ee cd 3a
       -0.039837275 0.023333838 0.034393802 0.0015711257
0000f0 a9 3e 3d bd 36 2b 3a 3d 09 e9 28 bc 46 2b 19 3d
       -0.046202336 0.045451365 -0.010309466 0.037394784

bn1.running_mean f4 [64]
000000 89 5d 65 bf c1 95 a7 bd e6 05 90 bf 1d 1e 2b c0
       -0.8959585 -0.0818286 -1.12518 -2.673713
000010 dc 7c 3c bf c3 9f 12 3e 15 43 5f 3f 85 9f b8 bf
       -0.7362802 0.14318757 0.87211734 -1.4423681
000020 34 2a 09 3f 36 06 aa 3f 37 44 1e c0 53 de 0b c0
       0.5358002 1.3283145 -2.4729135 -2.1854446
000030 c9 d9 bf 3f 54 03 be 3f fb 04 38 40 f6 3e bb be
       1.4988338 1.4844766 2.875304 -0.36571473
000040 76 e3 0c 40 2c b0 a0 3e a5 c4 5f bf 45 5f e4 3f
       2.201383 0.31384408 -0.8740943 1.7841574
000050 c2 9d 22 c0 ed 81 80 3f b8 86 22 40 cf 3e 25 be
       -2.5408788 1.003965 2.5394726 -0.16137241
000060 f3 76 d8 3f d9 3e c3 bf 53 ce 4e 3f 74 dc 9e ba
       1.69113 -1.5253555 0.80783576 -0.0012120144
000070 64 fe d5 bf 6a 88 e4 3d d1 94 08 c0 5a 7a 3e bf
       -1.6718259 0.111588314 -2.134083 -0.74405444
000080 48 27 aa 3f 3e f0 06 be 47 3e 45 3f 1f 63 a5 bf
       1.3293238 -0.13177583 0.7704815 -1.2920874
000090 d8 67 08 3f c2 d9 1f c0 18 24 b2 3e 9b 1f 0e 3f
       0.53283453 -2.497666 0.34793162 0.55516976
0000a0 6d be e5 bf ea 3b fc 3e 1e 1c 13 c0 45 71 2d bf
       -1.7948738 0.4926446 -2.2985911 -0.6775096
0000b0 d7 cd 3e c0 a1 9c 09 bf 59 ae a1 bf b1 e2 3a 40
       -2.9813135 -0.5375462 -1.2631332 2.9200861
0000c0 cf 61 9c bf f2 d2 36 bf 12 bd 1f 40 37 42 04 40
       -1.2217349 -0.71415627 2.495915 2.0665414
0000d0 ec a4 6c c0 b4 c9 e5 be 79 5f 22 c0 f0 ea 3d c0
       -3.697566 -0.4488045 -2.5370772 -2.9674644
0000e0 8e 24 4c 40 4b 1e 68 bf 0a cb 14 3d d3 99 20 3f
       3.1897311 -0.90671223 0.036326446 0.6273472
0000f0 e2 fa 24 c0 c4 b8 2f 3f 97 5b 4b c0 66 29 7e bd
       -2.5778127 0.68641305 -3.1774652 -0.0620512

bn1.running_var f4 [64]
000000 59 13 56 3f bd a8 10 3f a8 64 49 3f a7 5a 13 3f
       0.8362327 0.56507474 0.78669214 0.575602
000010 62 6e 2f 3f f3 32 21 3f 7f ad 40 3f 6b 9a 3b 3f
       0.68527806 0.6296837 0.75264734 0.732825
000020 44 5e fc 3e aa 5f 14 3f ee b0 36 3f 99 7a 66 3f
       0.4929067 0.5795847 0.71363723 0.9003082
000030 24 e5 3c 3f 1e 06 42 3f 22 6c 45 3f 7b 11 29 3f
       0.7378714 0.75790584 0.7711812 0.660423
000040 b9 4c 0e 3f 38 95 20 3f 06 35 13 3f 54 47 43 3f
       0.5558582 0.6272769 0.5750278 0.76280713
000050 aa 51 25 3f 79 ea 40 3f 73 93 03 3f ae 8a 6c 3f
       0.64577734 0.75357777 0.51396865 0.9239911
000060 8f 45 2d 3f a3 cc 00 3f 69 29 37 3f 18 2c 4a 3f
       0.67684263 0.5031225 0.7154756 0.7897353
000070 64 8b cd 3e 2a 01 45 3f 18 1d 35 3f 71 9c 2a 3f
       0.4014541 0.769549 0.7074752 0.6664496
000080 49 d0 49 3f 39 55 3b 3f d9 a2 2c 3f cb 1f 73 3f
       0.7883344 0.73176914 0.67435986 0.9497039
000090 bf c0 29 3f bf ec 18 3f 73 78 49 3f 57 cb 71 3f
       0.6630973 0.59736246 0.78699416 0.94450897
0000a0 d1 67 6b 3f 70 d3 43 3f 6f ba a3 3f 76 d8 08 3f
       0.91955286 0.76494503 1.279127 0.53455293
0000b0 5f 50 3c 3f 20 43 77 3f d0 5b 2d 3f 4c ef 1d 3f
       0.73560137 0.965868 0.6771822 0.61693263
0000c0 64 c1 45 3f c0 0e 70 3f e2 98 3c 3f 63 45 42 3f
       0.77248216 0.93772507 0.7367078 0.75887126
0000d0 65 3c 33 3f 60 2c 10 3f cd dc 5d 3f cd 0a 6f 3f
       0.7001403 0.5631771 0.8666504 0.93375856
0000e0 b0 94 0a 3f b0 e6 5b 3f a9 e3 6c 3f 0f 26 2e 3f
       0.5413313 0.85898876 0.9253488 0.6802682
0000f0 11 2b f8 3e 71 84 8f 3f 39 e0 95 3f 54 52 3d 3f
       0.48470357 1.1212293 1.1709052 0.7395375

bn2.weight f4 [64]
000000 6c b2 6e 3f ba 6b 83 3f 03 fd 72 3f 6c 76 89 3f
       0.93241 1.026725 0.94917315 1.0739264
000010 d5 8f 6c 3f 62 01 88 3f a0 77 6d 3f e6 ad 6d 3f
       0.9240697 1.0625422 0.9276066 0.9284347
000020 90 bb 77 3f c4 f6 72 3f af da 6c 3f a2 d1 6d 3f
       0.9677057 0.94907784 0.92521185 0.92898
000030 72 1c 75 3f 4e 37 86 3f d1 fa 70 3f b7 c1 87 3f
       0.9574653 1.0485628 0.94132715 1.0605992
000040 04 f4 84 3f 3a b0 87 3f 1e 1b 87 3f 71 99 7c 3f
       1.0386968 1.0600655 1.055515 0.98671633
000050 3f d1 88 3f 2c 6d 73 3f 7f 49 8a 3f 50 34 79 3f
       1.0688857 0.9508846 1.0803679 0.9734545
000060 58 42 6d 3f 31 76 70 3f 4a e3 8a 3f 4a cf 89 3f
       0.9267936 0.93930346 1.0850613 1.0766385
000070 8a 15 6e 3f fc aa 6c 3f 4e fb 72 3f ac 98 6e 3f
       0.93001616 0.924484 0.9491471 0.9320171
000080 66 2a 81 3f a7 f8 68 3f c9 4e 88 3f e0 44 88 3f
       1.0091064 0.91004413 1.0649043 1.0646019
000090 c6 a7 6e 3f b8 10 70 3f 26 8f 87 3f 56 8d 76 3f
       0.9322475 0.9377551 1.059056 0.9630941
0000a0 5d fd 6d 3f 85 e8 79 3f e7 fe 87 3f 61 00 8a 3f
       0.92964727 0.9762042 1.0624665 1.0781366
0000b0 8c 40 7d 3f 04 97 89 3f 7d 5c 6e 3f 94 31 6c 3f
       0.98926616 1.0749211 0.93109876 0.9226315
0000c0 f9 16 84 3f 60 6b 87 3f 18 b6 73 3f ef 57 84 3f
       1.0319511 1.0579643 0.9519973 1.0339335
0000d0 11 39 86 3f 4a ee 87 3f da 35 89 3f 0c 2a 76 3f
       1.0486165 1.0619595 1.0719559 0.9615791
0000e0 7c 89 84 3f 6f 0c 71 3f eb 5b 8a 3f 13 04 77 3f
       1.0354457 0.941596 1.0809301 0.9649059
0000f0 21 a1 70 3f 3b 43 70 3f 13 76 71 3f b0 fc 81 3f
       0.93995863 0.93852586 0.9432079 1.0155239

bn2.bias f4 [64]
000000 87 82 83 bd 4d 3e 6d bb d7 ae 12 bd 6c d3 90 3d
       -0.064213805 -0.0036200464 -0.03581127 0.070715755
000010 30 18 8f bd 4a 19 8f 3d 7e ff 8b bd 8a bc 52 bd
       -0.06987035 0.069872454 -0.06835841 -0.051449336
000020 a1 4e 1a bd 6e c4 68 bd dc 4f 7a bd e7 b8 8c bd
       -0.037672643 -0.056827955 -0.061111316 -0.06871205
000030 5c 34 26 bd 38 f7 08 3d e5 a0 67 bd ae 9d dd 3a
       -0.040577278 0.03343889 -0.056549925 0.0016907954
000040 8d b7 37 3c 64 0c f6 3c 61 6e 51 3c 78 dc 86 bd
       0.0112131955 0.030035205 0.012782664 -0.0658502
000050 4c 58 9d 3d 02 42 97 bd 77 df a0 3d 2d 64 22 bd
       0.07682857 -0.07385637 0.078551225 -0.039646316
000060 35 b3 8e bd 4a 54 5e bd 75 6c 46 3d c9 56 9c 3d
       -0.06967775 -0.054279603 0.048443276 0.076337405
000070 96 53 82 bd c9 be 8d bd b6 b9 cb bd 71 78 82 bd
       -0.06363599 -0.06921155 -0.09947531 -0.063706286
000080 d5 a3 f2 bb 8c c5 a1 bd 01 17 9e 3d 8d 92 81 3d
       -0.007404784 -0.07899007 0.077192314 0.063267805
000090 05 a8 83 bd fe 81 71 bd ef 0d 7d 3d e0 36 f4 bc
       -0.064285316 -0.05896186 0.061780866 -0.029811323
0000a0 e4 73 85 bd 52 a7 5e bd 34 f9 83 3d af f8 34 3d
       -0.06516245 -0.054358788 0.06444016 0.044182476
0000b0 41 83 42 bc 54 d2 a9 3d b7 a1 8c bd 8b 12 92 bd
       -0.011872114 0.0829207 -0.06866782 -0.07132443
0000c0 22 ee f6 bc 00 91 5a 3d af 3f 53 bd de 55 40 3d
       -0.030142847 0.05336094 -0.051574405 0.04695689
0000d0 72 61 33 3d 65 b5 95 3d d9 be a8 3d 12 f5 04 bd
       0.043794103 0.07309989 0.08239526 -0.03246028
0000e0 35 59 47 3d f1 5e 68 bd 1f dd 90 3d 87 58 83 3d
       0.04866906 -0.05673117 0.070734255 0.064133696
0000f0 91 44 a2 bd 7a ce 55 bd d6 9e 9a bd 67 98 73 bd
       -0.07923234 -0.052198865 -0.07549827 -0.059471514

bn2.running_mean f4 [64]
000000 cb 3e 55 3f 7a ab cd be 97 1a ac 3e ca 4c 99 3e
       0.8329894 -0.4016989 0.33614036 0.29941398
000010 99 ac 1c 3e 8c 2f d6 be 51 97 19 bf e1 e8 75 bd
       0.15300216 -0.4183315 -0.59996516 -0.060036544
000020 01 35 e3 be 6e 6a ec 3e bf 1b 3f 3c 70 8f d6 3c
       -0.44376376 0.4617495 0.01166433 0.026191443
000030 cd 0b e4 3e bc 50 31 3f 0c 6c ca 3e 64 f3 37 bc
       0.44540253 0.69263816 0.39535558 -0.011227462
000040 fe e3 e6 3e 89 c1 05 3f 21 2d 3a 3f 15 0d 07 bf
       0.4509582 0.52248436 0.7272511 -0.52754337
000050 2c 67 ca be 90 c3 d7 3e 39 46 ba bd d0 65 fd bd
       -0.3953184 0.4214139 -0.09095425 -0.12372935
000060 17 c9 ad be 1d eb 3d 3f 70 80 3f 3f 34 73 24 3f
       -0.33942482 0.7418688 0.74805355 0.64238286
000070 aa 0f 18 bf dc 49 8e bd 3f 16 f9 be bc fa 82 3f
       -0.593989 -0.06947681 -0.48649785 1.0232768
000080 f8 77 c0 3e 78 54 86 be 20 a5 fb 3e 4d bc 4b 3f
       0.3759153 -0.2623632 0.49149418 0.795842
000090 aa 38 24 3f bc 65 2c 3f c5 34 11 3e fe 94 48 3f
       0.6414896 0.67342734 0.14180286 0.78352344
0000a0 2e 50 86 3f 08 5c 79 3f 32 0d e8 3c f5 d1 ff 3e
       1.0493219 0.97406054 0.028326605 0.49964872
0000b0 58 24 12 3f 02 56 c0 bd 40 10 07 bf 04 e5 2e 3f
       0.57086706 -0.09391405 -0.5275917 0.683182
0000c0 aa 6d 93 39 f6 cc 79 3f 5c 66 d2 3d 10 8d bf bc
       0.0002811973 0.9757837 0.1027343 -0.023382694
0000d0 82 56 80 be 13 8a 31 bf 88 d2 91 3c 0a f5 79 be
       -0.25066 -0.6935131 0.017800584 -0.24409881
0000e0 b5 26 54 3d 40 15 26 3f 27 d4 b7 bd 82 52 36 be
       0.051794726 0.64876175 -0.08976012 -0.17804912
0000f0 f4 89 50 bf 35 61 8e 3e 6b 9c ce 3d 2b 62 98 3e
       -0.814605 0.27808538 0.10088428 0.29762396

bn2.running_var f4 [64]
000000 46 40 6a 3e c4 32 de 3e d2 97 cf 3e ed 78 21 3f
       0.22876081 0.43398106 0.40545517 0.63075143
000010 9d 96 a0 3e 8a 0d b4 3e 87 52 d3 3e b3 8d 81 3e
       0.3136491 0.3516658 0.412739 0.2530342
000020 df 6a 58 3f 9c a1 ec 3e a5 16 9a 3e de 3a e2 3e
       0.8453807 0.46217048 0.300954 0.44185537
000030 15 72 91 3e a9 19 01 3f b9 de 07 3f 77 5f 3a 3f
       0.2840735 0.5042978 0.5307422 0.7280192
000040 c3 77 ec 3e 17 62 11 3f a3 4f 9c 3e 06 05 61 3e
       0.4618512 0.567903 0.30529508 0.21974573
000050 f3 4b c4 3e 92 c9 8b 3e e2 25 bc 3e ae ec 96 3e
       0.38339195 0.27302223 0.36747652 0.29477447
000060 47 7e 39 3f b9 e9 d0 3e ba 7f 47 3f b7 fb 28 3f
       0.7245831 0.40803316 0.7792927 0.66009086
000070 a2 8b 36 3f 37 c6 fd 3e 27 d0 02 3f cc ac f3 3e
       0.7130681 0.49565288 0.51098865 0.4759277
000080 f3 e4 03 3f 29 f1 a4 3e 92 ef d0 3e 84 5b c3 3e
       0.51521224 0.3221524 0.40807778 0.38155758
000090 18 dc 03 3f 1c aa 34 3e c7 ae e7 3e 3c aa ed 3e
       0.5150771 0.17643017 0.45250532 0.4641894
0000a0 fb 26 eb 3e 91 47 ad 3e 8e df de 3e 84 1d ee 3e
       0.45928177 0.33843663 0.43529934 0.46506894
0000b0 81 99 21 3f 2e 99 a6 3e ef d5 f6 3e df 3f 6c 3e
       0.63124853 0.32538742 0.48210093 0.2307124
0000c0 4e 2e ba 3e 22 53 fb 3e 02 f8 f8 3e 59 13 10 3f
       0.36363453 0.49086863 0.48626715 0.5627952
0000d0 e3 73 01 3f b5 2f 0d 3f a8 c0 1a 3f 1c 43 82 3e
       0.50567454 0.5515092 0.6045022 0.25441825
0000e0 e5 80 c5 3e 5b cd ff 3e 76 01 0c 3f 0d e0 e2 3e
       0.385749 0.4996136 0.5468973 0.44311562
0000f0 77 32 1e 3f a8 49 07 3f ef 0a a8 3e a9 fc e2 3e
       0.61795753 0.52846766 0.32820842 0.4433339

classifier.weight f4 [10, 64]
000000 76 2c a5 3d c9 ac 04 3e e2 3b 2c 3d f1 f6 95 3c
       0.08065121 0.12956537 0.042049296 0.018306227
000010 b9 25 27 3e 4b 05 be bc d7 a2 3b be 6d 80 01 be
       0.16322984 -0.023195883 -0.18323837 -0.12646647
000020 53 8c 48 3e fa 66 06 bd d9 9b bb bd 09 9d 08 3e
       0.1958478 -0.03281305 -0.09160585 0.13341154
000030 b3 7f 80 bd 49 48 45 3d 5f 40 3f 3d 6b a6 c3 bd
       -0.06274357 0.04816464 0.04669225 -0.09553226
000040 41 36 bb bc fb e9 c8 bd bd e4 10 3e cd 28 10 be
       -0.022853019 -0.09810253 0.14149757 -0.14078064
000050 b1 51 0e bc c2 f1 23 bd db 52 1c be 3c 6f c2 bd
       -0.008686469 -0.04002548 -0.15265982 -0.094938725
000060 95 df fb bd da 9d e4 bd af ee 28 3e 84 50 53 bd
       -0.12298504 -0.1116292 0.164973 -0.051590458
000070 6d a9 cd 3d 52 d5 3b be 1f 90 63 3d 2b 4b 71 bd
       0.10042081 -0.18343094 0.055557366 -0.058909576
000080 97 42 1b be c6 02 e1 3d 0e fc d2 bd 01 cf 7b 3b
       -0.15162121 0.10986857 -0.10301982 0.0038422944
000090 6a d0 81 bd ec 8d f6 3d 3b d6 52 3e 75 26 2b be
       -0.0633858 0.12038788 0.20589535 -0.16713889
0000a0 23 29 b7 bd d7 55 1d be 76 30 6f 3d 94 7a 1d bd
       -0.08943393 -0.15364777 0.058395825 -0.038446978
0000b0 69 41 6b 3c 85 41 f2 bc de cf 16 bd f1 25 c6 3d
       0.014358857 -0.029572258 -0.03681933 0.096752055
0000c0 06 05 d5 bb e2 51 94 3c c8 65 c4 bc c3 99 3f bc
       -0.006500843 0.018105451 -0.023974314 -0.0116943745
0000d0 b6 62 89 bc c3 34 98 bd 54 7d a3 bd b4 da 9d 3c
       -0.016770702 -0.074319385 -0.07982889 0.019269325
0000e0 ea fc e8 bc 17 8d 80 bc d2 76 2f be 6b d8 06 3e
       -0.028440911 -0.015692277 -0.1713517 0.13168494
0000f0 a0 60 6d 3d 59 c3 3c bd d7 35 f3 bd 84 63 f7 bd
       0.057953477 -0.046084736 -0.118755035 -0.12079528
000100 69 56 20 bd 45 41 49 bb 30 4a 2b be 7c 64 09 be
       -0.039144907 -0.003070907 -0.16727519 -0.13417238
000110 b3 4a 4e 3e 04 4a 47 3e 1d f4 2b be 63 dc 6b 3d
       0.20145683 0.19461828 -0.1679234 0.057583224
000120 60 6f d1 3d 24 d2 59 3d 66 1d 08 3e 4b 23 e5 3d
       0.10226321 0.05317892 0.13292465 0.11188372
000130 ef 9a 20 3d 64 8e 78 bc 9f df d8 bd 4f 80 f2 bc
       0.039210256 -0.015170667 -0.10589527 -0.029602198
000140 de 76 ed bc d2 05 46 bd 59 be 9a 38 e8 20 6e 3d
       -0.028987344 -0.048345394 7.378747e-05 0.05813685
000150 56 80 15 3e 56 11 6e bc 76 48 09 be 17 40 07 3d
       0.14599738 -0.0145305 -0.13406548 0.033020105
000160 33 f8 2b 3d 96 df f2 3d ac 5d cd 3c 50 3f 6c bd
       0.041984748 0.11859052 0.02506908 -0.057677567
000170 f2 a8 57 3e c5 87 21 3b 9d f3 6a bd d4 fd 6b bd
       0.21060541 0.0024647575 -0.057361234 -0.057615116
000180 ac 6f dd bd 46 19 72 3a 8c 04 f2 bc 3d cb b9 3d
       -0.10812315 0.00092353334 -0.029543184 0.09071968
000190 f0 57 d2 3d cd 43 8f 3c 38 70 e5 3d 89 12 1d be
       0.10270679 0.017488385 0.11203045 -0.15339102
0001a0 e6 3a ea bd 08 8f b0 bd a8 b1 17 be da c1 6d 3c
       -0.11437015 -0.08621031 -0.14813864 0.01451155
0001b0 3b 08 62 bd 90 d7 b3 3c 47 25 80 3c 9a df 3c bc
       -0.05518363 0.021953374 0.015642775 -0.01152792
0001c0 28 40 93 3b 41 dd ef bc 1d cd f5 bd a5 22 f2 bc
       0.004493732 -0.029280307 -0.12002013 -0.029557535
0001d0 8e 5d 1c bd ce 0a 4a 3d 88 15 d2 3d c9 3d 1b 3e
       -0.03817516 0.04932671 0.10258013 0.15160288
0001e0 da a6 16 3b d3 ae 30 3e 43 36 3e bd 01 7c 86 3d
       0.0022987635 0.1725419 -0.046438467 0.065666206
0001f0 16 7f 47 3d fc 23 84 3d 5d d6 8f bd c2 33 31 bb
       0.048705183 0.06452176 -0.070233084 -0.0027038907
000200 c9 02 94 3c c0 09 0c 3d fd f3 0f 3e 2f ff 32 3d
       0.018067734 0.034188986 0.14057918 0.043700393
000210 24 13 f2 bd 43 12 a7 bd 52 eb 1c bc 4f 94 0b be
       -0.11820057 -0.0815778 -0.009577589 -0.13630794
000220 0c 50 5a 3b f0 b4 a1 3d 64 7f 39 3d 82 fa 28 be
       0.0033311872 0.07895839 0.045287505 -0.16501811
000230 84 20 3a bd 1e 9a d1 bd 58 0b ff 3b 4e 3c aa bc
       -0.045441166 -0.10234474 0.0077833347 -0.020780709
000240 ff 43 82 3d 83 b2 09 3d 69 f9 30 3e 97 87 dc 3d
       0.063606255 0.033617508 0.17282642 0.10768049
000250 d3 31 19 be 55 3a d8 3d 90 94 07 bd 0d 97 a9 3b
       -0.14960413 0.10558001 -0.033100665 0.0051754774
000260 88 b5 0a 3e eb f6 12 3c fa 5f b2 3c 03 e3 13 3c
       0.13545811 0.008970003 0.02177428 0.009026292
000270 8a 93 32 be b1 36 34 bd 5b 3e be 3d 86 dd bf bd
       -0.17439094 -0.04399747 0.09289237 -0.09368424
000280 cd 49 40 bd 25 71 a1 bb 57 76 07 be d6 82 dd bd
       -0.046945382 -0.004926818 -0.13228737 -0.108159706
000290 69 07 25 3d 8d 37 d5 3d 86 6c 33 be 5e e0 e1 bc
       0.04029027 0.10410986 -0.17521867 -0.027572807
0002a0 e9 d6 32 bd b6 11 15 3d 27 20 93 bd f2 87 10 3e
       -0.043661986 0.036393844 -0.07183867 0.14114359
0002b0 34 85 34 3e 5d 57 a3 3d d0 77 0e bb 98 d8 54 bd
       0.17628938 0.079756476 -0.0021738894 -0.051964372
0002c0 68 cb dc b8 15 76 15 3d 35 ed 04 3e 54 59 23 be
       -0.00010528305 0.036489565 0.12981112 -0.15952045
0002d0 e5 93 b5 bd 6d b9 fd 3d 94 48 d3 3d c2 af 48 3d
       -0.08866099 0.12388883 0.103165776 0.04899574
0002e0 a7 25 b8 bd 5c db e4 bd b5 64 cf bc cc bf 1a be
       -0.089915566 -0.11174652 -0.025316576 -0.15112227
0002f0 b2 9a 50 bd 70 a2 7e 3d 51 ce b7 bd ab 3a 0d 3d
       -0.05092878 0.06216663 -0.089748986 0.03447978
000300 7d 26 9b bd b3 90 b0 bd 59 26 90 3c 83 1b 28 3e
       -0.075757004 -0.08621349 0.01759641 0.16416745
000310 69 65 19 bd 82 cd e1 3b 91 30 fa bd 0e 3a d0 3d
       -0.037450228 0.0068909535 -0.122162946 0.10167323
000320 47 e8 ff bc c7 b8 43 3d 58 73 1d 3e 50 9e cb bd
       -0.031238688 0.04778364 0.15376031 -0.09942305
000330 4e bc 0c 3d 46 51 90 3d 4f 83 3b bd 60 79 e3 3d
       0.03435927 0.07046752 -0.045779523 0.11107135
000340 b7 31 8e 3d 12 21 cc 3b dc 15 67 bc 9e 3a 6a bd
       0.06943076 0.006229528 -0.014104333 -0.057184808
000350 63 4a 02 bb 6d b5 cd 3d 00 4d 1a 3d c7 02 2e 3d
       -0.0019880764 0.1004437 0.03767109 0.042483117
000360 62 cc 06 be 8c bc ff 3c 8d 1a 73 3d 8a ab 25 3e
       -0.13163903 0.031217836 0.059351493 0.16178718
000370 71 59 28 be 78 d6 83 bc c2 c8 f4 bd 63 67 3e 3d
       -0.16440369 -0.016093478 -0.11952354 0.046485316
000380 6d 22 f4 3d 7b 5a de bd 9a ff 2a 3e b4 a8 ec bc
       0.11920629 -0.108571015 0.16699067 -0.028889038
000390 f6 12 b7 3d 61 9c 15 3c a7 4f bb bd c5 99 1f 3d
       0.089391634 0.009131522 -0.09146052 0.038965005
0003a0 40 38 28 3e 21 f3 39 3d 98 d4 95 bd 10 75 ed 3d
       0.16427708 0.04539788 -0.0731594 0.115945935
0003b0 d6 b9 b8 bc 6e 46 23 3e a2 a7 30 be c5 86 97 3d
       -0.022549551 0.15944836 -0.17251447 0.07398752
0003c0 da 5e 97 bd bd 1b 08 bd f1 8f 4c 3d 6c b4 19 be
       -0.073911384 -0.03322958 0.04994196 -0.15010232
0003d0 e2 e3 cb 3d 4b e9 b2 3d 83 f9 26 bc ba 67 0c 3d
       0.099555746 0.08735903 -0.010191324 0.03427861
0003e0 3f 52 1a bd 81 e0 ce 3c 1f ab 36 3e f5 3c 7b bb
       -0.037676092 0.025253536 0.17838715 -0.0038335894
0003f0 c3 49 34 be 51 ac cf 3d eb a7 20 bd 75 a0 e7 bb
       -0.17606263 0.101402886 -0.03922264 -0.0070686885

classifier.bias f4 [10]
000000 55 8a 3a 3d d6 79 94 3c b2 33 e1 3c bc 41 ab 3d
       0.04554208 0.018124502 0.02749047 0.08362147
000010 47 e5 de bb 95 06 bf 3c 8f 94 f3 bc 3a dd 12 3d
       -0.0068022343 0.023318568 -0.029733924 0.03585551
000020 e6 3e cd bc ed c4 80 3c
       -0.025054406 0.015718902
