checkpoints/checkpoint_epoch_25.pt (torch, 547720 bytes, 37 tensors)

prototypes f4 [100, 64]
0.10797484 -0.27566642 -0.13932486 2.225477 -0.58913815 0.7086673 0.22028363 -0.8439436
0.04067968 2.922905 -1.0326301 -0.9324659 -0.5464674 -0.9998917 -0.653315 1.6919773
-0.7803779 0.43008873 0.9551914 1.5621253 -2.1473145 -0.22384976 -0.4626739 0.10991546
0.2950489 0.29522434 0.25464344 0.7279767 -0.4673386 0.557094 -0.3667489 0.26185355
-1.8598895 1.532902 -0.34016994 0.23186448 -0.23273623 -0.86454153 0.9158807 -1.9102132
-0.50761616 0.089640304 1.1400895 0.40002784 1.248479 -0.21255146 -0.20853299 0.26318687
1.9284084 -0.49342677 0.26821604 -0.6176446 -0.7099793 -0.8557663 -0.6055831 0.5466275
1.2518194 -0.23820914 0.06738513 -1.931599 -0.25520554 0.9122537 -0.2613904 1.3944491
-0.08376617 1.7754594 -1.157855 0.18408674 -1.3257235 -0.93714625 -0.39830977 0.07530994
-0.47856483 -0.16000207 0.122733094 1.0144229 0.041045725 0.88680863 -0.97873056 -0.24579214
0.49793807 0.8130274 -0.83947134 -0.57365465 0.31129733 -2.0228848 0.83987886 0.44815004
-1.1889663 1.8092844 -1.4999896 -0.24477229 1.6441851 0.45100927 0.6498095 -0.5385925
1.0523049 -1.03077 -1.771321 -0.15326546 1.4013999 -0.9986025 -0.40799376 -0.37936342
-1.1612166 -1.2112435 -0.040145382 -0.39957783 -1.1964698 0.103561796 0.3319515 1.9076114
-0.08214116 -0.29208463 -1.8389074 -1.0835332 -0.08727192 1.0766222 -0.083745815 0.5629633
-1.3253344 0.08000411 -1.317978 -0.69542867 -1.0708001 -0.8488214 -1.9356796 1.1320624
0.43856108 -0.7030182 0.5698553 -1.7955849 0.51247424 0.55344915 -0.013312562 0.65260136
-1.4757228 -0.009691366 -0.66124386 0.16665475 1.51131 0.051213406 -1.8492414 -0.50545746
0.75140715 -1.8116196 1.1240665 0.05688647 0.1545025 -0.07753213 -0.9105962 3.177981
1.3539325 -0.29042786 0.35056117 -1.15062 0.00052286184 -0.9082909 1.2225356 -1.6333765
1.0263853 0.11003133 -2.0829844 0.8888906 0.05375936 -0.77680635 -1.0155364 -1.9945794
-0.020847198 -0.91890025 1.0296671 0.00062840007 -1.2423857 -0.41316852 -0.3646862 2.040534
0.6341456 0.32769597 -0.5343377 -1.8470984 -0.6520636 -0.13738659 -0.8930178 -0.528372
-0.70545137 -0.92241645 -0.3352163 -1.0862335 -0.6324959 0.85018575 0.056936692 0.98814625
-0.117703736 1.3020992 0.20933545 1.2522534 0.30433908 2.0564978 -0.47116297 0.28839988
3.421042 1.9043652 -3.0506618 0.34578967 0.38473222 0.37356308 0.9082913 0.24419011
-1.5184537 -1.2215468 -1.7673427 0.35015973 0.67222935 -0.23551099 -0.3029357 0.48361376
0.6160228 -0.97556216 -0.93954206 -0.44886914 1.3373427 0.051997915 1.1267471 -0.58096814
0.9059743 1.9077348 -0.198064 -1.1520758 -0.47853583 0.75150484 0.0486422 0.7592812
1.5772378 -1.2757196 0.38068017 0.7735412 -0.6204637 -2.1590507 0.28043422 0.5537968
-1.7973621 -0.68111455 -0.87669164 0.42803738 -0.026964404 0.40788925 0.6208737 -0.10534593
0.6497476 -0.939225 -0.37639174 0.98655003 1.3017123 0.54058343 -1.5048585 -1.2118269
00000000: ea21 dd3d 2624 8dbe 2dab 0ebe 376e 0e40
00000010: c2d1 16bf 386b 353f 0892 613e b00c 58bf
00000020: bc9f 263d e010 3b40 392d 84bf 16b6 6ebf
00000030: 4ae5 0bbf e7f8 7fbf a73f 27bf b692 d83f
00000040: d9c6 47bf 9734 dc3e 6c87 743f b9f3 c73f
00000050: 9a6d 09c0 df38 65be 98e3 ecbe 5b1b e13d
00000060: a610 973e a527 973e a060 823e ae5c 3a3f
00000070: 0147 efbe b69d 0e3f 83c6 bbbe ab11 863e
00000080: dc10 eebf 2236 c43f c12a aebe e26d 6d3e
00000090: 6852 6ebe 9852 5dbf 2877 6a3f de81 f4bf
000000a0: 22f3 01bf 5695 b73d 74ee 913f 73d0 cc3e
000000b0: 29ce 9f3f 17a7 59be ac89 55be 6ec0 863e
000000c0: 16d6 f63f 6fa2 fcbe 9d53 893e f51d 1ebf
000000d0: 34c1 35bf 8013 5bbf 7e07 1bbf c8ef 0b3f
000000e0: 9e3b a03f 19ed 73be 3701 8a3d a33e f7bf
000000f0: 4daa 82be 7589 693f f6d4 85be 4f7d b23f
00000100: 998d abbd 4142 e33f 9834 94bf 3c81 3c3e
00000110: 4fb1 a9bf d1e8 6fbf 42ef cbbe 193c 9a3d
00000120: 7306 f5be 95d7 23be 7d5b fb3d 9cd8 813f
00000130: 901f 283d e405 633f 168e 7abf efb0 7bbe
00000140: bdf1 fe3e 9022 503f 98e7 56bf 08db 12bf
00000150: 5d62 9f3e f276 01c0 4d02 573f ec73 e53e
00000160: 0c30 98bf a296 e73f a9ff bfbf 96a5 7abe
00000170: a874 d23f b0ea e63e ea59 263f 33e1 09bf
00000180: edb1 863f 45f0 83bf a6ba e2bf 9ff1 1cbe
00000190: 1261 b33f 6aa4 7fbf 8fe4 d0be ec3b c2be
000001a0: bfa2 94bf 070a 9bbf 7c6f 24bd 7795 ccbe
000001b0: ec25 99bf 3518 d43d 8cf5 a93e 9c2c f43f
000001c0: a039 a8bd 1e8c 95be 5161 ebbf 37b1 8abf
000001d0: 9fbb b2bd c2ce 893f ed82 abbd 5d1e 103f
000001e0: 8fa4 a9bf 32d9 a33d 81b3 a8bf 9d07 32bf
000001f0: fa0f 89bf 5c4c 59bf 59c4 f7bf 6ce7 903f
00000200: 148b e03e 00f9 33bf 09e2 113f bad5 e5bf
00000210: 8331 033f d8ae 0d3f ef1c 5abc e210 273f
00000220: 7ce4 bcbf 89c8 1ebc 4747 29bf 8ba7 2a3e
00000230: 9b72 c13f 26c5 513d f1b3 ecbf a965 01bf
00000240: 385c 403f 27e3 e7bf 69e1 8f3f ca01 693d
00000250: e735 1e3e 2ac9 9ebd d51c 69bf 0a64 4b40
00000260: a94d ad3f f6b2 94be c17c b33e 8447 93bf
00000270: aa10 093a c185 68bf 0c7c 9c3f 7b12 d1bf
00000280: 9860 833f 1b58 e13d 9e4f 05c0 568e 633f
00000290: c632 5c3d c8dc 46bf 19fd 81bf 614e ffbf
000002a0: bec7 aabc 0c3d 6bbf 22cc 833f 37bb 243a
000002b0: 7f06 9fbf d38a d3be 26b8 babe 1c98 0240
000002c0: 5e57 223f c4c7 a73e 5bca 08bf b86d ecbf
000002d0: a4ed 26bf 12af 0cbe d19c 64bf 6343 07bf
000002e0: 7698 34bf 7c23 6cbf 79a1 abbe b309 8bbf
000002f0: 40eb 21bf c6a5 593f 7336 693d 27f7 7c3f
00000300: a80e f1bd 30ab a63f 085c 563e d749 a03f
00000310: 55d2 9b3e a99d 0340 463c f1be 26a9 933e
00000320: 5af2 5a40 3dc2 f33f 0b3e 43c0 580b b13e
00000330: 9ffb c43e a943 bf3e c785 683f f90c 7a3e
00000340: b15c c2bf a55b 9cbf 4938 e2bf 2348 b33e
00000350: 3917 2c3f cb29 71be 631a 9bbe 399c f73e
00000360: acb3 1d3f 71be 79bf d485 70bf 2dd2 e5be
00000370: 0c2e ab3f c4fb 543d 4039 903f 54ba 14bf
00000380: efed 673f a730 f43f 4ad1 4abe 3877 93bf
00000390: a602 f5be 9f62 403f 0b3d 473d 4160 423f
000003a0: eee2 c93f c84a a3bf 83e8 c23e cc06 463f
000003b0: b6d6 1ebf e32d 0ac0 1395 8f3e a1c5 0d3f
000003c0: f60f e6bf 865d 2ebf dd6e 60bf b727 db3e
000003d0: 74e4 dcbc dcd6 d03e 94f1 1e3f 9bbf d7bd
000003e0: dc55 263f 0d71 70bf 6bb6 c0be 8b8e 7c3f
000003f0: 829e a63f ad63 0a3f 349f c0bf 251d 9bbf

conv1.bias f4 [64]
-9.399333e-05 0.00013229482 -0.00031766127 -0.00026226492 5.7414986e-06 3.607927e-05 2.1641512e-05 -6.75972e-06
2.0593465e-05 -2.048992e-05 -3.9403538e-05 5.0307983e-05 -0.00013842502 -0.00031872885 -0.00024604538 5.126432e-05
6.839767e-05 -8.418749e-05 1.118199e-05 -4.704429e-05 0.00017298022 2.2588616e-05 -0.0001275755 2.7236241e-05
4.510762e-05 0.00047556066 -5.383408e-05 7.194047e-05 -1.5526393e-05 -6.420212e-06 -8.628836e-05 8.982158e-06
7.0590126e-05 -1.6629141e-05 6.7738547e-06 0.00024294764 9.759191e-05 0.00013732858 1.1788294e-05 4.2691296e-05
-0.0002620293 3.31927e-05 -7.077005e-05 -2.326366e-05 1.10073515e-05 -3.6396363e-05 -9.229233e-05 7.392086e-05
3.1286345e-05 -1.2469186e-05 2.0530388e-05 -0.00013930819 -3.4236546e-05 -9.5565265e-05 9.45577e-05 -0.00014080133
-0.00025775583 2.104411e-05 0.00016858712 5.6094224e-05 0.00026009826 3.2485816e-05 0.00022073384 0.00013775195
00000000: 491e c5b8 9fb8 0a39 c68b a6b9 9a80 89b9
00000010: 19a7 c036 d253 1738 cb8a b537 8dd1 e2b6
00000020: 21c0 ac37 c5e1 abb7 3a45 25b8 c901 5338
00000030: 2f26 11b9 101b a7b9 a7ff 80b9 a504 5738
00000040: b870 8f38 d18d b0b8 489a 3b37 6c51 45b8
00000050: 0662 3539 af7c bd37 cac5 05b9 6279 e437
00000060: f031 3d38 ac54 f939 e7cb 61b8 bfde 9638
00000070: ad3e 82b7 336d d7b6 b6f5 b4b8 13b2 1637
00000080: c909 9438 cf7e 8bb7 f84a e336 c3bf 7e39
00000090: 42aa cc38 dcff 0f39 56c6 4537 6e0f 3338
000000a0: fa60 89b9 6438 0b38 626a 94b8 5426 c3b7
000000b0: 37ac 3837 4ca8 18b8 118d c1b8 f605 9b38
000000c0: 7539 0338 bf32 51b7 ac38 ac37 4213 12b9
000000d0: 3699 0fb8 366a c8b8 474d c638 12a4 13b9
000000e0: 6723 87b9 e287 b037 c3c6 3039 b746 6b38
000000f0: cc5d 8839 6141 0838 ca74 6739 8271 1039

conv1.lin.weight f4 [64, 512]
-0.022250663 -0.011549685 -0.03944107 -0.052450247 -0.07843659 -0.09835987 0.042961497 -0.027219202
0.025730375 0.04045364 -0.029916335 0.022776699 -0.046343382 -0.10292911 0.006375183 -0.06495091
-0.08137349 -0.03147688 -0.030506872 0.059264287 -0.041894443 0.06928107 0.003264314 -0.00034132498
0.016920304 -0.066508405 -0.104128346 -0.086675525 -0.037300237 0.0059252535 0.027659109 -0.017689042
0.09637462 0.015332668 0.056921855 -0.021758925 -0.048978996 -0.031603537 0.09677051 0.069430865
0.009594321 -0.048467938 -0.012141048 0.010188595 0.0828987 -0.013827984 -0.08614511 0.03079776
-0.049933117 -0.02297922 -0.09292903 0.040684216 0.07135397 0.0019912713 0.041248593 -0.079858795
-0.071054615 0.04702922 -0.04689124 -0.072484486 0.06643997 -0.10797467 -0.017123071 -0.014207272
0.059548814 0.0501525 -0.028263718 -0.03655788 0.083915696 0.04444377 0.0010729622 0.0022997982
0.040507328 -0.018029846 -0.059748076 -0.0096431505 0.034142576 0.033500116 -0.074705414 -0.03608218
-0.09023267 -0.014641601 0.00052406156 -0.0302962 -0.010489067 0.014127671 0.095562354 0.012382489
0.043115303 0.0073856018 0.04594877 -0.10737831 0.07315563 -0.03795279 -0.06058869 -0.06368007
0.09680599 0.00525834 0.0612581 0.08151603 0.085949734 -0.0024922343 0.021910489 0.09441462
0.09123158 0.050939523 0.05688538 0.032099046 -0.040415555 0.042750306 0.011280825 0.05629195
-0.0715356 0.04321973 -0.04530814 -0.012880668 -0.013156977 0.092493206 0.07873244 -0.0699858
-0.045318566 0.08428716 -0.028800752 -0.04229807 0.053832192 0.08033247 -0.058928136 -0.037427187
0.10499286 -0.0068148756 -0.074354775 0.052239716 0.08663058 -0.07289542 -0.044445638 0.011557575
-0.09147325 -0.026486214 -0.0065452703 0.024604376 -0.06807165 -0.00449734 -0.04507426 -0.0562561
-0.0019321787 -0.018063733 0.041214045 -0.004277558 0.09448981 -0.012544731 0.081527606 -0.07905535
0.058009956 0.03144634 0.06917052 0.072148934 0.028319655 -0.09063586 -0.024655413 0.095909856
0.04718282 -0.058054626 0.028310455 0.02336577 0.09870689 0.089980885 -0.04115517 0.025902914
-0.012809939 -0.051012695 0.08365955 -0.042330083 0.058997024 -0.014479235 0.020277496 0.028904617
-0.08593188 -0.04325806 -0.09355778 -0.007797252 0.07031247 -0.07929378 -0.034915503 -0.014817675
0.015201564 0.05362581 0.092174016 -0.015274265 -0.029904952 0.09385506 -0.02508806 0.03708409
-0.012183111 0.06308529 0.09208936 -0.09724673 0.047352042 -0.060655836 0.02562214 -0.017291598
-0.012555618 -0.021350991 -0.08095548 0.017224109 -0.013199488 -0.019029856 0.095704935 -0.017667783
-0.019329995 -0.054331187 0.043402757 0.0020172095 0.0045653717 -0.05951991 -0.09743505 -0.09248536
-0.015207293 0.05306058 0.08643157 -0.023086103 0.08300436 -0.09175276 -0.056369107 0.037436027
0.0016621273 -0.0752047 0.010851579 -0.028018529 0.05609631 0.08167786 0.0023616625 -0.06174754
-0.03758616 0.049560267 -0.017386746 -0.028728563 0.005673771 -0.084425084 -0.10824267 -0.018963225
0.07677614 0.013148506 0.06206939 -0.10465566 -0.04869042 0.0064882846 -0.027157983 -0.101309925
0.05864822 -0.048649274 -0.08971086 0.037762042 -0.09876035 0.10385723 0.034430973 0.04752263
00000000: 0647 b6bc e43a 3dbc f68c 21bd 12d6 56bd
00000010: 5da3 a0bd e670 c9bd 65f8 2f3d cefa debc
00000020: 82c8 d23c b7b2 253d 1a13 f5bc 3396 ba3c
00000030: 8fd2 3dbd 7fcc d2bd e9e6 d03b fc04 85bd
00000040: 25a7 a6bd e7ed 00bd 8ce9 f9bc 1cbf 723d
00000050: 8299 2bbd 3ce3 8d3d 1aee 553b ddf3 b2b9
00000060: 739c 8a3c 8f35 88bd 3e41 d5bd f082 b1bd
00000070: 22c8 18bd a128 c23b 5b95 e23c 9ce8 90bc
00000080: 0f60 c53d df35 7b3c e426 693d c63f b2bc
00000090: 339e 48bd b672 01bd 9e2f c63d c531 8e3d
000000a0: 8031 1d3c 5186 46bd 3feb 46bc 11ee 263c
000000b0: cbc6 a93d c58e 62bc d96c b0bd 954b fc3c
000000c0: ab86 4cbd eb3e bcbc 9351 bebd 7ea4 263d
000000d0: 0822 923d fd7f 023b 49f4 283d 028d a3bd
000000e0: 1585 91bd b6a1 403d 0711 40bd bf72 94bd
000000f0: ae11 883d d321 ddbd af45 8cbc 9ec5 68bc
00000100: 75e9 733d b56c 4d3d 5089 e7bc b7bd 15bd
00000110: fedb ab3d ac0a 363d a3a2 8c3a 36b8 163b
00000120: 03eb 253d 54b3 93bc 66ba 74bd 4efe 1dbc
00000130: 16d9 0b3d 6b37 093d 27ff 98bd e8ca 13bd
00000140: e8cb b8bd 53e3 6fbc 2d61 093a bd2f f8bc
00000150: 56da 2bbc bf77 673c 32b6 c33d ecdf 4a3c
00000160: ac99 303d eb02 f23b c734 3c3d 29e9 dbbd
00000170: 9ed2 953d 6274 1bbd d92b 78bd b26a 82bd
00000180: 3842 c63d 274e ac3b c6e9 7a3d e0f1 a63d
00000190: 6a06 b03d c154 23bb a07d b33c 745c c13d
000001a0: 9fd7 ba3d f6a5 503d a500 693d 4a7a 033d
000001b0: c88a 25bd f21a 2f3d 36d3 383c 6392 663d
000001c0: 4281 92bd 2c07 313d 0795 39bd 7009 53bc
000001d0: 5c90 57bc 146d bd3d 793e a13d b754 8fbd
000001e0: f69f 39bd bf9e ac3d 8eef ebbc be40 2dbd
000001f0: 257f 5c3d 5a85 a43d a15e 71bd 404d 19bd
00000200: 7f06 d73d 524f dfbb 5147 98bd 50f9 553d
00000210: 606b b13d 324a 95bd a10c 36bd fc5b 3d3c
00000220: 5456 bbbd 9ef9 d8bc b579 d6bb 1e8f c93c
00000230: 2669 8bbd 6c5e 93bb ca9f 38bd cc6c 66bd
00000240: 2941 fdba 65fa 93bc 0fd0 283d c22a 8cbb
00000250: e083 c13d 6a88 4dbc f2f7 a63d c5e7 a1bd
00000260: d99b 6d3d e1cd 003d 46a9 8d3d d2c2 933d
00000270: 9ffe e73c 4b9f b9bd 26fa c9bc 636c c43d
00000280: c642 413d b0ca 6dbd 54eb e73c 9269 bf3c
00000290: d726 ca3d e647 b83d 5392 28bd 5932 d43c
000002a0: c7e0 51bc b0f2 50bd b355 ab3d 4f62 2dbd
000002b0: dda6 713d 503a 6dbc fe1c a63c 60c9 ec3c
000002c0: 0efd afbd 5d2f 31bd 399b bfbd 1780 ffbb
000002d0: fcff 8f3d c764 a2bd 8f03 0fbd d5c5 72bc
000002e0: fb0f 793c bda6 5b3d bbc5 bc3d e940 7abc
000002f0: 3bfb f4bc 1537 c03d 7a85 cdbc 7de5 173d
00000300: ac9b 47bc dc32 813d 5999 bc3d 4b29 c7bd
00000310: 37f4 413d 4172 78bd 86e5 d13c 1ca7 8dbc
00000320: 14b6 4dbc 46e8 aebc fdcb a5bd 9319 8d3c
00000330: aa42 58bc 80e4 9bbc f300 c43d 07bc 90bc
00000340: f059 9ebc 618a 5ebd 17c7 313d 2933 043b
00000350: 1d99 953b 26cb 73bd 078c c7bd f768 bdbd
00000360: 0328 79bc 0d56 593d 0903 b13d 111f bdbc
00000370: 31fe a93d dfe8 bbbd 4be3 66bd 8556 193d
00000380: bddb d93a ec04 9abd d2ca 313c 1d87 e5bc
00000390: 3fc5 653d b946 a73d 1fc6 1a3b fdea 7cbd
000003a0: f2f3 19bd b5ff 4a3d a66e 8ebc 2a58 ebbc
000003b0: 0aeb b93b 0fe7 acbd 55ae ddbd c458 9bbc
000003c0: cf3c 9d3d d56c 573c 793c 7e3d b555 d6bd
000003d0: 9b6f 47bd ad9b d43b 6b7a debc 947b cfbd
000003e0: 1e39 703d 7644 47bd 54ba b7bd 5fac 1a3d
000003f0: de42 cabd 19b3 d43d 7e07 0d3d 17a7 423d

conv2.bias f4 [64]
-3.3353295e-05 -6.6302935e-05 -6.8597146e-05 -0.00020612005 1.1584531e-05 -0.00016530334 0.00028350842 8.96536e-07
-8.489811e-05 0.00021742932 -1.04064575e-05 -0.00025176062 -6.760137e-05 0.00032785346 0.00027058207 0.00010402541
-2.7356858e-05 0.00011541623 -4.9137692e-05 1.8119112e-05 0.00027470643 -1.074438e-05 -4.15375e-05 -7.108851e-05
-0.00031891017 -0.000272966 0.00015007943 0.00019227914 -5.4351633e-05 5.114651e-05 -0.00025508352 0.0007917135
-3.371269e-05 -0.0005695281 0.00019972207 0.00029206334 -8.4000836e-05 0.00013791483 0.00013427068 -0.00023058249
-0.00022501253 0.00026381668 -4.8469134e-05 7.784665e-05 3.5801124e-05 1.4451666e-06 -2.8245531e-05 -0.00016184404
4.8942344e-05 0.00030095084 -5.927037e-05 -7.4711315e-06 1.994724e-06 0.00035805933 6.969251e-05 0.000135152
0.00014442873 -0.00042408973 2.0844402e-05 -3.4000393e-05 -0.00014395705 3.244544e-05 1.4821445e-05 -5.8236597e-05
00000000: d4e4 0bb8 1e0c 8bb8 d0db 8fb8 ee21 58b9
00000010: 2f5b 4237 4755 2db9 dba3 9439 7ca9 7035
00000020: 530b b2b8 bdfd 6339 6597 2eb7 bdfe 83b9
00000030: 36c5 8db8 bfe3 ab39 e9dc 8d39 3728 da38
00000040: 687c e5b7 9e0b f238 3219 4eb8 7ffe 9737
00000050: 7906 9039 c342 34b7 8d38 2eb8 5a15 95b8
00000060: 6633 a7b9 e01c 8fb9 a45e 1d39 8a9e 4939
00000070: 9ff7 63b8 2686 5638 bbbc 85b9 fe8a 4f3a
00000080: ba66 0db8 624c 15ba 7c6c 5139 1420 9939
00000090: 9b29 b0b8 3b9d 1039 03cb 0c39 84c8 71b9
000000a0: 57f1 6bb9 e050 8a39 564b 4bb8 9a41 a338
000000b0: 2a29 1638 8cf7 c135 d1f0 ecb7 aeb4 29b9
000000c0: 7147 4d38 f0c8 9d39 1399 78b8 88b0 fab6
000000d0: 19dd 0536 e9b9 bb39 e227 9238 97b7 0d39
000000e0: cb71 1739 5c58 deb9 03db ae37 a59b 0eb8
000000f0: 2df3 16b9 0716 0838 9fa9 7837 1243 74b8

conv2.lin.weight f4 [64, 64]
0.009387197 -0.18602857 -0.01618942 0.10400625 0.07854675 0.13103645 0.13818705 0.054539897
0.017267324 0.205607 -0.15052716 -0.16247489 -0.1755981 -0.022141226 -0.0034808984 0.23491643
-0.1802107 -0.047435306 0.07602238 0.12170465 0.23071854 -0.088409975 -0.18221532 -0.059104227
0.113025054 0.14969973 0.11377523 -0.19506334 -0.09891226 0.13469316 -0.043059647 -0.0658373
0.12087157 -0.09737618 0.05992891 -0.086694025 0.014866151 -0.0046236683 0.14626877 0.09378993
-0.18880515 0.08620741 -0.003366918 0.054357965 0.09203841 -0.1483877 0.12706453 0.04941987
0.06450852 0.11719223 -0.19430761 -0.118040144 -0.057575427 0.060456835 -0.14513694 0.023996241
-0.03339758 0.16752805 0.103034765 -0.16184418 0.062185254 0.07798916 0.22971076 0.13698362
0.13192049 0.21276249 -0.07786974 0.18240383 -0.13077395 -0.08207672 0.1395879 -0.074587405
-0.122272 -0.13574977 0.2071393 0.16221881 0.046364453 -0.23340517 0.19951782 -0.19588967
0.008788616 -0.159626 -0.003049688 -0.107781164 -0.12968418 0.1259315 -0.16516283 0.09453705
-0.12606497 0.08953264 -0.020487892 0.012043345 0.034322217 -0.21822724 0.037315197 0.10265153
0.003772583 0.06822687 0.103654906 -0.20052752 -0.13982873 -0.06350455 0.21967933 -0.0043644207
0.16057524 0.04746409 -0.08596283 0.03766436 0.025782226 -0.15285894 0.166785 -0.08594036
0.13681038 -0.07114589 0.030034563 -0.17024611 -0.036444213 -0.014630986 0.10430621 0.0012902174
0.13751818 -0.061792992 -0.05195378 0.006683757 0.11260759 -0.042624123 -0.18813184 -0.07260156
0.007961938 0.051504582 0.11955622 0.07449806 -0.13663344 0.10911843 -0.09816081 0.019548887
-0.06756264 -0.082744114 -0.18876946 -0.15549019 0.010701536 0.050617725 -0.013997211 0.22056282
-0.19836682 -0.083432145 -0.15526567 0.12510726 -0.036265183 -0.19600578 0.1842526 0.12165526
0.13374454 0.18133703 0.03517429 -0.17567952 -0.13558242 0.03677241 0.17833735 -0.16348028
-0.08320856 0.041748397 -0.21618447 0.19881701 -0.018858274 -0.14675075 -0.11882633 0.082196765
0.019083437 0.15692256 0.1753131 -0.022745172 0.23110265 0.068703346 0.11781896 0.09803692
-0.0111607015 0.1833997 -0.20044452 -0.14718796 -0.16582088 0.03496946 -0.1777014 0.21702626
-0.0508848 0.11724897 0.100485 0.11795695 -0.1145166 -0.012017005 0.21793738 -0.06799388
-0.17277208 -0.016431192 -0.1397735 -0.22652079 0.11303587 0.086444534 0.20721856 0.22322293
-0.026337909 0.026973598 -0.063456856 0.12951684 -0.037223555 -0.091409184 -0.18488218 0.18372314
-0.021549508 0.17343234 -0.08768478 0.12485118 -0.062421195 0.05098341 0.09099554 0.068772025
-0.03614163 0.099031225 0.1595246 0.1375424 0.17159833 -0.13767242 -0.09257502 -0.1992469
0.07631037 0.12444512 0.07544024 -0.0016726435 0.031932697 -0.21366742 0.14950702 0.13567255
0.1658465 0.112386644 -0.09429295 0.0568119 0.099566 -0.0073193396 -0.22029252 -0.16353264
0.060072754 0.051900323 -0.052851643 0.11599835 -0.21864541 0.20970203 0.17038408 0.17188308
-0.07553975 -0.017634591 0.084323056 0.18322286 0.14330345 0.20060287 -0.2109617 -0.0010963238
00000000: c2cc 193c 467e 3ebe ad9f 84bc 3b01 d53d
00000010: 1edd a03d 6b2e 063e e880 0d3e 3a65 5f3d
00000020: 3474 8d3c a48a 523e cb23 1abe d15f 26be
00000030: fdcf 33be 8461 b5bc c91f 64bb ef8d 703e
00000040: 2789 38be 864b 42bd 9fb1 9b3d 4a40 f93d
00000050: 7b41 6c3e 4a10 b5bd a796 3abe 4617 72bd
00000060: ae79 e73d e34a 193e fd02 e93d afbe 47be
00000070: 8392 cabd 01ed 093e 505f 30bd b5d5 86bd
00000080: 848b f73d 2a6d c7bd 0478 753d a38c b1bd
00000090: 2891 733c 2482 97bb 7bc7 153e ef14 c03d
000000a0: 2356 41be 838d b03d 83a7 5cbb 75a6 5e3d
000000b0: a27e bc3d f2f2 17be 341d 023e 7d6c 4a3d
000000c0: 0b1d 843d 7b02 f03d 93f8 46be 08bf f1bd
000000d0: 36d4 6bbd 96a1 773d c79e 14be c493 c43c
000000e0: e7cb 08bd 798c 2b3e e403 d33d 7bba 25be
000000f0: f7b5 7e3d c8b8 9f3d 4c39 6b3e 6f45 0c3e
00000100: 2a16 073e 69de 593e 2c7a 9fbd 12c8 3a3e
00000110: 9be9 05be d717 a8bd 21f0 0e3e 48c1 98bd
00000120: be69 fabd fd01 0bbe 531c 543e b01c 263e
00000130: a7e8 3d3d c401 6fbe 664e 4c3e 4d97 48be
00000140: 21fe 0f3c 0075 23be 46dd 47bb 5fbc dcbd
00000150: eecb 04be 30f4 003e 7220 29be a49c c13d
00000160: 2d17 01be e45c b73d 39d6 a7bc 7351 453c
00000170: 7495 0c3d f676 5fbe d2d7 183d f73a d23d
00000180: 713d 773b 87ba 8b3d 0649 d43d 1657 4dbe
00000190: 432f 0fbe ac0e 82bd 9ef3 603e 6a03 8fbb
000001a0: d66d 243e b569 423d 480d b0bd f245 1a3d
000001b0: 3f35 d33c 0e87 1cbe b0c9 2a3e 8001 b0bd
000001c0: 0518 0c3e f0b4 91bd 0b0b f63c ff54 2ebe
000001d0: 8746 15bd ceb6 6fbc 7f9e d53d 831c a93a
000001e0: 91d1 0c3e a61a 7dbd 7dcd 54bd 6b03 db3b
000001f0: cf9e e63d a296 2ebd a2a5 40be 20b0 94bd
00000200: ca72 023c 78f6 523d e4d9 f43d 7092 983d
00000210: a3e9 0bbe 7c79 df3d 8908 c9bd fd24 a03c
00000220: 485e 8abd bf75 a9bd c84c 41be d238 1fbe
00000230: 7f55 2f3c 8854 4f3d 8f54 65bc 38db 613e
00000240: ac20 4bbe 79de aabd f7fd 1ebe 1e1c 003e
00000250: cd8a 14bd bdb5 48be b7ac 3c3e 6526 f93d
00000260: 54f4 083e 6ab0 393e eb12 103d 55e5 33be
00000270: 1ed6 0abe ab9e 163d 119e 363e 6067 27be
00000280: 4069 aabd 5e00 2b3d 765f 5dbe b096 4b3e
00000290: ab7c 9abc d445 16be 385b f3bd c756 a83d
000002a0: de54 9c3c 4fb0 203e 4785 333e 1554 babc
000002b0: 2ca6 6c3e 57b4 8c3d 114b f13d 95c7 c83d
000002c0: 60db 36bc 22cd 3b3e 5441 4dbe 71b8 16be
000002d0: f3cc 29be 233c 0f3d 5bf7 35be 223c 5e3e
000002e0: 946c 50bd 3a20 f03d 14cb cd3d 6a93 f13d
000002f0: ae87 eabd f9e2 44bc fa2a 5f3e 6040 8bbd
00000300: 2aeb 30be b59a 86bc c920 0fbe 11f5 67be
00000310: 5a7f e73d d509 b13d 1a31 543e 8d94 643e
00000320: 99c2 d7bc bcf7 dc3c abf5 81bd 10a0 043e
00000330: ba77 18bd bd34 bbbd c151 3dbe eb21 3c3e
00000340: 9888 b0bc 3f98 313e 1494 b3bd fab1 ff3d
00000350: 5ead 7fbd fbd3 503d df5b ba3d 59d8 8c3d
00000360: 3f09 14bd e2d0 ca3d 6b5a 233e ead7 0c3e
00000370: 79b7 2f3e 00fa 0cbe f997 bdbd 6107 4cbe
00000380: 9c48 9c3d 15dd fe3d 6a80 9a3d 9a3c dbba
00000390: dccb 023d a2cb 5abe 5e18 193e bfed 0a3e
000003a0: aad3 293e f82a e63d aa1c c1bd 98b3 683d
000003b0: 42e9 cb3d 12d7 efbb 5d94 61be 1a75 27be
000003c0: d90e 763d 6f95 543d f77a 58bd 8b90 ed3d
000003d0: 95e4 5fbe 21bc 563e 2a79 2e3e 1e02 303e
000003e0: 96b4 9abd 6b76 90bc 91b1 ac3d c69e 3b3e
000003f0: 24be 123e d76a 4d3e 5806 58be 86b2 8fba

bn1.weight f4 [64]
1.0179735 1.0043032 1.0059125 0.99692786 1.00931 1.000268 0.980569 0.98558694
0.980521 0.9760061 0.9740905 0.9848811 0.9799739 1.0249697 0.9862394 0.9998873
1.0213722 0.97938585 0.9782185 0.9791611 0.9870802 1.0219252 0.98520255 0.9770485
1.0248019 1.0191199 0.97787845 0.977075 0.9772344 1.0044266 1.0234555 0.9756375
0.97713745 0.9797655 1.0063716 1.022905 1.0186834 1.0227493 0.9859701 1.0137864
0.9901546 0.99238676 1.0210451 1.0113688 0.9774525 0.9742062 1.0119652 1.0153075
0.99298567 0.9855787 1.003776 1.0252116 0.97368044 1.0251944 1.0021027 1.0094744
0.9773579 1.0152355 1.0197824 1.01173 0.9798546 1.0271267 0.9935725 1.018782
00000000: f54c 823f 028d 803f bec1 803f aa36 7f3f
00000010: 1231 813f c808 803f 9206 7b3f 6d4f 7c3f
00000020: 6d03 7b3f 89db 793f ff5d 793f 2b21 7c3f
00000030: 92df 7a3f 3532 833f 2f7a 7c3f 9df8 7f3f
00000040: 53bc 823f 08b9 7a3f 876c 7a3f 4daa 7a3f
00000050: 4ab1 7c3f 72ce 823f 3c36 7c3f da1f 7a3f
00000060: b52c 833f 8572 823f 3e56 7a3f 9621 7a3f
00000070: 092c 7a3f 0d91 803f 9700 833f 61c3 793f
00000080: ae25 7a3f e9d1 7a3f c9d0 803f 8dee 823f
00000090: 3864 823f 73e9 823f 8968 7c3f c1c3 813f
000000a0: c67a 7d3f 0f0d 7e3f 9bb1 823f 8874 813f
000000b0: 543a 7a3f 9465 793f 1388 813f 99f5 813f
000000c0: 4f34 7e3f e34e 7c3f bb7b 803f 223a 833f
000000d0: 1f43 793f 9239 833f e744 803f 7536 813f
000000e0: 2134 7a3f 3df3 813f 3b88 823f 5e80 813f
000000f0: c0d7 7a3f e378 833f c45a 7e3f 7367 823f

bn1.bias f4 [64]
0.019358646 0.0035623708 0.008491791 0.0076627866 0.004788967 0.0013902641 -0.016784096 -0.012390086
-0.017950512 -0.019549666 -0.024099631 -0.00020692535 -0.007254733 0.023717867 -0.015527056 -0.00460206
0.022532523 -0.020621166 -0.01685468 -0.009541947 -0.011172851 0.022004198 -0.009105997 -0.020302838
0.025054095 0.018841999 -0.020575676 -0.021680793 -0.015874868 0.01120709 0.023271983 -0.014695903
-0.02168325 -0.01797458 0.010267469 0.0201396 0.015333308 0.02250335 0.0005374513 0.016724577
0.002826404 -0.004184124 0.022609906 0.011373279 -0.021783955 -0.025177859 0.019164437 0.017012428
-0.015088674 -0.0047002486 0.008229604 0.023960387 -0.024727125 0.024148034 0.007479553 0.01475561
-0.02002134 0.015081869 0.021683695 0.013561139 -0.013349331 0.02619568 -0.0017712946 0.020425398
00000000: 0696 9e3c aa76 693b 2721 0b3c 1d18 fb3b
00000010: c4ec 9c3b 8639 b63a cd7e 89bc caff 4abc
00000020: f40c 93bc 9f26 a0bc 976c c5bc 1afa 58b9
00000030: 1cb9 edbb f94b c23c 3165 7ebc e1cc 96bb
00000040: 2096 b83c b8ed a8bc d312 8abc d455 1cbc
00000050: 550e 37bc 2642 b43c 5231 15bc 2352 a6bc
00000060: 3f3e cd3c 895a 9a3c 528e a8bc eb9b b1bc
00000070: 030c 82bc f19d 373c e3a4 be3c 16c7 70bc
00000080: 12a1 b1bc 6d3f 93bc e338 283c cdfb a43c
00000090: 8e38 7b3c f258 b83c bfe3 0c3a fb01 893c
000000a0: 313b 393b fa1a 89bb 6938 b93c fd56 3a3c
000000b0: 4474 b2bc cc41 cebc bdfe 9c3c a65d 8b3c
000000c0: 7c36 77bc 8b04 9abb 76d5 063c 9348 c43c
000000d0: 8a90 cabc 19d2 c53c 0a17 f53b 84c1 713c
000000e0: cb03 a4bc f219 773c 01a2 b13c 8a2f 5e3c
000000f0: 27b7 5abc 5398 d63c c92a e8ba 2a53 a73c

bn1.running_mean f4 [64]
0.3811296 -0.9499831 -0.94626486 -1.2902429 -0.40341738 -0.100121915 0.06956599 -0.3707235
0.5180149 1.3691704 -1.5429701 -1.2768744 0.769645 0.9615674 2.3363104 -0.7898274
1.5079349 0.90372247 -0.017780667 1.3477596 -1.505516 0.48546946 1.1145848 -0.058791008
0.78251857 -0.78103924 0.14093259 0.23901066 -0.29811805 0.095920265 -1.4594154 0.05345504
0.7169395 0.08112225 0.007516467 -1.4831941 0.37992907 -1.5760486 0.33330292 0.09850201
-1.0182265 0.2081631 -1.1015233 0.12434186 -2.155707 0.21782628 -0.20290877 1.8532171
0.5650874 -0.12373056 1.9701661 1.4302287 -2.3271387 -0.1972333 -0.9864699 -1.714344
2.1131806 -0.0003842127 0.7877891 0.02011353 -1.2474684 0.7350929 -1.4591072 0.71246326
00000000: 6b23 c33e 1832 73bf 6a3e 72bf ae26 a5bf
00000010: b98c cebe b80c cdbd 9d78 8e3d 78cf bdbe
00000020: a09c 043f fa40 af3f 0b80 c5bf 9f70 a3bf
00000030: 7407 453f 4829 763f 1c86 1540 2132 4abf
00000040: 0304 c13f 5b5a 673f c3a8 91bc 6383 ac3f
00000050: c0b4 c0bf 748f f83e b7aa 8e3f d7ce 70bd
00000060: 2353 483f 30f2 47bf a250 103e 36bf 743e
00000070: eea2 98be d871 c43d 20ce babf acf3 5a3d
00000080: 5989 373f 6c23 a63d b24c f63b 4ed9 bdbf
00000090: 1086 c23e f6bb c9bf aea6 aa3e 6cbb c93d
000000a0: 3f55 82bf b528 553e b7fe 8cbf f2a6 fe3d
000000b0: 1af7 09c0 da0d 5f3e 51c7 4fbe 3836 ed3f
000000c0: 91a9 103f 7366 fdbd 672e fc3f bc11 b73f
000000d0: d7ef 14c0 87f7 49be 4b89 7cbf a06f dbbf
000000e0: 5a3e 0740 2870 c9b9 8cac 493f 21c5 a43c
000000f0: 0bad 9fbf 0c2f 3c3f 06c4 babf fe63 363f

bn1.running_var f4 [64]
0.6526313 0.16662106 0.4343141 0.3183762 0.3332389 0.3633519 0.44731182 0.38380712
0.28230646 0.31740066 0.3242014 0.37966883 0.51099867 0.43551442 0.4895288 0.3483226
0.3818625 0.32643396 0.2598833 0.39651147 0.31656432 0.44988096 0.24529868 0.43022794
0.2858072 0.2012995 0.2757024 0.4856456 0.22396284 0.3921584 0.45977727 0.4949637
0.3785449 0.39230505 0.3060562 0.4210393 0.3900112 0.37039322 0.36698335 0.5453867
0.38026047 0.38612872 1.0106267 0.25696892 0.44542584 0.48687726 0.35044196 0.37146544
0.45161447 0.5940187 0.37264875 0.39885893 0.31354475 0.23486352 0.61060625 0.5836277
0.2980808 0.42754582 0.47454378 0.32467398 0.25193143 0.587709 0.6861119 0.40024725
00000000: d812 273f b69e 2a3e 6b5e de3e 3502 a33e
00000010: 4a9e aa3e 4309 ba3e 0e06 e53e 5e82 c43e
00000020: 798a 903e 5782 a23e bafd a53e f463 c23e
00000030: cfd0 023f bffb de3e 85a3 fa3e 5757 b23e
00000040: 7b83 c33e 5a22 a73e 6d0f 853e 8d03 cb3e
00000050: b814 a23e cc56 e63e 942f 7b3e d646 dc3e
00000060: 5255 923e 7521 4e3e dd28 8d3e 8aa6 f83e
00000070: 8456 653e fcc8 c83e ed67 eb3e e26b fd3e
00000080: a3d0 c13e 35dc c83e 66b3 9c3e 7792 d73e
00000090: 8caf c73e 2ea4 bd3e 3ee5 bb3e 769e 0b3f
000000a0: 80b1 c23e aab2 c53e 375c 813f 6e91 833e
000000b0: db0e e43e fa47 f93e 216d b33e b830 be3e
000000c0: 033a e73e 9c11 183f d1cb be3e 3d37 cc3e
000000d0: f088 a03e 1080 703e b150 1c3f a068 153f
000000e0: 0c9e 983e 49e7 da3e 67f7 f23e ab3b a63e
000000f0: 28fd 803e 1974 163f 08a5 2f3f 35ed cc3e

bn2.weight f4 [64]
0.9740862 1.0214142 0.978491 1.0273913 0.97128505 1.0253695 0.9730036 0.9734092
1.0115428 0.9903289 0.97200143 0.9732547 0.97658986 1.0198735 0.97624904 1.0267812
1.0239363 1.0253234 1.0050145 1.0183539 1.0238106 1.0035484 1.029485 0.97822225
0.97358924 0.9761543 1.0243007 1.0300384 0.9714195 0.975466 1.0145093 0.9721868
0.97995377 0.97107863 1.0230062 1.0236471 0.9745897 0.97561234 1.0242292 0.9782964
0.9726011 0.9952583 1.0232395 1.0169843 0.9809162 1.0264521 0.9735545 0.97259456
1.0213257 1.0051547 0.99070907 1.024273 1.0226405 1.022375 1.0258558 0.9793165
1.0219647 0.9750923 1.029695 1.0024011 0.9983601 0.97834235 1.0094289 1.0197284
00000000: b75d 793f b3bd 823f 637e 7a3f 8f81 833f
00000010: 23a6 783f 4f3f 833f c416 793f 5831 793f
00000020: 3c7a 813f 3286 7d3f 16d5 783f 3827 793f
00000030: cb01 7a3f 378b 823f 75eb 793f 916d 833f
00000040: 5810 833f cc3d 833f 51a4 803f 6c59 823f
00000050: 3a0c 833f 4674 803f 2ac6 833f c66c 7a3f
00000060: 253d 793f 40e5 793f 491c 833f 4cd8 833f
00000070: f3ae 783f 24b8 793f 71db 813f 3ce1 783f
00000080: 40de 7a3f 9c98 783f def1 823f de06 833f
00000090: b67e 793f bbc1 793f f119 833f a271 7a3f
000000a0: 63fc 783f 3fc9 7e3f 83f9 823f 8b2c 823f
000000b0: 531d 7b3f c862 833f de3a 793f f5fb 783f
000000c0: cdba 823f e9a8 803f 1c9f 7d3f 611b 833f
000000d0: e2e5 823f 2fdd 823f 3e4f 833f 7cb4 7a3f
000000e0: bdcf 823f a69f 793f 0ccd 833f ae4e 803f
000000f0: 8794 7f3f a574 7a3f f734 813f 7686 823f

bn2.bias f4 [64]
-0.025034823 0.021445032 -0.01955269 0.01582235 -0.026732486 0.026450219 -0.025218647 -0.02199551
0.012129911 -0.021382691 -0.024840502 -0.026129972 -0.021929378 0.016217688 -0.023296565 -0.010687452
0.01674839 0.0023216305 -0.016346766 -0.013776034 0.025664663 -0.02698462 0.019726751 -0.024687044
-0.023823058 -0.022478485 -0.007756192 0.021230225 -0.026643462 -0.021988384 -0.026177252 -0.026397357
-0.021037133 -0.025560284 0.022221431 0.011772054 -0.023184432 -0.023910481 0.025238989 -0.0218278
-0.026245909 -0.025064018 0.024367886 -0.010637797 -0.02014507 0.027799107 -0.025824495 -0.025660887
0.014632561 -0.0027869842 -0.018707465 0.026752988 0.02269464 0.024761854 0.0286943 -0.021315757
0.024726488 -0.02415764 0.017549777 0.021167235 -0.025790097 -0.02239509 -0.023703596 -0.018781258
00000000: d415 cdbc 7ead af3c f72c a0bc df9d 813c
00000010: 16fe dabc 21ae d83c 5697 cebc ee2f b4bc
00000020: 89bc 463c c12a afbc 4f7e cbbc 860e d6bc
00000030: 3da5 b3bc f5da 843c 70d8 bebc 6c1a 2fbc
00000040: eb33 893c 7f26 183b a7e9 85bc e0b4 61bc
00000050: b33e d23c da0e ddbc ff99 a13c 7c3c cabc
00000060: 9328 c3bc cd24 b8bc a727 febb 02eb ad3c
00000070: 6443 dabc fc20 b4bc ad71 d6bc 453f d8bc
00000080: 1156 acbc cd63 d1bc b809 b63c 93df 403c
00000090: 47ed bdbc eadf c3bc ffc1 ce3c 37d0 b2bc
000000a0: a901 d7bc 0e53 cdbc 299f c73c 284a 2ebc
000000b0: 4607 a5bc f4ba e33c e48d d3bc c836 d2bc
000000c0: 69bd 6f3c d6a5 36bb 6640 99bc 1529 db3c
000000d0: 1cea b93c 5fd9 ca3c 4f10 eb3c 629e aebc
000000e0: 348f ca3c 3ee6 c5bc 8dc4 8f3c e966 ad3c
000000f0: c145 d3bc e875 b7bc 0b2e c2bc 27db 99bc

bn2.running_mean f4 [64]
0.35937884 -0.13227001 0.18953708 0.61789066 0.087978184 -0.14817052 -0.4159954 0.21167359
-0.6049596 0.48242673 -0.16572142 -0.1542165 0.61600465 0.68908125 0.2680887 -0.2944905
0.6072308 0.2997611 0.46001464 0.15357447 0.26324603 0.10266081 -0.011615965 -0.53257716
-0.13808626 0.47481525 0.5178822 0.50247914 -0.23262076 0.2249494 -0.3631124 0.7348219
0.036057647 -0.2432692 0.39808434 0.3777466 0.45686585 0.22361013 0.42373204 0.5176647
0.58334315 0.6014072 0.08962579 0.19407158 0.32029858 -0.08178827 -0.015221899 0.28819323
-0.20319113 0.7293236 0.08817903 -0.14279649 -0.5406742 -0.21317375 -0.14392115 -0.3416889
0.20992523 0.31837982 0.059014894 -0.12861012 -0.7149987 -0.102400176 0.05584332 0.15804595
00000000: 8100 b83e ca71 07be 0216 423e 152e 1e3f
00000010: e82d b43d 03ba 17be 59fd d4be f6c0 583e
00000020: a2de 1abf a300 f73e e0b2 29be eeea 1dbe
00000030: 7bb2 1d3f a167 303f ec42 893e 75c7 96be
00000040: 7a73 1b3f 497a 993e 0a87 eb3e a042 1d3e
00000050: 2fc8 863e d53f d23d e350 3ebc fa56 08bf
00000060: 7c66 0dbe fc1a f33e ee93 043f 79a2 003f
00000070: 2334 6ebe 2359 663e dee9 b9be 4a1d 3c3f
00000080: 2fb1 133d 901b 79be b6d1 cb3e 0168 c13e
00000090: 52ea e93e 0efa 643e 68f3 d83e ac85 043f
000000a0: fa55 153f d2f5 193f ba8d b73d b3ba 463e
000000b0: 2dfe a33e 9c80 a7bd 4665 79bc 108e 933e
000000c0: 5611 50be f4b4 3a3f 3597 b43d 3e39 12be
000000d0: a069 0abf 384a 5abe 1160 13be d9f1 aebe
000000e0: a4f6 563e ae02 a33e 9ab9 713d 5fb2 03be
000000f0: 280a 37bf 2fb7 d1bd f7bb 643d ccd6 213e

bn2.running_var f4 [64]
0.12623823 0.2058081 0.2776539 0.45079023 0.1471005 0.21676381 0.20244335 0.21422228
0.6673342 0.2749861 0.15416378 0.24486862 0.14477205 0.24931723 0.24809377 0.42401442
0.2463507 0.22877316 0.21080495 0.13499382 0.16873118 0.20449384 0.24356547 0.2123539
0.27280223 0.16634561 0.32614404 0.29585928 0.27337152 0.3093048 0.1959907 0.26219365
0.19133763 0.13102822 0.13743041 0.1829384 0.24458674 0.09571072 0.18936014 0.17354271
0.24589285 0.13770932 0.24816166 0.15969901 0.2402478 0.20804942 0.19637387 0.21268325
0.21710558 0.20385285 0.3231105 0.34001088 0.42250815 0.24456936 0.26225233 0.16432397
0.17362133 0.21041445 0.36028388 0.18131445 0.26635632 0.31027088 0.22773777 0.2560584
00000000: 9844 013e 5cbf 523e a728 8e3e facd e63e
00000010: 83a1 163e 55f7 5d3e 4f4d 4f3e 165d 5b3e
00000020: 6ad6 2a3f faca 8c3e 1cdd 1d3e d7be 7a3e
00000030: 203f 143e 044d 7f3e 4b0c 7e3e 6b18 d93e
00000040: 5c43 7c3e 8343 6a3e 41dd 573e d23b 0a3e
00000050: dec7 2c3e d566 513e 3a69 793e 4d73 593e
00000060: bcac 8b3e 8156 2a3e 5afc a63e de7a 973e
00000070: 5af7 8b3e 335d 9e3e c9b1 483e 3f3e 863e
00000080: 03ee 433e 432c 063e 8fba 0c3e 3454 3b3e
00000090: f274 7a3e fb03 c43d a0e7 413e 2eb5 313e
000000a0: 56cb 7b3e ac03 0d3e 171e 7e3e 2388 233e
000000b0: 8503 763e e80a 553e 3b16 493e a3c9 593e
000000c0: ed50 5e3e cdbe 503e bd6e a53e e815 ae3e
000000d0: fd52 d83e 6470 7a3e f045 863e 8b44 283e
000000e0: cac9 313e e376 573e 2177 b83e 7faa 393e
000000f0: db5f 883e d3db 9e3e 1734 693e 161a 833e

classifier.weight f4 [10, 64]
0.06291801 0.075524956 0.063220106 0.075543456 0.095333025 -0.07125516 -0.13669154 -0.07813059
0.14296411 0.02183807 -0.03689932 0.07644747 -0.08508527 0.07386629 0.09749266 -0.053203467
0.030896844 -0.10021885 0.11250441 -0.091356516 -0.06635322 0.00376322 -0.10921207 -0.038224723
-0.13480067 -0.118263066 0.12652624 -0.013870958 0.04351962 -0.13773406 0.0833824 -0.0940371
-0.08825323 0.055838607 -0.09554137 -0.05012022 -0.10700246 0.090500884 0.14627072 -0.1207966
-0.05101349 -0.124553226 -0.011838257 0.020787539 0.066283755 0.0038417147 -0.035379946 0.10809458
0.03545356 -0.010181556 0.01486619 -0.06307967 -0.039426107 -0.08543651 -0.034133844 0.076146245
-0.08271611 -0.015504082 -0.11077601 0.076449454 0.068679035 -0.013204732 -0.08564798 -0.08172815
0.0096562 -0.04674172 -0.12050982 -0.084683955 0.14943597 0.14161646 -0.12551396 0.007774064
0.06284371 0.094937116 0.10957376 0.055431165 0.088489145 -0.06102318 -0.053465985 0.009866769
0.023502743 -0.09430825 0.056478 -0.0073917536 0.08585336 0.037740044 -0.10560775 0.09264872
0.07114137 0.09483108 -0.01515472 -0.007835954 0.15268032 0.04593185 -0.030448738 -0.083020695
-0.05112489 -0.055299133 -0.056017365 0.08573174 0.0551773 -0.0034096756 0.05198096 -0.11331815
-0.07516662 -0.046565365 -0.101925805 0.06821781 -0.007340554 0.034112547 -0.043146256 0.01922721
0.04907601 -0.06282482 -0.07987007 -0.06925563 -0.08389831 0.008482037 0.06498156 0.09644383
-0.034422304 0.13202225 0.010670054 0.023302946 0.04764726 0.04393212 -0.034111496 0.038787115
-0.0061372453 0.07908136 0.11275083 -0.0061936714 -0.06123495 -0.02402691 -0.060761366 -0.121381246
0.051557355 0.048329968 0.03140296 -0.11819204 -0.08900426 -0.095189475 -0.0013884768 -0.037983492
0.024569318 0.057795938 0.13067283 0.10896801 -0.0910661 0.06665692 -0.059678134 -0.042048946
0.098034695 0.024676204 0.046207245 -0.01807754 -0.12834445 -0.08232753 0.09581476 -0.08102785
-0.08364983 0.03609757 -0.10816658 -0.07076324 0.06809614 0.10364019 -0.119004026 -0.06752725
-0.07396655 0.020188458 -0.095222384 0.08949542 0.1265815 0.05764185 0.052632596 -0.055447288
-0.04802096 0.04493053 0.111757986 -0.11706172 -0.046914622 0.13390999 0.10310784 0.014004041
-0.049037036 -0.09634078 -0.08297915 -0.10830879 -0.07145782 0.05970226 -0.095977806 0.00041248745
-0.09868242 -0.032502893 0.00079394464 0.11113408 0.019933954 0.058960203 -0.111079656 0.10188293
0.017484182 0.00012835018 0.09978299 -0.043580297 0.09236159 0.033756517 -0.088814944 0.060531132
0.051166534 -0.025459701 -0.059221957 -0.0144044645 0.05531666 0.070051156 -0.007203335 -0.012768857
-0.06906144 0.0018684056 -0.010040927 0.11788856 -0.11294126 0.02014615 -0.09083221 0.037828732
0.055515245 -0.06963618 0.09864201 -0.07521492 0.085318774 0.0097320005 -0.026983077 -0.0181323
0.13253564 0.02209896 -0.009757411 0.06253434 -0.079934314 0.11906396 -0.11178074 0.0885842
-0.04232257 -0.07993639 0.018668437 -0.10607987 0.091346465 0.11964758 -0.06842191 -0.025263723
0.005685514 -0.013565871 0.1206845 0.03472119 -0.12589704 0.0541508 -0.083476484 -0.007904589
00000000: 28db 803d d4ac 9a3d 8b79 813d 87b6 9a3d
00000010: f63d c33d 3aee 91bd def8 0bbe ee02 a0bd
00000020: 2f65 123e c1e5 b23c be23 17bd 7e90 9c3d
00000030: 3041 aebd 3647 973d 3baa c73d e1eb 59bd
00000040: 611b fd3c 8a3f cdbd b668 e63d 2019 bbbd
00000050: 32e4 87bd 5ba0 763b 94aa dfbd 8791 1cbd
00000060: 3009 0abe e833 f2bd 1890 013e 0443 63bc
00000070: a141 323d 280a 0dbe 64c4 aa3d 8696 c0bd
00000080: 1cbe b4bd 06b7 643d 32ab c3bd dc4a 4dbd
00000090: 1b24 dbbd 8758 b93d fec7 153e 3564 f7bd
000000a0: 85f3 50bd c315 ffbd 40f5 41bc a14a aa3c
000000b0: c7bf 873d 47c5 7b3b 90ea 10bd b160 dd3d
000000c0: c137 113d 8bd0 26bc 5291 733c ea2f 81bd
000000d0: 457d 21bd 56f9 aebd eecf 0bbd 90f2 9b3d
000000e0: 1067 a9bd d504 7ebc 88de e2bd 8891 9c3d
000000f0: 98a7 8c3d a958 58bc 3568 afbd 1761 a7bd
00000100: 0a35 1e3c 3f74 3fbd dacd f6bd c86e adbd
00000110: be05 193e e803 113e bb86 00be 93bd fe3b
00000120: 34b4 803d 646e c23d 3568 e03d ca0b 633d
00000130: cc39 b53d 71f3 79bd 26ff 5abd 3ba8 213c
00000140: d388 c03c af24 c1bd 7a55 673d 8636 f2bb
00000150: e3d3 af3d 4e95 1a3d e048 d8bd 9dbe bd3d
00000160: 91b2 913d cc36 c23d 814b 78bc 6062 00bc
00000170: 3b58 1c3e 0923 3c3d a26f f9bc c106 aabd
00000180: 5568 51bd 5881 62bd 7772 65bd 1f94 af3d
00000190: 9801 623d dd74 5fbb fde9 543d 5913 e8bd
000001a0: f5f0 99bd 53bb 3ebd 7abe d0bd c7b5 8b3d
000001b0: 0889 f0bb 99b9 0b3d 21ba 30bd 6282 9d3c
000001c0: ed03 493d 4daa 80bd eb92 a3bd e5d5 8dbd
000001d0: e1d2 abbd 3ef8 0a3c 0d15 853d 5884 c53d
000001e0: 67fe 0cbd d730 073e 73d1 2e3c d2e5 be3c
000001f0: c629 433d 2bf2 333d 7fb8 0bbd 3ddf 1e3d
00000200: f21a c9bb 68f5 a13d e8e9 e63d 48f4 cabb
00000210: 80d1 7abd 15d4 c4bc e9e0 78bd bb96 f8bd
00000220: ce2d 533d a5f5 453d 64a0 003d ab0e f2bd
00000230: de47 b6bd b3f2 c2bd 8dfd b5ba 9494 1bbd
00000240: 9845 c93c 6fbb 6c3d 19cf 053e 9f2a df3d
00000250: dd80 babd 6c83 883d 0f71 74bd 843b 2cbd
00000260: 6ac6 c83d c025 ca3c cf43 3d3d 5917 94bc
00000270: ba6c 03be 569b a8bd 873a c43d eef1 a5bd
00000280: 9a50 abbd 0cdb 133d 7186 ddbd 51ec 90bd
00000290: fd75 8b3d 4f41 d43d 62b8 f3bd ba4b 8abd
000002a0: c67b 97bd 4462 a53c f403 c3bd 6049 b73d
000002b0: 959e 013e dc19 6c3d 4795 573d b21c 63bd
000002c0: a0b1 44bd 1309 383d 5fe1 e43d 0ebe efbd
000002d0: 8c29 40bd b31f 093e 342a d33d 3571 653c
000002e0: 0fdb 48bd 514e c5bd f9f0 a9bd 00d1 ddbd
000002f0: 7a58 92bd 5b8a 743d 0390 c4bd 2143 d839
00000300: 021a cabd c121 05bd b920 503a 449a e33d
00000310: 884c a33c 4180 713d bb7d e3bd ffa7 d03d
00000320: fd3a 8f3c bd95 0639 065b cc3d 4181 32bd
00000330: 1328 bd3d 4644 0a3d 9ce4 b5bd 7eef 773d
00000340: 0094 513d dd90 d0bc b992 72bd b400 6cbc
00000350: b993 623d fb76 8f3d f409 ecbb 7834 51bc
00000360: 1670 8dbd 4ae5 f43a b382 24bc 8f6f f13d
00000370: bf4d e7bd 8a09 a53c 3d06 babd 4df2 1a3d
00000380: f463 633d 6a9d 8ebd d204 ca3d 480a 9abd
00000390: 9cbb ae3d f872 1f3c 9d0b ddbc 308a 94bc
000003a0: 6cb7 073e e108 b53c 8cdd 1fbc 0112 803d
000003b0: 9ab4 a3bd ced7 f33d 4ded e4bd a26b b53d
000003c0: 6e5a 2dbd b1b5 a3bd 8dee 983c 6740 d9bd
000003d0: db13 bb3d ca09 f53d c920 8cbd def5 cebc
000003e0: 8c4d ba3b 6343 5ebc 6f29 f73d ce37 0e3d
000003f0: 27eb 00be 3bcd 5d3d b8f5 aabd 4082 01bc

classifier.bias f4 [10]
0.05725644 0.028649962 0.04223041 0.09656592 -0.011623279 0.025742088 -0.051348336 0.03803154
-0.0476807 0.027049934
00000000: bb85 6a3d 53b3 ea3c cbf9 2c3d 5ac4 c53d
00000010: 916f 3ebc 12e1 d23c a252 52bd f6c6 1b3d
00000020: d64c 43bd d397 dd3c

exp_avg f4 [100, 64]
-0.0012007661 -0.000121685815 -0.002636398 0.0001860852 0.0001037647 -0.00017059712 0.0003967036 0.0019182032
-0.0013582016 -0.0012239969 -0.0003481715 0.0010058847 0.0002991566 0.0007486611 0.00032493437 0.00095952523
-0.0020329095 0.0028283545 -0.0006835478 -5.222746e-05 0.00067226595 -0.0009941362 -0.0031868673 -0.00058698974
0.0006006338 0.002471429 0.0004758008 -0.0027618755 0.0011142059 -0.00079727947 0.0051657977 -0.0022131533
0.000854634 0.0014020584 0.0003252788 -0.00026685357 0.0016966071 -0.0020283714 -9.95004e-06 0.00024255364
-0.00040069874 0.003620825 -0.00040069688 -0.00031991332 0.0006742873 -0.0048740306 0.00045433547 0.0039523914
0.0016191169 -0.00094581954 0.0027871095 -0.002078414 -0.0004299667 -0.0032095858 -9.0102876e-05 -5.8045673e-05
-0.0028979178 0.0006732859 -0.000107456 -0.0018152344 -0.0014319967 0.0013394715 0.0009985972 0.0019778952
-0.0007972964 -0.0009911744 -0.0021263445 0.00084808 -0.00028190046 -0.0009408693 0.00044089716 0.0012477356
-0.0018749855 -0.000528351 -0.00024135482 0.00023681443 0.00028188137 0.00012341034 0.0006672631 0.0016109993
-0.0015923857 0.0019084163 -0.00033934778 -1.5687856e-05 -0.00029568275 -0.0006991639 -0.0024131713 -0.00034595726
0.00057628617 0.0020052167 0.0005543634 -0.0018053931 -6.0965413e-05 -0.00031484413 0.0041975556 -0.0023394164
0.000968182 0.0012487706 0.000480805 -9.4312934e-05 0.001353193 -0.0018293097 -0.00020498209 0.0006660552
-2.2574168e-05 0.0036664642 -0.00041350193 0.00051016774 0.0010937863 -0.0039536436 -0.0002447561 0.0036429933
0.001773993 -0.0012448484 0.0032923713 -0.0025597238 -0.0011547423 -0.004002188 7.9915524e-05 0.000142262
-0.0029777898 0.00040898632 0.00057470764 -0.0020842825 -0.0015600281 0.0014157005 0.0015375916 0.002239223
-0.0010536994 -0.00036905427 -0.002607313 0.0005508352 0.00018011857 -5.3923806e-05 -6.446788e-05 0.0018350529
-0.001369958 -0.00038584066 -4.773586e-05 0.0009794518 -0.00017366878 0.00082715915 0.00036223955 0.0017129398
-0.0024326898 0.0027829004 -0.0008718815 2.0763771e-05 0.00042177376 -0.0012706943 -0.002937524 -0.00091084803
2.290923e-05 0.002541501 0.0011274734 -0.0022389786 0.00063695747 -0.0010632343 0.0041417642 -0.0020138305
0.0012180349 0.0018598214 0.00088128954 5.394182e-05 0.002024257 -0.0019215852 0.00016751206 0.00053246965
-9.4545634e-05 0.0032952775 -0.0010749548 0.0003677553 0.0010464586 -0.0042565283 7.6730386e-05 0.003701932
0.0011706895 -0.00056135986 0.0030409647 -0.0022022226 -0.0003575744 -0.0037304084 0.0006032264 0.0004110142
-0.0024768268 0.00090907555 0.00040064895 -0.0016046799 -0.0019050891 0.0018967423 0.0013858436 0.0015223009
-0.0009090535 -0.0017739682 -0.001851588 0.0011017864 -0.00068959617 -0.001913112 0.00066751405 0.0009799806
-0.0028804261 -0.00048829423 -0.00048383808 -0.00064289715 0.0005267004 4.5967477e-05 0.00091047975 0.0017438451
-0.0015503102 0.0018815609 -0.00020650374 -0.00040444476 -0.0009173489 -0.00040410942 -0.0024989767 -4.5058303e-05
0.0005761475 0.002230272 0.00026029442 -0.0016509151 -0.00053007575 -2.6264986e-05 0.0047182254 -0.002960031
0.0015500003 0.00042586226 0.00012594135 -0.00023106627 0.0013347628 -0.0017487182 -0.0012777717 0.00089824724
0.00032053274 0.004335012 -0.0003826878 0.00076519785 0.0011635079 -0.00410853 -0.00069382205 0.0046282345
0.0022311679 -0.0014795267 0.0037078392 -0.0037842705 -0.00182781 -0.0046164133 -0.00031251097 -4.581643e-05
-0.004480541 0.0001811757 0.00078132615 -0.0032349883 -0.002146795 0.0012795323 0.0016251497 0.002705012
00000000: 0663 9dba 9331 ffb8 6bc7 2cbb de1f 4339
00000010: 409c d938 51e2 32b9 a8fc cf39 386c fb3a
00000020: af05 b2ba 856e a0ba ca8a b6b9 e4d7 833a
00000030: 1fd8 9c39 cc41 443a f45b aa39 a688 7b3a
00000040: 903a 05bb ea5b 393b 1e30 33ba cf0e 5bb8
00000050: 013b 303a ad4d 82ba c3da 50bb 37e0 19ba
00000060: da73 1d3a b3f7 213b e774 f939 9500 35bb
00000070: 8c0a 923a 8500 51ba da45 a93b 8d0a 11bb
00000080: 8409 603a 46c5 b73a 2e8a aa39 7be8 8bb9
00000090: b060 de3a 6dee 04bb 19ef 26b7 ff55 7e39
000000a0: e014 d2b9 5d4b 6d3b a014 d2b9 0aba a7b9
000000b0: a8c2 303a 55b6 9fbb e033 ee39 1083 813b
000000c0: 8c38 d43a e0f0 77ba f0a7 363b 0036 08bb
000000d0: 276d e1b9 ea57 52bb 9df5 bcb8 1176 73b8
000000e0: feea 3dbb 747f 303a 005a e1b8 29ed edba
000000f0: d6b1 bbba 3591 af3a 5de3 823a 939f 013b
00000100: a801 51ba 4bea 81ba 245a 0bbb af51 5e3a
00000110: 0acc 93b9 aba4 76ba 3728 e739 0f8b a33a
00000120: 13c2 f5ba 0981 0aba 3114 7db9 6451 7839
00000130: 7ac9 9339 b667 0139 45eb 2e3a 2b28 d33a
00000140: 99b7 d0ba d323 fa3a 7dea b1b9 6a99 83b7
00000150: de05 9bb9 1848 37ba 4c26 1ebb 9961 b5b9
00000160: e911 173a f469 033b b352 113a f1a2 ecba
00000170: 1db5 7fb8 aa11 a5b9 a68b 893b e550 19bb
00000180: 98cd 7d3a caad a33a 8e14 fc39 dfc9 c5b8
00000190: 9f5d b13a 73c5 efba 76f0 56b9 359a 2e3a
000001a0: a85d bdb7 1049 703b 4acb d8b9 c7bc 053a
000001b0: 615d 8f3a 918d 81bb 9c52 80b9 49bf 6e3b
000001c0: 5485 e83a 2e2a a3ba d3c4 573b 0ac1 27bb
000001d0: b95a 97ba c924 83bb 5298 a738 2a2c 1539
000001e0: 0627 43bb 376d d639 faa7 163a 7598 08bb
000001f0: db79 ccba 078f b93a 0389 c93a eebf 123b
00000200: 491c 8aba a07d c1b9 74df 2abb ed65 103a
00000210: 36de 3c39 3f2c 62b8 ee32 87b8 2886 f03a
00000220: 2a90 b3ba a84a cab9 fd37 48b8 f360 803a
00000230: dc1a 36b9 b6d5 583a f8ea bd39 b984 e03a
00000240: c36d 1fbb 5261 363b fa8e 64ba dc2d ae37
00000250: 8421 dd39 6d8d a6ba 7a83 40bb fac5 6eba
00000260: 322d c037 508f 263b bbc7 933a d4bb 12bb
00000270: 7ef9 263a 395c 8bba a3b7 873b 78fa 03bb
00000280: 78a6 9f3a 40c5 f33a 5706 673a 973f 6238
00000290: 66a9 043b b3dd fbba 2da6 2f39 6f95 0b3a
000002a0: cd46 c6b8 95f5 573b 7fe5 8cba 48cf c039
000002b0: 5329 893a 597a 8bbb 50ea a038 1d9c 723b
000002c0: d271 993a 3928 13ba ec4a 473b 2a53 10bb
000002d0: d378 bbb9 de79 74bb d721 1e3a 647d d739
000002e0: 4252 22bb 074f 6e3a 310e d239 1f54 d2ba
000002f0: 2fb4 f9ba 1c9c f83a 32a5 b53a f187 c73a
00000300: 8c4d 6eba 7f84 e8ba fcb0 f2ba d169 903a
00000310: 04c6 34ba 63c1 faba 1cfc 2e3a b172 803a
00000320: 88c5 3cbb df00 00ba a6ab fdb9 1988 28ba
00000330: 4412 0a3a 34cd 4038 43ad 6e3a bb91 e43a
00000340: c733 cbba b59e f63a ed88 58b9 a80b d4b9
00000350: 3e7a 70ba a6de d3b9 dfc5 23bb fcfc 3cb8
00000360: 9b08 173a c129 123b 2078 8839 8563 d8ba
00000370: c8f4 0aba a153 dcb7 589b 9a3b 14fd 41bb
00000380: 6129 cb3a 4446 df39 200f 0439 614a 72b9
00000390: 35f3 ae3a 3f35 e5ba e77a a7ba 5a78 6b3a
000003a0: 2d0d a839 b70c 8e3b 7da3 c8b9 8f97 483a
000003b0: d980 983a d9a0 86bb 9ce1 35ba 72a8 973b
000003c0: c938 123b aeec c1ba 38ff 723b 8601 78bb
000003d0: 2093 efba 4845 97bb 83d8 a3b9 042b 40b8
000003e0: 81d1 92bb fbf9 3d39 e9d1 4c3a 1902 54bb
000003f0: 3eb1 0cbb fbb5 a73a fa02 d53a 9246 313b
