checkpoints/checkpoint_epoch_20.pt (torch, 547720 bytes, 37 tensors)

prototypes f4 [100, 64]
000000 98 a6 d2 3d 33 30 8e be 5b 3e 14 be 0c 9c 0e 40
       0.102856815 -0.27771148 -0.14476912 2.2282743
000010 d5 fd 15 bf 3a bf 34 3f d4 f6 65 3e c7 b8 56 bf
       -0.5859044 0.7060429 0.22457439 -0.838757
000020 c5 ca 11 3d 37 c1 3a 40 91 d5 84 bf 85 70 6d bf
       0.035593767 2.918043 -1.0377675 -0.92749816
000030 4a 04 0b bf 94 c2 7e bf ea 6a 26 bf 27 3f d9 3f
       -0.5430342 -0.9951565 -0.6500689 1.6972398
000040 56 29 49 bf 5e e9 de 3e c8 42 73 3f a1 b9 c7 3f
       -0.785787 0.4353742 0.95023775 1.5603524
000050 e4 03 09 c0 6e 17 6b be 98 ba ef be 07 06 d6 3d
       -2.1408625 -0.22958156 -0.46822047 0.104503684
000060 5e ba 99 3e f8 e5 99 3e 37 89 84 3e 11 01 39 3f
       0.30025 0.30058265 0.25885937 0.7226725
000070 c8 af ec be 71 7d 0d 3f a4 fe b8 be 1a 60 83 3e
       -0.4622786 0.55269533 -0.36131775 0.25659257
000080 7d 90 ed bf c2 f3 c4 3f ca 6c ac be d4 1e 69 3e
       -1.8559719 1.5386889 -0.3367675 0.22765666
000090 5e b3 68 be b6 b2 5e bf 45 40 6a 3f 70 19 f4 bf
       -0.22724673 -0.8699144 0.9150432 -1.9070263
0000a0 0e 17 03 bf 12 6f c2 3d 01 5c 91 3f 75 c9 c9 3e
       -0.51207054 0.09493841 1.1356202 0.39411512
0000b0 c1 63 a0 3f 5c 52 5f be 2b 36 4f be a6 95 89 3e
       1.2530442 -0.21808761 -0.20235507 0.26871985
0000c0 a3 87 f7 3f 54 13 ff be a7 17 8c 3e 22 73 1f bf
       1.9338268 -0.49819434 0.27361795 -0.62285054
0000d0 63 e7 36 bf 81 7e 5c bf 39 1b 1c bf 47 4d 0b 3f
       -0.7144682 -0.8613053 -0.6097904 0.5441479
0000e0 e6 92 9f 3f b5 34 6f be 1c bc 83 3d 06 e1 f7 bf
       1.2466705 -0.2335995 0.064323634 -1.9365547
0000f0 93 3d 85 be a4 cf 6a 3f c0 3d 83 be 1a 2e b3 3f
       -0.2602354 0.91723084 -0.2563305 1.3998444
000100 db f8 b4 bd fd 90 e2 3f 4b dd 94 bf 5e 19 42 3e
       -0.08836528 1.7700497 -1.1630033 0.1895499
000110 5c 49 aa bf 4d 48 71 bf 64 9f c9 be ff 45 a4 3d
       -1.3303638 -0.9425095 -0.39379418 0.08021163
000120 a5 c9 f7 be d5 7d 28 be e8 79 f4 3d eb 50 82 3f
       -0.4839603 -0.16454251 0.11937314 1.0180944
000130 e7 53 39 3d 19 38 64 3f a0 59 79 bf ca 4f 76 be
       0.04524603 0.891481 -0.9740238 -0.24053875
000140 34 5a fc 3e 15 89 51 3f d3 dd 57 bf d8 d3 12 bf
       0.4928757 0.81849796 -0.8432285 -0.573545
000150 59 1e 9c 3e 4d c3 01 c0 f7 b1 55 3f 15 88 e3 3e
       0.30491903 -2.0275452 0.8347468 0.4443976
000160 dd a5 97 bf 10 50 e8 3f fe 6c bf bf 40 d2 7f be
       -1.1847492 1.8149433 -1.4955137 -0.24982548
000170 c5 32 d2 3f 82 0d e5 3e ae c5 27 3f 3f 3a 0b bf
       1.6421744 0.44736868 0.6553601 -0.5438575
000180 f5 6f 87 3f ab 58 83 bf b2 22 e2 bf af 2c 1f be
       1.0581042 -1.0261434 -1.7666838 -0.15544389
000190 ef 0d b4 3f 96 79 80 bf 3f 68 d3 be dd a2 bf be
       1.4066752 -1.0037105 -0.4129047 -0.37428942
0001a0 18 d8 94 bf 52 55 9a bf da 85 37 bd 54 95 c9 be
       -1.1628447 -1.2057288 -0.044805385 -0.3937174
0001b0 ab 82 98 bf ca 2f c9 3d 1d 02 a6 3e 93 e8 f4 3f
       -1.1914877 0.09823568 0.32423487 1.9133476
0001c0 4d 75 9d bd b7 11 98 be cf ad ea bf 6e 65 8b bf
       -0.07688389 -0.29701015 -1.8334292 -1.0890329
0001d0 19 42 bd bd a7 1b 89 3f 58 37 a3 bd 98 ef 11 3f
       -0.09241123 1.0711564 -0.0796954 0.57006216
0001e0 8e 5d aa bf 11 71 ac 3d 95 04 a8 bf 7f 74 33 bf
       -1.3309801 0.08420003 -1.3126398 -0.70099634
0001f0 99 bf 89 bf bc f9 57 bf 1e 1e f7 bf 5f 9e 91 3f
       -1.0761596 -0.8436544 -1.9306066 1.1376456
000200 c9 2a de 3e e4 53 35 bf 46 7c 10 3f 33 4e e5 bf
       0.43392017 -0.7083113 0.56439626 -1.791449
000210 e6 08 04 3f e2 5d 0d 3f ed ca 64 bc a0 7b 28 3f
       0.5157608 0.5522138 -0.013964397 0.65813637
000220 a4 8a bd bf f3 e1 60 bc d9 aa 29 bf dd 2e 30 3e
       -1.4807935 -0.0137257455 -0.6627632 0.17205377
000230 71 0c c1 3f f5 65 69 3d 36 44 ec bf 11 0c 00 bf
       1.5081922 0.056982 -1.8458316 -0.5001841
000240 2b f0 3e 3f a9 2e e7 bf 9a 40 8f 3f e6 64 6c 3d
       0.7458522 -1.8061115 1.119159 0.05771341
000250 ac ec 25 3e 4e 04 aa bd e4 78 6a bf cd 11 4b 40
       0.16203564 -0.08301602 -0.91590714 3.1729615
000260 9f 69 ad 3f bc d2 91 be 42 57 b6 3e 71 f6 93 bf
       1.3547858 -0.2848109 0.35613447 -1.1559583
000270 59 3b bd 3b 16 ed 69 bf 88 2b 9d 3f ef bf d1 bf
       0.005774897 -0.9137739 1.227891 -1.6386698
000280 63 12 84 3f fd c0 ec 3d f3 00 05 c0 74 91 63 3f
       1.0318111 0.11560247 -2.078183 0.8889382
000290 2d bd 72 3d b2 32 48 bf f7 3e 81 bf 7a c3 fe bf
       0.059262443 -0.78202355 -1.009734 -1.9903405
0002a0 b8 67 cd bc 9c e2 69 bf 34 15 83 3f 72 59 c0 3b
       -0.025073871 -0.91361403 1.0240846 0.0058700377
0002b0 1a 66 9e bf 28 55 d6 be 53 ee b7 be ab f2 02 40
       -1.2374909 -0.41861844 -0.35924014 2.0460613
0002c0 6c 76 23 3f b4 d0 a5 3e 96 69 07 bf 86 18 ed bf
       0.6385257 0.3238579 -0.52895486 -1.8523109
0002d0 b7 d8 27 bf ba 7f 12 be 1b e3 62 bf 82 78 05 bf
       -0.65565056 -0.14306536 -0.88627785 -0.52137005
0002e0 10 f7 35 bf 94 d8 6a bf 58 9b a9 be 03 ac 8b bf
       -0.7108011 -0.9173672 -0.3312633 -1.0911869
0002f0 fa 5d 23 bf 86 0e 5b 3f 60 b4 7e 3d 69 54 7e 3f
       -0.6381527 0.85569036 0.062183738 0.9934755
000300 c0 d2 f9 bd d7 ec a5 3f d0 14 51 3e ef 1c a1 3f
       -0.121984005 1.2962903 0.20418096 1.2586955
000310 18 52 99 3e 83 44 03 40 dc cf ee be 95 2a 96 3e
       0.29945445 2.0510566 -0.4664296 0.29329363
000320 52 99 5a 40 cc 59 f3 3f d5 91 43 c0 f2 4d ad 3e
       3.415608 1.9011779 -3.055776 0.3384853
000330 b1 ac c7 3e e6 7c c0 3e 1f 02 6a 3f 11 b1 7f 3e
       0.3899894 0.3759529 0.91409487 0.24969889
000340 91 01 c3 bf dd b5 9b bf 6d 9d e2 bf f2 50 b0 3e
       -1.5234853 -1.2164875 -1.7704293 0.34436756
000350 a4 64 2a 3f 26 bc 74 be bb c8 9d be 19 06 f7 3e
       0.66559815 -0.23899898 -0.30817208 0.4824684
000360 9b db 1e 3f 06 68 78 bf 65 92 6f bf 47 74 e8 be
       0.6205384 -0.9703373 -0.93582755 -0.45401213
000370 30 28 aa 3f 76 ff 4f 3d 89 f3 90 3f 1d 23 16 bf
       1.3293514 0.050780736 1.1324321 -0.5864733
000380 29 72 69 3f 97 9c f4 3f a9 7a 48 be 28 fb 93 bf
       0.9118982 1.9110287 -0.19578041 -1.1561022
000390 40 a0 f2 be d8 17 3f 3f a0 ea 2d 3d 2b d1 43 3f
       -0.47387886 0.7464576 0.042460084 0.7649104
0003a0 eb ef ca 3f e4 94 a2 bf 10 6a c0 3e 7d c0 47 3f
       1.5854467 -1.2701688 0.3758092 0.7802809
0003b0 10 7a 1d bf d8 88 0a c0 1b fe 8b 3e 0d 2e 0f 3f
       -0.6151438 -2.1646023 0.27342305 0.5592964
0003c0 9a 66 e5 bf d1 b9 2f bf ae fa 5e bf 46 2d d8 3e
       -1.7921937 -0.6864291 -0.87101257 0.4222204
0003d0 09 88 04 bd fa f3 cd 3e 03 26 1e 3f 84 25 de bd
       -0.032356296 0.40225202 0.6177675 -0.10846999
0003e0 9e d8 24 3f 13 b8 6f bf 1b 79 bd be 84 16 7b 3f
       0.6439303 -0.9364025 -0.3700646 0.9808123
0003f0 91 f7 a5 3f 4f e2 0b 3f b7 f4 bf bf d6 6b 9a bf
       1.2966176 0.54642195 -1.4996556 -1.2064159

conv1.bias f4 [64]
000000 bd 52 02 b6 b0 a5 ff 36 95 07 07 38 8e 15 a6 b9
       -1.941967e-06 7.6188808e-06 3.219357e-05 -0.00031678047
000010 1f b0 ae b8 a6 72 bd 38 cb 47 89 37 80 e2 3d 38
       -8.329772e-05 9.033577e-05 1.6365104e-05 4.5272056e-05
000020 b5 a2 13 39 01 74 d1 b8 22 f7 ec 37 2f 9c 6c 38
       0.00014079626 -9.987504e-05 2.8248473e-05 5.6412242e-05
000030 c6 82 cd 36 2b 8e 39 39 26 d7 41 b8 94 2b fd b5
       6.1247e-06 0.00017695937 -4.621516e-05 -1.8862652e-06
000040 fd 89 cf 39 eb 93 9a b9 d0 f3 60 38 47 4e 19 b9
       0.00039584926 -0.00029483376 5.363283e-05 -0.00014620378
000050 9e 05 98 b9 48 6f b9 b8 21 5a 13 b9 c7 17 5a b7
       -0.00028995884 -8.842215e-05 -0.00014052588 -1.2999349e-05
000060 0c 4b 8e 39 68 6b ba 38 43 77 74 37 55 4e 46 b8
       0.00027140265 8.889177e-05 1.4571301e-05 -4.727983e-05
000070 bc e6 1e b7 53 1f 42 b6 63 c4 ee b8 72 53 26 b7
       -9.471256e-06 -2.8926486e-06 -0.00011385304 -9.9138e-06
000080 d2 37 5b b6 a2 02 a4 38 df 2d 03 b8 f1 43 f6 39
       -3.2666035e-06 7.82062e-05 -3.1275555e-05 0.00046971397
000090 ed e7 0a b9 b0 ab c9 b9 08 71 d5 38 b5 4f 9e 37
       -0.00013247105 -0.00038465625 0.00010177685 1.8872184e-05
0000a0 d0 1c 80 39 78 f9 a0 38 08 99 3f 39 19 68 06 b9
       0.0002443553 7.675862e-05 0.00018272188 -0.00012818015
0000b0 3c e9 47 b9 b4 58 85 38 18 33 43 38 78 aa 3f 37
       -0.00019065005 6.3584564e-05 4.6539208e-05 1.14241775e-05
0000c0 cc ee 2a b9 93 7b 40 37 97 d1 c1 b8 f7 90 82 b9
       -0.00016301422 1.1472864e-05 -9.241996e-05 -0.0002490354
0000d0 67 e8 10 b8 b4 be 09 b7 b5 18 df 38 93 8a 21 b8
       -3.4548717e-05 -8.210238e-06 0.00010638071 -3.851445e-05
0000e0 56 7b 7c b9 fa cb 2e b8 4d 20 b0 b7 e0 c6 b7 b7
       -0.00024078539 -4.16748e-05 -2.0995876e-05 -2.1907908e-05
0000f0 c2 9f 4b 39 86 af 0e b7 3e 62 36 b8 3a 94 c6 b8
       0.00019419103 -8.504727e-06 -4.3483677e-05 -9.468985e-05

conv1.lin.weight f4 [64, 512]
000000 47 07 b2 bc 79 9b 1f bc bd 13 1a bd 2c 5e 64 bd
       -0.021731986 -0.009741657 -0.03761648 -0.05575387
000010 a2 44 a5 bd 91 93 cb bd f6 20 3f 3d 08 29 de bc
       -0.08069731 -0.099402554 0.046662293 -0.027119175
000020 3c 56 cf 3c dd a9 23 3d 95 f6 00 bd a1 88 c0 3c
       0.025309674 0.039956916 -0.03148516 0.02350265
000030 09 90 45 bd e1 85 d2 bd 46 ac c5 3b f1 60 7e bd
       -0.048233066 -0.102794416 0.0060324995 -0.06210417
000040 35 f8 a5 bd 22 4c ee bc 57 f5 f2 bc 1d 19 7b 3d
       -0.08103982 -0.029089037 -0.029658003 0.061303247
000050 75 85 2e bd 34 ac 90 3d 8b 5a 56 3b e3 da 0a bb
       -0.042607743 0.07064095 0.0032707776 -0.0021187596
000060 0f 53 a0 3c 62 06 8a bd 30 67 d2 bd f7 3c af bd
       0.019570855 -0.06739499 -0.10273588 -0.0855655
000070 30 84 20 bd 8e 95 59 3b 40 cd e0 3c 52 c1 ae bc
       -0.039188564 0.0033200714 0.02744162 -0.021332417
000080 ae 88 be 3d dc fc 6e 3c 5e da 61 3d a9 c3 b6 bc
       0.09303413 0.014586654 0.05513989 -0.022310095
000090 2d fe 4d bd 93 0c 00 bd 5c dc c5 3d f2 54 96 3d
       -0.05029123 -0.03126199 0.09661171 0.07340421
0000a0 9a 08 00 3c 24 87 54 bd 44 51 33 bc 52 25 26 3c
       0.007814551 -0.051886693 -0.010944668 0.010140734
0000b0 b6 de aa 3d 7b 44 89 bc 6e 84 b0 bd 92 5f 02 3d
       0.0834326 -0.016756287 -0.08619009 0.031829424
0000c0 fb f2 4e bd 9f 56 b2 bc d4 33 bf bd 71 86 1d 3d
       -0.050524693 -0.02176982 -0.09336057 0.03845829
0000d0 0e b2 8e 3d 81 26 54 3b c7 47 1b 3d a1 02 a4 bd
       0.06967555 0.0032371583 0.03791025 -0.08008314
0000e0 53 e8 95 bd 01 39 42 3d 38 e9 40 bd d6 a1 96 bd
       -0.07319703 0.047417644 -0.047097415 -0.073550865
0000f0 93 86 8c 3d 64 a6 db bd 54 28 97 bc b6 f4 7b bc
       0.068616055 -0.10725096 -0.018451847 -0.015378168
000100 a7 02 73 3d 59 72 5b 3d 69 93 c4 bc d6 42 13 bd
       0.0593287 0.053575847 -0.023996072 -0.03595241
000110 dd e4 b2 3d 7b 7d 37 3d c7 ac 87 3a 43 d6 8c 3b
       0.087350585 0.044797402 0.0010351174 0.004298003
000120 27 4e 26 3d f1 5f ab bc 0c fa 6d bd 8e 66 dd bb
       0.040601876 -0.020919772 -0.05809979 -0.0067566102
000130 a9 b6 06 3d 3e 9a 05 3d 1e 8b 96 bd ba 6f 16 bd
       0.032889042 0.0326178 -0.07350753 -0.036727645
000140 76 c3 bb bd 5e 43 94 bc 45 0e 11 bb 26 43 02 bd
       -0.091681406 -0.01809853 -0.002213375 -0.03180232
000150 a0 37 02 bc 27 f8 4d 3c 3a a6 bd 3d 49 25 66 3c
       -0.007947832 0.012571371 0.09260221 0.014046975
000160 0b 88 3b 3d cb d4 2f 3c ef bf 3e 3d 72 ea d8 bd
       0.045784038 0.010731886 0.04656976 -0.10591592
000170 06 40 9a 3d 9a 70 26 bd 87 4c 79 bd f5 2e 88 bd
       0.07531743 -0.04063473 -0.060863998 -0.06649581
000180 b8 3b c5 3d cb f8 ed 3b f3 0a 80 3d 16 b8 a8 3d
       0.09630531 0.0072623244 0.062520884 0.082382366
000190 58 ce ae 3d c3 63 c9 bb 6a 73 ae 3c 14 f0 bd 3d
       0.08535451 -0.0061459257 0.021295268 0.09274307
0001a0 ff ba b6 3d 87 7b 44 3d d7 d5 65 3d 07 ba f1 3c
       0.089223854 0.047969367 0.056112137 0.02950765
0001b0 7c b9 2e bd cc c5 36 3d b9 7f 28 3c 27 bc 71 3d
       -0.04265736 0.044622228 0.010284358 0.059017327
0001c0 b1 c6 96 bd 39 bb 2f 3d 15 57 32 bd 6c b7 4e bc
       -0.07362116 0.04290316 -0.04354008 -0.012616973
0001d0 c7 f1 63 bc 29 cf bd 3d 9f a4 a0 3d f6 b0 8f bd
       -0.013912625 0.09268028 0.07843899 -0.070161745
0001e0 21 2d 38 bd 53 79 b0 3d 10 c6 fa bc e6 a6 26 bd
       -0.044964913 0.08616891 -0.030612022 -0.04068651
0001f0 8e 93 5a 3d 2e bb 9f 3d 07 51 76 bd 51 08 26 bd
       0.053363375 0.077993736 -0.060135867 -0.040535275
000200 d1 5f d2 3d 3e d1 b9 bb b6 08 9a bd b3 38 53 3d
       0.10272182 -0.0056706956 -0.07521193 0.051567744
000210 d7 ca b6 3d ef 0c 9a bd 91 3b 40 bd 97 ff 1b 3c
       0.089254074 -0.07521998 -0.046931807 0.009521387
000220 45 38 be bd 04 16 e3 bc 56 08 05 bc 14 89 ba 3c
       -0.09288076 -0.027720459 -0.008119663 0.022770442
000230 64 71 8e bd 5b 6a 06 bb cd 4e 3a bd c4 b3 69 bd
       -0.06955221 -0.002051017 -0.045485307 -0.057056203
000240 6a ad 62 bb 54 91 88 bc 4b d1 31 3d c0 7b 3c bb
       -0.0034588226 -0.01667086 0.043412488 -0.0028760284
000250 d8 81 c1 3d c4 42 15 bc 07 66 a6 3d c8 b0 a2 bd
       0.09448594 -0.009110156 0.08124929 -0.079438746
000260 6a 3f 6d 3d 98 fd ed 3c cb c5 92 3d c6 97 93 3d
       0.057921804 0.029051587 0.07166632 0.07206683
000270 c2 17 d7 3c 5d c7 b9 bd 4c 41 e3 bc ec 10 c4 3d
       0.026256446 -0.09071229 -0.027741097 0.0957354
000280 68 65 4b 3d c7 f1 68 bd ed 0b f5 3c 04 a6 c4 3c
       0.049657255 -0.0568712 0.029912913 0.024004944
000290 32 11 c8 3d 47 d1 b7 3d e1 a1 24 bd 35 c0 d1 3c
       0.09768905 0.08975463 -0.040193442 0.025604347
0002a0 f3 b7 84 bc 6b dd 5b bd 85 eb ab 3d 57 34 2d bd
       -0.016200995 -0.053677958 0.08394531 -0.042286243
0002b0 07 63 6e 3d e7 12 53 bc b3 59 c3 3c 07 0c d6 3c
       0.05819991 -0.012882925 0.023846483 0.026128782
0002c0 0d 90 b4 bd 28 24 39 bd 8d 82 bc bd 47 b3 2c bc
       -0.08816538 -0.045200497 -0.09204588 -0.01054079
0002d0 ae 3c 93 3d 53 7f 9b bd 09 93 15 bd f4 02 61 bc
       0.07189308 -0.075926445 -0.036517177 -0.013733614
0002e0 61 e1 59 3c 8f b4 5b 3d 8d fb ba 3d 04 93 81 bc
       0.013298363 0.05363899 0.09130011 -0.015817173
0002f0 d8 d2 f8 bc 59 e6 bd 3d 36 b9 c8 bc c4 5e 22 3d
       -0.030373976 0.09272451 -0.024502378 0.039641157
000300 fc 57 72 bc 91 dd 7f 3d 76 88 b9 3d 8b 30 cb bd
       -0.014791485 0.06246716 0.09059231 -0.09921368
000310 18 d7 3f 3d 42 4f 71 bd f6 5f c2 3c d7 6d 96 bc
       0.04683599 -0.058913477 0.023727398 -0.018362923
000320 63 9a 82 bc b8 c3 a2 bc ac e9 a0 bd 96 eb 66 3c
       -0.015942758 -0.019868717 -0.078570694 0.014094254
000330 95 c6 3d bc ff cc 8d bc af 48 c2 3d 25 84 88 bc
       -0.01158299 -0.017309664 0.094865195 -0.016664574
000340 74 ea 82 bc 66 89 62 bd 78 21 29 3d 8c 16 6e 3a
       -0.015980937 -0.055306815 0.041291684 0.0009082339
000350 92 5f bb 3b ae da 75 bd 98 61 c6 bd 3b f1 bb bd
       0.00571818 -0.060023002 -0.09686583 -0.091768704
000360 d3 72 74 bc b5 70 54 3d 07 d8 b5 3d b5 d4 b2 bc
       -0.014919954 0.0518653 0.088790946 -0.021829942
000370 8c ea a5 3d b2 f6 b8 bd 88 bb 61 bd 62 1b 2b 3d
       0.08101377 -0.090314284 -0.055110484 0.04177416
000380 61 25 99 3b 85 3c 9a bd 53 b8 02 3c 81 ac dc bc
       0.0046736454 -0.075310744 0.007978517 -0.026937725
000390 a0 56 71 3d fb 69 a4 3d 79 54 7c 3b 99 ec 7f bd
       0.058920503 0.08028027 0.0038502498 -0.062481496
0003a0 5b a1 14 bd 47 74 42 3d 33 6b 9b bc 9b f4 ff bc
       -0.036286693 0.047474172 -0.018972015 -0.031244567
0003b0 18 c7 94 3b 44 a0 a9 bd 0c cb da bd 4d d4 a2 bc
       0.0045403354 -0.08282521 -0.10683259 -0.019876624
0003c0 e6 b4 9b 3d 26 43 2a 3c 5f e7 7c 3d 52 25 d7 bd
       0.07602863 0.010391986 0.06174409 -0.10505165
0003d0 d5 e4 48 bd c0 d5 6c 3b 9c 51 cb bc 25 6a cf bd
       -0.049046356 0.0036138147 -0.024819188 -0.10127667
0003e0 30 1e 66 3d 4f af 40 bd 6e 3f b5 bd 7c f6 19 3d
       0.056181133 -0.047042187 -0.08849989 0.03758858
0003f0 67 b1 c2 bd 4e 9f ce 3d 03 f1 15 3d a0 13 4d 3d
       -0.09506493 0.10088979 0.0366068 0.050067544

conv2.bias f4 [64]
000000 b1 dc a1 39 b6 0f 9b 38 f1 e9 da b8 25 c1 01 39
       0.0003087274 7.393902e-05 -0.00010438625 0.0001237435
000010 6e 69 ff 37 da b0 43 b9 db 39 9f 39 83 ca 9b b8
       3.0447463e-05 -0.00018662532 0.0003036995 -7.428697e-05
000020 db 92 01 b9 d8 f2 df b8 30 41 56 38 91 81 31 b8
       -0.00012357107 -0.00010678702 5.1082287e-05 -4.2320757e-05
000030 f4 c2 bc b9 67 a0 35 3a f5 38 a3 b9 51 02 0f b8
       -0.00036003406 0.0006928504 -0.0003113222 -3.4096014e-05
000040 d6 81 3f 39 88 26 a4 b8 d8 5d ac b8 0b b3 ba 38
       0.00018263547 -7.8273064e-05 -8.219079e-05 8.9025205e-05
000050 6b 9b 78 b8 27 9e c6 37 fc 33 c7 37 c8 8a 7d b9
       -5.9272552e-05 2.3677085e-05 2.3746856e-05 -0.0002417966
000060 ee 7e 14 38 a8 de 2c 39 e7 94 fe 38 d1 74 ff b7
       3.5404162e-05 0.00016486144 0.00012139399 -3.0452766e-05
000070 6e be 68 b9 cf 5a e8 b5 a0 92 12 37 22 1d 78 39
       -0.00022196185 -1.7311776e-06 8.736417e-06 0.00023661976
000080 a9 9f 9d 38 ea 8c 27 b8 82 3e 48 3a 33 8a 37 39
       7.5160824e-05 -3.994714e-05 0.0007638709 0.00017503723
000090 27 ef 57 b9 9b c0 ac 39 14 83 d9 38 51 1f bc b9
       -0.00020593089 0.000329499 0.000103717815 -0.00035881487
0000a0 c8 14 fb b9 15 6d 5f 39 61 51 bc b8 1e 19 97 38
       -0.00047889934 0.00021307573 -8.9796966e-05 7.2049195e-05
0000b0 10 e9 f8 b7 be 85 15 b9 cc 99 3b b8 6b 43 71 b8
       -2.9672432e-05 -0.0001425957 -4.472751e-05 -5.7521665e-05
0000c0 34 13 0e b9 8c 4a b2 38 92 ba 0c b8 53 a7 82 b8
       -0.00013549329 8.501587e-05 -3.355236e-05 -6.2300496e-05
0000d0 1c c5 64 39 9e 1a 1d 39 0b 9a 77 b7 d2 9e 2a b8
       0.00021817203 0.00014982602 -1.4758213e-05 -4.067907e-05
0000e0 e6 4e 4d 39 65 29 1c b8 83 d9 da b8 a2 83 9f 36
       0.00019579715 -3.723185e-05 -0.00010435565 4.7538933e-06
0000f0 f5 46 7c b8 28 9e fd b5 41 b9 23 b8 c9 7e b0 38
       -6.0147566e-05 -1.8895998e-06 -3.903476e-05 8.4159496e-05

conv2.lin.weight f4 [64, 64]
000000 9d 81 1b 3c 37 c7 43 be 04 84 b3 bc 7e 39 ca 3d
       0.009491351 -0.19118963 -0.021913536 0.09874247
000010 a5 23 98 3d cd fa 00 3e ec 6d 09 3e 90 be 48 3d
       0.07428674 0.12595673 0.13420838 0.04900986
000020 94 06 96 3c 00 b3 51 3e b2 8b 1e be 9e 24 2c be
       0.018313684 0.2047844 -0.15482977 -0.16810843
000030 ed dd 30 be 19 8f b8 bc e4 3a 36 b8 3f 36 6d 3e
       -0.17272158 -0.022529172 -4.3447028e-05 0.23165224
000040 57 17 36 be d4 eb 4f bd 5a 99 99 3d 53 49 00 3e
       -0.17782341 -0.050762013 0.074999526 0.12527971
000050 4e 0d 66 3e 03 b8 bc bd 07 21 3c be dd 32 82 bd
       0.22466013 -0.09214785 -0.18371974 -0.06357358
000060 aa f0 ea 3d 36 95 14 3e f7 24 e8 3d 44 27 4b be
       0.11471684 0.14510044 0.113351755 -0.19839197
000070 09 5b d3 bd 26 9d 08 3e 3d c3 47 bd b5 c8 87 bd
       -0.10320098 0.13341197 -0.048770178 -0.06630079
000080 06 e4 fb 3d b0 e0 d3 bd 70 7c 6a 3d a5 70 bb bd
       0.122993514 -0.1034559 0.05724758 -0.091523446
000090 e5 ed 44 3c b6 c4 0c bc 2c 9a 15 3e 1e be c0 3d
       0.012019609 -0.008591821 0.14609593 0.09411262
0000a0 d3 ef 46 be 3d 96 a5 3d af 06 13 bc 50 0e 51 3d
       -0.19427423 0.08085296 -0.008973761 0.05103904
0000b0 83 c9 b1 3d db 7f 18 be b0 d5 01 3e 15 3f 4f 3d
       0.086810134 -0.14892523 0.12679172 0.05059727
0000c0 7a 32 7a 3d 80 93 f6 3d 11 a8 48 be af d5 f8 bd
       0.061083294 0.12039852 -0.19595362 -0.12150132
0000d0 94 3d 7e bd 07 8f 62 3d 4c 17 18 be 28 05 98 3c
       -0.062070444 0.055312183 -0.14852637 0.018557146
0000e0 70 55 09 bd 00 7c 2a 3e 15 76 d5 3d 0e 32 2b be
       -0.033528745 0.16648865 0.10422913 -0.16718313
0000f0 23 dd 71 3d b9 70 9b 3d f3 8e 65 3e c6 fe 0e 3e
       0.059048783 0.075898595 0.22417812 0.13964376
000100 d7 f4 05 3e f9 9a 5c 3e 5c 35 98 bd 21 72 3b 3e
       0.1308168 0.21543492 -0.074320525 0.18305255
000110 62 e8 00 be 5c ff 9f bd ec 83 12 3e 9c 15 92 bd
       -0.12588647 -0.07812378 0.14308137 -0.07133028
000120 70 99 01 be b5 7a 07 be e5 fd 50 3e cd 6c 23 3e
       -0.12656188 -0.13230403 0.20409353 0.15959473
000130 4a 68 31 3d 53 e4 6b be 97 22 4f 3e f5 65 45 be
       0.04331235 -0.23036318 0.20228039 -0.19277175
000140 79 13 8a 3b 59 61 1f be 51 1e b1 bb bd a3 e3 bd
       0.004213747 -0.15564479 -0.0054052253 -0.11115215
000150 b3 d2 01 be e3 95 04 3e 55 b5 26 be 60 92 c7 3d
       -0.12678032 0.12947802 -0.1628011 0.09744716
000160 7a 21 fb bd 56 3d c1 3d ba ea 83 bc 0a ee 86 3c
       -0.122622445 0.09435527 -0.016103137 0.016470928
000170 9a 93 1c 3d e6 0f 5b be 5e df 27 3d 49 72 d1 3d
       0.0382267 -0.21392784 0.040984504 0.10226876
000180 6d ed 19 3c 7c 01 91 3d d9 16 dd 3d eb 1d 48 be
       0.009394986 0.07080361 0.107953735 -0.19542663
000190 76 c2 13 be 22 28 75 bd 72 ef 61 3e 84 ff 86 bb
       -0.1442965 -0.059852727 0.22063997 -0.0041198153
0001a0 24 55 24 3e ed 99 53 3d 7a 49 ae bd 04 01 2b 3d
       0.16048104 0.051660467 -0.08510108 0.041749015
0001b0 f5 df eb 3c 56 c1 1d be f5 15 2e 3e 9a 88 b7 bd
       0.028793314 -0.15405783 0.17000563 -0.089616016
0001c0 67 8a 10 3e b4 2b 91 bd 54 b9 10 3d a2 2d 2b be
       0.14115296 -0.07088414 0.035332993 -0.16716626
0001d0 3c f3 08 bd 5c 9b 36 bc 6b df cf 3d 03 75 84 3b
       -0.03343509 -0.011145439 0.101500355 0.004042269
0001e0 d2 cb 0f 3e b5 cd 6a bd fc 33 59 bd 30 cc 35 3c
       0.14042595 -0.057325084 -0.05302809 0.011096045
0001f0 2c 80 df 3d 8d fd 1f bd 02 60 44 be c3 53 9b bd
       0.10913119 -0.039060164 -0.19177249 -0.07584336
000200 2f d5 3a 3c 65 bf 5a 3d 01 27 ec 3d 40 c0 8e 3d
       0.011403366 0.053405184 0.11530877 0.069702625
000210 bd a4 10 be 9d 37 e3 3d fe bd ce bd 13 fb 71 3c
       -0.14125343 0.11094592 -0.10094832 0.014769333
000220 d1 93 91 bd 55 dc a9 bd 59 8b 46 be a6 d8 23 be
       -0.07108272 -0.08293978 -0.19389094 -0.16000614
000230 a8 7c 65 3c 27 ca 63 3d 78 e7 12 bc fe fb 61 3e
       0.014006771 0.05561271 -0.008966319 0.22068784
000240 a2 2a 4f be aa 28 ae bd 87 8a 1e be b8 11 03 3e
       -0.20231107 -0.0850385 -0.15482531 0.12799728
000250 cf fa 2b bd 0f ef 44 be c1 de 42 3e c1 5c fe 3d
       -0.041987237 -0.19231819 0.19030286 0.12420035
000260 77 5f 0d 3e af 98 36 3e 83 42 24 3d 54 9c 32 be
       0.13805948 0.17831682 0.040102493 -0.17442447
000270 bc 83 0a be 94 6b 21 3d 7c 4f 33 3e ff d4 25 be
       -0.13526815 0.039409235 0.1751079 -0.16194533
000280 0a 0b a3 bd b3 ee 14 3d 47 39 58 be 70 30 48 3e
       -0.0796109 0.036360454 -0.211156 0.19549727
000290 84 40 c5 bc de 32 1a be b9 c4 f3 bd c6 26 b0 3d
       -0.024078615 -0.15058467 -0.11902756 0.086011454
0002a0 c3 30 62 3c 4a c3 21 3e 42 50 2f 3e f5 10 a0 bc
       0.013805571 0.15797153 0.1712046 -0.019539336
0002b0 2b 6a 68 3e 49 fb 92 3d 4c fa f6 3d 19 0b d3 3d
       0.2269675 0.07176835 0.12059459 0.10304851
0002c0 d4 60 61 bc 84 08 40 3e 0e 76 4b be ca 61 11 be
       -0.013755996 0.18753248 -0.19869253 -0.1419746
0002d0 80 69 2f be 77 91 0c 3d 32 4b 39 be 71 7d 59 3e
       -0.17130089 0.034318414 -0.18095091 0.21239258
0002e0 ed cb 41 bd bb a8 f4 3d f3 7a d0 3d ab 6a f9 3d
       -0.04731362 0.11946245 0.10179701 0.121785484
0002f0 c9 c8 f3 bd f2 e8 e9 bb 3a be 5a 3e 9e ca 82 bd
       -0.11903531 -0.007138365 0.21361628 -0.063863024
000300 b2 12 2d be 37 3f a0 bc 1a e2 11 be 84 bd 64 be
       -0.16901663 -0.019561393 -0.14246407 -0.2233792
000310 0f f1 e3 3d 82 6d a8 3d c6 9c 52 3e f2 da 62 3e
       0.11129963 0.08224012 0.20567617 0.22153834
000320 83 2e d8 bc 4a 12 c3 3c 7a 43 73 bd 36 24 09 3e
       -0.026389366 0.023812432 -0.059390523 0.1339272
000330 bc 5c 0c bd 48 ba c1 bd c4 0a 40 be a5 93 39 3e
       -0.034268126 -0.094593585 -0.18754107 0.18122728
000340 65 89 a8 bc 2c b4 2d 3e 80 be ac bd d5 7f 02 3e
       -0.020573327 0.16963261 -0.084347725 0.12744077
000350 f6 b1 76 bd d5 3a 51 3d f2 23 b1 3d 79 d6 89 3d
       -0.06022831 0.051081497 0.08649434 0.067303605
000360 7f dc 20 bd 48 3c c9 3d 63 e3 1e 3e 66 fe 10 3e
       -0.03927278 0.09825951 0.15516429 0.14159545
000370 38 fb 34 3e c9 b3 0b be 93 e5 be bd f8 4b 49 be
       0.17673957 -0.13642801 -0.093211316 -0.19657886
000380 97 f8 a0 3d 13 30 00 3e e7 4c 97 3d 6b 34 a9 bb
       0.07859915 0.12518339 0.07387715 -0.0051637194
000390 9d 48 02 3d 16 a9 55 be 38 4e 1c 3e 34 31 0e 3e
       0.03180753 -0.20865282 0.15264213 0.13885957
0003a0 bc ed 2e 3e 1b d9 dd 3d 06 a5 ba bd f8 71 6b 3d
       0.17082876 0.10832425 -0.09113507 0.057481736
0003b0 38 b7 d5 3d b0 c5 da ba 47 e5 5c be 89 d2 26 be
       0.10435337 -0.0016690996 -0.21571837 -0.1629125
0003c0 da 9e 67 3d b0 fb 61 3d 56 84 5d bd f1 28 f0 3d
       0.056547977 0.05517167 -0.054081284 0.11726559
0003d0 3a 88 5b be 55 c2 53 3e 51 ad 31 3e 8f 9c 32 3e
       -0.21438685 0.206796 0.17351271 0.17442535
0003e0 06 b6 a0 bd 1e 6e 5f bc f7 f7 b5 3d 32 ff 3d 3e
       -0.07847218 -0.013637094 0.08885186 0.1855438
0003f0 9f 4e 16 3e 6f ce 4d 3e 04 0e 53 be 92 7c 59 3b
       0.14678429 0.2009828 -0.20610815 0.0033185822

bn1.weight f4 [64]
000000 6f eb 81 3f 9a b2 80 3f 13 25 80 3f e5 28 80 3f
       1.0149974 1.0054505 1.0011314 1.001248
000010 d4 be 80 3f 28 6c 7f 3f da d8 7b 3f 35 a9 7c 3f
       1.0058236 0.9977441 0.98377764 0.9869569
000020 c1 a4 7b 3f ca 71 7b 3f cb 86 7a 3f e3 2b 7d 3f
       0.9829827 0.98220503 0.9786193 0.9889509
000030 8f 11 7c 3f 97 a8 82 3f e2 a3 7c 3f 49 7c 80 3f
       0.9846429 1.02077 0.98687565 1.0037929
000040 57 40 82 3f b9 ed 7b 3f 86 6e 7b 3f 51 d1 7b 3f
       1.0175885 0.9840961 0.9821552 0.98366266
000050 55 da 7c 3f 55 54 82 3f 5f 71 7c 3f 79 50 7b 3f
       0.9877065 1.0181986 0.9861049 0.98169667
000060 e8 58 82 3f dc b2 81 3f 11 3c 7b 3f 05 29 7b 3f
       1.0183382 1.0132709 0.9813853 0.98109466
000070 7d c2 7b 3f 3f a8 80 3f 8a 62 82 3f 71 41 7b 3f
       0.9834364 1.0051345 1.0186322 0.9814673
000080 14 33 7b 3f 9f ae 7b 3f 30 4c 80 3f 79 1c 82 3f
       0.98124814 0.98313326 1.002325 1.0164939
000090 ba e6 81 3f d9 5f 82 3f 2e 79 7d 3f b2 be 81 3f
       1.0148537 1.01855 0.9901303 1.013632
0000a0 dc 96 7e 3f dc 62 7d 3f 9e 56 82 3f 1f 9f 80 3f
       0.99448943 0.9897897 1.0182683 1.004856
0000b0 77 4a 7b 3f 39 7e 7a 3f 22 80 81 3f 07 c9 81 3f
       0.981605 0.9784885 1.0117228 1.0139474
0000c0 9b 6d 7f 3f d1 cf 7c 3f 9c 4f 80 3f 80 9a 82 3f
       0.9977662 0.987546 1.0024295 1.02034
0000d0 db b2 7a 3f ba 9d 82 3f 0a 62 80 3f 9b 46 81 3f
       0.9792916 1.0204384 1.0029919 1.0099672
0000e0 1b 39 7b 3f 06 b7 81 3f 93 2d 82 3f 82 59 81 3f
       0.9813401 1.0133979 1.0170158 1.0105441
0000f0 2e 2c 7c 3f 0e bf 82 3f b2 d5 7d 3f 9a 12 82 3f
       0.9850491 1.0214555 0.991542 1.0161927

bn1.bias f4 [64]
000000 e8 60 86 3c d8 c8 8a 3b 74 65 99 3b b9 0e 13 3c
       0.01640363 0.004235368 0.0046812836 0.008975678
000010 3a c1 04 3b 60 47 d0 ba c5 09 65 bc 20 1f 48 bc
       0.0020256774 -0.0015890412 -0.01397938 -0.012214452
000020 d1 bd 82 bc a8 fc 6a bc f4 71 a2 bc f6 2a de 39
       -0.015959652 -0.0143424645 -0.019829728 0.00042375148
000030 12 cb 9d bb 4d 9d a3 3c 93 4a 6c bc 92 2f b4 39
       -0.0048154676 0.019972468 -0.014422077 0.00034367718
000040 12 9c 96 3c 25 2f 83 bc ba a6 63 bc 15 94 db bb
       0.018384967 -0.016013691 -0.013894731 -0.0067010024
000050 f7 87 36 bc e0 33 99 3c 35 5f 2b bc 15 e5 87 bc
       -0.011140815 0.018701494 -0.010459711 -0.016588727
000060 fe 58 9a 3c 18 02 5d 3c 00 bf 88 bc 9e d6 93 bc
       0.018841263 0.013489269 -0.016692638 -0.018046673
000070 4d 45 22 bc 43 91 1d 3c 0b 4a 98 3c 17 ed 2a bc
       -0.009904218 0.009617153 0.018589994 -0.010432503
000080 bb db 90 bc aa 0b 7a bc 0c c3 e2 3b f1 7d 66 3c
       -0.0176829 -0.01526157 0.006920224 0.014068113
000090 c4 83 36 3c da 17 96 3c 19 f6 ef 3a ef f4 78 3c
       0.011139814 0.01832192 0.0018307596 0.0151951155
0000a0 97 6f 96 3b cf c9 d9 bb ab 4d 9e 3c 91 24 b4 3b
       0.0045909393 -0.006646372 0.019324144 0.005497523
0000b0 d7 26 8f bc c4 e6 aa bc bd 30 83 3c 26 1d 69 3c
       -0.017474575 -0.02086199 0.016014451 0.014228141
0000c0 20 03 22 bc 17 4f 9e bb 63 e0 d5 3b b7 ee 9d 3c
       -0.00988844 -0.0048312056 0.006526993 0.019278867
0000d0 8c d1 9c bc cd 77 a4 3c 32 63 bc 3b cb 08 60 3c
       -0.019142888 0.020076657 0.0057491297 0.013673971
0000e0 a5 79 8b bc 59 7b 5a 3c 00 78 93 3c 56 d1 42 3c
       -0.017025778 0.013335072 0.018001556 0.01189073
0000f0 eb 8f 2b bc 2c e5 ad 3c 68 e4 4b bb 15 fb 83 3c
       -0.010471324 0.021227442 -0.0031111483 0.016110936

bn1.running_mean f4 [64]
000000 00 c0 de 3e f8 73 8f bf dd 48 81 bf 87 65 93 bf
       0.4350586 -1.1207266 -1.0100361 -1.1515359
000010 e2 db 74 be 70 7f 1c be 4c 61 11 bc 82 b7 8f be
       -0.23912004 -0.15282989 -0.008873295 -0.28069693
000020 b3 c6 10 3f 74 c2 b2 3f 23 b6 b1 bf 94 44 9e bf
       0.5655319 1.3965592 -1.3883709 -1.2364678
000030 e5 ae 0e 3f 6b ae 47 3f 67 57 0d 40 fe d2 4c bf
       0.5573562 0.78000516 2.2084596 -0.8000945
000040 2e a7 af 3f 2a 6e 71 3f 2b 4c 61 3e bb 91 9e 3f
       1.3722894 0.9430872 0.22001712 1.2388223
000050 9e 9d a4 bf 83 78 d9 3e 57 b3 4e 3f a9 d5 57 3c
       -1.2860601 0.42474756 0.807424 0.013173499
000060 38 4e 20 3f 60 40 3d bf a9 0b a6 3b 82 04 f8 3d
       0.6261935 -0.73926353 0.005067308 0.12110235
000070 04 27 3b be f4 a5 f5 3c 0d f2 b3 bf 9c 96 a7 3d
       -0.18276602 0.02998636 -1.4058243 0.08183023
000080 bc d7 08 3f 9a 63 b1 bc 38 31 6c be 4b ff c2 bf
       0.53454185 -0.021653939 -0.2306565 -1.5234159
000090 ae 7b 9f 3e f9 9c ba bf 3c ab 73 3e 93 7f a2 bb
       0.31149048 -1.4579154 0.2379579 -0.0049590557
0000a0 70 ee 7e bf 4f b4 29 3e fc 0f 6e bf 9a 2f 76 3e
       -0.99582577 0.16572689 -0.9299314 0.24041596
0000b0 1c be 03 c0 89 c0 c4 3e 5c 8c 7d bd cb f3 c9 3f
       -2.0584784 0.38428143 -0.061901435 1.5777525
0000c0 1d 73 52 3f ab 31 c1 bc 6a 1f ec 3f 20 20 a9 3f
       0.822069 -0.023583254 1.8447087 1.3212929
0000d0 2b 67 05 c0 8e 55 fb bd a3 8c 43 bf 11 8e b8 bf
       -2.0844219 -0.12272178 -0.7638647 -1.4418355
0000e0 a0 5d f6 3f 66 e1 9b 3d 0a d8 51 3f 34 b3 fb 3b
       1.9247322 0.07611351 0.81970274 0.007681275
0000f0 e9 d0 87 bf d1 f7 35 3f b7 92 95 bf 50 22 37 3f
       -1.0610629 0.7108126 -1.1685399 0.7153673

bn1.running_var f4 [64]
000000 38 b0 10 3f d1 d1 01 3e 92 ff bb 3e a5 d0 8d 3e
       0.5651889 0.12677695 0.36718422 0.27698246
000010 ff 88 91 3e 52 81 a2 3e 0d af ca 3e e9 a9 aa 3e
       0.28424832 0.3173929 0.39586678 0.33332756
000020 55 75 7f 3e e4 87 93 3e 8d ff 87 3e 1c 0c a5 3e
       0.24947102 0.28814614 0.26562157 0.322358
000030 22 38 ed 3e bd 8f c3 3e 3a 59 e5 3e 12 c0 a0 3e
       0.46331888 0.381956 0.44794637 0.31396538
000040 31 67 b2 3e aa a7 93 3e 38 f6 5b 3e 0d 57 a7 3e
       0.34844354 0.28838855 0.21480644 0.32683602
000050 4c 04 84 3e fb d0 c6 3e 87 b7 53 3e 84 94 cb 3e
       0.25784528 0.38831314 0.20675479 0.39761746
000060 80 3b 68 3e 71 fd 1f 3e d2 7c 66 3e 0b b7 d0 3e
       0.22678947 0.15624024 0.22508553 0.4076465
000070 9c 2d 48 3e e1 33 ab 3e ca 63 cf 3e dc 9e e6 3e
       0.19548649 0.33438018 0.4050582 0.45043075
000080 c9 78 95 3e 86 f5 af 3e 22 06 81 3e 1b ab ad 3e
       0.29193714 0.34367007 0.2519999 0.33919606
000090 78 bb a8 3e f1 5f b0 3e b5 b6 9c 3e c6 16 f9 3e
       0.32955527 0.34448197 0.30608144 0.48650187
0000a0 4a a3 ac 3e e1 fc a3 3e 13 2d 6c 3f 48 62 76 3e
       0.3371833 0.3202887 0.9225628 0.24060929
0000b0 c1 6b ca 3e ad fe ca 3e 3e fb 91 3e 96 23 a7 3e
       0.39535335 0.39647427 0.28511995 0.32644337
0000c0 89 82 d3 3e 5f 69 04 3f b9 89 a3 3e 0d 48 af 3e
       0.41310528 0.51723284 0.31941012 0.34234658
0000d0 33 c5 91 3e 1f 52 45 3e 17 17 0e 3f 8b 5b 07 3f
       0.28470764 0.19269608 0.5550398 0.5287406
0000e0 12 ab 9a 3e 66 c9 b5 3e 34 c3 c2 3e cd 75 93 3e
       0.3020864 0.35505217 0.38039553 0.28800812
0000f0 dc 4f 6b 3e 72 64 fe 3e 0e ee 14 3f eb 2b ad 3e
       0.22979683 0.4968601 0.5817574 0.3382257

bn2.weight f4 [64]
000000 fc b1 7a 3f a1 54 82 3f a9 6f 7b 3f a3 b1 82 3f
       0.9792783 1.0182077 0.98217255 1.021046
000010 0b 43 7a 3f 96 9d 82 3f c1 d2 7a 3f 02 b2 7a 3f
       0.9775855 1.0204341 0.97977835 0.9792787
000020 4e 78 81 3f b7 6a 7d 3f cf 3d 7a 3f 74 8e 7a 3f
       1.0114839 0.9899096 0.9775056 0.97873616
000030 d3 01 7b 3f 60 2e 82 3f 12 02 7b 3f ef b9 82 3f
       0.9804966 1.0170403 0.98050034 1.0212992
000040 f3 75 82 3f 15 94 82 3f 22 3e 80 3f cb 0d 82 3f
       1.0192245 1.0201441 1.0018961 1.0160459
000050 80 72 82 3f 28 b2 80 3f ac cb 82 3f cc 46 7b 3f
       1.0191193 1.0054369 1.0218406 0.981549
000060 81 b2 7a 3f 02 16 7b 3f c5 38 82 3f e8 0d 83 3f
       0.97928625 0.98080456 1.0173575 1.0238619
000070 3f 2d 7a 3f d2 60 7b 3f cb e1 81 3f ba 68 7a 3f
       0.9772529 0.9819461 1.0147032 0.9781605
000080 49 58 7b 3f ba 4b 7a 3f 1a 5a 82 3f 23 7d 82 3f
       0.9818159 0.977718 1.0183747 1.0194439
000090 fb a2 7a 3f 1f f3 7a 3f d5 63 82 3f fb 60 7b 3f
       0.9790494 0.98027223 1.0186716 0.98194855
0000a0 ef 79 7a 3f 29 2e 7f 3f 94 6a 82 3f 18 3c 81 3f
       0.97842306 0.9967981 1.0188775 1.0096464
0000b0 9d a9 7b 3f 6e ae 82 3f 8c 97 7a 3f e1 7b 7a 3f
       0.98305684 1.0209482 0.9788749 0.97845274
0000c0 10 4b 82 3f fb 26 80 3f 4e 67 7d 3f 21 94 82 3f
       1.0179157 1.0011896 0.98985755 1.0201455
0000d0 24 5d 82 3f 6b 52 82 3f 64 a6 82 3f 1c 84 7b 3f
       1.0184674 1.0181402 1.0207028 0.9824846
0000e0 5c 52 82 3f 9c df 7a 3f a7 e9 82 3f c4 81 80 3f
       1.0181384 0.9799745 1.0227555 1.0039601
0000f0 a2 71 80 3f 2b cf 7b 3f e2 9c 81 3f bf 44 82 3f
       1.0034678 0.9836299 1.0126002 1.017723

bn2.bias f4 [64]
000000 81 bc a4 bc 51 fe 96 3c b7 0a 88 bc 07 79 0c 3c
       -0.020109417 0.018431814 -0.016606672 0.008573777
000010 fd 6b ad bc 0d ba ac 3c 73 4f a1 bc 7f 04 8d bc
       -0.021169657 0.02108481 -0.019691205 -0.017214058
000020 bc 95 4b 3c 1a 0e 94 bc 1d 12 a6 bc 85 ee aa bc
       0.012425836 -0.01807313 -0.020272309 -0.020865688
000030 26 35 94 bc 58 38 7e 3c b9 04 9d bc 66 55 2c bc
       -0.01809175 0.015516363 -0.019167291 -0.010518407
000040 63 d3 38 3c 23 8b 1d bb 39 06 6a bc 00 b4 3b bc
       0.011280867 -0.002403923 -0.01428371 -0.01145649
000050 45 07 a6 3c 3a 22 b1 bc 3c 88 3c 3c 86 e8 a6 bc
       0.020267138 -0.021622766 0.01150709 -0.020374548
000060 af 75 9b bc 53 c9 96 bc 67 29 22 bc 5d f1 6d 3c
       -0.018977014 -0.018406546 -0.009897566 0.0145228775
000070 d3 a3 ae bc ec bf 8a bc 24 41 9a bc 6b bd a9 bc
       -0.021318352 -0.016937219 -0.01882989 -0.020720204
000080 3d bb 94 bc b1 79 a6 bc 17 a0 80 3c 14 f0 e6 3b
       -0.018155688 -0.020321699 0.015701337 0.0070476625
000090 f6 2d 9d bc 57 24 9f bc 54 81 96 3c 3c 85 95 bc
       -0.019186955 -0.019426508 0.018372215 -0.018252008
0000a0 df bd aa bc 0f 07 aa bc a0 37 a1 3c 48 23 3e bc
       -0.02084249 -0.020755319 0.019679844 -0.011605091
0000b0 48 f2 8f bc d4 25 b3 3c 47 e8 a8 bc fe 1c a6 bc
       -0.017571583 0.021868624 -0.020618571 -0.020277496
0000c0 d9 4c 66 3c ba 6c b9 bb 9a bc 86 bc fa c6 b5 3c
       0.014056408 -0.005658713 -0.016447354 0.022189606
0000d0 55 21 9b 3c e7 e9 a0 3c 9b 65 b9 3c f3 fe 95 bc
       0.018936792 0.019642783 0.022631457 -0.018310046
0000e0 99 bd a2 3c 12 d6 9f bc 75 42 1f 3c 3a 3f 83 3c
       0.019865798 -0.019511256 0.009720434 0.01602136
0000f0 43 da a0 bc 2a 6e 93 bc ad 1f 94 bc 84 3f 68 bc
       -0.019635325 -0.017996866 -0.01808151 -0.0141753

bn2.running_mean f4 [64]
000000 26 60 98 3e 81 5e a7 bd 2b 49 39 3e d2 9b 25 3f
       0.29760855 -0.08172322 0.18094318 0.6469089
000010 bd b4 80 3d 67 d5 25 be 33 04 bd be a6 fa 7f 3e
       0.06284473 -0.16194688 -0.36917266 0.24997959
000020 6b 89 1c bf b1 a8 ed 3e 0f 7d 54 be ab 84 35 be
       -0.61147183 0.46417764 -0.20750831 -0.1772639
000030 94 1e 29 3f e6 f0 32 3f 49 ee 6e 3e 02 df ad be
       0.66062284 0.6989883 0.23333086 -0.33959204
000040 85 5f 22 3f 74 b2 8a 3e 51 62 d9 3e aa b1 7a 3e
       0.63427 0.27089274 0.42457822 0.24481836
000050 2b 50 a9 3e b0 69 98 3d e9 bc cb bc 01 e6 16 bf
       0.33068976 0.07442033 -0.024870353 -0.5894471
000060 fc 72 b5 bd 8c 6b e4 3e d0 98 fa 3e eb fb f2 3e
       -0.08859822 0.44613302 0.48944712 0.47457823
000070 8a 73 48 be 52 ab 89 3e be 9b a2 be c4 7e 30 3f
       -0.19575325 0.2688852 -0.31759447 0.6894343
000080 d6 8a 57 bc b9 de 73 be a8 5a b9 3e 9a e8 a0 3e
       -0.01315566 -0.2381543 0.36201978 0.3142746
000090 d7 fc e8 3e f6 50 15 3e 0b 1f eb 3e d4 64 f1 3e
       0.45505401 0.14581665 0.4592212 0.47147238
0000a0 22 d7 08 3f 3c a4 0b 3f 2f 39 03 3e 13 84 1a 3e
       0.53453267 0.54547477 0.12814783 0.15089445
0000b0 ec 56 8f 3e c7 08 e6 bd c3 90 35 3d 11 83 7b 3e
       0.27996004 -0.11232143 0.04432751 0.24561717
0000c0 84 08 5b be e2 cf 30 3f be b5 93 3d bb 70 0e be
       -0.21389967 0.69067204 0.07212399 -0.13910191
0000d0 2d f4 12 bf b4 5a 17 be ae c6 26 be 4a cf be be
       -0.5740383 -0.14780694 -0.16286728 -0.37267524
0000e0 34 21 79 3e 91 0f 87 3e d9 37 b5 3d b9 0b f9 bd
       0.24329072 0.26379064 0.08848543 -0.12160439
0000f0 14 22 31 bf c6 2c 1c be cd 19 4d 3d ee 41 0d 3e
       -0.69192624 -0.15251455 0.050073434 0.13794681

bn2.running_var f4 [64]
000000 14 8d ec 3d 9b 23 42 3e 12 51 7f 3e fe 56 d0 3e
       0.11550346 0.18958895 0.2493327 0.4069137
000010 46 69 15 3e 63 76 55 3e 0f 18 48 3e 4d 20 54 3e
       0.1459094 0.20845942 0.19540428 0.20715447
000020 bd c0 12 3f 01 69 65 3e 72 25 05 3e 63 f3 53 3e
       0.57325345 0.22403337 0.13002566 0.20698313
000030 7f 9e 09 3e 30 5f 6b 3e b9 70 5e 3e ff fa c0 3e
       0.13439368 0.2298553 0.21722688 0.37691495
000040 6b aa 5d 3e 4b db 45 3e 6d 27 4d 3e 7a 33 16 3e
       0.2164704 0.19321935 0.20034571 0.14668074
000050 f5 66 2b 3e 4b 6e 32 3e a9 bb 58 3e cd e0 54 3e
       0.16738494 0.17424886 0.21165337 0.2078888
000060 f1 90 65 3e 92 2e 1d 3e d7 51 95 3e 42 40 87 3e
       0.22418572 0.15349796 0.29164 0.26416212
000070 2e ff 68 3e 58 63 93 3e a2 e4 2f 3e 0d ab 83 3e
       0.22753593 0.2878673 0.1717706 0.2571644
000080 e7 a9 21 3e 0c 6c e3 3d 29 43 ed 3d 45 2f 2a 3e
       0.15787469 0.11104593 0.115850754 0.16619594
000090 70 74 65 3e 35 66 d1 3d 70 ea 1e 3e b0 01 25 3e
       0.22407699 0.102245726 0.15519118 0.16113925
0000a0 fa a2 7c 3e 66 80 05 3e 73 8f 65 3e 0c 5d 11 3e
       0.24671546 0.13037261 0.22418003 0.14195651
0000b0 94 34 40 3e 01 ab 3d 3e b7 73 30 3e 61 59 67 3e
       0.18770057 0.18522264 0.17231642 0.22592689
0000c0 c4 9f 4b 3e 7c 18 3a 3e b8 38 8a 3e 84 2b 95 3e
       0.19885164 0.18173403 0.26996398 0.29134762
0000d0 af 20 c7 3e 09 4e 53 3e 59 44 70 3e 6e d4 2c 3e
       0.38892123 0.20635237 0.23463573 0.1687791
0000e0 a0 f3 14 3e 73 88 38 3e 24 87 98 3e 1f 8b 20 3e
       0.1454606 0.18020801 0.29790604 0.1567807
0000f0 a8 16 62 3e d5 7d 98 3e 88 ae 63 3e 96 f3 65 3e
       0.22078955 0.29783502 0.22234547 0.22456202

classifier.weight f4 [10, 64]
000000 e9 6b 74 3d fc fb 8d 3d f1 9a 81 3d 0f 71 a8 3d
       0.059673224 0.06932828 0.06328381 0.08224689
000010 1a a9 b3 3d 4d d1 9b bd 08 c0 06 be bd f7 95 bd
       0.08772488 -0.0760828 -0.13159192 -0.07322643
000020 4c c6 0b 3e e0 fb d9 3c 88 1a 0e bd 77 b5 8d 3d
       0.13649863 0.026609361 -0.03469327 0.06919377
000030 f7 3f aa bd dc 50 8f 3d 73 04 d4 3d 27 e4 46 bd
       -0.083129816 0.069978446 0.10352411 -0.048557427
000040 39 5b 18 3d 4a ff d1 bd 58 6c e0 3d 91 49 ae bd
       0.03719637 -0.10253771 0.10958165 -0.085101254
000050 c0 07 95 bd c3 f2 b5 3b 0a 9e d9 bd cf f7 00 bd
       -0.07276869 0.005552621 -0.10625847 -0.03148633
000060 cd 6e 07 be b9 f8 f4 bd fa dd f5 3d 84 ad 27 bc
       -0.13225861 -0.119615026 0.12005229 -0.01023424
000070 fe ba 18 3d 38 0b 07 be e4 18 b2 3d a7 8a ca bd
       0.037287705 -0.13187873 0.08696154 -0.09889727
000080 7f a1 ae bd a2 3c 4d 3d 16 fa c8 bd a6 89 67 bd
       -0.08526897 0.050106652 -0.09813325 -0.056527756
000090 0e fa e5 bd da 8d b3 3d f6 c8 0d 3e eb 03 ef bd
       -0.11229335 0.087672904 0.13846192 -0.11670669
0000a0 93 fe 3e bd c7 48 f9 bd c8 39 94 bc d5 0e dc 3c
       -0.0466295 -0.12172084 -0.018093958 0.026862541
0000b0 c4 11 93 3d 26 d5 c9 3b 46 50 05 bd 89 4f e1 3d
       0.07181123 0.0061594425 -0.032547258 0.11001498
0000c0 73 08 24 3d 4f aa 7b bc da d3 9f 3c de 12 8d bd
       0.04004712 -0.015360429 0.019510198 -0.06888364
0000d0 a1 6e 34 bd ca 7d b2 bd f5 7d 1c bd c0 5e a8 3d
       -0.044050816 -0.087153986 -0.03820606 0.08221197
0000e0 da 5c b5 bd eb d4 97 bc d0 76 d3 bd 57 1f 90 3d
       -0.08855601 -0.018534144 -0.10325396 0.070372276
0000f0 42 1b 90 3d 33 96 37 bc c9 12 a6 bd 35 0f 9f bd
       0.07036449 -0.011205244 -0.08109052 -0.077665724
000100 50 5c 55 3c 63 7e 54 bd 34 78 ef bd ae 15 a2 bd
       0.013022497 -0.051878344 -0.11692849 -0.07914291
000110 4b 80 12 3e 14 97 0a 3e c7 30 f7 bd 48 f4 b5 3a
       0.14306752 0.13534194 -0.120698504 0.0013882006
000120 0a 59 6f 3d 70 3c c3 3d 56 4d d9 3d 92 e7 48 3d
       0.058434524 0.09533012 0.10610454 0.049048968
000130 bd c3 c1 3d 08 1c 8b bd e8 0e 41 bd 53 63 64 3c
       0.09461162 -0.06792456 -0.047133356 0.013939696
000140 25 1b ef 3c 7c 58 ce bd 8e 5e 82 3d 78 ef 7e bc
       0.029187748 -0.10075471 0.06365691 -0.0155600235
000150 0b 66 a2 3d 29 5f 35 3d 07 f6 d5 bd a2 df cc 3d
       0.079296194 0.044280205 -0.104473166 0.10003592
000160 4b a9 9a 3d f2 2d c0 3d f2 7d ad bc f4 13 36 bb
       0.07551821 0.093837634 -0.02117822 -0.002778289
000170 d9 84 15 3e da b1 50 3d 6f 43 dc bc 32 cd b2 bd
       0.14601459 0.050950862 -0.026887624 -0.08730544
000180 25 7d 3d bd 8e 7e 7b bd 46 16 7a bd f9 e9 b1 3d
       -0.046261925 -0.06139999 -0.061056398 0.08687205
000190 9c 80 50 3d 9a b8 af bb f9 3d 3c 3d 89 75 e1 bd
       0.0509039 -0.0053625824 0.04595754 -0.11008746
0001a0 c0 64 91 bd 5c 9e 2c bd c6 8c c3 bd 21 10 98 3d
       -0.07099295 -0.04214321 -0.09548335 0.07424951
0001b0 36 29 47 bb 3d eb 09 3d e5 95 51 bd 91 05 bc 3c
       -0.0030389554 0.033671606 -0.05116834 0.022951873
0001c0 42 a8 5d 3d cf 2f 8b bd 47 4e 99 bd d3 41 97 bd
       0.05411554 -0.06796228 -0.07485633 -0.07385602
0001d0 e4 1e b7 bd de b3 97 3b db 61 75 3d 8c c8 b6 3d
       -0.08941439 0.004629596 0.059907775 0.0892497
0001e0 49 1c 1f bd 97 f3 00 3e 7e 73 91 3c c7 fc 96 3c
       -0.038845334 0.12592922 0.017755266 0.01843108
0001f0 6b 06 3f 3d 4c d9 30 3d 0e 59 f2 bc a4 e0 32 3d
       0.04663698 0.04317598 -0.02958348 0.043671265
000200 59 ff 15 bc 00 fe ad 3d 46 92 e0 3d 73 ff 46 bc
       -0.009155118 0.08495712 0.109653994 -0.012145865
000210 42 0f 65 bd a8 d5 8f bc 17 81 88 bd d1 ef f2 bd
       -0.055922754 -0.017557934 -0.06665247 -0.118621476
000220 d1 98 64 3d 25 ff 36 3d bd 28 fa 3c f4 e8 e6 bd
       0.0558098 0.04467692 0.030537004 -0.11274901
000230 1e a6 c0 bd 44 0d bb bd 22 fb d3 b9 f6 70 1c bd
       -0.09406684 -0.091333896 -0.00040432165 -0.038193665
000240 cd 4a a3 3c 68 ca 7c 3d da 9d 01 3e 15 3a d7 3d
       0.019933129 0.061716467 0.12657872 0.10509125
000250 40 83 ad bd 13 ca 7e 3d bf f7 80 bd 0c 2c 43 bd
       -0.084722996 0.06220443 -0.06297254 -0.04764943
000260 a4 68 bd 3d 9b 7f e0 3c d9 b2 4e 3d c1 7f ae bc
       0.09248474 0.027404597 0.05046353 -0.021301152
000270 e3 c9 fb bd 3d 74 b1 bd dc 0f c7 3d a4 fa a1 bd
       -0.12294366 -0.08664749 0.09719822 -0.07909134
000280 0d c8 ac bd cc 93 27 3d a3 3d d5 bd 1d 0c 8d bd
       -0.08436594 0.040912434 -0.10412147 -0.06887076
000290 08 c7 92 3d e7 ed d0 3d cc eb e5 bd b0 bd 8f bd
       0.071668684 0.10201626 -0.11226615 -0.07018602
0002a0 c5 7d 9f bd 8e 78 a3 3c 4b c2 ca bd ed 5e aa 3d
       -0.077876605 0.019954946 -0.0990034 0.08318887
0002b0 19 fc f8 3d cd 17 61 3d 59 e3 73 3d 97 8f 5f bd
       0.12157459 0.05495434 0.059542987 -0.054580297
0002c0 9b f5 59 bd ca c2 3f 3d 35 62 e2 3d 1c 82 e6 bd
       -0.053212743 0.046816625 0.11053888 -0.11255285
0002d0 e8 c5 29 bd 57 f1 08 3e 29 ec d3 3d 68 68 1a 3c
       -0.041448504 0.13373314 0.10347778 0.009424306
0002e0 a0 00 38 bd 3e 57 bc bd 48 a6 b8 bd 0a 7e d6 bd
       -0.04492247 -0.091963276 -0.09016091 -0.10473259
0002f0 f5 d7 98 bd 9c 74 77 3d 3b 26 c5 bd a9 00 e0 ba
       -0.074630655 0.06041394 -0.096264325 -0.001709004
000300 07 38 ce bd 14 6b d5 bc fc b5 7f ba f8 fd d5 3d
       -0.1006928 -0.026052035 -0.0009754596 0.10448831
000310 c5 87 d3 3c 9a 2e 83 3d ec 6c e5 bd 70 2e d6 3d
       0.025821576 0.06405373 -0.11202416 0.10458076
000320 f7 71 b3 3c 8f 4f bc bb b9 12 bf 3d cf 58 15 bd
       0.021904929 -0.005746789 0.09329743 -0.036461648
000330 5b 0c cb 3d c4 d1 19 3d b2 bf b9 bd e1 a0 5e 3d
       0.09914466 0.037553564 -0.09069766 0.054352645
000340 85 36 48 3d d1 14 c9 bc 7b 5e 80 bd 19 e6 85 bc
       0.04888012 -0.024546059 -0.06268021 -0.01634507
000350 42 e4 7b 3d bd 39 8f 3d 4a ee 42 bc b2 78 87 bc
       0.06149698 0.069934346 -0.011897633 -0.016537044
000360 4c 1d 7d bd 50 ec 46 3a a9 61 89 bc f8 72 e6 3d
       -0.061795518 0.0007588314 -0.0167702 0.11252397
000370 b4 3e db bd 08 3a 99 3c cf dd b3 bd c8 52 1f 3d
       -0.10705319 0.01870443 -0.08782541 0.038897306
000380 e9 cb 4a 3d ec e6 88 bd 7f 7c bc 3d 99 d9 a4 bd
       0.04951087 -0.0668467 0.09203433 -0.08049316
000390 3f 53 b1 3d af 4f 1c 3c 4b 8f 99 bc d8 95 c6 bc
       0.08658456 0.009540482 -0.018745085 -0.024241373
0003a0 91 6a 04 3e 8b 05 b6 3c a5 17 0c bb d4 26 67 3d
       0.12931277 0.02221944 -0.0021376398 0.056433514
0003b0 f5 fa b1 bd cf 05 eb 3d 0b d4 d5 bd de 63 b7 3d
       -0.086904444 0.11475717 -0.104408346 0.08954595
0003c0 3a 7d 1e bd 23 6a a4 bd b5 44 7f 3c fe 17 d0 bd
       -0.038693644 -0.080280565 0.015580346 -0.10160826
0003d0 45 27 c0 3d 39 8c f8 3d cc 1e 98 bd bd 70 01 bd
       0.0938249 0.1213612 -0.07427749 -0.031601656
0003e0 ef ba 16 3c df 93 3b bc 7f e3 e6 3d 86 e9 18 3d
       0.009199842 -0.011448829 0.1127386 0.03733208
0003f0 11 8f fa bd 05 9f 4b 3d fa c1 b6 bd f1 9a f6 bb
       -0.12234319 0.0497122 -0.08923717 -0.0075257947

classifier.bias f4 [10]
000000 6f 83 72 3d de d1 fc 3c 89 8b 35 3d 71 45 c9 3d
       0.059207376 0.030861791 0.044322524 0.09827698
000010 74 75 59 bc f3 07 d4 3c a6 2d 5f bd ce e3 1c 3d
       -0.013272632 0.025882697 -0.054486893 0.03830319
000020 5c 3c 4e bd 5a ea ec 3c
       -0.050350532 0.028920341
