checkpoints/checkpoint_epoch_55.pt (torch, 547720 bytes, 37 tensors)

prototypes f4 [100, 64]
00000000: ddaf 0c3e 5969 8bbe bc96 d7bd e0c0 0d40
00000010: 1965 21bf 33e0 343f 1ed1 4e3e 7ab3 5fbf
00000020: dcf7 923d 70c2 3c40 4c48 81bf 733e 76bf
00000030: fe4c 0fbf 1f3e 83bf 1385 29bf 9da3 d43f
00000040: 0443 3fbf 7aa9 cb3e 5c82 7b3f 2ff9 c53f
00000050: a7f4 0bc0 2127 44be 3200 dbbe b7f7 103e
00000060: 2107 893e e42b 863e 1b2a 6d3e 14c8 423f
00000070: 4d37 febe f2d2 143f 0ddf cdbe 68a4 973e
00000080: ec85 f0bf bbcd bf3f 5498 b4be 5886 7f3e
00000090: 25d7 87be 420e 55bf da28 653f cffe f5bf
000000a0: a570 f7be 9c7b 623d 9941 953f a449 dd3e
000000b0: 4dc2 9c3f fe06 35be c397 77be d6d5 683e
000000c0: d7ad f23f da8e edbe 747b 6e3e f885 15bf
000000d0: 151c 30bf d1fb 51bf 66fb 19bf 8e02 093f
000000e0: c285 a43f 1910 85be 14f1 cc3d d24a f3bf
000000f0: 3da6 66be eecc 613f f7bf 94be 4c34 ae3f
00000100: 425c 6fbd 240d e73f 0ffb 8fbf 713b 1d3e
00000110: b3ad a6bf aa7e 68bf 74c9 d5be 502b 3a3d
00000120: b7a7 e4be 1155 0bbe 1701 083e 299e 7c3f
00000130: f867 b93c bc0a 5b3f a969 80bf 2679 8dbe
00000140: f4af 073f 922a 473f 194d 53bf 5b67 06bf
00000150: 1b02 b33e d59f ffbf 0da8 5f3f 9142 ed3e
00000160: 6a8c 9abf ac17 e33f 207f c3bf 9f2a 59be
00000170: e971 d43f 3d62 f23e a603 1d3f ef91 01bf
00000180: e299 823f 8f74 87bf 1661 e6bf 12fe 23be
00000190: af61 af3f d88a 77bf 5bb2 c6be e05d d0be
000001a0: 68ff 94bf c587 9fbf 3208 3ebc 4310 debe
000001b0: 34ad 9cbf 8c4b 0e3e 8aca bf3e 6078 ef3f
000001c0: 9f26 e9bd 1a92 87be aecf efbf b15d 86bf
000001d0: d304 73bd 1e44 8e3f 9a8d 02be 4c4c 083f
000001e0: 332b a5bf 3455 693d 278f acbf 7a68 29bf
000001f0: aaf3 84bf 51fb 60bf 6974 fbbf 937e 8c3f
00000200: 661d ee3e 47fe 2bbf b288 1a3f f1dc e8bf
00000210: 8ade f13e 589e 093f a346 1b3c 50c1 1e3f
00000220: e6db b8bf 9105 4f3c 99c5 2cbf 32c6 0a3e
00000230: 74a0 c63f 7f89 9c3c 3538 eebf 5b31 09bf
00000240: 49c2 483f 902d ecbf 93ec 923f f8cc 103d
00000250: 4192 e83d d2bf 47bd 6b96 60bf 51d7 4c40
00000260: d16d ae3f 5216 a6be ac3f a33e a70a 8fbf
00000270: d2b6 fabc f2d4 60bf 54e0 973f 4cb6 ccbf
00000280: 7e0d 7f3f 5d59 a03d fc08 07c0 c14d 5d3f
00000290: 6fdb b43c 4b1b 3fbf 008f 87bf c525 01c0
000002a0: 36ba 21bc 3435 74bf b2cd 873f 968c 05bd
000002b0: 1270 a2bf 1b75 c1be 43a2 b9be 084f 0040
000002c0: e5dd 1a3f 54cf b23e e7b3 11bf f62b e8bf
000002d0: 9590 23bf b907 d1bd 2e61 6ebf 1a4b 11bf
000002e0: f2b3 2bbf 7afa 72bf 289e b7be 460d 87bf
000002f0: 2cb4 19bf 7590 513f 0adb d93c 9207 743f
00000300: 7027 c1bd e7e0 aa3f 1800 793e 66bb 9b3f
00000310: 532e ac3e ceb2 0540 dfb7 fdbe 6640 833e
00000320: a30c 5d40 b4e8 f43f 2763 41c0 d054 c53e
00000330: 2bdd b73e 95e0 ac3e b08a 603f d1c7 583e
00000340: d936 bebf 7eb6 a0bf 03a6 e0bf d43e c93e
00000350: a44a 373f 8621 60be ee5f 89be b082 ee3e
00000360: c0a7 183f a51a 81bf 5434 77bf ea61 d4be
00000370: c7be b03f e328 4f3d d574 8b3f fd53 0cbf
00000380: dd60 5f3f a379 f13f 398e 79be 4069 90bf
00000390: 2cb2 01bf 28a5 483f 1087 af3d 6a14 3a3f
000003a0: 69e6 c33f 92ca a7bf 20db d33e 6903 3c3f
000003b0: 2bb6 26bf 3ad0 07c0 a984 a33e 0fb1 043f
000003c0: f217 eabf 9f0e 27bf bc88 69bf f343 ed3e
000003d0: ddf9 1c3b 752d e33e e888 203f 80aa bfbd
000003e0: 6087 2f3f a08f 74bf c0e5 d2be f6bd 823f
000003f0: 2276 aa3f 8e53 013f 1e5c c4bf d46d 9fbf
0.13738962 -0.2722881 -0.10526797 2.2148972 -0.6304489 0.706546 0.2019696 -0.87383235
0.07176182 2.9493675 -1.0100188 -0.9618904 -0.55976856 -1.0253333 -0.6621868 1.6612431
-0.7471163 0.39777738 0.9824579 1.546667 -2.1868074 -0.19155551 -0.42773587 0.14156996
0.2676325 0.2620536 0.23160593 0.76086545 -0.49651566 0.58134377 -0.40209237 0.2961762
-1.879087 1.4984659 -0.35272467 0.24953592 -0.2653133 -0.8322488 0.8951546 -1.9218386
-0.48328128 0.055293664 1.1660644 0.43220246 1.2246796 -0.17678449 -0.24178986 0.22737822
1.8959302 -0.4639805 0.23289281 -0.58407545 -0.6879285 -0.82024866 -0.6014923 0.53519523
1.285332 -0.25988844 0.100069195 -1.9007208 -0.22524352 0.8820332 -0.29052708 1.360971
-0.058437593 1.8050885 -1.1248492 0.15354706 -1.3021759 -0.90818274 -0.4175526 0.045451462
-0.44659206 -0.13606669 0.13281666 0.98678833 0.022632584 0.85563254 -1.0032245 -0.2763149
0.5300286 0.7779933 -0.82539517 -0.5250146 0.34962544 -1.9970652 0.873658 0.4633985
-1.2074101 1.7741599 -1.527317 -0.21207665 1.6597263 0.47340575 0.6133369 -0.506133
1.0203211 -1.0582446 -1.7998378 -0.16014889 1.3701686 -0.96696234 -0.3880795 -0.4069662
-1.1640444 -1.2463309 -0.011598634 -0.43371782 -1.2240357 0.13896006 0.37459213 1.870861
-0.113843195 -0.26478654 -1.8735254 -1.0497342 -0.059330773 1.1114538 -0.12749329 0.5324142
-1.2903808 0.05696602 -1.3481187 -0.66175044 -1.038686 -0.8788348 -1.96449 1.0976127
0.46506804 -0.6718487 0.6036483 -1.8192426 0.47240096 0.5375724 0.00947729 0.6201372
-1.4442108 0.0126356045 -0.6748901 0.13552168 1.5517716 0.019108532 -1.8610903 -0.53590935
0.78421456 -1.8451405 1.1478447 0.035351723 0.11356021 -0.04876692 -0.8772952 3.2006419
1.3627263 -0.32438904 0.31884515 -1.1175126 -0.030604754 -0.8782493 1.1865335 -1.5993133
0.9962996 0.07829545 -2.1099234 0.8644677 0.02207729 -0.7465102 -1.0590515 -2.0179303
-0.009871056 -0.9539368 1.0609648 -0.032604776 -1.2690451 -0.37784657 -0.36256608 2.0048237
0.60494834 0.34923804 -0.56915134 -1.8138416 -0.6389249 -0.10206551 -0.93117034 -0.5675522
-0.6707145 -0.94913447 -0.3586285 -1.0550926 -0.60040545 0.8186105 0.026593704 0.9532405
-0.0943135 1.3349885 0.24316442 1.2166564 0.33629093 2.0890384 -0.49554345 0.2563507
3.4538963 1.9133515 -3.0216768 0.3854127 0.35910925 0.33765092 0.8771162 0.21169974
-1.4860488 -1.2555692 -1.7550663 0.39305747 0.7159827 -0.21887788 -0.26831 0.46584082
0.59630966 -1.0086256 -0.9656422 -0.41480953 1.3808221 0.050576102 1.0895029 -0.54815656
0.87257177 1.8865246 -0.2437066 -1.128212 -0.50662494 0.7837701 0.08570683 0.726874
1.5304691 -1.3108695 0.41378117 0.73442703 -0.65121716 -2.1220841 0.3193715 0.5183267
-1.8288558 -0.65256685 -0.91224265 0.46340904 0.002395264 0.44370618 0.627089 -0.09358692
0.6856594 -0.95531654 -0.4119091 1.0214221 1.3317301 0.5051812 -1.5340612 -1.2455392

conv1.bias f4 [64]
00000000: 3b21 c0b8 b3a0 b337 6073 aeb5 94ab c338
00000010: e6ef 69b7 c20d 94b7 2632 f938 2e7b 76b9
00000020: a1d3 7c38 e755 89b9 caa3 1839 69eb ecb8
00000030: a5dd 2739 7d4c 9eb8 2f1b 4cb8 7e04 a2b8
00000040: 701a 2339 8a4c 0eb8 608b 2db7 634c 6bb9
00000050: 2748 edb8 cfd2 9ab8 8b0e a738 654b 22b6
00000060: 5161 6639 8942 a438 1b5f d7b8 987a a1b8
00000070: 5cb6 2638 5bd0 0938 52b1 1039 448c ad38
00000080: e6ef 5bb8 322c 1cb8 8f74 17b8 b927 9238
00000090: dcaa bd38 7e7a 6fba a7c7 7bb8 8cf9 0a38
000000a0: 16f0 71b8 7614 5738 dc9e 9337 e0b0 ee38
000000b0: fcb2 a4b8 328d e4b6 2bb2 c4b8 9e1f bb38
000000c0: 5429 8938 f2ac 8b37 81e7 0fb9 561a 9239
000000d0: d3b0 53b9 fe08 9336 7c86 ca38 163e 73b9
000000e0: 0032 72b9 2242 7b38 2ca0 3cb7 e9d3 bab8
000000f0: 22a8 4eb7 a330 3e38 85da 8b38 00ae 8837
-9.161463e-05 2.1413294e-05 -1.2997589e-06 9.3302835e-05 -1.3943738e-05 -1.7649381e-05 0.00011882586 -0.00023506276
6.0278577e-05 -0.00026194679 0.00014556866 -0.000112972055 0.0001600893 -7.548274e-05 -4.8662707e-05 -7.725599e-05
0.0001555474 -3.392672e-05 -1.0344054e-05 -0.00022439803 -0.0001131448 -7.3825584e-05 7.9658894e-05 -2.4183767e-06
0.00021970762 7.8325225e-05 -0.00010269714 -7.699913e-05 3.974732e-05 3.285739e-05 0.00013798967 8.275409e-05
-5.243709e-05 -3.723446e-05 -3.610976e-05 6.9692214e-05 9.044047e-05 -0.0009135379 -6.0029004e-05 3.3134173e-05
-5.7682475e-05 5.127905e-05 1.759774e-05 0.0001138167 -7.853468e-05 -6.811367e-06 -9.379195e-05 8.922744e-05
6.540367e-05 1.6650625e-05 -0.00013723785 0.00027866912 -0.000201884 4.381988e-06 9.65716e-05 -0.00023197415
-0.00023097545 5.9904654e-05 -1.1242966e-05 -8.9086425e-05 -1.2317703e-05 4.5344827e-05 6.668739e-05 1.6293488e-05

conv1.lin.weight f4 [64, 512]
00000000: 06e5 aebc 4776 edbc 068d 5cbd 8c4d 2cbd
00000010: 00b4 93bd 8efe c2bd a0a5 033d 1462 00bd
00000020: 1512 c63c 2c09 2b3d e1ce c4bc 38a3 843c
00000030: d52d 1cbd e5c1 cebd a2ce 3b3c 1bde 8dbd
00000040: e7a8 bebd 8f78 1dbd bad3 00bd f8b4 323d
00000050: 5895 32bd b8ad 913d e36c b23b 67c1 b6ba
00000060: 21f0 a03b 4c67 6ebd 801b d9bd 42f6 b8bd
00000070: bfb9 c8bc 29ce 4c3c 2162 033d a9fb 45bb
00000080: 509b d63d b1bd a23c f23d 4d3d 32f4 6bbc
00000090: 3d34 49bd 7f68 15bd 7c97 c33d 7e0c 543d
000000a0: 31cc 6a3c 6f35 22bd f28e 90bc 48aa 7d3c
000000b0: 6072 a13d e66b eebb a4ec b2bd 60dd be3c
000000c0: 0457 4fbd 902a b9bc abde bbbd fcfa 4b3d
000000d0: 0018 943d 9ffa 8cbb 303f 573d 7732 98bd
000000e0: 01d1 85bd 5955 4c3d f953 5fbd 5787 8abd
000000f0: 2d17 6e3d e836 e1bd c1a7 51bc 3bb9 7dbc
00000100: a177 713d a975 153d 0f0d 3fbd 81a9 23bd
00000110: 0d5c 833d 8a89 3f3d 81c0 b73b 3609 18bc
00000120: bb6b f73c e64f e8bb 4d1d 8dbd 5575 f0bc
00000130: 2082 1d3d 4ab8 1c3d c56a a2bd 613d 1cbd
00000140: aa5c b0bd e75e aebb 04d4 173c 50d0 82bc
00000150: c820 e7bc 70f8 753c d39c e03d 11f3 963b
00000160: f869 cf3c 4b1c 2bbc 13a3 193d a89c e3bd
00000170: 2d4a 823d 189e 10bd 7256 79bd c35c 5bbd
00000180: 0a3e bd3d 9c1b 7abb 772e 473d 69a0 8e3d
00000190: 2e1a c13d 92e7 233c 39be b13c ad78 bd3d
000001a0: ef38 cc3d b542 683d 12a1 6d3d 5bba 183d
000001b0: 43c3 05bd 0874 df3c 566d 8e3c d5ee 173d
000001c0: 3e79 86bd 7a66 083d e922 53bd 06e3 9dbc
000001d0: 85fc 45bc 2c52 b63d e801 ad3d 2949 8dbd
000001e0: e959 37bd 9cc9 8e3d 198e f6bc 229b 55bd
000001f0: 2bc7 603d 1703 c23d 5490 5ebd 4f4c efbc
00000200: 1e07 d53d 0443 2bbc 43d0 a1bd b4a1 463d
00000210: 215a 9a3d 9ddc 89bd 0fa3 27bd f242 473c
00000220: b7bd b0bd 444e c5bc 7b5c 483b 41f1 053d
00000230: 0d4b 82bd 2c3c 8cbc dc13 4abd 9b71 6cbd
00000240: 5b1d 8f3b 5631 b8bc a813 1a3d 64c9 78bc
00000250: 4b0d c53d 0b94 f3bc 56e6 a73d 4d5a a5bd
00000260: 80ba 7e3d 182a 363d 8a20 533d 5c45 9b3d
00000270: 4bb3 2a3d 1124 abbd b45a 6cbc e792 ce3d
00000280: c2b4 043d 820b 78bd 23fd 9e3c 49e3 bc3c
00000290: 6676 cb3d 69a7 bb3d bb45 42bd 8dc6 f83c
000002a0: 967d bdb9 5751 2fbd 1121 a83d 1934 40bd
000002b0: 5826 7b3d f35b 7abc f53b 203b 5a6f 1d3d
000002c0: 3dcc a0bd 79b7 11bd 5316 c5bd 6cc3 243b
000002d0: 7574 733d dad2 b8bd f9b9 f3bc b13c cbbc
000002e0: c7ef 953c 64ea 653d da7e bf3d 7e15 52bc
000002f0: a3d8 10bd 9e2c c93d 5c7b 1ebd 9c27 913c
00000300: 48ff c7bb f305 713d 1247 c03d cd25 c0bd
00000310: fec9 493d e8cb 91bd 5fb1 ea3c 3d56 9dbc
00000320: 62de a4bb 84c5 edbc 656d b5bd aad6 d93c
00000330: f061 92bc f4f4 04bd d5f4 bb3d b1ff 8ebc
00000340: ed84 08bd dcfd 2fbd 156d 453d d055 dc3b
00000350: a5a7 163a f209 6dbd 25b1 cabd fa88 bebd
00000360: 359a bebc b15a 743d d3e7 983d fe64 d9bc
00000370: f5d0 b13d 49bd c8bd 609b 70bd d37f a73c
00000380: 1c50 70bc 43b4 97bd 875f ac3c adc8 1cbd
00000390: 1732 3d3d 7a2a aa3d 1329 96ba 9224 83bd
000003a0: 37a5 3bbd 1ae3 553d f358 8abc bc4e cebc
000003b0: d9c8 0c3c 59a1 bcbd 52e6 f0bd 35d6 a1bc
000003c0: 936c 9e3d 30d0 c23c d268 883d 4bde dcbd
000003d0: 7121 2fbd fab2 a03c 9f97 3ebd 2758 d2bd
000003e0: 5824 903d ef38 4ebd c8e0 b1bd 1554 163d
000003f0: 349f e4bd d42f dc3d df20 a33c 21e6 213d
-0.021349441 -0.028987063 -0.053845428 -0.042066142 -0.07212067 -0.09521209 0.032140374 -0.031343535
0.024178544 0.041756794 -0.024024429 0.01619111 -0.038129646 -0.10095576 0.011462839 -0.06927129
-0.09309559 -0.03844505 -0.03145192 0.043629616 -0.043599457 0.07113212 0.005445109 -0.0013943136
0.004911438 -0.05820398 -0.10600948 -0.09031345 -0.024502633 0.012500324 0.032076005 -0.0030209816
0.10478842 0.019865843 0.050107904 -0.014401482 -0.049122084 -0.03647661 0.09550378 0.051769726
0.01433091 -0.03960174 -0.017646287 0.015482493 0.078831434 -0.007276046 -0.08736542 0.02329892
-0.050620094 -0.022603303 -0.0917333 0.049799904 0.0723114 -0.0043023373 0.052550495 -0.074315004
-0.06534005 0.04988608 -0.054523442 -0.06764095 0.05812757 -0.10996801 -0.012796343 -0.015486057
0.058951978 0.036489163 -0.046643313 -0.039956573 0.06414042 0.046762027 0.005607665 -0.00927954
0.030202737 -0.0070896028 -0.06890354 -0.029352823 0.038454175 0.03826169 -0.07930521 -0.038144473
-0.08611424 -0.005321372 0.009266857 -0.015968472 -0.028213874 0.015012845 0.10967412 0.0046066125
0.025319085 -0.010443757 0.037509035 -0.11113864 0.06361804 -0.03530702 -0.060873456 -0.05355526
0.09240349 -0.003816343 0.048628297 0.069641896 0.094288215 0.010003941 0.02169715 0.09251533
0.09971797 0.05670424 0.058014937 0.037287097 -0.03265692 0.027277008 0.01738612 0.037093002
-0.06566094 0.033300854 -0.051546965 -0.019273292 -0.012084131 0.08902392 0.08447629 -0.0689872
-0.04476348 0.06972048 -0.030097054 -0.0521499 0.05487744 0.094732456 -0.05433686 -0.029211191
0.10401748 -0.0104529895 -0.07901051 0.048494056 0.07536722 -0.06731532 -0.04092699 0.012161957
-0.08629935 -0.024085172 0.00305727 0.03270078 -0.06361971 -0.017118536 -0.049335346 -0.05772553
0.004367513 -0.022484463 0.037616402 -0.015184734 0.09621676 -0.029733678 0.0819823 -0.08073864
0.06218958 0.044473737 0.051544704 0.075815886 0.041674893 -0.083564885 -0.014425922 0.10086613
0.032398947 -0.06055785 0.019407814 0.023057597 0.09934692 0.0916279 -0.04742978 0.030368114
-0.00036142458 -0.04280218 0.08209432 -0.046924684 0.061315864 -0.015280711 0.00244498 0.03843627
-0.07851455 -0.035575364 -0.09623399 0.0025140895 0.059437234 -0.09024592 -0.029751765 -0.024809213
0.018302811 0.056131735 0.09350367 -0.012822507 -0.03536285 0.09822963 -0.038691863 0.017719083
-0.00610343 0.058843564 0.093885556 -0.0938221 0.0492649 -0.0711897 0.02864903 -0.01920616
-0.005031393 -0.029024847 -0.08858756 0.026591618 -0.017868966 -0.032460168 0.091775574 -0.017455908
-0.033329893 -0.04296671 0.04819973 0.006724097 0.0005747027 -0.057870813 -0.09897069 -0.0930347
-0.023266891 0.059656803 0.07466092 -0.026537415 0.086824335 -0.09801728 -0.058741927 0.020446694
-0.014667537 -0.07407429 0.021041645 -0.038277317 0.046190348 0.08308883 -0.0011456333 -0.064034596
-0.045811858 0.052218534 -0.016888117 -0.025184028 0.008592808 -0.09210462 -0.1176268 -0.019755462
0.07735553 0.023780912 0.06660618 -0.107845865 -0.0427565 0.019616593 -0.046531316 -0.1027072
0.07038182 -0.050347265 -0.08685452 0.03670128 -0.11163178 0.1075131 0.019913135 0.03952611

conv2.bias f4 [64]
00000000: 8a34 9838 03c5 bab7 0772 6738 ade5 09b9
00000010: 48c4 2a38 68e2 8739 721c 28ba 913f 3a38
00000020: feac cd38 caf3 f836 b2f0 5c38 0a72 3cb8
00000030: b73f 1337 1689 4539 69d6 4eb9 0100 33b8
00000040: 793e 3f38 c6c9 f0b5 98e1 c2b9 aa9c 10b8
00000050: 0c21 dd38 e1eb 1538 769e c2b8 142f 4cb8
00000060: 3ec1 3cb9 9b4f 0639 072b 3db9 4954 a0b8
00000070: 6f04 14b9 ab47 3d38 e500 fbb8 bb4c 4bb9
00000080: acfe bd37 d61e 5139 bae5 23ba fd3b 173a
00000090: b7de d339 0a8d 533a decc 0037 4a38 8e38
000000a0: cf3a f639 0e51 05ba 2cd3 c3b7 b94a 9eb9
000000b0: 7e62 97b8 1ca5 9bb7 b4dd 4837 74bd 1cba
000000c0: 2b00 91b8 6e5c f0b9 158a bbb8 781e 2238
000000d0: d04e 0139 3027 e7b9 079b 10b8 a082 04b8
000000e0: caa7 1b38 38ad b138 38c8 31b8 7045 ac38
000000f0: ed9b 3ab8 0234 df37 5889 4eb5 d08a 7538
7.257711e-05 -2.2264669e-05 5.5180888e-05 -0.00013150899 4.071396e-05 0.00025917892 -0.000641293 4.4405057e-05
9.807384e-05 7.4193567e-06 5.2676252e-05 -4.49289e-05 8.776718e-06 0.00018838453 -0.00019725565 -4.267693e-05
4.559613e-05 -1.7940117e-06 -0.00037170644 -3.447818e-05 0.00010544257 3.5744048e-05 -9.2801565e-05 -4.8681235e-05
-0.00018001065 0.00012808891 -0.00018040474 -7.645094e-05 -0.00014116032 4.5127857e-05 -0.00011968779 -0.00019388173
2.2649147e-05 0.0001994328 -0.00062521885 0.0005769132 0.00040410992 0.00080700277 7.677094e-06 6.781572e-05
0.00046964592 -0.00050856255 -2.3344146e-05 -0.0003019178 -7.218587e-05 -1.8554325e-05 1.1972548e-05 -0.00059791584
-6.91417e-05 -0.00045845233 -8.942575e-05 3.8652186e-05 0.00012331759 -0.0004408895 -3.4476656e-05 -3.1592906e-05
3.7111146e-05 8.472282e-05 -4.2386557e-05 8.214533e-05 -4.4491073e-05 2.660789e-05 -7.694084e-07 5.854183e-05

conv2.lin.weight f4 [64, 64]
00000000: 8f2f 013d d1cf 2abe d8e9 cc3b 8576 063e
00000010: ba51 c43d 6956 193e c7fd 1b3e d54b 9b3d
00000020: 87ea aa3c ee63 443e ba5c fbbd 359b 06be
00000030: 6d26 3abe 6126 f0bc 98b0 62bc 2fb3 783e
00000040: f2c0 43be a20b 11bd 8d58 b53d 9192 e23d
00000050: 2e91 813e 8005 8abd dc06 36be 1be4 26bd
00000060: 1ac1 c53d c0a7 2c3e ab2f d63d da6e 34be
00000070: be7e 98bd 1dcc 123e 93cc 9fbc 89ae 3ebd
00000080: 218c e63d 5536 94bd df87 903d 6bb0 89bd
00000090: cb61 f43c 73c2 7f3c 3b6d 193e f9d4 ca3d
000000a0: 8940 20be b26b d73d c243 ad3c 4644 8e3d
000000b0: 2eea f03d 22bb 03be b1cc 0d3e 2b90 463d
000000c0: df0e a03d dbcf d93d 5b64 34be e999 c7bd
000000d0: 528a f2bc 9b92 a03d a5ec e9bd f4cd 423d
000000e0: 3a8a 22bd 6d69 373e 9044 d73d 6940 0cbe
000000f0: 143f b23d ce6b b73d ce39 833e 35ef 053e
00000100: 6d6b 023e 3eb7 3f3e 7606 c3bd 9184 353e
00000110: a152 1fbe 4899 c6bd 891f 023e 7f3e b5bd
00000120: f878 cebd baa4 1cbe c6bc 5d3e 33b7 333e
00000130: 5be5 5f3d 764d 7fbe a0ca 333e 3865 59be
00000140: fe0d da3c 0670 37be ccd9 013a a920 babd
00000150: 45f2 0bbe abca e23d 9956 31be 6e75 a23d
00000160: d7b1 14be 1c29 883d 29ce 34bd 4a94 15bc
00000170: 510e 843c 1aff 71be 2a14 a93c 6b57 cc3d
00000180: 06d9 84bc 528a 7e3d 6410 aa3d 7f2d 66be
00000190: 78e8 ddbd a76b 9bbd a642 523e 1243 43bc
000001a0: 1c8f 263e b7ae d93c f9b8 a4bd 38d6 903c
000001b0: 8a7f 983c af21 15be 209b 193e b179 93bd
000001c0: f87b f03d d44d 91bd a8db e63b 9d63 3dbe
000001d0: 0f01 2fbd 975c fcbc 53fc e73d 03f7 01bc
000001e0: caec 003e a239 a8bd 3bf6 4abd bd48 78bc
000001f0: 09ed 003e 47a1 7bbd 62da 24be f16e 54bd
00000200: 3589 b8ba d7f4 1a3d b572 093e ce51 cb3d
00000210: 6ac4 eabd 7fcd db3d 439d abbd 13af 3d3d
00000220: 898f 2abd 550d b0bd 6ca2 23be 7dd1 03be
00000230: d6e6 13bc de0e f03c d346 1fbd 1a98 5e3e
00000240: 038f 36be 6396 a4bd 7a06 15be a002 e03d
00000250: 4c1e 12bc d33f 55be 465b 203e 55c4 e53d
00000260: 03ca e93d 3146 483e 70f2 443c 91d0 36be
00000270: d2ac f8bd 1d1a c03c 9d67 453e b6cf 26be
00000280: 52ed cabd 54e8 893d 8faf 6fbe 723d 573e
00000290: 21ea 063c e6dd 02be 9f37 f1bd ff47 863d
000002a0: e295 493d b20b 1f3e 897f 483e 8f7e 10bd
000002b0: 97d6 803e 673b 753d cec4 dc3d 18c2 953d
000002c0: 2810 603b fbfd 2b3e ef5b 50be 6517 29be
000002d0: ebb1 06be ba07 1b3d c572 1ebe db4f 763e
000002e0: 18c7 8dbd 5c0b df3d 7536 c33d c87a ce3d
000002f0: b853 b7bd c23d 02bd a450 763e 7f03 adbd
00000300: 741a 48be 74e8 1d3c 638b fcbd 575e 79be
00000310: 6a52 ec3d 30a3 cd3d 00bb 543e 449e 5f3e
00000320: 4863 cabc 6e3a 2b3d 39ab aebd 9646 dd3d
00000330: 6587 52bd 4512 9abd d52d 2cbe 4d10 483e
00000340: bcef 6dbc 6d57 433e 82d1 debd 0a78 e13d
00000350: 755e 9cbd 4546 1f3d 646c e13d b4da 963d
00000360: d6ea a4bc 4978 b93d 5d00 3a3e ef10 e23d
00000370: 3f9b 0f3e a73c 22be e9c9 bdbd 1d0a 5cbe
00000380: 5334 793d e89a f03d 0756 9a3d 4e43 8d3c
00000390: b0fb 013d a6fb 77be b21c 063e 4cd5 ee3d
000003a0: 2dfa 103e b79a 013e 9d06 e2bd 7257 e33c
000003b0: eb62 9d3d 5e89 15bd aaae 7bbe 094f 27be
000003c0: 61b2 9b3d 0f62 033d 2945 4bbd 1514 d83d
000003d0: 4577 79be 3538 643e 6678 1d3e 25da 1c3e
000003e0: 6aa4 7abd 5da4 32bd 4a42 693d 7e33 233e
000003f0: cfd2 fe3d 167d 3d3e 25f5 70be e22f e5bc
0.031539496 -0.16680838 0.0062534623 0.13131149 0.095859006 0.14974369 0.15233527 0.07582823
0.020863784 0.19178745 -0.122735456 -0.13145144 -0.18178721 -0.029315175 -0.013836049 0.24287103
-0.19116572 -0.035411485 0.0885478 0.110631116 0.25306076 -0.0673933 -0.17776054 -0.040744882
0.09655972 0.16860867 0.10458311 -0.17620412 -0.07446049 0.14335676 -0.019506728 -0.04655317
0.11257196 -0.072369255 0.07057165 -0.06723102 0.029831788 0.015610325 0.14983074 0.099039026
-0.15649618 0.10518588 0.021150474 0.06946616 0.11763416 -0.12864354 0.13847615 0.048477333
0.078153364 0.106353484 -0.17616408 -0.09746153 -0.029606972 0.07840463 -0.114220895 0.047559693
-0.039682604 0.1791131 0.10511124 -0.13696446 0.087034374 0.08956109 0.2563004 0.13079531
0.12736292 0.18722245 -0.09522717 0.17726351 -0.15558864 -0.09697205 0.12707342 -0.08849811
-0.10081667 -0.15297213 0.21654043 0.17550354 0.05466209 -0.24931893 0.17557764 -0.21230018
0.026618 -0.17913827 0.0004953414 -0.09088261 -0.13666637 0.11073812 -0.1731819 0.07932554
-0.14520966 0.06648466 -0.044141922 -0.009129593 0.016120108 -0.2363247 0.020639498 0.09977611
-0.016216766 0.06214363 0.083039075 -0.22478293 -0.108353555 -0.075888924 0.20533237 -0.011917846
0.1626553 0.026572568 -0.08043093 0.017680272 0.018615503 -0.1456363 0.15000582 -0.07200945
0.11742395 -0.07094923 0.007045228 -0.1849503 -0.04272562 -0.030805869 0.11327424 -0.007932427
0.12590328 -0.082141176 -0.04955123 -0.015154061 0.12590422 -0.061433103 -0.16098931 -0.051863614
-0.0014078977 0.037831154 0.13422664 0.099277124 -0.11463244 0.10732555 -0.08379605 0.046309542
-0.041640792 -0.08596293 -0.15979928 -0.12872882 -0.009027204 0.029303964 -0.038885903 0.2173771
-0.17827992 -0.080364965 -0.14553252 0.10938001 -0.008918356 -0.20825128 0.15659818 0.11219088
0.11415484 0.19558026 0.012020692 -0.17853 -0.12142338 0.023449952 0.19277807 -0.16290173
-0.099085465 0.06733766 -0.23406814 0.21019533 0.008234532 -0.1277996 -0.11778187 0.06556701
0.049215205 0.15531805 0.19579901 -0.035276946 0.2516372 0.059871104 0.10779725 0.07312411
0.0034189317 0.16796105 -0.2034757 -0.1651283 -0.13153808 0.037849165 -0.15473469 0.240539
-0.0692274 0.108908385 0.09531871 0.100820124 -0.08951515 -0.031797178 0.240542 -0.084479325
-0.19541341 0.009637941 -0.123312734 -0.24352394 0.11539157 0.10040891 0.2077446 0.21837717
-0.024705544 0.04180377 -0.08528752 0.10804479 -0.051398654 -0.07523016 -0.16814359 0.19537468
-0.014522489 0.19076319 -0.10879804 0.11009224 -0.07635204 0.038885374 0.11007002 0.07365933
-0.02013151 0.09056146 0.18164201 0.11038386 0.14024065 -0.1584345 -0.09267027 -0.21488233
0.060840916 0.11748296 0.0753594 0.017244007 0.03173417 -0.2421709 0.13096884 0.11661777
0.14157934 0.12656675 -0.11036418 0.027751658 0.07684883 -0.036507957 -0.24578348 -0.16338743
0.076023825 0.032075938 -0.049626503 0.10550705 -0.24361904 0.22287066 0.1537796 0.1531759
-0.061191954 -0.04361378 0.056947984 0.15937611 0.12442552 0.18504748 -0.23531015 -0.027976934

bn1.weight f4 [64]
00000000: 089e 843f ddcb 813f d1bd 823f b259 7a3f
00000010: 6c5c 823f d531 803f 09b3 783f cfd4 793f
00000020: 85ea 743f 8118 733f bd67 743f bc5a 763f
00000030: 0268 723f 53ca 853f 560a 7a3f 61c3 7b3f
00000040: a32c 833f 9b51 753f 7f05 783f 399e 743f
00000050: fe24 7c3f c09f 843f 8bc3 7a3f 0a86 753f
00000060: afa4 863f a1ba 853f 8c20 763f f0ea 743f
00000070: 585f 733f 9a93 803f 25f7 853f 1f6b 723f
00000080: effc 753f f03d 783f 73d2 823f 7faa 863f
00000090: 48c5 843f 0722 863f aac7 783f 8db8 813f
000000a0: 4448 783f 526b 803f d04a 843f 0522 863f
000000b0: 2291 753f ac7f 753f 1650 823f 04ee 7f3f
000000c0: 4bc9 7a3f acc4 773f e56b 833f c03a 853f
000000d0: 9ade 733f 1af4 853f 7948 7c3f d83a 803f
000000e0: 6f8c 753f 1261 843f f3dc 823f aae0 7f3f
000000f0: 02ef 733f bdb2 863f 875b 813f 833d 833f
1.0360727 1.0140339 1.0214177 0.97793114 1.0184455 1.0015208 0.97148186 0.97590345
0.9567035 0.94959265 0.9547079 0.962322 0.94689953 1.045237 0.9767202 0.98345
1.0247997 0.95827645 0.96883386 0.9555393 0.98493946 1.0361252 0.97954625 0.9590765
1.0519007 1.044758 0.9614341 0.95670986 0.9506736 1.0045044 1.0466048 0.94694704
0.9608907 0.9696951 1.0220474 1.0520781 1.0372705 1.0479134 0.97179663 1.0134445
0.9698527 1.0032752 1.0335331 1.0479132 0.9592458 0.95897937 1.018069 0.9997256
0.979634 0.9678447 1.0267302 1.0408554 0.9526154 1.0465119 0.98548084 1.0017958
0.9591741 1.0342124 1.0223678 0.99952185 0.9528657 1.0523297 1.0106057 1.0253147

bn1.bias f4 [64]
00000000: 34ef fe3c 01e9 423c d8b1 283c 5204 a3bb
00000010: 737c e13b 6521 013c aeff ccbc d4f7 aabc
00000020: 3618 26bd 5816 2dbd 003e 30bd db34 96bc
00000030: f86c 05bd 4de2 2f3d ea48 e2bc c0fd e4bc
00000040: f10d f53c 1f73 39bd 6070 67bc ae10 e3bc
00000050: 3a87 08bc 6770 d03c 5ff2 95bb bba0 fabc
00000060: 8b90 4a3d f0bb 333d 207a 26bd 0e59 2bbd
00000070: 5d66 30bd 86ae 4b3c e93f 2a3d 6902 2cbd
00000080: a1a9 21bd d3d3 c9bc f9fa 873c 4376 383d
00000090: a521 eb3c ce93 423d c6cd beba 48ac a43c
000000a0: cd51 3ebc be34 6e3b 8cdd 0d3d 15fd 303d
000000b0: 39be 2fbd cf6f 28bd 7c21 143d 8100 753c
000000c0: 250d f6bc 59ed 70bc a1da 8a3c 2822 103d
000000d0: 705c 3fbd aca3 2b3d a9d6 b13b aaf8 413c
000000e0: 1bbd 08bd bcdd c63c ef60 0a3d 81b1 da3b
000000f0: 1562 1abd c6dd 373d 2b5e a7bb 3337 0f3d
0.03111992 0.011896373 0.0102963075 -0.0049748803 0.0068812906 0.007881497 -0.025024261 -0.020870127
-0.040550433 -0.042257637 -0.043027878 -0.01833575 -0.032574624 0.042940427 -0.027622659 -0.027953029
0.029913874 -0.045275804 -0.014125913 -0.027717914 -0.008333022 0.025444223 -0.004576012 -0.03059422
0.049454253 0.043880403 -0.04064381 -0.041832976 -0.04306637 0.012431746 0.041564856 -0.041994486
-0.03946841 -0.024637138 0.016599165 0.04503466 0.028702566 0.04750424 -0.0014557175 0.020101681
-0.0116161825 0.0036347355 0.03463511 0.043210108 -0.04290602 -0.041122254 0.036164746 0.014953733
-0.030035565 -0.014705026 0.016949954 0.035188824 -0.046719015 0.041904137 0.005427201 0.011839071
-0.03338347 0.024275653 0.03378385 0.006673992 -0.037691195 0.044889234 -0.0051076612 0.03496475

bn1.running_mean f4 [64]
00000000: e989 c4be 747e 83be 9ac9 6ebf 3943 13c0
00000010: b197 23bf 8cb3 ca3d bb17 3a3f 1929 82bf
00000020: 5dc1 113f ad00 ac3f 607d 0cc0 d6d7 f1bf
00000030: f17e ac3f 61f5 b03f 0a25 3140 60ed e6be
00000040: d5fd 0440 b69d 023f edcc 1bbf 4d20 d73f
00000050: a044 11c0 e0ae 6c3f a642 1040 15f2 73bd
00000060: f345 bd3f 05dc a3bf bab4 343f 20e8 763e
00000070: 1c23 a1bf 8701 833e 0876 e0bf 366b f8be
00000080: 7156 9d3f abfe 943d c032 233f 7ec4 92bf
00000090: 1531 223f 10f5 0ec0 68e5 d83e 6cbf 033f
000000a0: cdaf bebf 3dff de3e b633 f6bf eb2c b1be
000000b0: 2d71 31c0 637c afbe baf3 77bf 1629 2c40
000000c0: 72b8 21bf a8f3 f8be a44b 1440 04c1 f23f
000000d0: 89da 58c0 e25b 8ebe 1a48 0ac0 d88c 2bc0
000000e0: c08b 4040 7c55 f6be cf3d 933e 6597 f53e
000000f0: 265a 12c0 4113 483f 4478 2fc0 f69f 773e
-0.38386467 -0.25682414 -0.9327637 -2.300978 -0.6390334 0.09897527 0.7269246 -1.0168792
0.56935674 1.3437706 -2.1951523 -1.8893993 1.347624 1.3824884 2.7678857 -0.45102978
2.0779927 0.510219 -0.60859567 1.6806732 -2.2698135 0.9245434 2.254068 -0.05955704
1.4786972 -1.280152 0.70588267 0.24111986 -1.258884 0.25587103 -1.753602 -0.48519295
1.2292005 0.072751366 0.63749313 -1.1466215 0.63356143 -2.2337074 0.42362523 0.5146396
-1.48974 0.43554106 -1.9234531 -0.34604582 -2.7725327 -0.34274587 -0.9685627 2.6900077
-0.63172066 -0.48623395 2.3171167 1.8965154 -3.3883383 -0.27804476 -2.1606507 -2.6804714
3.0085297 -0.48112094 0.28758094 0.47967067 -2.2867522 0.7815438 -2.7417154 0.24182114

bn1.running_var f4 [64]
00000000: 1554 553f edbf e03e 1dfa 333f d2e1 003f
00000010: 1bac 193f 39ba 0d3f ffb5 2e3f ab83 1f3f
00000020: 18b2 da3e 9ab1 f43e 04ef 1e3f 957a 3e3f
00000030: c7fe 2f3f 400a 2f3f 7efe 323f 57cc 123f
00000040: 388c 043f 0293 0a3f be2e 013f 851a 2b3f
00000050: 7153 0a3f 4144 2d3f 22de e03e 2203 463f
00000060: 50da 133f 0cef d33e d544 1a3f 6e99 3c3f
00000070: 287f b63e 1f57 2e3f 3c3e 273f d7b6 293f
00000080: 5ac9 333f 442e 203f 2634 143f 7d91 523f
00000090: 8393 173f 2b19 043f 8373 2e3f bcfe 583f
000000a0: e767 383f 0587 263f 448f 9f3f d93b df3e
000000b0: 8532 2b3f 8093 583f 2804 1a3f b345 113f
000000c0: 08b7 2b3f 4f56 5e3f bd5f 223f 62d5 2d3f
000000d0: a20b 183f b283 ed3e 10e8 563f 2638 4d3f
000000e0: b00e e93e 3956 423f 6464 553f 5843 123f
000000f0: b5e4 e03e c004 7c3f c020 883f 2306 263f
0.83331424 0.43896428 0.7030352 0.50344574 0.6002824 0.5536228 0.68246454 0.62310284
0.42714 0.4779175 0.6208346 0.74405795 0.68748134 0.68375015 0.69919574 0.5734305
0.51776457 0.54130566 0.5046195 0.6683734 0.5403357 0.6768227 0.43919474 0.7734853
0.57754993 0.41393316 0.6026128 0.73671615 0.35643888 0.68101686 0.6532934 0.66294616
0.70229113 0.62570596 0.5789207 0.8225325 0.5920946 0.51600903 0.68145007 0.84763694
0.7203354 0.65049773 1.2465596 0.43600348 0.6687396 0.8460007 0.6016259 0.5674698
0.6707616 0.86850446 0.63427335 0.6790372 0.5939275 0.46389538 0.8394785 0.801638
0.45519018 0.75912815 0.8335631 0.5713401 0.4392449 0.9844475 1.0634995 0.64853114

bn2.weight f4 [64]
00000000: 1915 723f ced1 833f f03d 753f 48a9 873f
00000010: cd15 703f b5a0 863f d67d 703f cdfe 703f
00000020: 019b 7c3f 0fef 783f d872 703f 8a55 713f
00000030: 3689 753f 61af 843f bee2 733f 8483 863f
00000040: 9930 853f ee55 863f b7e8 843f 98ba 803f
00000050: 7ff3 863f 6070 783f 5176 883f 3657 783f
00000060: fb12 713f a447 733f b57f 883f a20e 883f
00000070: 9d17 713f 9e5d 703f 7f9a 793f cf61 713f
00000080: ff61 7e3f 5ea5 6d3f c8a7 863f d97d 863f
00000090: f14b 723f c824 733f a691 863f 9c14 773f
000000a0: d124 713f e1a4 7d3f 7042 863f 5f94 873f
000000b0: 2755 7b3f 2686 873f f3d1 713f b655 703f
000000c0: d91e 843f 4008 853f 1e7a 793f ae7b 843f
000000d0: 8145 853f c04f 863f a845 873f 6d2f 773f
000000e0: 4e97 843f ff7c 733f 1672 883f d73a 7a3f
000000f0: 9c90 753f a934 733f 562f 773f b9be 823f
0.9456344 1.0298402 0.95797634 1.0598536 0.93783265 1.0517794 0.9394201 0.94138795
0.9867402 0.97239774 0.9392524 0.9427115 0.9591249 1.0366021 0.95267856 1.0508885
1.0405456 1.0494974 1.0383519 1.0056944 1.0543059 0.9704647 1.0661107 0.97008073
0.94169587 0.9503119 1.0663973 1.0629466 0.94176656 0.9389285 0.9750137 0.9428987
0.9936828 0.92830455 1.0519953 1.0507156 0.9464713 0.94978 1.0513198 0.9651582
0.941968 0.9907971 1.0489025 1.0592154 0.9817681 1.0587814 0.9446098 0.93880785
1.0321914 1.0393143 0.9745196 1.0350244 1.0411836 1.0493088 1.0568132 0.9655674
1.0358675 0.95112604 1.0659816 0.9774603 0.9592378 0.9500223 0.96556604 1.0214454

bn2.bias f4 [64]
00000000: d739 54bd 5fcb 793c 1209 05bd 38ea 5d3d
00000010: a845 6cbd 1f63 683d b2cc 63bd 534a 3fbd
00000020: 3c8e 9fbc f786 2ebd 5809 4fbd 5358 64bd
00000030: 3f37 22bd b9e7 a53c 46ae 3bbd 8ec3 e4bb
00000040: 1da7 de3c fe6f c03c 8028 39bb 9ae2 3ebd
00000050: e318 793d 8ed7 71bd 569d 793d 752f 1fbd
00000060: a0cc 5cbd 9a15 37bd 48e2 e53c 8111 743d
00000070: 0284 5bbd 9eef 61bd 59e8 99bd 4844 5ebd
00000080: fe3c 9cbc 8ebd 7ebd 173f 7b3d f2e9 393d
00000090: bf71 4ebd 80bc 44bd dbda 633d e0e7 00bd
000000a0: 2e95 5ebd 1bfb 33bd b951 4f3d 9c94 bd3c
000000b0: 68fd a6bc 303c 833d 7577 60bd f8ef 67bd
000000c0: 28f2 34bc aaba 083d 4f39 15bd ec82 2b3d
000000d0: ee93 123d 7a42 6b3d 656a 843d 67d2 01bd
000000e0: 6579 373d 351a 43bd 719a 683d dd1a 483d
000000f0: 0a5d 7cbd 20d0 35bd 4cd4 6fbd 1f65 3abd
-0.051812973 0.015246241 -0.032479353 0.054178447 -0.057683617 0.056735154 -0.055615135 -0.04670174
-0.019477002 -0.04260918 -0.05054602 -0.055748295 -0.039603468 0.020252096 -0.045820497 -0.0069813197
0.027179295 0.023490902 -0.00282529 -0.046602823 0.06081475 -0.05904346 0.060941063 -0.038863618
-0.053906083 -0.044698335 0.028062 0.059587006 -0.05359269 -0.055160157 -0.0751502 -0.054264337
-0.019072052 -0.062192492 0.061339464 0.045389123 -0.050401445 -0.04803133 0.05562864 -0.031471133
-0.054341488 -0.043940645 0.050615046 0.023142152 -0.020384505 0.06407964 -0.054801423 -0.056625336
-0.011044063 0.03338114 -0.036431607 0.041872904 0.035785608 0.057436444 0.06465606 -0.031694796
0.044793505 -0.047632415 0.05678791 0.048853744 -0.061612166 -0.044387937 -0.05855207 -0.045506593

bn2.running_mean f4 [64]
00000000: 9d38 343f 6ebf b5be ad50 853e 4101 d53e
00000010: e45b 283e 39f8 95be 5f85 19bf 437a 633d
00000020: bf78 ffbe 18e1 f53e 252e 8dbc 7938 0dbc
00000030: 50fc f13e 9565 363f 6550 bf3e 5213 97bd
00000040: 91d5 f13e 4582 fa3e f23d 243f 900d adbe
00000050: f285 49be 2992 a73e aa6b 3ebd de99 5abe
00000060: d400 abbe 2eed 2d3f 12b9 313f b926 1c3f
00000070: b21d f5be 5c59 f3bb 96b9 ffbe f016 783f
00000080: 38dd 933e 48af 83be ffa7 fa3e 3a01 333f
00000090: 3338 123f 473a 143f 92d9 583e 00d7 393f
000000a0: 710d 6d3f ebf6 5e3f 1641 aebb 29a7 d23e
000000b0: 7466 003f af2a 42bd 5e84 c2be 0b34 133f
000000c0: b22f 95bd 3e21 6f3f 342f d13d b77b 72bd
000000d0: ad9d 9cbe ddd2 0dbf 8fa7 99bc 84bd 83be
000000e0: ee4a a33d ba2a 173f 5e6e c5bd ae5f 25be
000000f0: 232f 4cbf 4e51 433e 7202 b73d 32ec 803e
0.70398885 -0.35497612 0.26038113 0.4160252 0.16441303 -0.2929094 -0.59969133 0.05553652
-0.4989681 0.48023295 -0.017233917 -0.008619421 0.47262812 0.7124875 0.37366024 -0.07376732
0.4723325 0.48927513 0.6415702 -0.3379941 -0.19680002 0.327287 -0.046489395 -0.21347758
-0.3339907 0.6794003 0.6942302 0.60996586 -0.47874218 -0.007426424 -0.49946278 0.9691
0.28879714 -0.25719666 0.48956296 0.69923747 0.57117003 0.57901424 0.21176746 0.7259369
0.92598635 0.87095517 -0.0053178174 0.41143158 0.5015633 -0.047403987 -0.37991613 0.57501286
-0.07284488 0.934101 0.102140814 -0.059200015 -0.30589047 -0.55399877 -0.018756656 -0.25730526
0.07973276 0.5904957 -0.096401915 -0.1614978 -0.79759425 0.19073984 0.08936013 0.25180203

bn2.running_var f4 [64]
00000000: 0e3f 463e 6fd6 b63e fa2a b83e e56b 213f
00000010: 1782 843e fd88 953e 45a0 ab3e 0e95 6c3e
00000020: 3bd1 4d3f 75b6 da3e 2d06 8b3e 4604 c93e
00000030: ef63 723e b9ed dd3e a1cb e83e c172 2a3f
00000040: 52be cb3e f1b5 e23e ae8e 8d3e c9b4 383e
00000050: 1769 a03e b56a 813e 9ae2 b63e 9d42 7c3e
00000060: 3de6 193f bed2 a33e d756 213f 696d 133f
00000070: dc8a 173f 17fc cf3e 1096 d63e c189 c63e
00000080: 5342 db3e a852 853e b294 a43e ac4c a43e
00000090: f194 db3e e043 1f3e 8af5 bd3e 1176 b63e
000000a0: 8ba8 bf3e f15d 893e 98d5 c63e c65a c03e
000000b0: baa5 023f 728e a73e 2fc1 c03e 0efc 5c3e
000000c0: 2f49 a33e ab20 c53e ae31 e13e f8e7 053f
000000d0: 82ed e93e 63c2 e23e 300d 023f 4f96 6c3e
000000e0: e60a aa3e ed9f d43e bc7d 013f 6a72 bd3e
000000f0: 893a 033f 4fdb e23e 84ff 9c3e 6b1c d03e
0.19359991 0.35710475 0.3597029 0.6305526 0.258805 0.29206076 0.33520713 0.23103735
0.80397385 0.4271733 0.2715315 0.39261073 0.23670934 0.4334543 0.45467857 0.6658135
0.3979364 0.44279435 0.27647918 0.18037714 0.31330177 0.25276724 0.35719758 0.24634786
0.6011694 0.3199672 0.6302313 0.5758882 0.5919626 0.40622017 0.41911364 0.38776973
0.4282404 0.26039624 0.32144696 0.32089746 0.4288707 0.15553236 0.37101394 0.35636953
0.37433276 0.26829484 0.38834834 0.37569255 0.5103413 0.32725865 0.37647387 0.21580526
0.31891772 0.38501486 0.43983215 0.5230708 0.45689017 0.4428893 0.5080137 0.23104213
0.3321144 0.41528264 0.5058248 0.37001354 0.5126119 0.44307944 0.30663693 0.4064668

classifier.weight f4 [10, 64]
00000000: cf5e 9c3d a3b7 e43d e33e 4f3d d00d 183d
00000010: 795f 113e 9df1 20bd 3001 2cbe c753 e1bd
00000020: da5b 373e 3241 6fbc be6c 92bd 977e ec3d
00000030: fbdd 9dbd b070 873d 5e37 823d c3c8 a4bd
00000040: 11d7 c6bb 41ff bfbd 7940 083e 3be4 00be
00000050: 031a e3bc 6a6a c4bc e556 0cbe 471b 9dbd
00000060: 473a 09be b881 e4bd 178e 203e e90d 1ebd
00000070: 765a a63d ee3a 2dbe 4d84 833d 8906 8ebd
00000080: ac2e 05be ae2d bd3d 360e c1bd 6f69 52bc
00000090: 3fbb 9cbd 337d df3d 680d 403e 1b1b 19be
000000a0: f05e 9dbd 1241 12be 14f7 0c3d 4fb7 96bc
000000b0: 0ac6 023d 88cf 8ebc 0e46 42bd ded8 cd3d
000000c0: 0ea4 f13b 7a07 4c3c 6ba1 34bc e6aa e9bc
000000d0: 58f2 aabc a088 a2bd 85ab 5ebd d139 1d3d
000000e0: 4b92 3cbd dc2f 06bc b7c9 1bbe 2850 e93d
000000f0: 0da1 703d 5798 03bd 732a ddbd b219 dcbd
00000100: a43f b4bc e4e5 97bc d4bc 1abe 7d72 efbd
00000110: ffbf 3d3e 2cb9 353e 99aa 1dbe c175 303d
00000120: 4acd b53d cdbf 913d 156d 023e 7cb0 be3d
00000130: 311f 603d c463 dabc 56de b5bd 7525 80bc
00000140: 3e51 4bbc f6d7 77bd f07f 923c 366c 1b3d
00000150: 1a19 013e 6107 043b 790c f9bd 1585 553d
00000160: d5b3 493d 30b7 e53d e06d 6d3c 11f0 27bd
00000170: ed2b 443e 7463 8b3c b999 4bbd 707a 81bd
00000180: 1a58 b0bd 3a9f 88bc a1f8 0bbd 47ab b63d
00000190: 0259 b73d 41e4 1e3c de4e b93d a39b 0bbe
000001a0: a209 cdbd bf56 95bd c785 0abe a1c6 053d
000001b0: 3e41 19bd 3bd1 f03c ab35 49bb 7a38 d7ba
000001c0: 8ca6 9b3c 9f75 18bd 1c1f dcbd f171 30bd
000001d0: 9c1f 55bd 4a13 0d3d 111e bf3d 387b 0b3e
000001e0: 6ead 28bc a79a 253e f332 e6bc c845 523d
000001f0: fc09 403d d123 713d c32d 73bd afd1 2f3c
00000200: c69b 273c 52ec 443d 80b4 063e 8ccc dc3c
00000210: 61c3 cbbd d17b 80bd c3f0 d8bc ee79 08be
00000220: ee79 a13c da76 8c3d 6942 243d 3488 19be
00000230: 2b54 74bd 3318 dcbd b121 e73a 85f1 f2bc
00000240: 5d7e 513d 8448 203d 39f5 213e cb70 ee3d
00000250: 3566 05be 0b22 be3d 3577 29bd b661 2abc
00000260: 2e10 003e d389 3e3c 25c9 dd3c 2326 023a
00000270: d3c5 22be 7ccb 67bd 7674 bd3d 8b0c babd
00000280: d339 82bd 699a 003c 2d97 01be bfb8 c0bd
00000290: 80d8 413d 6dba d93d d9e4 20be 9aa1 34bd
000002a0: 5c8f 5fbd d1c1 e93c 6e6d 9dbd a612 fe3d
000002b0: 85ea 223e fed2 943d 2555 8b3c 044f 62bd
000002c0: 3e55 82bc 4715 153d 6db9 fa3d b8a7 14be
000002d0: ab08 9dbd 294f 053e e63d c83d 6f67 1b3d
000002e0: 77cc 9bbd e683 e3bd 239f 32bd f9e4 0abe
000002f0: 91f2 64bd 6958 703d 5e65 bbbd aa75 ac3c
00000300: 3b32 abbd bc21 8dbd 97ee 5f3c cdee 163e
00000310: 5cdd a5bc 0119 bc3c 910d e9bd 8009 c63d
00000320: aa58 75bc 56d3 063d 5e4b 0b3e 886f a8bd
00000330: 8dd6 583d aa94 3a3d dd5b 77bd e54d c23d
00000340: d74e 863d 78c8 3cbc 9f47 f1bc 35f9 1fbd
00000350: 874c 883c e63e b73d a5ed bd3c ed61 c33c
00000360: 5f8c e5bd b4e7 893c c69f 153d 9a74 173e
00000370: d144 17be 7746 303b 394b e0bd 7c10 233d
00000380: eb3b ca3d df1c c3bd 8b2e 153e 69fe 39bd
00000390: 34bc a33d bf6f 243c 50d0 92bd a68d a53c
000003a0: 614c 1c3e 5235 0f3d c557 56bd 65ec c93d
000003b0: f21f 26bd 0b96 153e d3e2 1cbe 2063 a23d
000003c0: f9da 80bd a0c6 5fbd b410 263d 366d 0abe
000003d0: 8003 b33d 778d cd3d 33f2 f6bc aab9 5d3c
000003e0: c0d3 b8bc 3dbb 5d3b 1bfc 243e de36 203c
000003f0: 2cd2 21be 4d0b ad3d 2e7a 58bd e971 dcbb
0.07635271 0.111678384 0.050597083 0.037122548 0.14196576 -0.03929292 -0.16797328 -0.110023074
0.17906132 -0.014602946 -0.07149647 0.115475826 -0.07708355 0.0661329 0.06358217 -0.08046105
-0.0060681184 -0.09374858 0.13305844 -0.12587063 -0.027722364 -0.023976523 -0.13705023 -0.07671218
-0.13401137 -0.111575544 0.15679203 -0.038587485 0.08122723 -0.16917011 0.06421719 -0.0693484
-0.13006085 0.09237228 -0.09426539 -0.01284252 -0.07652902 0.10912552 0.18755114 -0.14951746
-0.076841235 -0.14282635 0.03441532 -0.018397955 0.031927146 -0.017432943 -0.04743009 0.1005113
0.007374293 0.012452954 -0.011024813 -0.028523874 -0.020867512 -0.079362154 -0.054362793 0.038385216
-0.046037953 -0.0081901215 -0.15213667 0.11392242 0.05874734 -0.032127704 -0.10799112 -0.107470885
-0.022003002 -0.018542238 -0.15111095 -0.11691759 0.18530272 0.17746419 -0.15397109 0.04308105
0.088770464 0.07116661 0.12736924 0.093110055 0.054717246 -0.0266589 -0.08880298 -0.01564286
-0.012409506 -0.06050869 0.017883271 0.037944995 0.12607232 0.0020146 -0.12160582 0.05212887
0.049243767 0.11216581 0.014491528 -0.04100043 0.19157381 0.017015196 -0.04970715 -0.06322181
-0.08610554 -0.016677488 -0.034172658 0.08919387 0.08952524 0.009697975 0.09048246 -0.1363359
-0.10011603 -0.07291936 -0.13527595 0.03266013 -0.037415735 0.029396644 -0.0030702155 -0.001642003
0.019000314 -0.037221547 -0.10748121 -0.043077413 -0.0520321 0.034442224 0.093319066 0.13621223
-0.010295255 0.16172276 -0.028100466 0.05133608 0.04688452 0.058872048 -0.059369814 0.010731145
0.01023001 0.048076935 0.13154793 0.026953004 -0.09949375 -0.06273616 -0.026481992 -0.13327762
0.01971146 0.06858607 0.040102396 -0.14993364 -0.05965058 -0.10746803 0.0017633942 -0.029656181
0.0511459 0.039131656 0.15816201 0.11642607 -0.1302727 0.09283837 -0.04137345 -0.010399273
0.12506172 0.01162954 0.027073452 0.0004964789 -0.15895776 -0.056590542 0.09250729 -0.09084424
-0.06358685 0.007849314 -0.12655325 -0.094102375 0.04732561 0.10631261 -0.15712298 -0.044099428
-0.054580078 0.028534802 -0.07686888 0.12405901 0.15909775 0.07266806 0.017008374 -0.055251136
-0.015909787 0.036397245 0.122423984 -0.14517105 -0.07667669 0.13018478 0.09777431 0.03794044
-0.07607358 -0.11109142 -0.043608796 -0.13563909 -0.05589539 0.058678064 -0.09150194 0.0210522
-0.0835919 -0.068912 0.013667724 0.14739533 -0.020247154 0.022961142 -0.11379541 0.09669781
-0.014974752 0.03291639 0.13602969 -0.08224398 0.052938987 0.045551933 -0.060390342 0.094875135
0.06558006 -0.011522405 -0.029453097 -0.03905602 0.016638054 0.08947544 0.023184607 0.023850406
-0.11208414 0.016834117 0.036529325 0.14790574 -0.14772345 0.002689747 -0.109518476 0.039810643
0.0987471 -0.09526991 0.14568536 -0.04540864 0.07994881 0.010036408 -0.07168639 0.020209145
0.15263511 0.03496296 -0.052329797 0.09859542 -0.04055781 0.14608018 -0.15320902 0.07929063
-0.06291766 -0.054632783 0.040543273 -0.13518223 0.08740902 0.10036748 -0.030144786 0.013533035
-0.022561908 0.0033833527 0.16111796 0.009778706 -0.1580283 0.08449421 -0.052850895 -0.0067274463

classifier.bias f4 [10]
00000000: a631 4b3d 9125 a53c c346 013d 5df5 b23d
00000010: 2dea ecbb b1a0 bf3c 0894 13bd bbfa 153d
00000020: 66b1 03bd 9718 9c3c
0.049607895 0.020159515 0.031561624 0.087382056 -0.0072300644 0.023392053 -0.036029845 0.03661607
-0.032151602 0.019054694

exp_avg f4 [100, 64]
00000000: 4cbc 86ba 0161 b737 4451 53bb 5448 f936
00000010: 612a a239 3c0e 4839 7481 fb38 e61d e73a
00000020: e28c bbba 9726 69ba 0fa0 1ab9 1d6f 773a
00000030: 0756 a738 5453 073a d651 6fb7 7ade 683a
00000040: 60d2 19bb 379d 4d3b ec30 02ba 7793 5539
00000050: 3b7e 803a 3f78 6cba 6286 86bb 76fe 15ba
00000060: b4a9 cb39 55d4 3a3b f6d4 b739 28e4 52bb
00000070: 26b2 853a 42a7 18ba 3ea5 ea3b 503b 3dbb
00000080: e280 d839 534c cb3a 241f 0039 f4f6 c7b8
00000090: 9b29 dc3a 021e 0fbb 4a63 8839 fe3d 0d38
000000a0: 5375 9eb9 dcca 9c3b 19de aeb9 d6ed a3b9
000000b0: 7861 cd39 341e debb 3d8e e639 1784 b33b
000000c0: 2698 e13a 57f1 6fba 0845 7c3b dbc5 2bbb
000000d0: 5cbd 6bb9 b14c 8fbb bf0a a637 e4f7 da38
000000e0: 50ad 73bb 2904 b139 e819 80b9 1de5 00bb
000000f0: bf82 b7ba 1a66 a93a 1986 5f3a 2827 1a3b
00000100: cb2f 17ba 8685 56ba 3a4f 2abb e376 413a
00000110: f719 17b9 2017 3eba 665d 2139 1252 a23a
00000120: 5c9c f9ba 4608 b2b9 3fba 19b8 9284 a339
00000130: 4bc2 0639 0e20 2139 3e00 da39 2daf c13a
00000140: d0d4 f0ba 0c23 233b 6576 4ab8 dc89 61b9
00000150: 235f c0b9 8f5c 03ba b067 52bb c1da e1b8
00000160: b4ab 6539 a30b 243b e9be 043a 5738 13bb
00000170: 7a4f 6fb8 62fb 81b9 e9ef c93b d516 2fbb
00000180: c2c6 593a 1ac1 913a 8db6 e839 3590 1d39
00000190: e691 b53a dcd9 03bb 0a59 77b8 849c 013a
000001a0: 1c8f c037 5029 9e3b cba9 bdb9 b6de 0c3a
000001b0: f216 573a 8592 babb d4ea b5b9 ff11 aa3b
000001c0: d206 f73a 3262 78ba 1d95 893b fedd 43bb
000001d0: faed 5fba 4642 abbb a102 3f39 6238 bf38
000001e0: afcd 75bb f2b8 9439 872a 003a cba4 1bbb
000001f0: 91e6 d0ba b4cb a73a 80c1 a73a 5194 303b
00000200: 3a14 57ba 20d5 b3b9 10c2 4bbb d4ee df39
00000210: e43f e739 fd5a aa39 1d85 86b9 a3d1 f53a
00000220: 906c c1ba b4e0 64b9 63eb 3b39 94a2 743a
00000230: f7fb bab9 acfc 4b3a a732 5738 dce4 cd3a
00000240: 4ee1 27bb 21ed 4f3b 7a08 02ba b06b 1039
00000250: 62d7 143a 3f6a 7dba 75e9 6abb 25d9 e6b9
00000260: d96e fcb8 74f2 3d3b cf65 8e3a d429 2bbb
00000270: a640 263a 408f 6cba 9070 ca3b 861a 29bb
00000280: 3fef 853a 802a e83a 3889 423a 4330 ae39
00000290: 5279 ff3a 927e f7ba 0290 a639 4bad bf39
000002a0: 2075 b9b6 7b48 953b ed0d 7cba 8ac0 e739
000002b0: 61ab 453a deee c0bb c161 f7b7 3fc8 a83b
000002c0: e0cb ad3a 68cf c0b9 e8c6 833b 543d 30bb
000002d0: 64ef 18b8 952c 9cbb c88f 403a ba88 053a
000002e0: c9b1 57bb 43e6 2a3a 64d4 9d39 71bb eaba
000002f0: 27df edba b922 eb3a d83e a33a a565 043b
00000300: d964 22ba 42ea e4ba 48de 1ebb 385b 993a
00000310: 0b80 54ba 41e6 09bb d943 dd39 89d0 933a
00000320: 3f16 4abb aeeb 8337 9197 e6b9 8f45 48ba
00000330: 2a3c be39 d611 6839 8e2f 4a3a 7007 e83a
00000340: 999f f2ba 1299 263b 33af 4db7 5cba 5fba
00000350: 12e0 e2ba 51d8 1cb9 63db 61bb cfb7 bc39
00000360: 4a88 8039 247e 303b 2c46 a439 01a3 10bb
00000370: 2c2e 55ba a409 0538 f9b7 e93b 3c5f 55bb
00000380: d29a c83a 9e1b cc39 790d c239 89bd 45b9
00000390: dc07 ae3a 6055 06bb 0229 d4ba 7e8e 683a
000003a0: 3361 153a f531 bb3b dbfd fbb9 b8f7 863a
000003b0: a9ff 8a3a 085a cdbb bcd8 69ba 5f62 d03b
000003c0: 225f 1d3b 82b1 94ba 9d07 9f3b 2c20 97bb
000003d0: c59a beba 3503 cebb 303a 7c38 dd91 dcb7
000003e0: 6eb5 bcbb f0b6 f038 2973 5d3a 9be2 7dbb
000003f0: 0eb0 03bb 9ffc c13a d98e b13a ebc6 523b
-0.0010279506 2.1860471e-05 -0.0032244483 7.4291984e-06 0.00030930623 0.00019078789 0.00011992725 0.0017632812
-0.0014308954 -0.0008893995 -0.00014746211 0.00094388594 7.9792044e-05 0.0005162258 -1.4264564e-05 0.0008883249
-0.002347134 0.0031374225 -0.00049663964 0.00020368198 0.0009803245 -0.00090206036 -0.004105375 -0.00057218166
0.00038845616 0.0028507907 0.00035063148 -0.0032179449 0.0010200187 -0.0005823263 0.0071608117 -0.0028874464
0.00041294756 0.0015510417 0.00012218632 -9.535058e-05 0.0016797067 -0.0021837954 0.00026013918 3.3674754e-05
-0.00030223522 0.004784925 -0.00033353342 -0.00031266984 0.00039173267 -0.006778503 0.00043974994 0.005478393
0.0017211481 -0.0009153089 0.0038493294 -0.002621046 -0.00022481888 -0.004373156 1.9793746e-05 0.00010441223
-0.003718216 0.0003376317 -0.00024433364 -0.0019667812 -0.0014000757 0.0012924105 0.0008526757 0.0023521874
-0.00057673146 -0.00081833487 -0.0025987164 0.0007380081 -0.00014410155 -0.00072513707 0.0001538895 0.0012384078
-0.0019043791 -0.0003395697 -3.6651498e-05 0.00031188555 0.00012851616 0.00015366098 0.0004158038 0.0014776938
-0.001837397 0.0024892716 -4.8270816e-05 -0.00021509029 -0.00036691976 -0.0005011046 -0.003210526 -0.00010769582
0.00021903106 0.002503135 0.0005063848 -0.0022464 -5.705606e-05 -0.00024792092 0.0061626327 -0.002671649
0.000830751 0.0011120171 0.000443865 0.00015026408 0.0013852685 -0.0020118868 -5.8972313e-05 0.0004944282
2.2954824e-05 0.004826702 -0.00036175395 0.00053737627 0.0008205018 -0.005693736 -0.0003469797 0.0051901336
0.0018846637 -0.00094750815 0.004198684 -0.0029886956 -0.0008542236 -0.0052264063 0.00018216159 9.118092e-05
-0.003750663 0.00028366555 0.00048891496 -0.0023749347 -0.0015937855 0.0012801797 0.0012798756 0.0026943872
-0.0008204613 -0.0003430033 -0.0031091012 0.00042711815 0.00044107356 0.00032492718 -0.0002565765 0.0018754493
-0.0014757086 -0.00021827483 0.00017921398 0.00093320874 -0.00035664413 0.00077814865 5.1307168e-05 0.0015708464
-0.002561647 0.0031727033 -0.00049603696 0.00013773027 0.00056778465 -0.0009667016 -0.0035844718 -0.00044030804
-0.000120369434 0.0028983625 0.0010864082 -0.002611746 0.0006342031 -0.00090240315 0.0061779693 -0.0025803163
0.0010218396 0.0017712861 0.000742096 0.00033223824 0.0019491112 -0.0018882325 0.00031769281 0.00036559472
-5.527065e-06 0.0045557595 -0.0009615112 0.00044203206 0.0007540491 -0.00588785 -2.9490215e-05 0.0051508243
0.0013259612 -0.00036775623 0.004021514 -0.0026892023 -3.6462574e-05 -0.004766057 0.0007345644 0.0005093921
-0.0032912365 0.0006519297 0.00030103617 -0.0017908645 -0.001814817 0.0017939425 0.0012454642 0.0020202186
-0.0006194837 -0.0017464834 -0.0024241377 0.0011700159 -0.0008106238 -0.0021041783 0.00042202955 0.0011277358
-0.0030836014 1.5726164e-05 -0.00043981944 -0.00076397596 0.0003628445 0.00022131889 0.00077127747 0.0017702412
-0.0018510699 0.0025420827 -1.2259744e-05 -0.00085345446 -0.001730921 -0.00014957903 -0.003446304 0.00035995102
0.00024515606 0.0026930654 0.000313328 -0.0022069814 -0.00081321853 3.171865e-05 0.007132527 -0.0032557985
0.0015304929 0.00038930489 0.000370126 -0.00018857991 0.0013277489 -0.0020497665 -0.0016186538 0.00088713306
0.0005698383 0.0057127425 -0.00048063588 0.0010297215 0.0010604757 -0.006266836 -0.00089205406 0.006359383
0.0024013002 -0.0011344405 0.0048532025 -0.0046119895 -0.0014541975 -0.0062870034 6.0135673e-05 -2.6293967e-05
-0.005758933 0.000114781666 0.0008447641 -0.0038739804 -0.002009395 0.0014800018 0.00135466 0.0032162021
