checkpoints/checkpoint_epoch_50.pt (torch, 547720 bytes, 37 tensors)

prototypes f4 [100, 64]
00000000: e608 083e 9932 8bbe 0975 e3bd 29cb 0d40
00000010: 8383 1fbf 54b4 353f 88b1 503e ba79 5ebf
00000020: 9647 883d 6b81 3c40 96a0 81bf 7605 75bf
00000030: cef4 0ebf 79c3 82bf c77b 29bf 7f42 d53f
00000040: 92b1 40bf 7270 ce3e a179 7a3f 0c9d c63f
00000050: 8389 0bc0 3334 49be 0a13 debe aece 0b3e
00000060: 40fa 8a3e 8806 893e 19f1 703e 3d59 413f
00000070: 7dcc fbbe 8bd9 133f 91ad cabe fd95 943e
00000080: cd2e f0bf af82 c03f 89b2 b3be d28c 7d3e
00000090: a137 85be 946d 56bf 00ac 663f ece2 f5bf
000000a0: 1071 f9be 7635 7b3d 13bb 943f 18af da3e
000000b0: 9b2e 9d3f 4975 3bbe bf38 72be 7e3f 6f3e
000000c0: d45c f33f 8504 f0be bed5 743e de04 17bf
000000d0: f3dc 30bf fc91 53bf 4aca 19bf cb08 0a3f
000000e0: 83c4 a33f f991 83be 1db4 bf3d fbf6 f3bf
000000f0: deb1 6bbe 370d 633f 446b 92be adee ae3f
00000100: e950 7fbd 6178 e63f c8b6 90bf 120f 223e
00000110: 5411 a7bf 239b 69bf 18a4 d4be 0698 4e3d
00000120: 0851 e7be e3f5 0ebe 884f 073e 77ed 7d3f
00000130: 605c ce3c 8777 5c3f 57ed 7fbf b8ff 8abe
00000140: fa48 063f abb5 483f 2298 53bf 9f9c 08bf
00000150: f4ea af3e 7410 00c0 2c1f 5e3f 806c ec3e
00000160: 1b44 9abf 3cda e33f 3aec c2bf ae0b 5fbe
00000170: 4716 d43f 497f f03e 0dab 1e3f 32fd 02bf
00000180: e835 833f dde0 86bf 0dc8 e5bf 3a94 20be
00000190: 290b b03f 94e9 78bf ead2 c7be dd3d cebe
000001a0: 11c4 94bf d7c0 9ebf ba3a 84bc 6e52 dbbe
000001b0: 6425 9cbf 63ce 073e 7272 bc3e dc49 f03f
000001c0: 7159 debd 32b3 89be 670c efbf 1d18 87bf
000001d0: abf2 81bd 287e 8d3f 9c92 f5bd bd5d 093f
000001e0: afee a5bf 02d3 773d baf7 abbf 1dd6 2abf
000001f0: 699d 85bf 3cc3 5fbf ffe0 fabf 1f3c 8d3f
00000200: 9803 ec3e 8a3d 2dbf 3912 193f a75f e8bf
00000210: cf71 f53e 79f6 0a3f 7cc5 8d3b 1f19 203f
00000220: c288 b9bf f707 1c3c 7a87 2bbf 09d7 0f3e
00000230: 2ac9 c53f 9364 c53c 6b1a eebf 49f4 07bf
00000240: 2a64 473f 9b76 ebbf 187f 923f 0746 2b3d
00000250: 76cf f53d f06e 59bd 320f 62bf 9ea7 4c40
00000260: b711 ae3f 3b36 a3be 23d3 a53e 85c3 8fbf
00000270: 33fe d0bc 4302 62bf fbb3 983f 8d78 cdbf
00000280: 9a1d 803f 09ac aa3d 8bc1 06c0 4bcc 5e3f
00000290: e908 de3c 6365 40bf e4a2 86bf 87eb 00c0
000002a0: 3e1b 27bc e0a0 72bf 8330 873f 5547 debc
000002b0: c6ed a1bf aea7 c4be 11da babe bbb5 0040
000002c0: a131 1c3f 1a1a b13e f126 10bf 99e7 e8bf
000002d0: 1bc4 23bf 475b ddbd f9d6 6cbf 25b7 0fbf
000002e0: 9341 2dbf 18f6 71bf 96b0 b5be 5ebb 87bf
000002f0: ddfe 1abf a8d7 523f 6075 003d ef92 753f
00000300: dc6a c8bd 3137 aa3f 15e7 723e 9373 9c3f
00000310: 4568 a93e 0a59 0540 98ce fbbe 010e 863e
00000320: 4fb4 5c40 72e1 f43f b7af 41c0 382a c23e
00000330: c4d7 b93e 8f0a b13e eac1 613f ba20 5e3e
00000340: 5cee bebf 91f0 9fbf 7cbe e0bf 786a c53e
00000350: ae72 353f 6826 62be 2885 8cbe 925a f13e
00000360: 864a 193f d25f 80bf e603 76bf d376 d7be
00000370: 9edb af3f 6832 563d 704d 8c3f eaba 0dbf
00000380: 35b8 603f 2df6 f13f 0aec 71be 40ee 90bf
00000390: e177 00bf 973a 473f b117 a33d 9367 3b3f
000003a0: 50d7 c43f 2603 a7bf f0ed d03e 3ba0 3d3f
000003b0: cd7c 25bf 103c 08c0 cf44 a03e 4b48 063f
000003c0: 7c6b e9bf 2d29 28bf 8ef8 67bf 073c ea3e
000003d0: d8a5 03bb 01fe df3e a7b2 203f a215 c4bd
000003e0: 11f9 2d3f b2ef 73bf 4f03 d0be b2fe 813f
000003f0: 5fd7 a93f f0c9 023f 38c7 c3bf 50b2 9ebf
0.13284644 -0.2718704 -0.11106307 2.215525 -0.62310046 0.70978284 0.20380223 -0.8690449
0.06654279 2.945399 -1.0127132 -0.9571146 -0.5584229 -1.0215904 -0.66204494 1.6660918
-0.7527095 0.40320164 0.9784184 1.5516677 -2.180268 -0.19648819 -0.433739 0.13653061
0.2714405 0.26762795 0.23529471 0.7552679 -0.4917945 0.5775382 -0.39585546 0.29020682
-1.8764282 1.5039881 -0.3509715 0.2476075 -0.26019004 -0.8376095 0.901062 -1.9209876
-0.48719072 0.06133028 1.161959 0.4271171 1.2279848 -0.1830646 -0.2365446 0.23364064
1.9012704 -0.46878448 0.23909661 -0.589918 -0.6908714 -0.8264463 -0.60074294 0.53919667
1.2794346 -0.25697306 0.09360526 -1.9059747 -0.2301707 0.8869204 -0.28597462 1.3666588
-0.06233302 1.8005487 -1.130578 0.15826061 -1.3052163 -0.91252345 -0.41531444 0.05043795
-0.4517901 -0.13960986 0.13213933 0.9919047 0.025190532 0.86119884 -0.99971527 -0.27148223
0.52455103 0.78402203 -0.8265401 -0.53363985 0.34358943 -2.0010042 0.86766315 0.4617653
-1.2052034 1.7800975 -1.5228341 -0.21781799 1.6569299 0.4697211 0.6197975 -0.51167595
1.0250826 -1.0537373 -1.7951676 -0.15681544 1.3753406 -0.9723141 -0.39028102 -0.40281573
-1.1622335 -1.24026 -0.016141284 -0.42836326 -1.2198911 0.13262324 0.36806065 1.877254
-0.10856903 -0.26894528 -1.867566 -1.0554234 -0.06345113 1.1054125 -0.11990854 0.5365866
-1.2963465 0.060503967 -1.3434975 -0.6673296 -1.0438663 -0.8740728 -1.9599913 1.1033973
0.46096492 -0.67672026 0.5979343 -1.8154191 0.47938392 0.5428234 0.0043265205 0.6253833
-1.449486 0.009523383 -0.67003596 0.14046873 1.5452015 0.02409581 -1.8601812 -0.53107125
0.77887213 -1.839557 1.1445036 0.04181483 0.12002461 -0.053084314 -0.88304436 3.1977305
1.3599156 -0.31877312 0.32387647 -1.1231543 -0.025511837 -0.882847 1.1929926 -1.6052414
1.0009034 0.08333594 -2.105563 0.87030476 0.027103858 -0.75154704 -1.051846 -2.0143754
-0.010199366 -0.94776726 1.056168 -0.027133623 -1.2650688 -0.3840918 -0.36494496 2.011092
0.6101323 0.34590226 -0.5630942 -1.8195678 -0.6397111 -0.108084254 -0.9251552 -0.5613883
-0.67678183 -0.94516134 -0.35486287 -1.0604055 -0.6054514 0.82360315 0.031361938 0.9592733
-0.09786007 1.3298093 0.23720963 1.222277 0.33087364 2.0835595 -0.49181056 0.2618256
3.4485052 1.91313 -3.0263498 0.37922835 0.3629743 0.34578368 0.88186514 0.21692172
-1.4916492 -1.249529 -1.7558131 0.38557792 0.7087811 -0.22084963 -0.2744534 0.47139412
0.5987934 -1.0029242 -0.960997 -0.42082843 1.3738897 0.052294165 1.0961132 -0.55363333
0.8778108 1.8903252 -0.23625198 -1.1322708 -0.5018292 0.77823776 0.07963503 0.73204917
1.5378208 -1.3047836 0.40806532 0.7407262 -0.64643556 -2.128666 0.31302497 0.5245406
-1.8235927 -0.6568783 -0.9061364 0.45748922 -0.0020087864 0.43748477 0.627726 -0.09574439
0.6795817 -0.9528762 -0.40627524 1.0155852 1.3268851 0.5108938 -1.5295172 -1.2398167

conv1.bias f4 [64]
00000000: 2fcc c1b8 6c8b 9db8 109d 3cb8 1f18 d1b9
00000010: 852b 9eb7 1ff0 a6b8 4328 6938 2e38 0939
00000020: dc28 0139 c258 e0b7 fd34 2639 7dec 8eb9
00000030: 1d57 3ab7 30a3 44b8 30c4 a9b8 702e 38b7
00000040: 1fdf 0b39 357c 2f39 354f b338 3f5a 0cb9
00000050: deac 0f39 b4ae 8738 12e6 1837 a206 d337
00000060: b87b 4839 0014 2833 f528 f138 142d 5db8
00000070: c5de a9b8 d08e 7f38 7fe8 8a38 9065 b835
00000080: 5aae 01b9 0afc 25b7 503f e038 7739 feb8
00000090: 9ad7 1036 cbd0 5b39 8f87 73b8 f0e0 bcb4
000000a0: 99d4 8d38 abe6 62b8 f69d 5e38 85ba 3b38
000000b0: 5a78 cbb8 6e8e 5a36 3a93 f5b7 97e3 30b9
000000c0: 7474 9ab6 6c66 9e38 683e 35b9 88ff 4c39
000000d0: 1a61 b1b7 7f3b 0039 9f68 ac38 cc5f 9b36
000000e0: 75d3 35b9 e05f 0e38 0c8b 3638 86b3 2b38
000000f0: a02e 1938 a25b e536 940d 45b8 bc9a ab37
-9.240989e-05 -7.512313e-05 -4.496897e-05 -0.00039881558 -1.8855333e-05 -7.960223e-05 5.5589026e-05 0.00013086267
0.0001231762 -2.6744212e-05 0.00015850733 -0.00027260548 -1.1106747e-05 -4.688202e-05 -8.095091e-05 -1.0978067e-05
0.00013339192 0.00016735571 8.5501386e-05 -0.0001338506 0.00013701941 6.4698426e-05 9.113473e-06 2.5156249e-05
0.00019119575 3.9133738e-08 0.00011499404 -5.273249e-05 -8.100042e-05 6.0929742e-05 6.6236586e-05 1.3738627e-06
-0.0001236735 -9.893449e-06 0.00010692945 -0.000121223675 2.1583169e-06 0.00020963249 -5.8061964e-05 -3.5181392e-07
6.763003e-05 -5.4097425e-05 5.3076037e-05 4.4757984e-05 -9.7022115e-05 3.2567436e-06 -2.9274834e-05 -0.00016869452
-4.6031146e-06 7.553105e-05 -0.00017284753 0.00019550149 -2.114526e-05 0.00012229195 8.221086e-05 4.630512e-06
-0.00017340279 3.394473e-05 4.352168e-05 4.093677e-05 3.6521466e-05 6.8353993e-06 -4.6981106e-05 2.0456842e-05

conv1.lin.weight f4 [64, 512]
00000000: 405c b0bc 5b46 d8bc 8447 51bd e03c 2ebd
00000010: 177b 96bd a90c c1bd 889e 073d 3f09 f9bc
00000020: ccde c13c a110 283d 7b68 cdbc 2538 863c
00000030: c66a 21bd e8e2 cfbd 414a 2d3c 9f61 8dbd
00000040: 023d babd 08f3 1bbd 28a2 01bd 9922 3d3d
00000050: f271 30bd 851e 903d 6908 b23b 574d d8b9
00000060: 6e06 d03b b500 70bd d345 d9bd 0a65 b9bd
00000070: 75c6 d7bc 1d8a 443c 20e9 003d fceb a6bb
00000080: 02f6 d43d a74e a23c bf64 553d b271 76bc
00000090: 5e33 45bd 0b73 11bd f22b c43d 8ddf 5a3d
000000a0: f1b3 693c c703 26bd d645 88bc aede 6b3c
000000b0: 2a5c a23d 7a9e 02bc a3c3 b4bd 5056 c93c
000000c0: 839d 4fbd 1b81 c2bc 765b babd 8329 463d
000000d0: 0c96 943d d6ae 66bb c223 553d 1a44 9abd
000000e0: a66f 85bd 74af 473d 922b 58bd 9b84 8bbd
000000f0: 951a 713d 7a77 e1bd a22a 5dbc 73f6 7ebc
00000100: 1bb4 6f3d e143 1b3d 98f7 35bd adf9 23bd
00000110: bcc8 883d 41f9 3b3d 24b0 a73b eb77 fcbb
00000120: 9489 043d 4cdd 04bc 3662 8abd 3048 d8bc
00000130: b42e 183d a1e9 1b3d d81a a1bd 1226 19bd
00000140: d3e0 b0bd 80d0 dbbb 60dd 143c 982e 95bc
00000150: 1a5c d0bc 1cf7 7b3c c5b5 de3d 6846 c63b
00000160: 00b9 e23c 1aa5 00bc 55a5 1e3d 8616 e4bd
00000170: 2e40 833d 8540 0dbd 4ebb 7abd aac3 5fbd
00000180: a570 bf3d 7769 5bbb 43ee 503d 07dd 903d
00000190: b7c7 bc3d 7f62 0b3c a12b b43c 8a98 c13d
000001a0: 885d ca3d fce9 643d 6f9d 6c3d 35a4 183d
000001b0: 4ec5 09bd 6204 f43c 06b6 7a3c c0f7 213d
000001c0: 8679 86bd f835 113d 86f4 4ebd f1fd 97bc
000001d0: a2df 3fbc df25 b93d 119a a93d 05ce 8cbd
000001e0: 4247 3cbd 8596 923d 6738 f0bc 5b27 50bd
000001f0: 16c8 5d3d 97a4 bc3d 25fd 62bd d6ac f4bc
00000200: 537b d73d fb8d 27bc e72a 9fbd 1fc4 4a3d
00000210: f14b 9d3d dbdc 8abd 7efd 25bd 27e7 493c
00000220: 5f71 b2bd 69dd c0bc 1789 9f3a 97bd 033d
00000230: c7df 84bd 0a82 7dbc 8594 46bd c916 69bd
00000240: 4b1f 7f3b dfc4 b9bc b033 173d 2665 66bc
00000250: c1f5 c43d cac3 e0bc 100f a93d e5f1 a3bd
00000260: 5b2a 7a3d 47d7 2d3d 5f65 5d3d 9d09 9a3d
00000270: 1a4d 243d fb6f adbd a014 80bc 7568 cc3d
00000280: 19d3 0d3d f9a3 76bd 71f0 a73c 60e6 bc3c
00000290: 677e cc3d f8ed b93d 954b 40bd d047 f13c
000002a0: 6fe8 f1ba 18fc 31bd 899f a93d 1439 40bd
000002b0: c94a 783d 9e36 84bc 8552 b73b d58c 1c3d
000002c0: 8108 a3bd 2ea5 17bd 2921 c4bd 5f6b 9c3a
000002d0: 8a05 7a3d bf18 b7bd 6297 f8bc b3d6 babc
000002e0: 306b 953c 18da 663d 840c c03d 95a9 4dbc
000002f0: d833 0ebd 8459 c93d cfde 17bd c536 a93c
00000300: 8afc c6bb 2cde 773d 6587 c03d c27a bfbd
00000310: c6cf 4b3d 35a4 8fbd c762 ef3c d25f 96bc
00000320: c6b2 a0bb 86c6 ebbc cac8 b3bd 4270 d53c
00000330: 8b0d 91bc 9532 fdbc 5ce8 be3d 29cc 8bbc
00000340: f61f 05bd 0945 38bd 420b 443d b095 ce3b
00000350: 4395 253b 217b 6ebd 8bb5 cabd 87a5 bcbd
00000360: 1b96 b4bc 9c33 6e3d b566 9c3d b183 d6bc
00000370: ea01 b23d 659e c7bd 794a 73bd e2fc bd3c
00000380: 72c4 45bc 98d7 99bd a3ee 9f3c a968 16bd
00000390: 610c 413d ae40 aa3d 4da9 85ba c220 82bd
000003a0: f1ec 37bd 2bd3 553d 9889 87bc 9ed7 c9bc
000003b0: 4397 0b3c 493b babd bcdf eebd 3bbf a5bc
000003c0: e3d2 9e3d 5484 bb3c b719 863d 8bc5 dbbd
000003d0: 61cd 34bd 020d 943c cf52 32bd 5ea1 d2bd
000003e0: f5db 8d3d f844 52bd 92c7 b5bd e128 183d
000003f0: 1fd3 e1bd d7d6 dc3d 7f50 b33c e63d 243d
-0.021528363 -0.026400736 -0.051093593 -0.042538524 -0.07347696 -0.09426243 0.03311017 -0.030399917
0.023665808 0.041031484 -0.025074234 0.016384194 -0.039408468 -0.10150701 0.010576786 -0.06903385
-0.090936676 -0.03807357 -0.031648785 0.046175573 -0.043077417 0.07037071 0.0054331315 -0.00041256353
0.0063484227 -0.058594424 -0.10609021 -0.09052475 -0.026339749 0.011995819 0.031472325 -0.0050940495
0.10398485 0.019812895 0.052098032 -0.0150417555 -0.04814469 -0.035510104 0.095786944 0.05343585
0.014264093 -0.040530946 -0.016634863 0.014396353 0.07927735 -0.007972354 -0.08826377 0.02457729
-0.050687324 -0.023743203 -0.09099476 0.048379432 0.07255182 -0.0035199425 0.052036054 -0.075325206
-0.06515436 0.04875131 -0.052775927 -0.06812402 0.05886324 -0.110091165 -0.013498934 -0.015561688
0.05852137 0.03790653 -0.044425577 -0.04003303 0.06678912 0.045892004 0.005117433 -0.007704725
0.032357767 -0.008109402 -0.067570135 -0.02640161 0.037153915 0.038064603 -0.07866448 -0.037389822
-0.08636632 -0.0067082047 0.009085983 -0.018210694 -0.025434542 0.01537874 0.108745135 0.0060508735
0.027676105 -0.007851863 0.03873189 -0.111371085 0.06408726 -0.03448536 -0.061213784 -0.05462996
0.09347657 -0.003347961 0.051008474 0.070734076 0.0921778 0.00850737 0.02199346 0.09452923
0.09881121 0.055887207 0.057767328 0.037265975 -0.03363543 0.029787246 0.015302187 0.039542913
-0.065661475 0.03545186 -0.050526164 -0.018553706 -0.011711033 0.090404265 0.08281339 -0.068752326
-0.045966394 0.071576156 -0.02932377 -0.050818782 0.054145895 0.092110805 -0.0554172 -0.02986757
0.10521569 -0.010226722 -0.07771855 0.049503442 0.076805 -0.06780406 -0.040524952 0.012323177
-0.0871303 -0.023543077 0.0012171593 0.03216323 -0.06487995 -0.015472898 -0.048481483 -0.056906495
0.0038928564 -0.022676883 0.036914527 -0.014062202 0.09617186 -0.02743711 0.08254826 -0.08005122
0.06107555 0.042441633 0.054051753 0.07521365 0.040112592 -0.08468624 -0.015634835 0.09980861
0.034625147 -0.06021497 0.020500394 0.02305907 0.09985047 0.09078592 -0.04694708 0.029453188
-0.0018456111 -0.043453306 0.08282382 -0.046929434 0.060618196 -0.016139325 0.005594554 0.038220245
-0.07960606 -0.037022762 -0.09576637 0.0011933855 0.06104044 -0.08940267 -0.030345622 -0.022807455
0.018239588 0.056360334 0.09377387 -0.012552639 -0.03471741 0.09831527 -0.03707772 0.020655999
-0.0060725855 0.060514614 0.094008245 -0.09349586 0.049758695 -0.07013742 0.029221905 -0.018356238
-0.004904124 -0.028781187 -0.08778532 0.026054505 -0.017706653 -0.030907908 0.09321663 -0.017065125
-0.032501183 -0.044987712 0.0478623 0.0063044652 0.002526597 -0.058222894 -0.09897908 -0.09211259
-0.022044232 0.058154687 0.07636777 -0.026185842 0.08691771 -0.09747008 -0.059397195 0.023191873
-0.012070762 -0.07511824 0.01952297 -0.036720905 0.047130946 0.08313118 -0.001019755 -0.06353904
-0.0449037 0.05220334 -0.016545102 -0.024638947 0.00851995 -0.09093339 -0.11663768 -0.020232787
0.07755067 0.022890247 0.065478735 -0.10731038 -0.044141177 0.018072609 -0.043536004 -0.102846846
0.06926719 -0.051335305 -0.08875956 0.03714836 -0.11026596 0.10783165 0.02188897 0.040098093

conv2.bias f4 [64]
00000000: cc41 68ba 2658 1937 342a 2937 22b7 96b8
00000010: de22 89b9 2a49 1838 b3b2 95b9 77e2 4a38
00000020: 888b ed38 94a1 e136 7eba 4935 e21f 3938
00000030: f327 25b8 2d9c b9b8 219e ff38 661e 0bb8
00000040: 4832 9438 dc86 bf38 1ec2 ebb9 38c6 6037
00000050: 3cde f936 73eb dbb6 8995 3937 8ea8 45b8
00000060: 031d 8e37 4efc f4b7 9a46 5639 508c 4eb9
00000070: 6747 45b9 a099 a0b7 bb07 bf39 9145 cdb8
00000080: 4450 54b9 8b50 fab8 b50b 8db9 4876 163a
00000090: bacf a0b6 c052 9bb7 2146 49b6 f48c 9ab8
000000a0: caaf 9638 7038 ab35 b2fd 6f38 01a9 8738
000000b0: 1e3b 0f37 4ae9 3738 0fb8 9a39 737b 4639
000000c0: d0f6 8538 dc65 23ba d7ab a236 2385 a1b8
000000d0: 1b5b 7e38 87d8 ce39 3361 c738 6a1c e5b7
000000e0: 2e3d 1ab8 999d b9b9 277e 0bb9 2e82 3b39
000000f0: ec6c a0b8 e4d3 9ab7 9f3a 1c37 642d 1c38
-0.0008859902 9.140034e-06 1.0083011e-05 -7.1866685e-05 -0.00026156654 3.6307763e-05 -0.00028552636 4.8371465e-05
0.000113270304 6.7243327e-06 7.5149717e-07 4.413713e-05 -3.937627e-05 -8.8505774e-05 0.00012188801 -3.3168493e-05
7.0665556e-05 9.132709e-05 -0.0004496732 1.3397592e-05 7.4466498e-06 -6.5541185e-06 1.1061676e-05 -4.712544e-05
1.6941229e-05 -2.9204555e-05 0.00020434932 -0.00019697961 -0.00018813983 -1.9145024e-05 0.00036436119 -9.7881195e-05
-0.00020247797 -0.00011935931 -0.00026902338 0.0005739671 -4.792554e-06 -1.8515973e-05 -2.9992154e-06 -7.369547e-05
7.185301e-05 1.2756918e-06 5.7218313e-05 6.468781e-05 8.5372285e-06 4.3847867e-05 0.00029510303 0.0001892874
6.3879066e-05 -0.0006233135 4.847981e-06 -7.701877e-05 6.0643168e-05 0.00039452707 9.507164e-05 -2.7312159e-05
-3.677344e-05 -0.0003540337 -0.00013303068 0.00017882205 -7.649683e-05 -1.84569e-05 9.311973e-06 3.723557e-05

conv2.lin.weight f4 [64, 64]
00000000: cf78 e53c d00d 2dbe 8ce7 553b ac44 023e
00000010: f509 c03d 34e6 163e 2c8e 1a3e 5f77 953d
00000020: d246 9d3c 9b65 473e b381 02be 2484 0bbe
00000030: f6d0 39be 7fa9 e1bc 79be 5bbc fe39 783e
00000040: 34d8 42be e9d9 16bd 23f5 b03d 5ded e53d
00000050: 3044 803e 7fab 90bd 9c13 37be 7678 30bd
00000060: fa01 cc3d fa2a 2a3e e573 db3d ac48 37be
00000070: 93b1 9fbd 7e9f 113e 7440 b8bc 25c2 4bbd
00000080: 5508 ea3d c547 9bbd 7b72 8e3d 52b5 8ebd
00000090: a82b e33c db11 513c 94ac 183e decf c83d
000000a0: 5659 25be a711 d33d 68f2 903c 0214 8a3d
000000b0: 3472 e93d f4aa 06be b708 0c3e 405b 473d
000000c0: 5d19 9d3d 6079 dc3d 4bf7 36be 549c cdbd
000000d0: b36e 0dbd 7bf5 9b3d cf7c f3bd f61b 363d
000000e0: 2fad 1dbd 9d86 353e 8e82 d53d 3a62 0fbe
000000f0: 408c aa3d c917 b53d e535 813e 198d 063e
00000100: 8aed 023e 63d4 433e 2881 bebd e506 373e
00000110: 8c67 1bbe 9cbf c2bd 3ca0 033e bee8 b1bd
00000120: 8cea d4bd 835a 1abe 65e7 5c3e 8b4f 323e
00000130: 8f44 573d b3cc 7cbe c6ea 373e 27e4 56be
00000140: cd95 c73c 6d76 34be beaa c338 3034 c0bd
00000150: 72cd 0bbe 06a6 e73d 8ee7 30be 7362 a73d
00000160: 50b5 11be 6737 8e3d 3bed 25bd bd44 cfbb
00000170: 71a8 973c 91bd 6fbe 1700 bc3c e2be cc3d
00000180: e69c 63bc 6523 803d 6b7e b03d be63 62be
00000190: 4897 e9bd f9cd 99bd 457a 543e 5346 31bc
000001a0: 1aed 253e 0296 f23c 1ae5 a8bd dde6 a63c
000001b0: 6656 9f3c e0f7 16be c0d1 1a3e e889 97bd
000001c0: 0997 f53d 7539 94bd 08e6 263c 06e3 3bbe
000001d0: d5b3 2dbd 2594 e6bc 6dfd e43d 53ce dcbb
000001e0: c09d 023e 3d06 a3bd bd41 4dbd 99b7 47bc
000001f0: a08b fe3d ee84 71bd ee29 29be aa5f 66bd
00000200: a7de 28ba 349b 223d 7b74 073e ef70 c33d
00000210: b63a f1bd 8170 da3d d5de afbd d31c 2d3d
00000220: e6e4 3dbd c711 aebd 4763 28be a413 08be
00000230: 17f0 cfbb dd9e 043d 6bc5 12bd 7815 5f3e
00000240: 69fa 39be 7842 a5bd 3ad2 17be 1f61 e53d
00000250: 2d9d 4dbc 7a06 54be ea13 243e 0df5 e83d
00000260: 726d ef3d f706 463e a6ca 753c 5843 37be
00000270: 66a6 febd dcf1 c93c b940 433e 29c8 27be
00000280: 9755 c6bd e615 823d c2ae 6dbe 2cb8 553e
00000290: a01a 873b acfc 05be b674 f1bd f99c 8a3d
000002a0: 1c50 363d b6ff 1f3e 9069 453e 3e9c 0cbd
000002b0: 44ad 7e3e 3915 793d 98a7 df3d f767 9d3d
000002c0: fb2c 113a 7104 2e3e a861 50be 313a 27be
000002d0: ef08 0cbe 3c96 163d 4398 22be fa84 733e
000002e0: 2eda 87bd a550 e13d 2ee0 c33d f269 d33d
000002f0: 5f23 bfbd 7193 f0bc 59e8 723e 561c a9bd
00000300: e203 44be bc8f c73b d769 00be 518e 76be
00000310: 55a8 ec3d 08ae ca3d a48d 553e eb02 623e
00000320: 13cd cbbc bb41 243d 59b9 a7bd 68f0 e33d
00000330: eaa4 49bd 65fc 9ebd 169a 2dbe 3faa 463e
00000340: 9719 81bc 1755 413e 14da d7bd 0f1e e73d
00000350: aac8 96bd 2a06 2c3d 7a49 dd3d 68f7 953d
00000360: b039 b6bc 2e28 c03d 6b43 373e f7a2 eb3d
00000370: a7ad 143e 6ee0 1cbe 9504 bdbd 4f6a 59be
00000380: e743 823d 5267 f43d ac98 9c3d 886b 6a3c
00000390: 2297 043d 1033 73be 719b 093e 17b5 f53d
000003a0: e61b 143e a24d 003e 791f dcbd d52c 0b3d
000003b0: e3bf a43d eb6b 03bd 930f 78be 663c 27be
000003c0: 46a6 973d 8486 113d a14a 4bbd 3888 dc3d
000003d0: d89c 75be 8f99 623e abf2 1f3e 9441 203e
000003e0: 94cf 81bd 4faf 1fbd 82ce 7a3d 0c30 283e
000003f0: 8a66 023e 4b82 413e 101f 6dbe 798a bebc
0.028011708 -0.168998 0.0032639233 0.12721509 0.09376899 0.14736253 0.15093297 0.07298159
0.019198809 0.19472353 -0.12744789 -0.13624626 -0.18146119 -0.027546642 -0.013412111 0.24240872
-0.19027787 -0.03682891 0.08640506 0.11226914 0.25052023 -0.0706396 -0.17878574 -0.04308363
0.099613145 0.16617957 0.107154645 -0.17898816 -0.077975415 0.14220998 -0.022491671 -0.049745698
0.114273705 -0.07582048 0.06955429 -0.06968178 0.027730778 0.012760605 0.14909583 0.098052725
-0.1614736 0.10306101 0.017693713 0.067420974 0.11398736 -0.13151151 0.136752 0.048671007
0.07670853 0.10765338 -0.17867772 -0.10039583 -0.0345294 0.07615181 -0.1188904 0.04446026
-0.03849524 0.17727132 0.10425292 -0.14002314 0.08327532 0.08842427 0.2523643 0.13139762
0.12785926 0.19123988 -0.09301978 0.17873724 -0.15176219 -0.09509203 0.12854093 -0.0868697
-0.10396299 -0.1507359 0.21572645 0.17413156 0.052555617 -0.24687462 0.17960653 -0.2098547
0.024363423 -0.17623301 9.330128e-05 -0.09384954 -0.1365259 0.11310963 -0.17275831 0.081730746
-0.14229321 0.06944161 -0.040509444 -0.006325333 0.018512936 -0.23412158 0.022949262 0.099973455
-0.013892388 0.06256751 0.08617862 -0.22108361 -0.11405808 -0.07509989 0.20749767 -0.010819989
0.16203728 0.029612545 -0.08246823 0.020373756 0.019450378 -0.14742994 0.15119076 -0.073993504
0.11991698 -0.072375216 0.01018668 -0.18348321 -0.04240783 -0.028146813 0.1118115 -0.006738463
0.1275549 -0.07960174 -0.05011152 -0.012189769 0.12428975 -0.058964662 -0.16519901 -0.056243576
-0.0006441869 0.039698794 0.13228028 0.09543025 -0.11778776 0.1066599 -0.08587424 0.042263817
-0.046360873 -0.084994845 -0.16444121 -0.13288742 -0.0063457596 0.032378066 -0.035832804 0.21785533
-0.1816193 -0.080693185 -0.14826289 0.11200165 -0.012549681 -0.20705596 0.16023222 0.11374865
0.11690797 0.19338594 0.015001928 -0.17896783 -0.12434082 0.02465146 0.19067658 -0.16384949
-0.09684294 0.06351833 -0.23211196 0.20871037 0.004123047 -0.13084668 -0.11789839 0.067682214
0.044509992 0.1562489 0.1927855 -0.03432869 0.24870783 0.060811255 0.10920638 0.07685845
0.00055380136 0.16993882 -0.20349753 -0.16330792 -0.13675283 0.03676437 -0.15878396 0.23781195
-0.06633411 0.1100171 0.09564243 0.10322942 -0.093329184 -0.02936718 0.23721446 -0.08257358
-0.19142106 0.0060901325 -0.12540375 -0.24077727 0.11555544 0.09896475 0.20854813 0.22071426
-0.02487806 0.040101748 -0.08189649 0.11129838 -0.04922954 -0.07762984 -0.1695331 0.19400881
-0.015759273 0.18880115 -0.10539642 0.1128503 -0.073624924 0.041998066 0.1080503 0.073225796
-0.022244304 0.09382664 0.17896812 0.115056925 0.14519368 -0.15319988 -0.092293896 -0.2123196
0.063606076 0.11933769 0.07646307 0.014307864 0.032370694 -0.23749948 0.13438202 0.11997431
0.14463767 0.12529615 -0.107481904 0.033978302 0.08044412 -0.03208534 -0.24224691 -0.16331634
0.07404761 0.035528675 -0.04963172 0.10768169 -0.23985612 0.2212889 0.15619914 0.15650016
-0.063384205 -0.038985547 0.061232097 0.16424578 0.12734428 0.18897359 -0.2315638 -0.023259388

bn1.weight f4 [64]
00000000: df39 843f d172 813f c593 823f b2d7 7a3f
00000010: 2830 823f 3840 803f 48f5 783f 2d44 7a3f
00000020: 9632 763f c600 743f 46fe 743f de2c 773f
00000030: 6cbd 733f 916b 853f 7f4e 7a3f 9a0a 7c3f
00000040: ce4f 833f 7706 763f fe4a 783f e599 753f
00000050: fc37 7c3f 3873 843f a4fc 7a3f 571c 763f
00000060: 9c36 863f d96a 853f 03ba 763f 979f 753f
00000070: b331 743f 697e 803f 0486 853f 4b67 733f
00000080: f188 763f af5d 783f 4ca4 823f 7b27 863f
00000090: 3576 843f f7a2 853f 2646 793f aed0 813f
000000a0: 83d2 783f f53f 803f 220d 843f a877 853f
000000b0: db21 763f c1ef 753f a928 823f 9c96 803f
000000c0: 79f7 7a3f 8b7c 783f 25df 823f 4300 853f
000000d0: a274 743f 7793 853f 7821 7d3f cb59 803f
000000e0: 633d 763f 2902 843f 57fc 823f 075d 803f
000000f0: 1fc4 743f 0254 863f 2e03 813f a345 833f
1.0330161 1.0113164 1.0201346 0.97985375 1.0170946 1.0019598 0.9724927 0.9776028
0.9617094 0.9531368 0.9570049 0.96552837 0.9521091 1.0423452 0.97776026 0.98453677
1.025873 0.96103615 0.9698943 0.9593795 0.98522925 1.0347662 0.9804175 0.96136993
1.0485415 1.0423232 0.9637758 0.9594664 0.95388335 1.0038577 1.0431523 0.9507949
0.96302706 0.9701795 1.020639 1.0480798 1.0348574 1.0440358 0.97372663 1.0141809
0.97196215 1.0019518 1.0316508 1.0427141 0.9614541 0.9606896 1.0168658 1.0045962
0.98033863 0.9706504 1.0224348 1.0390705 0.9549047 1.0435628 0.98879194 1.0027403
0.9618742 1.0313159 1.0233258 1.002839 0.9561176 1.0494387 1.0079095 1.0255626

bn1.bias f4 [64]
00000000: 3e0f f43c 714d 243c 58fc 373c fabb 2bbb
00000010: ee40 de3b cbef ee3b b13d c7bc e562 9cbc
00000020: 1824 13bd 5430 21bd 6ebd 25bd 370c 72bc
00000030: cf66 e3bc e819 253d 6dec d0bc 7762 cfbc
00000040: 558a f53c 1e2a 2cbd fd08 78bc 37be cdbc
00000050: 6ef2 0ebc 8409 dd3c 5ccf 9dbb 6077 f5bc
00000060: 1c46 3f3d bc2e 2a3d 7a34 1cbd 779c 1fbd
00000070: 59e3 23bd ab6f 523c 66c5 203d 50c4 1bbd
00000080: e148 16bd 4377 c7bc 5636 8b3c 13f7 2a3d
00000090: 03fa e33c 4feb 333d ed19 ccba d90c aa3c
000000a0: 99a6 0bbc 3d31 2a3b 5992 083d 9854 213d
000000b0: e920 23bd 46b0 20bd 2488 093d b484 8c3c
000000c0: e2d6 eebc 6596 53bc 6747 813c d646 0f3d
000000d0: 2ca3 34bd aeec 223d c71c c83b b4a9 623c
000000e0: 79cf 00bd edc7 c53c f0be 063d 0bb5 143c
000000f0: 4462 0ebd 697a 323d bfbd 35bb 60f7 0a3d
0.029792424 0.010028229 0.011229597 -0.0026204572 0.0067826426 0.007291769 -0.024321409 -0.019090125
-0.035923094 -0.03935273 -0.040463857 -0.01477342 -0.027758984 0.04030791 -0.025503362 -0.025315506
0.029973188 -0.042032354 -0.015138862 -0.025115116 -0.008724792 0.026982076 -0.004815979 -0.029964149
0.04669772 0.041548476 -0.038135983 -0.038967576 -0.040011737 0.0128440065 0.039250754 -0.038029015
-0.036690596 -0.02434886 0.016993683 0.041739535 0.027829176 0.04392558 -0.0015571691 0.02075808
-0.008523607 0.002596929 0.033342693 0.039387316 -0.039826307 -0.039230607 0.0335771 0.017153122
-0.029155198 -0.012914275 0.015781118 0.034979664 -0.044100925 0.039776497 0.006106946 0.013834406
-0.03144786 0.024143184 0.032896936 0.009076367 -0.034761682 0.04357377 -0.0027731506 0.03392732

bn1.running_mean f4 [64]
00000000: 2c2a 89be 1152 b7be e8ad 5ebf f530 08c0
00000010: 44e1 26bf 1cc6 9a3d 1275 213f 9bb0 5ebf
00000020: 6f45 073f 3e74 ac3f 7de7 06c0 7f2e e1bf
00000030: c29f a63f b646 aa3f c8bc 2e40 96c4 0bbf
00000040: 6f31 0140 6251 093f a239 0cbf 3c65 d23f
00000050: 38da 0ac0 74b1 5a3f 6e8f 0640 f479 9cbd
00000060: 2187 af3f df83 97bf aa4d 1e3f f96f 933e
00000070: 3a45 8dbf 5729 863e f882 d4bf c405 ccbe
00000080: a3b5 933f e25e 053e a2db 033f b859 92bf
00000090: bca8 273f 8279 07c0 9eb9 ca3e 4c16 ee3e
000000a0: 4daa b9bf 5a83 c03e e39d e4bf 1fae 93be
000000b0: b0d1 2bc0 5f81 89be 7ec0 5abf 1a87 2740
000000c0: 8c65 dabe 7905 ecbe 7856 1140 276c ec3f
000000d0: 6808 50c0 8734 89be 7424 02c0 97f9 22c0
000000e0: 961f 3b40 b1e4 c8be 70d7 b93e 860a ca3e
000000f0: b74e 0ac0 ab1d 4d3f dfcb 23c0 b863 923e
-0.26789987 -0.358048 -0.8698411 -2.127988 -0.6518748 0.075573176 0.6306926 -0.8698823
0.5284032 1.3472974 -2.107879 -1.7592314 1.3017504 1.3302829 2.7302723 -0.5459684
2.0186422 0.53639805 -0.5477544 1.6437144 -2.169569 0.8542702 2.1025043 -0.07640448
1.3713113 -1.1837119 0.61837256 0.28796366 -1.1036751 0.26203415 -1.6602468 -0.3984815
1.1539806 0.13024476 0.5150701 -1.143363 0.65491843 -2.1167912 0.3959474 0.46501386
-1.4505097 0.37600213 -1.7860683 -0.2884378 -2.6846733 -0.26856515 -0.8544997 2.617621
-0.426556 -0.46097925 2.2709026 1.8470505 -3.250513 -0.26797888 -2.033475 -2.5464838
2.9238029 -0.39236978 0.36297178 0.39461154 -2.1610544 0.80123395 -2.5593183 0.28591704

bn1.running_var f4 [64]
00000000: b4c3 503f c040 c93e c273 2a3f f8e5 f53e
00000010: 1fda 123f 0222 063f c3c1 2b3f 6bf9 163f
00000020: 9df4 ce3e 5a44 e93e 7371 133f ece2 2d3f
00000030: 8879 2a3f 9e82 263f 4ab4 2b3f 869b 0a3f
00000040: 9198 033f 2ab4 013f f350 f23e 0336 233f
00000050: fa71 023f a0d6 223f 6040 d23e 631d 363f
00000060: d96e 073f 34a7 c83e 16b0 0d3f 2ec8 363f
00000070: 42f0 ac3e d10c 253f f2e4 243f 6f72 263f
00000080: 8d0f 2c3f 17aa 173f 7cbe 083f e5bd 443f
00000090: ddfe 103f 71cf fd3e dd4e 233f 3d52 4d3f
000000a0: ee45 2a3f 2a10 1d3f f29e 9b3f 3b89 cf3e
000000b0: 158e 243f 0876 4b3f aefd 103f c414 0c3f
000000c0: e1b3 1f3f 39f8 563f 6f0b 183f 68ae 213f
000000d0: d9d6 0b3f f9de dc3e b602 523f 21ae 433f
000000e0: f300 df3e 0958 373f 9cda 4c3f edd0 083f
000000f0: 5b1b d33e 3793 6e3f 8a64 823f e7a8 1a3f
0.8154862 0.39307213 0.6658288 0.48027015 0.57364076 0.5239564 0.6709253 0.5897433
0.40421 0.4555996 0.57594985 0.6792438 0.6659169 0.65043056 0.67071974 0.5414356
0.5140467 0.50665534 0.47327384 0.6375429 0.50955164 0.6360874 0.4106474 0.7113859
0.52903515 0.39190066 0.5534681 0.713992 0.33777052 0.6447268 0.6441184 0.6501836
0.6721123 0.5924391 0.53415656 0.76852256 0.5663889 0.49572328 0.6379221 0.8020361
0.66512954 0.6135279 1.2157881 0.40534386 0.642793 0.79476976 0.56637084 0.54719186
0.6238385 0.8397251 0.59392446 0.6315675 0.54624707 0.43138865 0.82035387 0.76437575
0.43555412 0.71618706 0.8002107 0.53443795 0.41231808 0.9319338 1.0186932 0.60413975

bn2.weight f4 [64]
00000000: 933c 733f 2dd2 833f 1a0f 763f cd02 873f
00000010: 2862 713f 201e 863f 8aa8 713f f137 723f
00000020: 921f 7e3f 61a4 7a3f 10c6 713f c296 723f
00000030: bbf3 753f ef3c 843f 3adf 743f 891b 863f
00000040: 2b15 853f 5ad6 853f f426 843f 2349 813f
00000050: 464a 863f 3626 7a3f 62cb 873f da48 783f
00000060: 065f 723f 7348 743f 6ea7 873f 926d 873f
00000070: be34 723f 7dc1 713f cbd0 7b3f 5d64 723f
00000080: 002e 7d3f 9960 6f3f 1011 863f 64e1 853f
00000090: 2f91 733f 9834 743f 891b 863f f465 773f
000000a0: d24b 723f 1145 7e3f f2b5 853f fdb9 863f
000000b0: ccee 7a3f 35d7 863f 0406 733f 92b9 713f
000000c0: 9cff 833f 4c27 843f 4725 7b3f f56b 843f
000000d0: f7fb 843f cec0 853f b49c 863f c0a6 773f
000000e0: fc72 843f b162 743f febe 873f 8197 7b3f
000000f0: f24f 773f 7b55 743f ae24 793f 14c4 823f
0.95014304 1.0298516 0.96116793 1.054773 0.942904 1.0477943 0.94397795 0.9461661
0.9926692 0.9790707 0.94442844 0.9476129 0.9607503 1.0331095 0.95653117 1.0477153
1.0397085 1.045604 1.0324388 1.0100445 1.0491416 0.97714555 1.0608943 0.9698616
0.94676244 0.9542305 1.059797 1.0580313 0.9461173 0.94435865 0.9836547 0.9468439
0.98898315 0.9350677 1.0473957 1.0459409 0.9514341 0.9539275 1.0477153 0.96639943
0.9464694 0.99324137 1.044615 1.0525509 0.98020625 1.0534426 0.94931054 0.9442378
1.0312381 1.0324492 0.98103756 1.0345446 1.0389394 1.0449464 1.0516572 0.96738815
1.034759 0.9546309 1.0605161 0.9827805 0.9660636 0.9544293 0.97321594 1.0216088

bn2.bias f4 [64]
00000000: 18f0 42bd 8c45 a33c 53e2 fcbc 1c47 453d
00000010: dadc 58bd d2db 543d 39a5 50bd df2a 33bd
00000020: 55b9 56bc 9f29 1dbd d3ea 3ebd cae8 50bd
00000030: 0dff 1abd 1032 933c dcf6 2cbd 21ad 04bc
00000040: 0011 f23c 8a33 aa3c 73cc e0bb ddac 26bd
00000050: 86c6 613d 1d2f 5cbd c605 613d 1ea2 1abd
00000060: bdb9 47bd 50fe 28bd 0a4b b03c 12e1 5b3d
00000070: edb5 4bbd b9ad 4cbd 0952 89bd 795c 4fbd
00000080: 41cb b3bc a529 65bd 3800 633d e341 213d
00000090: 97d7 3abd 3c0d 35bd f6ab 553d 2492 ffbc
000000a0: 4319 4ebd 1ac0 27bd f219 3e3d 4e91 833c
000000b0: f497 b4bc c73c 6d3d 04fe 4cbd 2fdb 53bd
000000c0: 8977 b1bb 1901 d63c 4105 05bd 2b04 253d
000000d0: 4f6d 0c3d 9373 553d e586 703d cf4f fbbc
000000e0: 678a 2e3d f6db 34bd aa8e 513d 6b6e 383d
000000f0: 1c3e 64bd 92ae 28bd d976 58bd 1712 2abd
-0.047592252 0.019930623 -0.030869639 0.04816352 -0.052944995 0.05196745 -0.05093882 -0.043742057
-0.01310571 -0.03836977 -0.046610665 -0.051003255 -0.03784089 0.017968208 -0.04222761 -0.008097918
0.029549122 0.020776529 -0.0068603097 -0.0406922 0.055120967 -0.05375587 0.054937147 -0.037752263
-0.04876112 -0.041258156 0.021520156 0.05368144 -0.049734045 -0.049970362 -0.067051 -0.0506253
-0.021947505 -0.05594792 0.05542013 0.039369475 -0.04561576 -0.044202074 0.052165948 -0.031197615
-0.05031706 -0.040954687 0.046411462 0.016060498 -0.022045113 0.05791929 -0.050046936 -0.0517227
-0.005415861 0.02612357 -0.032475714 0.040287178 0.034283932 0.052112173 0.058722395 -0.030677704
0.04261246 -0.044155084 0.051161446 0.045027178 -0.055723295 -0.04118211 -0.052847717 -0.041521158

bn2.running_mean f4 [64]
00000000: 018b 283f 808d a8be 655b 7c3e 6e65 ec3e
00000010: 688e 1c3e fd3b 82be 4084 16bf 0f5f a33d
00000020: a039 05bf eabe f63e ec94 13bd bb76 03bd
00000030: 9b12 f43e 4364 343f bf25 b63e e525 e2bd
00000040: 06f2 fb3e 40af e83e a966 1c3f d597 85be
00000050: cec8 04be d42b 943e f2fc 19bd e293 82be
00000060: 90e1 a2be b8c9 243f e27a 2c3f 595b 183f
00000070: 028d dfbe d89e ad3c 816c fabe a67f 6f3f
00000080: 9742 833e e168 85be 007b f93e 4aba 273f
00000090: 12ed 093f 855c 073f 91c4 793e ace4 313f
000000a0: 644f 5f3f 87cc 563f 442b 33bc 77ef be3e
000000b0: 0253 ef3e 58f0 2cbd 570e a9be 90f2 083f
000000c0: b978 ccbd 6a16 683f 5c24 de3d 345f a6bd
000000d0: 4aa2 aebe 81e8 00bf 72be 2ebd b2b2 89be
000000e0: 5644 c23d 52ae 0b3f d577 9dbd 46e6 20be
000000f0: b130 4abf 543f 163e be4c b53d 88f8 6a3e
0.65837103 -0.32920456 0.24644239 0.46171135 0.15288699 -0.25436392 -0.5879555 0.07977115
-0.52041054 0.4819253 -0.036030695 -0.032095652 0.47670445 0.7046549 0.35575673 -0.11042384
0.49208087 0.45446205 0.61094147 -0.260924 -0.12967226 0.28939688 -0.037594743 -0.2550345
-0.31812716 0.643703 0.67375004 0.59514385 -0.43662268 0.021193907 -0.48910907 0.9355415
0.25636742 -0.2605658 0.48726654 0.6551863 0.53877366 0.5287555 0.2439139 0.6948955
0.87230515 0.83905834 -0.010935608 0.37292072 0.46743017 -0.042221397 -0.33018753 0.5349512
-0.099839635 0.906592 0.10846779 -0.08123627 -0.34108192 -0.5035477 -0.04266209 -0.26894146
0.0948569 0.54562867 -0.07688872 -0.15712842 -0.7898055 0.14672595 0.08852528 0.2294637

bn2.running_var f4 [64]
00000000: 3f74 3a3e 5427 a63e 6b30 b43e 0122 1d3f
00000010: c352 753e ccc7 903e e8b1 9a3e 85ef 6b3e
00000020: bb41 4d3f a3e4 d13e 6768 813e fdde bf3e
00000030: abb4 6d3e b2c5 c93e 0413 db3e 8ade 1e3f
00000040: 4b8f c33e e1aa cd3e e13a 8e3e 323d 273e
00000050: bdf6 923e 4829 833e a193 b13e 91f8 733e
00000060: 50d8 0b3f 4e8f 8f3e 46fc 103f d5ee 043f
00000070: 01b4 0b3f 255e c53e d798 be3e 2d8f b63e
00000080: dbb4 c33e ada3 783e ffaf 923e 36ab 963e
00000090: be93 c33e 1079 083e 90d3 ad3e 188f a33e
000000a0: 1e16 af3e 3f1e 783e d73e b83e ac58 a83e
000000b0: 520c ea3e cf79 9f3e 38db b33e 0a4c 543e
000000c0: 18ad 9c3e b1ca ab3e accc df3e a4db 023f
000000d0: 3a51 e63e 7512 ce3e 1991 f03e a950 5c3e
000000e0: 9bee a03e 2c72 bf3e 4562 fd3e 8bee ab3e
000000f0: e658 ef3e 18b8 d43e 0663 983e 4959 c23e
0.18208407 0.3245188 0.3519319 0.6138001 0.23957352 0.28277433 0.30213857 0.23040588
0.8017842 0.40994748 0.25274965 0.37474814 0.2321345 0.39408642 0.42787945 0.6205832
0.3819526 0.40169433 0.27779296 0.16331938 0.2870387 0.25617433 0.34682944 0.2382529
0.5462694 0.2803902 0.5663494 0.5192693 0.5457154 0.3854839 0.37225983 0.3565611
0.3822392 0.24281187 0.286499 0.294275 0.38198656 0.13327432 0.33950472 0.3194511
0.34196562 0.24230288 0.35985443 0.3288015 0.45712525 0.3114762 0.35128188 0.20732132
0.3060081 0.3355308 0.4371084 0.51116395 0.44983846 0.40248457 0.469857 0.21515144
0.31432042 0.37391794 0.49489036 0.3358043 0.46747512 0.41546702 0.2976305 0.37958744

classifier.weight f4 [10, 64]
00000000: 916e 983d 9279 d83d bb54 5a3d a5b3 313d
00000010: ccdb 093e cbc2 36bd bba6 26be 8beb d5bd
00000020: 7465 313e 6e13 0bbc ca5b 84bd 33dd df3d
00000030: 2d18 a5bd fa68 913d 019a 8d3d 7314 9bbd
00000040: b639 79b9 f82b bfbd 3379 043e b58c f6bd
00000050: 9f64 0bbd 10ac 99bc 1a1d 07be c15a 90bd
00000060: 1f2f 0bbe 7487 e5bd 6f9a 1c3e 1719 0dbd
00000070: ba87 993d 951a 28be b4c0 893d 5f8d 95bd
00000080: b64c fbbd 88ee b03d ee88 bebd b568 9abc
00000090: 2569 a6bd c459 d83d 7878 393e a4af 13be
000000a0: 56c4 94bd 9af7 0ebe f5f1 d73c 87d3 41bc
000000b0: 976d 1a3d 1abd 5dbc 555d 3fbd b340 d03d
000000c0: 2a0e 463c ac9d 1e3c 57f8 ddbb 0028 0cbd
000000d0: d9e2 b9bc 9e9f a4bd 7a60 40bd 51b0 373d
000000e0: 3910 55bd c2bf f8bb 4e15 15be 2bdf dc3d
000000f0: 5fa3 753d e087 e4bc 33f9 d5bd 7c11 d3bd
00000100: 0505 85bc 9fcd bdbc b519 15be 522d e4bd
00000110: bafb 373e cfb8 2f3e a0d2 18be 6c7d 1a3d
00000120: bff7 ac3d 47f0 9c3d aac9 ff3d 67f0 b13d
00000130: 9515 763d ee56 00bd f146 aabd c4af 37bc
00000140: ac66 d8bb 20b8 85bd a96c c43c 59de fb3c
00000150: d673 f43d 3864 fc3b fe82 f1bd 7d2e 703d
00000160: 5b1a 563d b6e6 df3d 897d 273c 8aee 10bd
00000170: f9a6 3d3e c0b2 b23c 18e0 3fbd 7d70 86bd
00000180: 8e46 a2bd 080f bcbc 00f1 16bd 25bc b43d
00000190: 3bdd ac3d 75fe f03b 1e5e ab3d 99c4 06be
000001a0: 7beb c3bd 3a62 8cbd 1c8f 05be 9944 1e3d
000001b0: 73b1 02bd aa97 ff3c 15e5 19bc 8c76 e23a
000001c0: 1dfe c33c aa53 26bd c459 d3bd e86a 42bd
000001d0: b384 69bd dbaa f33c 3af1 b63d 207b 053e
000001e0: 7619 6abc 8b54 213e eb63 b3bc e516 3f3d
000001f0: a2d5 403d 916c 653d 1d6f 63bd 7e3e 7a3c
00000200: 6f39 fb3b 204f 583d 1fa3 033e edd6 af3c
00000210: f380 bebd b37d 66bd b5b0 03bd e001 07be
00000220: e5e2 ce3c 3bc5 853d 7c1b 1d3d c951 14be
00000230: 092f 83bd a752 dbbd 39a3 c839 9215 03bd
00000240: f72c 403d 92ba 293d 6717 1d3e 1cfc f03d
00000250: 6041 fdbd 815a b53d ecf5 34bd 823e 7dbc
00000260: 4fe3 f73d 586c 563c 4f5b ef3c dd38 1ebb
00000270: 3585 1dbe 6b3d 79bd 0f91 bd3d c699 b7bd
00000280: 1a0f 8cbd cd30 4a3c 785b febd fbc4 b6bd
00000290: b93b 4d3d 3054 da3d 93a4 1abe 968d 49bd
000002a0: 2123 6dbd 6e59 d73c 5129 a2bd df63 f23d
000002b0: be1e 1d3e 9706 903d c3b2 be3c 3158 65bd
000002c0: 3aa3 aebc a8fc 173d 8744 f63d 42d1 0fbe
000002d0: 521b 94bd 92cf 063e 310b c83d dbb3 0b3d
000002e0: 4465 92bd f45d e1bd f443 4cbd ecc7 05be
000002f0: fc9c 6dbd 5d58 6e3d 8005 bdbd f5df 8a3c
00000300: 64b4 b0bd 961d 81bd 2d95 403c f909 113e
00000310: 39bc 65bc a250 ea3c 8e82 e5bd 4af5 c43d
00000320: da62 1dbc 580e e43c 4528 053e 5814 9cbd
00000330: a0cf 723d 77ad 1d3d 9b2a 86bd 0a28 b73d
00000340: 903b 823d 5d6e 86bc 332b 0ebd a4d5 07bd
00000350: ed41 bb3c 2dda ae3d b63b 943c 51a6 8c3c
00000360: 5998 d7bd 70a5 533c 3dc9 ea3c cf8f 123e
00000370: 7f82 11be ebe7 043c 2b79 d9bd cc2d 1c3d
00000380: 50a5 bb3d 7871 b9bd 38a0 0d3e 4e96 4fbd
00000390: 0d30 a13d 9c2d 233c beab 84bd fd7c 643c
000003a0: 2693 183e 088b 023d ea4b 39bd d8d1 bd3d
000003b0: b87c 3fbd cedd 103e 411c 16be c713 a63d
000003c0: 2580 73bd 91cf 7bbd bf94 183d af65 05be
000003d0: 3e75 ae3d 2474 d53d 5fa8 16bd 5c3f d33b
000003e0: bea7 90bc 7d16 42bb 88cd 1e3e 4ebf 693c
000003f0: 11bd 1bbe 920a a23d 9f2a 6cbd d59b d9bb
0.07442964 0.10570063 0.05330346 0.043384213 0.13462752 -0.044619363 -0.1627454 -0.10445317
0.17323858 -0.008488519 -0.0646282 0.10930862 -0.08061252 0.07100101 0.069141395 -0.0757226
-0.0002376799 -0.09334558 0.12936859 -0.120385565 -0.034031507 -0.018758804 -0.13194695 -0.0704856
-0.13592194 -0.11207476 0.15293287 -0.034447756 0.07496591 -0.1641639 0.06726208 -0.07302355
-0.12270491 0.08639246 -0.09303461 -0.018848756 -0.081255235 0.105639964 0.18112361 -0.1442247
-0.072640106 -0.1396164 0.026360491 -0.011830217 0.03770217 -0.013533855 -0.046719868 0.101685904
0.012088338 0.009681147 -0.006773989 -0.034217834 -0.022691177 -0.08038257 -0.046967007 0.044845883
-0.052017424 -0.0075912187 -0.14558908 0.107847534 0.059970256 -0.027896821 -0.104479216 -0.10306069
-0.016237745 -0.023169337 -0.14560588 -0.11141457 0.1796712 0.17160343 -0.14924097 0.037717268
0.08445691 0.07663017 0.12489636 0.08688431 0.060079176 -0.031332903 -0.08314312 -0.011211339
-0.0066040363 -0.0652926 0.023977594 0.030745672 0.119361565 0.0077023767 -0.11792563 0.058638085
0.05227123 0.109326765 0.010222801 -0.03538374 0.18520726 0.02181375 -0.04684457 -0.06564424
-0.079236135 -0.022956386 -0.03685093 0.08824948 0.08440634 0.0073545524 0.08367561 -0.13160934
-0.09566399 -0.06854673 -0.13042873 0.03863964 -0.03190751 0.031200249 -0.009392996 0.0017277761
0.023924882 -0.040607132 -0.10319856 -0.047465235 -0.057011317 0.029744556 0.08932729 0.1303525
-0.014288297 0.15754907 -0.02189823 0.046652693 0.047078736 0.05601174 -0.055525888 0.015273688
0.0076667587 0.052809834 0.12855195 0.02146479 -0.09301939 -0.05627222 -0.032150943 -0.13184309
0.025254676 0.06531759 0.03835629 -0.14484324 -0.064054556 -0.10709124 0.00038268583 -0.032002993
0.04691788 0.041437693 0.15340959 0.11766836 -0.12365985 0.08855153 -0.044179842 -0.015456798
0.121039025 0.013087355 0.029218344 -0.002414278 -0.15382846 -0.06084959 0.09256183 -0.08964877
-0.06838818 0.012340737 -0.1241979 -0.0892429 0.050105784 0.10660589 -0.15101843 -0.049207292
-0.05789483 0.02628776 -0.07918037 0.11835455 0.15343758 0.07032507 0.0232786 -0.05599231
-0.021318067 0.037106186 0.12024789 -0.1404467 -0.072317734 0.1316512 0.097677596 0.03410707
-0.07148221 -0.11004248 -0.049869493 -0.13064545 -0.05801104 0.05818974 -0.09229565 0.016952494
-0.08628157 -0.06304471 0.011754316 0.1416396 -0.014021927 0.028602902 -0.11206542 0.09617098
-0.009606088 0.02783887 0.13003643 -0.07621068 0.059280038 0.038495507 -0.06551095 0.08943184
0.06359017 -0.016410047 -0.034709167 -0.033162728 0.022858584 0.085377075 0.018094879 0.01716915
-0.10527105 0.012917861 0.028660411 0.14312671 -0.14209937 0.008111934 -0.10618814 0.038129613
0.0916239 -0.090548456 0.1383065 -0.05068045 0.07870493 0.009959605 -0.0647807 0.013945815
0.14899883 0.03187087 -0.045238413 0.0926854 -0.0467498 0.14147112 -0.14659216 0.08109241
-0.05944838 -0.061477248 0.03725123 -0.1302707 0.08518456 0.10422543 -0.036781665 0.006446762
-0.01765811 -0.0029615455 0.15508091 0.014266802 -0.15208842 0.079121724 -0.057657834 -0.006640891

classifier.bias f4 [10]
00000000: 3803 503d 445e ac3c 0856 073d 4c06 b63d
00000010: 9baf f4bb 2d96 c13c 67d3 1cbd 2aed 163d
00000020: 2bef 0dbd acb9 a53c
0.05078432 0.021041043 0.03304103 0.0888792 -0.007467223 0.02363118 -0.038287546 0.03684727
-0.034651916 0.020230137

exp_avg f4 [100, 64]
00000000: ae6e 8dba 2c46 4637 6620 4dbb 5963 3538
00000010: f2f8 9a39 4c96 0a39 af1e 2a39 bcfa ec3a
00000020: d641 bbba 3432 7aba 087d 3bb9 95ab 7d3a
00000030: d367 d738 4513 0f3a 8168 cf37 70de 6f3a
00000040: 367d 17bb dcc7 4b3b 81cf 0bba 739d 4039
00000050: 8ff9 7a3a b404 7bba 2744 81bb eb8e 1bba
00000060: e88b e939 88a2 373b 3488 c539 00c2 4dbb
00000070: 2de7 873a c94d 23ba 0b12 dd3b 8be8 35bb
00000080: 8f03 023a 39be cd3a dfc1 1139 77c3 e5b8
00000090: 563b e43a 628e 0ebb 716f 7739 a892 7638
000000a0: 7ef5 a1b9 4531 953b 5074 afb9 333c 9fb9
000000b0: 6deb ec39 efb7 d1bb a8f0 e039 deaf a93b
000000c0: f480 e13a 9d44 75ba 0dc0 6f3b ce84 24bb
000000d0: e46f 84b9 163b 88bb 6b94 2b37 2fbb c938
000000e0: 3078 68bb bbb8 c939 30c2 70b9 347c 00bb
000000f0: d161 b9ba d04e ae3a 5d27 6e3a ceb6 153b
00000100: a616 22ba 7fed 5dba 8059 24bb c49a 483a
00000110: 16e0 3db9 d360 4bba 8729 4839 a9ad a53a
00000120: 8ab3 fcba da6f c8b9 b448 48b8 162c a139
00000130: f8e4 1439 ea0f 2339 0e06 f639 86c4 c93a
00000140: ae5d eaba a094 1d3b 5119 cbb8 f334 57b9
00000150: 5bea bdb9 badc 0cba 168a 48bb 1533 05b9
00000160: 1291 8c39 e97e 203b 41a5 073a 60f1 0dbb
00000170: 5c68 54b8 30b0 8ab9 7149 bd3b cf3b 2abb
00000180: 68f6 683a 07bb 953a 77db f039 9d1b f238
00000190: 3389 b53a 5e49 02bb 4b3c cfb8 204d 0a3a
000001a0: 20b5 ca37 8e92 973b 73a6 cbb9 c878 0c3a
000001b0: 11bd 693a faae aebb f0ac b5b9 46f5 a03b
000001c0: 1f92 f63a f31b 85ba 3061 843b 4d54 40bb
000001d0: b044 74ba 86ce a3bb aa9f 3639 a5d0 d338
000001e0: 8795 6cbb 3489 a039 3edd 043a 3bc2 19bb
000001f0: 3373 d4ba fb9f ad3a efba af3a 5430 2d3b
00000200: d3e9 63ba 536f b4b9 9b89 46bb 42b7 e139
00000210: e27c dc39 f69f 9239 3710 7cb9 55ea f93a
00000220: cf32 c1ba 1f17 8ab9 885c 2d39 506a 7b3a
00000230: 949c bcb9 dc9e 4f3a 4d7e bf38 f314 d53a
00000240: c75c 27bb f7d8 4d3b 0dd7 11ba 6628 cd38
00000250: 331c 153a 1351 87ba 720c 63bb 1473 02ba
00000260: a1d7 b8b8 1d31 3c3b 418c 903a 425a 27bb
00000270: a7d7 273a fc99 79ba 569c bc3b 8f0c 23bb
00000280: 92a9 8d3a 4d32 ee3a 2fac 473a caee 9b39
00000290: 8201 033b 47cc f6ba a096 9c39 2c15 ca39
000002a0: 9cbc 4bb7 1293 8d3b 9d73 82ba 41b9 db39
000002b0: 0132 563a aefb b5bb 5748 ebb7 53ab 9f3b
000002c0: 4ce9 ab3a d229 d5b9 60a0 7b3b 8ad4 29bb
000002d0: 552b b1b8 1cb1 96bb 0ea4 3d3a 7e60 053a
000002e0: 887d 4dbb 7d74 353a 229a a539 dffd e8ba
000002f0: 782f f3ba ca21 f13a 1337 aa3a c335 ff3a
00000300: c0b7 2fba 7120 eaba a370 17bb 7c3d 9c3a
00000310: 7b0a 56ba 6215 0abb 7669 f939 d006 943a
00000320: 949e 4cbb 6968 88b8 1f45 e8b9 2e3c 50ba
00000330: e4b8 c439 daaf 5e39 27f8 553a 7eee ed3a
00000340: f38e e9ba 1c00 1e3b 8ab9 3bb8 8392 51ba
00000350: 641d dcba 856c 43b9 27c6 54bb c0c1 af39
00000360: 8177 9639 e19e 2b3b dda6 9a39 febc 09bb
00000370: c7fc 50ba 1b04 2c38 0057 d93b 1897 51bb
00000380: f1b3 cf3a 3304 cd39 2031 b839 c784 5bb9
00000390: fde3 a93a 29c1 03bb 5c96 d0ba 49fb 6c3a
000003a0: 9928 123a f8b8 b23b 58b2 f1b9 6054 853a
000003b0: 82b3 913a 21ea bebb 723e 65ba 6187 c53b
000003c0: 1ccc 1d3b aa66 9eba eb9d 983b 36bb 94bb
000003d0: 816e cbba ab7c c3bb 6d72 0038 ef59 09b8
000003e0: 2e32 b7bb 8dde 0139 0c6f 623a 5bcd 7abb
000003f0: 15fd 07bb 936d c33a ef8e b83a c865 4f3b
-0.0010790431 1.1818058e-05 -0.0031299829 4.3246288e-05 0.00029558648 0.00013216696 0.00016223894 0.0018080096
-0.0014286588 -0.0009544224 -0.00017880287 0.0009676752 0.00010271338 0.00054578885 2.4724986e-05 0.0009150272
-0.0023115403 0.0031094467 -0.00053333497 0.00018369201 0.00095739303 -0.0009575591 -0.003944892 -0.0005934077
0.0004454546 0.002802046 0.00037676247 -0.003139615 0.0010368578 -0.00062295474 0.0067465357 -0.0027757015
0.0004959637 0.001569695 0.000139005 -0.00010955979 0.0017412703 -0.0021752347 0.00023597271 5.8787555e-05
-0.0003089122 0.0045529925 -0.0003346526 -0.00030371695 0.00045188834 -0.0064001004 0.00042903912 0.0051784357
0.0017204569 -0.00093562325 0.0036582977 -0.0025103572 -0.00025260367 -0.004157434 1.02269505e-05 9.6192925e-05
-0.0035472028 0.00038475342 -0.00022960524 -0.001960528 -0.0014143531 0.0013298634 0.0009084845 0.0022844556
-0.00061831845 -0.00084658706 -0.002507776 0.00076524564 -0.00018107923 -0.00077582634 0.00019088956 0.0012640256
-0.0019279581 -0.0003823031 -4.7751426e-05 0.0003074116 0.00014199677 0.0001555082 0.00046925287 0.0015393652
-0.0017880702 0.0024044886 -9.68451e-05 -0.00020523723 -0.00036223498 -0.0005373467 -0.0030599884 -0.00012702898
0.00026810967 0.0024489707 0.0005174466 -0.0021658763 -5.064193e-05 -0.0002645268 0.005776577 -0.002597559
0.0008886815 0.0011423536 0.0004593988 0.000115446026 0.0013850093 -0.0019880156 -9.8817596e-05 0.0005275775
2.416462e-05 0.004625625 -0.00038843192 0.0005358574 0.0008916418 -0.0053309174 -0.0003465186 0.0049120514
0.0018811858 -0.0010155424 0.004039906 -0.0029347122 -0.00093180966 -0.0049989847 0.00017416352 0.00010100127
-0.0036099867 0.00030619802 0.0005068368 -0.0023461718 -0.0016208648 0.001324653 0.0013407151 0.002642651
-0.00086942053 -0.00034415218 -0.0030294422 0.00043051882 0.00042054715 0.0002796647 -0.00024038633 0.0019067029
-0.0014739874 -0.00026338638 0.00016533036 0.0009590732 -0.00035974814 0.0007920095 9.131115e-05 0.0016256854
-0.0025537477 0.0031409839 -0.0005563356 9.7826865e-05 0.0005688101 -0.0010323845 -0.003464487 -0.00049762544
-8.813968e-05 0.0028715797 0.0011028127 -0.0025535976 0.0006402679 -0.00095215417 0.0057559414 -0.0024879312
0.0010807982 0.001817295 0.0007616905 0.00029741816 0.0019989912 -0.001882919 0.00029866863 0.00038544217
-1.2143657e-05 0.0043205107 -0.0009952668 0.0004190896 0.00081709033 -0.005553684 -2.8047869e-05 0.0048727184
0.0013115793 -0.00040657684 0.0038395151 -0.0025914037 -8.448089e-05 -0.00459875 0.0007234224 0.0005087926
-0.003135534 0.000692196 0.0003158609 -0.0017775855 -0.0018553576 0.0018396911 0.0012986384 0.0019470978
-0.0006703101 -0.0017862451 -0.0023107908 0.0011920179 -0.0008165014 -0.0021069874 0.00047571555 0.0011293534
-0.003122245 -6.504433e-05 -0.00044301988 -0.0007943538 0.00037521787 0.0002123708 0.0008162283 0.0018152741
-0.0017819091 0.0024108952 -4.475707e-05 -0.0007994549 -0.0016793427 -0.00018637076 -0.003246674 0.00033522956
0.00028699267 0.0026187229 0.00029497492 -0.002101719 -0.0007972237 4.101182e-05 0.0066326857 -0.0031980928
0.0015846473 0.00039103776 0.00035131816 -0.00020934931 0.0012961623 -0.0020104146 -0.0015913951 0.000904013
0.00055755075 0.005454179 -0.00046099978 0.001017224 0.001111612 -0.00582625 -0.0008744962 0.0060281013
0.0024077957 -0.001208504 0.004657497 -0.004538919 -0.0015520604 -0.0059657893 3.0624145e-05 -3.2747103e-05
-0.0055906987 0.00012385305 0.0008637763 -0.0038269374 -0.0020750214 0.0014909975 0.0014080683 0.003164636
