checkpoints/checkpoint_epoch_5.pt (torch, 547666 bytes, 37 tensors)

prototypes f4 [100, 64]
0	0x3db4062b	0.08790239
1	0xbe928a00	-0.2862091
2	0xbe2467d2	-0.1605523
3	0x400f3f0a	2.2382226
4	0xbf176e64	-0.5915282
5	0x3f322217	0.69583267
6	0x3e734cba	0.23759738
7	0xbf52b943	-0.82313937
8	0x3ca9f709	0.020747678
9	0x4039cf26	2.9032683
10	0xbf86d1b2	-1.0532744
11	0xbf6996a7	-0.912455
12	0xbf07fccf	-0.5312013
13	0xbf7b0ec6	-0.9806942
14	0xbf23259d	-0.6372927
15	0x3fdb30a4	1.7124219
16	0xbf4d38aa	-0.8016459
17	0x3ee6ef82	0.45104605
18	0x3f6f695f	0.9352016
19	0x3fc641f6	1.548888
20	0xc007e36d	-2.123256
21	0xbe7b7598	-0.24556577
22	0xbef7f3e2	-0.48428255
23	0x3db465d9	0.088084884
24	0x3ea152ce	0.31508487
25	0x3ea1c790	0.31597567
26	0x3e8be802	0.27325445
27	0x3f34f452	0.70685303
28	0xbee4c490	-0.44681215
29	0x3f09cb89	0.53826195
30	0xbeb0f683	-0.34563074
31	0x3e777fe6	0.24169883
32	0xbfebd144	-1.8423238
33	0x3fc7098f	1.5549792
34	0xbea506d4	-0.32231772
35	0x3e5b2a53	0.21402864
36	0xbe590475	-0.21193106
37	0xbf62d102	-0.8860017
38	0x3f67e605	0.90585357
39	0xbff2af84	-1.8959813
40	0xbf06fbc0	-0.5272789
41	0x3de1ffb5	0.110351
42	0x3f8f8c39	1.1214668
43	0x3ebfcd8c	0.37461507
44	0x3fa241b3	1.26763
45	0xbe6fb2be	-0.23408028
46	0xbe3d0088	-0.18457234
47	0x3e919a36	0.28437966
48	0x3ff988ed	1.9494911
49	0xbf0311cf	-0.5119905
50	0x3e93ec97	0.2889144
51	0xbf23443e	-0.63776004
52	0xbf3a77f2	-0.7283927
53	0xbf608ab8	-0.8771167
54	0xbf207b95	-0.6268857
55	0x3f07e67e	0.5308608
56	0x3f9daa22	1.2317545
57	0xbe5f905a	-0.2183241
58	0x3d856fde	0.065154776
59	0xbff9c43e	-1.9513013
60	0xbe8cfdd6	-0.2753741
61	0x3f6e8887	0.93177074
62	0xbe77d0b6	-0.2420071
63	0x3fb52a74	1.4153581
64	0xbdd2c1d7	-0.10290878
65	0x3fe08e15	1.754336
66	0xbf96cb4c	-1.1780791
67	0x3e522d21	0.20525028
68	0xbfac20e4	-1.3447537
69	0xbf754c75	-0.9581979
70	0xbec21028	-0.3790295
71	0x3dc2b03f	0.095062725
72	0xbeffea4b	-0.4998344
73	0xbe37626f	-0.17908643
74	0x3dd9c405	0.10633091
75	0x3f83c147	1.0293359
76	0x3d75a80b	0.05997471
77	0x3f6769a7	0.9039559
78	0xbf75a140	-0.9594917
79	0xbe6688cf	-0.22513126
80	0x3ef4ba4d	0.47798386
81	0x3f558cb0	0.834178
82	0xbf5b38b6	-0.8563341
83	0xbf0f8bea	-0.56072867
84	0x3e93f83f	0.28900334
85	0xc002b327	-2.0421846
86	0x3f51d894	0.81971097
87	0x3edce68e	0.4314465
88	0xbf95ccba	-1.1703103
89	0x3fea6662	1.8312495
90	0xbfbdaa85	-1.4817663
91	0xbe8795e4	-0.26481545
92	0x3fd2d302	1.6470644
93	0x3edecdcf	0.43516394
94	0x3f2bd45d	0.67120916
95	0xbf0f2e0b	-0.5592963
96	0x3f898149	1.074258
97	0xbf817fc8	-1.0117121
98	0xbfe05e94	-1.7528863
99	0xbe2affa7	-0.16699086
100	0x3fb612ce	1.4224489
101	0xbf826924	-1.0188336
102	0xbedae634	-0.42753756
103	0xbeb7e7cc	-0.35919034
104	0xbf961ddd	-1.1727864
105	0xbf984f1e	-1.1899145
106	0xbd7073d3	-0.05870421
107	0xbec17582	-0.37784964
108	0xbf9694f3	-1.1764206
109	0x3da9a349	0.08283097
110	0x3e9c4227	0.3051922
111	0x3ff702b2	1.9297698
112	0xbd7a7d36	-0.061154567
113	0xbe9fb3f4	-0.3119198
114	0xbfe8ac26	-1.8177536
115	0xbf8d6dde	-1.1049154
116	0xbddce7f6	-0.107864305
117	0x3f87170e	1.0553911
118	0xbdb48520	-0.08814454
119	0x3f1718e1	0.5902234
120	0xbfac6dfa	-1.3471062
121	0x3dc836c8	0.09776074
122	0xbfa6168e	-1.2975633
123	0xbf3789e6	-0.7169479
124	0xbf8bbcab	-1.0916952
125	0xbf5420b6	-0.8286241
126	0xbff52962	-1.9153254
127	0x3f93b09a	1.153827
128	0x3ed6e0b3	0.41968307
129	0xbf38cd05	-0.72187835
130	0x3f0c705b	0.5485894
131	0xbfe3abb9	-1.778678
132	0x3f02a0f5	0.5102685
133	0x3f0af580	0.54280853
134	0xbbd86bda	-0.006604654
135	0x3f2ca277	0.674354
136	0xbfbf6b12	-1.495455
137	0xbcdb155c	-0.026743583
138	0xbf2c623e	-0.67337406
139	0x3e407c76	0.18797478
140	0x3fc25421	1.5181924
141	0x3d9780a6	0.073975846
142	0xbfea9f99	-1.8329955
143	0xbef84a11	-0.48494008
144	0x3f3ad496	0.7298063
145	0xbfe52579	-1.7902061
146	0x3f8d3e0e	1.1034563
147	0x3d5dfbac	0.05419509
148	0x3e3cf90b	0.18454377
149	0xbdcc1916	-0.09965722
150	0xbf6e82aa	-0.9316813
151	0x404a1645	3.1576092
152	0x3faea369	1.3643619
153	0xbe899e3e	-0.26878542
154	0x3ebebda3	0.37254056
155	0xbf95ffc6	-1.1718681
156	0x3caeef9d	0.02135449
157	0xbf6e22fe	-0.93022144
158	0x3f9f25e6	1.2433441
159	0xbfd3b117	-1.6538419
160	0x3f861f90	1.0478382
161	0x3e06da31	0.13169171
162	0xc00408af	-2.06303
163	0x3f615b1a	0.88029635
164	0x3d99f32e	0.07517086
165	0xbf4c4b54	-0.7980244
166	0xbf816c35	-1.0111147
167	0xbffd0a65	-1.9768797
168	0xbd2c2902	-0.042031296
169	0xbf65fe2f	-0.8984098
170	0x3f8104ab	1.007955
171	0x3ca1d4c0	0.019754767
172	0xbf9c776a	-1.2223942
173	0xbede761d	-0.43449488
174	0xbeae81fd	-0.34083548
175	0x4003f648	2.0619068
176	0x3f26fabf	0.6522636
177	0x3e9f6025	0.3112804
178	0xbf03862a	-0.51376593
179	0xbfef0551	-1.8673497
180	0xbf2b15db	-0.66830224
181	0xbe231220	-0.15924883
182	0xbf5deab8	-0.8668628
183	0xbf01357d	-0.5047224
184	0xbf39e647	-0.72617
185	0xbf66df88	-0.9018483
186	0xbea3598b	-0.31904253
187	0xbf8d894b	-1.1057523
188	0xbf2782d9	-0.6543403
189	0x3f5f1fea	0.8715807
190	0x3d9e539d	0.07730792
191	0x3f812273	1.0088638
192	0xbe0b3f03	-0.13598256
193	0x3fa3b56b	1.2789739
194	0x3e41c022	0.18920949
195	0x3fa39714	1.278048
196	0x3e91f164	0.2850448
197	0x40023bdb	2.0349033
198	0xbee6b4ee	-0.45059913
199	0x3e9d6b13	0.30745754
200	0x405995f6	3.399778
201	0x3ff1b20e	1.8882463
202	0xc0449415	-3.0715382
203	0x3ea20059	0.3164089
204	0x3ed055fc	0.406906
205	0x3ec40b0c	0.38289678
206	0x3f6e457b	0.9307477
207	0x3e8809f8	0.26570106
208	0xbfc4e81f	-1.5383338
209	0xbf99d876	-1.2019184
210	0xbfe40d11	-1.7816488
211	0x3ea88e0b	0.3292087
212	0x3f2616c5	0.64878494
213	0xbe80d90a	-0.25165588
214	0xbea58547	-0.32328245
215	0x3ef240f3	0.47315177
216	0x3f22beae	0.63572204
217	0xbf747bec	-0.9550159
218	0xbf6cc9a0	-0.92495155
219	0xbef00ed0	-0.468863
220	0x3fa8a07f	1.317398
221	0x3d30696c	0.043069288
222	0x3f930145	1.1484762
223	0xbf1a4f3c	-0.6027715
224	0x3f6daf68	0.92845774
225	0x3ff64acf	1.924158
226	0xbe57334f	-0.21015666
227	0xbf95c2b2	-1.1700041
228	0xbeeb24f3	-0.45926628
229	0x3f3b6234	0.7319672
230	0x3cd25a5b	0.02567785
231	0x3f480164	0.7812712
232	0x3fcd1f1d	1.602512
233	0xbfa08b2e	-1.2542474
234	0x3eba069e	0.36333174
235	0x3f4caf45	0.7995494
236	0xbf1996ad	-0.5999554
237	0xc00b8ac2	-2.180344
238	0x3e81bd37	0.25339672
239	0x3f133ecb	0.5751769
240	0xbfe368fe	-1.7766416
241	0xbf33f704	-0.7029879
242	0xbf5acfbf	-0.85473245
243	0x3ecfaf36	0.40563363
244	0xbd468aac	-0.04847209
245	0x3ec5b79b	0.38616642
246	0x3f1acc37	0.6046786
247	0xbdfafae7	-0.12254887
248	0x3f209d74	0.62740254
249	0xbf6d30a6	-0.92652357
250	0xbeb42b4b	-0.3518928
251	0x3f76e314	0.96440244
252	0x3fa406a5	1.2814528
253	0x3f10182a	0.5628687
254	0xbfbdf245	-1.483956
255	0xbf9864de	-1.1905782

conv1.bias f4 [64]
0	0x37d27320	2.508756e-05
1	0xba108358	-0.0005512736
2	0x3931c248	0.00016952411
3	0xb6f525f2	-7.3059864e-06
4	0xb8dd8bcd	-0.00010564141
5	0x38823cfe	6.210244e-05
6	0x3a1c36e7	0.0005959109
7	0xb8d0e223	-9.960334e-05
8	0xb7c62f00	-2.3625325e-05
9	0x392135c5	0.00015374187
10	0x38357561	4.326308e-05
11	0xb8cfb3aa	-9.903994e-05
12	0x382f9b3e	4.1867832e-05
13	0x37113b2c	8.6564505e-06
14	0xb95ad27f	-0.00020868516
15	0xb89b9d3a	-7.420262e-05
16	0xb96da2b8	-0.00022662699
17	0x392577a6	0.00015780199
18	0xb80c4c97	-3.344993e-05
19	0x39787569	0.00023694862
20	0x3790feeb	1.7284843e-05
21	0x389079a0	6.8891095e-05
22	0xb7df4ec0	-2.6620342e-05
23	0xb82a90c7	-4.0665993e-05
24	0xb86e816a	-5.6864148e-05
25	0xb88d2788	-6.730767e-05
26	0xb9b32b32	-0.00034173724
27	0x394d0246	0.0001955117
28	0xb863aea0	-5.428365e-05
29	0xb81247cb	-3.4875975e-05
30	0xb9415990	-0.00018439279
31	0x36c5c807	5.8943438e-06
32	0x38e43e70	0.00010883517
33	0xb8257fbd	-3.945803e-05
34	0x38104481	3.4396075e-05
35	0x3926e4e4	0.00015916262
36	0xb9469d3b	-0.00018941324
37	0xb91f3ee9	-0.00015186857
38	0x37f6eb42	2.9435036e-05
39	0xb8bb328b	-8.926269e-05
40	0x393ef93d	0.0001821266
41	0x3711cf3a	8.690922e-06
42	0x394fb9c3	0.0001981026
43	0x385887d8	5.1624927e-05
44	0x398dd2e2	0.00027050736
45	0xb8b9c10f	-8.8574474e-05
46	0x36b2ea02	5.3320555e-06
47	0xb9a95d11	-0.00032303532
48	0xb92d95f8	-0.00016554433
49	0xb90e6c91	-0.0001358262
50	0xb92fd140	-0.00016767252
51	0xb78453a8	-1.5774582e-05
52	0x3807be79	3.23639e-05
53	0x38cacb29	9.669952e-05
54	0xb85a401d	-5.203496e-05
55	0x39479cbb	0.00019036506
56	0x39563652	0.00020428866
57	0x381073e1	3.4440196e-05
58	0xb9661886	-0.00021943645
59	0x36a07c0c	4.7828125e-06
60	0xb869d966	-5.5753997e-05
61	0xb8e68994	-0.000109928806
62	0x3986749a	0.00025645347
63	0x3742c30a	1.1608712e-05

conv1.lin.weight f4 [64, 512]
0	0xbc918e15	-0.017767945
1	0xbc6972ec	-0.014248591
2	0xbd168dfd	-0.036756504
3	0xbd85be7e	-0.06530474
4	0xbdb875b2	-0.090068236
5	0xbdc8ca91	-0.098042615
6	0x3d708d49	0.05872849
7	0xbceecb33	-0.029149627
8	0x3cc2c067	0.023773385
9	0x3d35d4d5	0.044392426
10	0xbd1c18ff	-0.038109776
11	0x3cbd3c2f	0.023099987
12	0xbd497575	-0.04918428
13	0xbdc866f6	-0.09785263
14	0x3c5b7c89	0.013396391
15	0xbd5d1b46	-0.053981088
16	0xbda34bf9	-0.07973475
17	0xbc8f0b21	-0.017461361
18	0xbcb6436a	-0.022248942
19	0x3d8378ec	0.064195484
20	0xbd28fa8a	-0.041254558
21	0x3da05516	0.07828729
22	0xbb29c5b7	-0.00259052
23	0xbc688687	-0.01419223
24	0x3cef8f80	0.02924323
25	0xbd8eb56d	-0.06968198
26	0xbdbe6912	-0.09297384
27	0xbda3222e	-0.07965504
28	0xbd25a2a3	-0.040438306
29	0x3ae71282	0.0017629417
30	0x3cc8853b	0.024477592
31	0xbd0647d3	-0.03278334
32	0x3da1d537	0.07901996
33	0x3c34a3ec	0.01102541
34	0x3d4701e9	0.048585806
35	0xbcc33da1	-0.023833098
36	0xbd76b9e2	-0.060235865
37	0xbcc7bc69	-0.024381833
38	0x3dc89a8b	0.09795102
39	0x3da2d2c4	0.079503566
40	0x3baa08e2	0.005189047
41	0xbd7f0f4d	-0.06227045
42	0xba8c3b4d	-0.0010698825
43	0x3c7db91b	0.015486027
44	0x3dba520c	0.090976804
45	0xbcef6f2a	-0.029227812
46	0xbdac6131	-0.08416975
47	0x3d08fca4	0.033444062
48	0xbd43ad05	-0.047772426
49	0xbc890a4f	-0.016728548
50	0xbdc7f825	-0.09764127
51	0x3d06706a	0.03282205
52	0x3d8f8fdd	0.070098616
53	0x3c3b2277	0.011421791
54	0x3ce03df8	0.027373299
55	0xbda200a7	-0.07910281
56	0xbda8dd70	-0.08245361
57	0x3d572d83	0.052533638
58	0xbd2e36d7	-0.042532768
59	0xbd93ec96	-0.072228596
60	0x3da24915	0.079240955
61	0xbdcad600	-0.099040985
62	0xbc94ba70	-0.018155307
63	0xbcd0be25	-0.025481293
64	0x3d667b4d	0.056269933
65	0x3d87bf20	0.06628251
66	0xbc591641	-0.013249935
67	0xbce137f2	-0.027492497
68	0x3dc94fc2	0.09829666
69	0x3d535253	0.051592182
70	0xb945416f	-0.0001881176
71	0x3b89052e	0.0041815257
72	0x3d32fec0	0.04369998
73	0xbcc9678f	-0.024585513
74	0xbd467acb	-0.04845695
75	0xbc0bac78	-0.0085250065
76	0x3ce48299	0.027894305
77	0x3cd3247d	0.025774235
78	0xbd822851	-0.06355346
79	0xbd2c2264	-0.042024985
80	0xbdbc6274	-0.09198466
81	0xbceea2b1	-0.029130312
82	0xbc3ffd97	-0.011718175
83	0xbcef8796	-0.029239457
84	0xbc15406b	-0.009109597
85	0x3b7171e5	0.0036841568
86	0x3db547c7	0.08851581
87	0x3cc0d2f1	0.023538085
88	0x3d3d2185	0.046174545
89	0x3ca5d1a9	0.020241575
90	0x3d25787e	0.040398113
91	0xbdce556a	-0.10074885
92	0x3da9fb79	0.08299918
93	0xbd484ed3	-0.048903298
94	0xbd762f1c	-0.06010352
95	0xbd97f8a0	-0.07420468
96	0x3dbe5e67	0.092953496
97	0x3c6ecc54	0.014575083
98	0x3d9227f1	0.071365245
99	0x3db47ba9	0.08812649
100	0x3db8ca7b	0.09022995
101	0xbc87b6d6	-0.016566675
102	0x3cc4cd96	0.024023812
103	0x3daac11c	0.08337614
104	0x3dab99b1	0.08378924
105	0x3d1d0d80	0.038342953
106	0x3d72bfee	0.05926507
107	0x3c964271	0.018342229
108	0xbd26329b	-0.040575605
109	0x3d235e01	0.03988457
110	0x3c8487da	0.01617806
111	0x3d69d223	0.057085168
112	0xbda76fe1	-0.08175636
113	0x3d1a075e	0.037604682
114	0xbd120769	-0.035651598
115	0xbc89233a	-0.01674043
116	0xbcbb717d	-0.022881264
117	0x3db30286	0.08740716
118	0x3da8448f	0.082162015
119	0xbd8d8c47	-0.069115214
120	0xbd1dfcd3	-0.03857119
121	0x3dada5be	0.084788784
122	0xbd1592bb	-0.036516886
123	0xbd32c7aa	-0.043647446
124	0x3d622e86	0.05522015
125	0x3da6a0ed	0.08136163
126	0xbd780f8d	-0.060561705
127	0xbd44105b	-0.04786716
128	0x3dc9e9d2	0.09859051
129	0x3b472760	0.003038846
130	0xbdaac426	-0.083381936
131	0x3d351d91	0.04421765
132	0x3dc8d50f	0.09806263
133	0xbdacfb76	-0.084464
134	0xbd58c24b	-0.052919667
135	0xbb1f3f01	-0.0024299028
136	0xbdc35ca0	-0.09539151
137	0xbcde5faa	-0.027145226
138	0xbc26c193	-0.010177988
139	0x3c6fadb8	0.01462882
140	0xbd9edf8d	-0.07757483
141	0x3c148b05	0.009066348
142	0xbd4fdc57	-0.05074724
143	0xbd83eb12	-0.064413205
144	0xbc4e37a6	-0.01258651
145	0xbc5775db	-0.0131506575
146	0x3d5c6361	0.053805713
147	0x3bafa538	0.005360272
148	0x3dcb596a	0.09929164
149	0xbb92cc8f	-0.0044799517
150	0x3dae9fdb	0.08526584
151	0xbda0c23e	-0.07849549
152	0x3d88b419	0.06674976
153	0x3cda57e1	0.026653232
154	0x3d952407	0.07282262
155	0x3d95f138	0.073213995
156	0x3cbaa173	0.022782063
157	0xbdb1c9b5	-0.08681051
158	0xbd1c4d99	-0.03815994
159	0x3dce13f0	0.100623965
160	0x3d4f8672	0.050665326
161	0xbd4820a3	-0.04885925
162	0x3d2304b3	0.039799403
163	0x3cb80b04	0.02246619
164	0x3dcdafdf	0.100433104
165	0x3db41aa3	0.08794143
166	0xbd2e3e98	-0.042540163
167	0x3cd436ee	0.025905099
168	0xbcdd5450	-0.027017742
169	0xbd7765f3	-0.06039996
170	0x3db329dd	0.08748219
171	0xbd10f96e	-0.035394125
172	0x3d793c4d	0.060848523
173	0xbb132186	-0.0022450401
174	0x3ceb0c45	0.028692374
175	0x3c8fb7f4	0.01754377
176	0xbdcf5679	-0.10123915
177	0xbd49348f	-0.04912239
178	0xbdafa0c6	-0.08575587
179	0xbc814ae0	-0.015782773
180	0x3da8c754	0.08241144
181	0xbd81c124	-0.06335667
182	0xbd3eccbc	-0.04658197
183	0xbc7d9419	-0.015477204
184	0x3a2f8d1a	0.0006696746
185	0x3d700e1f	0.058607217
186	0x3dbaa66a	0.09113772
187	0xbc571b8d	-0.013129127
188	0xbce135b0	-0.02749142
189	0x3dc31b42	0.095266834
190	0xbcfd3120	-0.030907214
191	0x3d433881	0.04766131
192	0xbcd3c46e	-0.0258505
193	0x3d6f0804	0.058357254
194	0x3da263b4	0.07929173
195	0xbdcf651a	-0.101267055
196	0x3d4384c8	0.047734052
197	0xbd7a1aad	-0.061060596
198	0x3c802734	0.015643694
199	0xbcabe28c	-0.02098205
200	0xbc943379	-0.01809095
201	0xbcc77ba8	-0.024350956
202	0xbd8c5b2a	-0.06853326
203	0x3bbb1060	0.005708739
204	0xbb6b4ca4	-0.0035903836
205	0xbc84a7c9	-0.016193287
206	0x3db405dc	0.0879018
207	0xbc24b5df	-0.010053127
208	0xbc0dd803	-0.008657458
209	0xbd5e3385	-0.05424835
210	0x3d229feb	0.03970329
211	0xbb820ef5	-0.003969068
212	0x3bb5f26e	0.0055525815
213	0xbd8c21dd	-0.068423964
214	0xbdb4f653	-0.08836045
215	0xbdc2ebf5	-0.095176615
216	0xbcbfd16b	-0.023415288
217	0x3d5badf7	0.053632703
218	0x3db41e3c	0.08794829
219	0xbc48ec43	-0.01226336
220	0x3d9217b1	0.07133425
221	0xbdab8ed6	-0.08376853
222	0xbd63558e	-0.055501513
223	0x3d4e5f37	0.050383773
224	0x3c601f90	0.0136794
225	0xbd923d32	-0.07140578
226	0xbb2c81eb	-0.0026322554
227	0xbd04d34a	-0.032428063
228	0x3d8cae80	0.06869221
229	0x3d9c97fd	0.07646177
230	0x3c2c761c	0.010526206
231	0xbd8f67ed	-0.07002244
232	0xbcde1aaa	-0.027112324
233	0x3d215bba	0.039394118
234	0xbcb964e2	-0.022631112
235	0xbd107659	-0.035269115
236	0x3a829c67	0.0009964824
237	0xbdb6bd31	-0.08922804
238	0xbdcee9a7	-0.101031594
239	0xbcb0385b	-0.021511247
240	0x3da13ab2	0.07872523
241	0x3bf20861	0.0073862527
242	0x3d82f23f	0.06393861
243	0xbdd2f01e	-0.10299705
244	0xbd319261	-0.04335249
245	0xbb955b2f	-0.004557989
246	0xbcbb6495	-0.02287511
247	0xbdc8dd65	-0.09807853
248	0x3d40934b	0.04701547
249	0xbd2742e9	-0.040835295
250	0xbda3bf0f	-0.07995426
251	0x3d2c2aa6	0.04203286
252	0xbda81511	-0.08207143
253	0x3dc304c9	0.09522397
254	0x3d420b06	0.047373794
255	0x3d7a642f	0.0611307

conv2.bias f4 [64]
0	0xb8f9b243	-0.00011906449
1	0x3909cf12	0.00013142478
2	0xb868564c	-5.539348e-05
3	0xb7d98896	-2.5932019e-05
4	0x390313db	0.0001250053
5	0xb89172a8	-6.935495e-05
6	0xb86ace98	-5.5982353e-05
7	0x39815aac	0.00024672353
8	0x384de086	4.9084912e-05
9	0xb70196fd	-7.724154e-06
10	0xb72a1ae0	-1.0139047e-05
11	0x37f7691c	2.949364e-05
12	0x3887a823	6.4686195e-05
13	0xb8833388	-6.256165e-05
14	0x39a6891b	0.0003176414
15	0x38f36f64	0.00011607891
16	0xb9ed44b5	-0.00045255353
17	0xb88f4fa7	-6.833608e-05
18	0xb825acc9	-3.9499984e-05
19	0x38c5536e	9.409232e-05
20	0xb7e4e1cc	-2.7284863e-05
21	0x38057e34	3.1827207e-05
22	0x387f9c8e	6.094254e-05
23	0x391acdff	0.00014763324
24	0xb788d9c4	-1.6313868e-05
25	0x39ad7438	0.0003308372
26	0xb90b1b0e	-0.00013266152
27	0x37f1dc7f	2.8832115e-05
28	0xb752a436	-1.2555209e-05
29	0xb985491d	-0.0002542221
30	0x38d38120	0.000100853154
31	0xb945c034	-0.00018858985
32	0xb898352a	-7.2578274e-05
33	0xb90188fa	-0.00012353426
34	0x39b216d7	0.00033967823
35	0xb71e25ff	-9.4263805e-06
36	0x387c6cc8	6.0182792e-05
37	0x39ba3fc4	0.00035524194
38	0xb9044ca2	-0.00012617049
39	0x38e55789	0.000109358756
40	0x3925d6c0	0.00015815627
41	0x38e858e1	0.00011079177
42	0xb912353c	-0.00013943476
43	0xb8f23418	-0.000115491624
44	0x37e86518	2.770363e-05
45	0xb8941977	-7.061933e-05
46	0xb9c082d8	-0.0003671858
47	0x385852be	5.1575473e-05
48	0x39a91908	0.00032252842
49	0xb8caf423	-9.6775846e-05
50	0xb7f6e980	-2.9434217e-05
51	0x395fae97	0.00021331977
52	0x360ef4e8	2.1302203e-06
53	0x388ae941	6.6238e-05
54	0xb97eccf5	-0.0002429968
55	0x398bc14f	0.00026656172
56	0xba0e07b4	-0.0005418018
57	0x39beb021	0.0003637085
58	0x374be7ab	1.2153682e-05
59	0x374c7b6f	1.2188087e-05
60	0xb9244c15	-0.00015668602
61	0x375e9404	1.3266694e-05
62	0xb790b71d	-1.7251406e-05
63	0xb7486b9a	-1.1945982e-05

conv2.lin.weight f4 [64, 64]
0	0x3c44d461	0.012013526
1	0xbe4f1615	-0.20223267
2	0xbd22b9a3	-0.03972782
3	0x3db490dd	0.08816693
4	0x3d742539	0.05960581
5	0x3de1440d	0.10999308
6	0x3df2c1d5	0.11853377
7	0x3d0b61e7	0.034028914
8	0x3cc4db05	0.024030218
9	0x3e45e91c	0.19327205
10	0xbe2b5fb9	-0.16735734
11	0xbe389ec6	-0.18029317
12	0xbe2430be	-0.16034219
13	0xbcdbedd9	-0.026846813
14	0x3c191174	0.00934254
15	0x3e5d4b35	0.2161072
16	0xbe29cd4a	-0.16582218
17	0xbd86d8a0	-0.06584287
18	0x3d8f7a7f	0.07005786
19	0x3e100b84	0.14066893
20	0x3e5ab548	0.21358216
21	0xbdd86f40	-0.10568094
22	0xbe4468a7	-0.19180547
23	0xbda580bc	-0.08081195
24	0x3dfa22cd	0.12213669
25	0x3e0479ee	0.12937137
26	0x3de27498	0.11057395
27	0xbe5843f6	-0.21119675
28	0xbdf2600a	-0.11834724
29	0x3dfc280f	0.12312328
30	0xbd88bd59	-0.0667674
31	0xbd865713	-0.06559577
32	0x3e01871e	0.126492
33	0xbdf8d33e	-0.12149666
34	0x3d3a97f8	0.045555085
35	0xbddbc589	-0.10731036
36	0x3c54b023	0.012981447
37	0xbcbca012	-0.023025546
38	0x3e10cfd2	0.14141777
39	0x3dbf7b0a	0.0934964
40	0xbe521b96	-0.20518336
41	0x3d88c901	0.066789635
42	0xbcc8849c	-0.024477296
43	0x3d4278d0	0.047478497
44	0x3d95a873	0.0730752
45	0xbe146627	-0.14492093
46	0x3e05ed35	0.13078769
47	0x3d50accc	0.050946042
48	0x3d4b4746	0.04962852
49	0x3e098f13	0.13433485
50	0xbe4674ff	-0.19380568
51	0xbe06ef7e	-0.13177297
52	0xbd91a488	-0.0711146
53	0x3d1c0ee5	0.038100142
54	0xbe1b1966	-0.15146407
55	0x3a9649e4	0.0011466113
56	0xbd1114b1	-0.035420123
57	0x3e21aa18	0.15787542
58	0x3dd3f031	0.10348547
59	0xbe3c4df1	-0.18389107
60	0x3d4ae345	0.049533147
61	0x3d849b9b	0.06474992
62	0x3e599ec8	0.21251976
63	0x3e1444cb	0.14479367
64	0x3df9f1ce	0.12204324
65	0x3e544728	0.20730269
66	0xbd7ab96e	-0.061211996
67	0x3e37997e	0.17929646
68	0xbde501f8	-0.11182016
69	0xbd7e56f9	-0.062094662
70	0x3e20a9f9	0.1568984
71	0xbd6b7474	-0.057484105
72	0xbe11c116	-0.14233813
73	0xbdf838b6	-0.12120192
74	0x3e49a763	0.19692759
75	0x3e1842bd	0.14869209
76	0x3d013f98	0.03155479
77	0xbe604cea	-0.2190434
78	0x3e51b85d	0.20480485
79	0xbe39588b	-0.18100183
80	0xbc0b04a2	-0.008484991
81	0xbe1382a2	-0.14405301
82	0xbc55b39d	-0.013043311
83	0xbdfa2da9	-0.1221574
84	0xbde8fa02	-0.1137581
85	0x3e1238e6	0.14279518
86	0xbe1e12a5	-0.154368
87	0x3ddff9ec	0.10936341
88	0xbde27f23	-0.11059406
89	0x3de11f0d	0.109922506
90	0xbb801241	-0.003908426
91	0x3cf659b4	0.03007207
92	0x3d579e4a	0.05264119
93	0xbe4f29ec	-0.20230836
94	0x3d5e4f62	0.054274924
95	0x3dc2628e	0.09491454
96	0x3cb4d48a	0.022074003
97	0x3dad6229	0.08465988
98	0x3dfb06fe	0.12257193
99	0xbe38fae4	-0.18064457
100	0xbe1855b3	-0.14876442
101	0xbd48cc3e	-0.049022906
102	0x3e5bb3a2	0.21455243
103	0xbc3c2d46	-0.011485403
104	0x3e2b2967	0.16715012
105	0x3d85c619	0.06531925
106	0xbd9b9928	-0.075975716
107	0x3d661961	0.056176547
108	0x3d16d872	0.036827512
109	0xbe236c3d	-0.15959258
110	0x3e318469	0.17335667
111	0xbdd3774a	-0.10325487
112	0x3e1ec1ad	0.15503569
113	0xbd9f98ec	-0.077928394
114	0x3d5663b1	0.052341167
115	0xbe291d1e	-0.16515014
116	0xbcd05b53	-0.025434172
117	0x3b66d684	0.0035223076
118	0x3db5fb93	0.088858746
119	0x3c74d410	0.014943138
120	0x3e1cb191	0.15302111
121	0xbd2ef9f6	-0.04271885
122	0xbd78986b	-0.060692232
123	0x3cddb28c	0.027062677
124	0x3dc43482	0.095803276
125	0xbcddc28d	-0.027070308
126	0xbe4f1fe7	-0.20227014
127	0xbdb12e80	-0.08651447
128	0x3c92d0a0	0.017921746
129	0x3d6fa04e	0.058502488
130	0x3dcb0f69	0.09915049
131	0x3d677257	0.056505527
132	0xbe1fa13b	-0.15588848
133	0x3df948ab	0.121720634
134	0xbde85782	-0.11344816
135	0x3bea1676	0.007143791
136	0xbda31324	-0.07962635
137	0xbdbe24b7	-0.092843466
138	0xbe54de72	-0.20787981
139	0xbe32c513	-0.1745799
140	0x3cb1d6a7	0.0217088
141	0x3d8c49ab	0.068499885
142	0x3bbe9145	0.0058156573
143	0x3e5acfa9	0.21368279
144	0xbe594bb9	-0.21220292
145	0xbdc32d6b	-0.09530147
146	0xbe1a3839	-0.1506051
147	0x3e09f6b6	0.13473019
148	0xbd5d432c	-0.05401914
149	0xbe38580c	-0.18002337
150	0x3e51114b	0.20416753
151	0x3e005182	0.12531093
152	0x3e1d0a9b	0.15336077
153	0x3e29479b	0.16531222
154	0x3d510461	0.051029567
155	0xbe353426	-0.17695674
156	0xbe021933	-0.12704925
157	0x3d1c7d09	0.03820518
158	0x3e26b5c6	0.16280279
159	0xbe1f3f80	-0.15551567
160	0xbd95a3b4	-0.073066145
161	0x3ce98c66	0.02850933
162	0xbe4a7d9e	-0.19774482
163	0x3e3a4ad3	0.18192606
164	0xbd21f998	-0.03954467
165	0xbe29060e	-0.16506216
166	0xbe00310b	-0.12518708
167	0x3dbf37b0	0.093367934
168	0xbacfc476	-0.0015851397
169	0x3e265382	0.16242793
170	0x3e2139d3	0.15744714
171	0xbbe9078d	-0.007111496
172	0x3e5b3fe5	0.21411093
173	0x3daf755f	0.08567309
174	0x3e06df21	0.13171054
175	0x3df545a1	0.11976171
176	0xbcce69ee	-0.025196996
177	0x3e500ec1	0.20318128
178	0xbe47f38f	-0.19526504
179	0xbe045bcd	-0.12925644
180	0xbe3b17de	-0.18270823
181	0x3cccf69c	0.025019936
182	0xbe43d5e6	-0.19124565
183	0x3e4a7bfc	0.19773859
184	0xbd0e4a42	-0.034738787
185	0x3df5d234	0.12002984
186	0x3dca5e84	0.09881309
187	0x3e0b9372	0.13630465
188	0xbe072910	-0.13199258
189	0x3bf47b62	0.0074609974
190	0x3e4b80d2	0.1987336
191	0xbd425d27	-0.04745212
192	0xbe204a87	-0.1565343
193	0xbc56cfce	-0.013111068
194	0xbe1d4707	-0.15359126
195	0xbe58f538	-0.21187294
196	0x3dd1d547	0.102457576
197	0x3d88d74d	0.0668169
198	0x3e491dff	0.19640349
199	0x3e5b10ea	0.21393171
200	0xbcfd7c91	-0.030943187
201	0x3c3afaf5	0.011412372
202	0xbd444913	-0.04792125
203	0x3e187a12	0.14890316
204	0xbcae5090	-0.02127865
205	0xbdda6166	-0.106631085
206	0xbe42f1a6	-0.19037494
207	0x3e2ec0de	0.1706576
208	0xbca64559	-0.02029674
209	0x3e1de294	0.15418464
210	0xbd95f7db	-0.07322665
211	0x3e0e0d6c	0.13872308
212	0xbd831567	-0.064005665
213	0x3d331bc8	0.043727666
214	0x3d948d47	0.07253509
215	0x3d6ed5a7	0.058309224
216	0xbd4e8707	-0.05042174
217	0x3db96a02	0.090534225
218	0x3e14c481	0.14528085
219	0x3e1cec17	0.15324436
220	0x3e3b3042	0.18280128
221	0xbe0c8c9d	-0.13725515
222	0xbdcba6c1	-0.09943915
223	0xbe3fdb8c	-0.18736094
224	0x3db66459	0.089058585
225	0x3df6bf91	0.12048257
226	0x3d87bcfe	0.06627844
227	0xbc6b3d34	-0.014357854
228	0x3cd288a8	0.025699928
229	0xbe44f2ca	-0.19233242
230	0x3e28e688	0.1649419
231	0x3e19c010	0.15014672
232	0x3e387812	0.18014553
233	0x3dcc3261	0.099705465
234	0xbdbc5eb0	-0.09197748
235	0x3d572f45	0.052535314
236	0x3df84054	0.121216446
237	0x3c29e812	0.010370271
238	0xbe4d9c9f	-0.20079277
239	0xbe1f9d0c	-0.15587252
240	0x3d2c3b55	0.04204877
241	0x3d8ac4e8	0.06775838
242	0xbd49f7ed	-0.049308706
243	0x3dff4082	0.12463476
244	0xbe51808e	-0.20459196
245	0x3e46750f	0.19380592
246	0x3e3dad26	0.18523082
247	0x3e2f9f66	0.1715065
248	0xbdb81358	-0.089880645
249	0xb93c7ee0	-0.00017976342
250	0x3dcb2ea6	0.09921007
251	0x3e4005c4	0.187522
252	0x3e237f0e	0.15966436
253	0x3e4954f1	0.19661309
254	0xbe457700	-0.19283676
255	0x3c858613	0.016299283

bn1.weight f4 [64]
0	0x3f805baf	1.002798
1	0x3f809a66	1.0047119
2	0x3f7ef322	0.9958974
3	0x3f80278c	1.0012069
4	0x3f7f42d7	0.99711365
5	0x3f7eeb03	0.9957735
6	0x3f7ee241	0.99563986
7	0x3f7ed5f3	0.9954521
8	0x3f7edd08	0.99556017
9	0x3f7f43dc	0.9971292
10	0x3f7ec62e	0.9952115
11	0x3f7fed90	0.99971867
12	0x3f7f4c6c	0.99725986
13	0x3f80988e	1.0046556
14	0x3f7ec8a4	0.99524903
15	0x3f809939	1.004676
16	0x3f809940	1.0046768
17	0x3f7f1463	0.9964048
18	0x3f7f928a	0.99832976
19	0x3f7ffc00	0.99993896
20	0x3f7ecdaa	0.9953257
21	0x3f809516	1.0045497
22	0x3f7ebe7d	0.9950941
23	0x3f7ecbc1	0.99529654
24	0x3f7fee75	0.9997323
25	0x3f8035d5	1.0016428
26	0x3f7ed03b	0.99536484
27	0x3f7eb1db	0.99490136
28	0x3f7ff602	0.99984753
29	0x3f8059aa	1.0027363
30	0x3f8090dc	1.0044208
31	0x3f7f09ae	0.99624145
32	0x3f7eb928	0.99501276
33	0x3f7ed8ff	0.9954986
34	0x3f7f3683	0.99692553
35	0x3f806797	1.0031613
36	0x3f806539	1.0030891
37	0x3f809f48	1.0048609
38	0x3f800a45	1.0003134
39	0x3f808d94	1.0043206
40	0x3f807052	1.0034277
41	0x3f7f0a83	0.99625415
42	0x3f80a8d5	1.0051523
43	0x3f8034c0	1.0016098
44	0x3f7ec6a5	0.9952186
45	0x3f7eba4c	0.99503016
46	0x3f8085ee	1.0040872
47	0x3f808ed2	1.0043585
48	0x3f8002ba	1.0000832
49	0x3f7edff9	0.99560505
50	0x3f806667	1.0031251
51	0x3f8067fa	1.0031731
52	0x3f7f6961	0.9977017
53	0x3f80948b	1.0045332
54	0x3f7f8ef0	0.9982748
55	0x3f808103	1.0039371
56	0x3f7eb96c	0.9950168
57	0x3f80957e	1.0045621
58	0x3f80a2de	1.0049703
59	0x3f805cdf	1.0028342
60	0x3f7ef2d4	0.99589276
61	0x3f80a4ab	1.0050253
62	0x3f7f197e	0.99648273
63	0x3f80752e	1.003576

bn1.bias f4 [64]
0	0x3b4474ed	0.002997692
1	0x3b914491	0.0044332226
2	0xbb4527da	-0.0030083568
3	0x3b449ee8	0.0030001942
4	0xbb882940	-0.004155308
5	0xbb94bc9f	-0.004539087
6	0xbb8f2535	-0.004368449
7	0xbb99ffbb	-0.004699675
8	0xbb8c45ba	-0.004280773
9	0xbb24c00b	-0.002513888
10	0xbb8cb6bd	-0.004294245
11	0x3ae8c2bf	0.0017758234
12	0x3a6339b2	0.000866796
13	0x3b9477b5	0.0045308718
14	0xbb9ca0c6	-0.004779908
15	0x3b89b9bf	0.004203051
16	0x3b9a4a98	0.0047085993
17	0xbb698d6e	-0.0035637277
18	0xb9c365ec	-0.00037269236
19	0x3b1368be	0.002249285
20	0xbb945b4e	-0.004527486
21	0x3b884086	0.0041580824
22	0xbb93b3e3	-0.004507528
23	0xbb9a33c9	-0.0047058803
24	0x39870511	0.0002575298
25	0x3adfd4ae	0.0017076933
26	0xbb8a5276	-0.004221256
27	0xbba14341	-0.0049213474
28	0x3a02e69b	0.00049934693
29	0x3b301f85	0.0026874256
30	0x3b921db1	0.004459106
31	0xbb266e47	-0.002539532
32	0xbb9c1e15	-0.0047643282
33	0xbb8abcd5	-0.0042339363
34	0xbb373cbb	-0.0027959782
35	0x3b447ac9	0.0029980412
36	0x3b30d89e	0.0026984583
37	0x3b9d0673	0.0047920286
38	0x3aff6a07	0.0019486555
39	0x3b690bd9	0.003556004
40	0x3b800895	0.003907273
41	0xbb6b683e	-0.0035920287
42	0x3baac508	0.0052114762
43	0x3aef5ee4	0.0018262533
44	0xbb9add77	-0.0047261077
45	0xbba5b9e8	-0.005057562
46	0x3b69b220	0.003565915
47	0x3b858795	0.0040750005
48	0xbb132a30	-0.0022455566
49	0xbb8116f2	-0.003939503
50	0x3b57f472	0.0032952097
51	0x3ad929d4	0.0016568252
52	0xbaeaa64a	-0.0017902341
53	0x3b90dd8f	0.004420943
54	0xbad6eb9e	-0.0016397124
55	0x3b8f4ffc	0.0043735486
56	0xbba28701	-0.0049599414
57	0x3b94a743	0.0045365407
58	0x3ba018e4	0.0048857797
59	0x3b773972	0.003772345
60	0xbb7626e7	-0.0037559809
61	0x3ba4a104	0.0050240774
62	0xbb0fbcab	-0.0021932523
63	0x3ab384ba	0.0013696172

bn1.running_mean f4 [64]
0	0x3f2eec6c	0.683295
1	0xbf8afdd4	-1.0858712
2	0xbf8b2d34	-1.087317
3	0xbf0d9d2f	-0.5531797
4	0x3ea2b7aa	0.3178075
5	0xbecc557f	-0.39908978
6	0xbef4e9f2	-0.47834736
7	0xbe252cb6	-0.16130337
8	0x3f378b5c	0.7169702
9	0x3f8be4b8	1.0929174
10	0xbf29e5fa	-0.6636654
11	0xbf8b62ba	-1.0889504
12	0x3da9fd1e	0.083002314
13	0xbe4ea1a4	-0.20178849
14	0x3fe7a35c	1.8096728
15	0xbfa7090c	-1.3049636
16	0x3f46316e	0.77419174
17	0x3f8708cd	1.0549561
18	0x3f3ec566	0.74519956
19	0x3f628433	0.8848297
20	0xbe5e797d	-0.21726032
21	0xbe18f128	-0.14935744
22	0xbec8c257	-0.3921077
23	0x3df8623c	0.12128112
24	0xbb9f1f4f	-0.004856027
25	0xbe5be1d0	-0.2147286
26	0xbf3446b8	-0.7042041
27	0xbf01d32f	-0.50712866
28	0x3e5a3119	0.21307792
29	0xbe3c555d	-0.18391939
30	0xbf974df6	-1.1820667
31	0x3d30f4b7	0.04320213
32	0x3dc2d32a	0.095129326
33	0xbd5eae1f	-0.054365274
34	0xbf9847ef	-1.1896952
35	0xbfbf8b9c	-1.496448
36	0x3f07e3a2	0.53081715
37	0xbf74716d	-0.95485574
38	0xbde60562	-0.112314954
39	0xbf19f9f7	-0.6014704
40	0xbf8a187d	-1.0788723
41	0xbdcefa16	-0.10106294
42	0xbf0ac596	-0.5420774
43	0x3ec09710	0.37615252
44	0xbfce8c1c	-1.6136508
45	0x3f80eb50	1.0071812
46	0x3ea40cf4	0.32041132
47	0x3f62c3f3	0.88580245
48	0x3fc4c511	1.537264
49	0x3dd29622	0.10282542
50	0x3fa6a30a	1.3018506
51	0x3f4c014f	0.79689497
52	0xbfe63274	-1.7984147
53	0xbe1f24d6	-0.15541396
54	0x3d22c312	0.039736815
55	0xbf2ff295	-0.68729526
56	0x3f8075aa	1.0035908
57	0x3de0b12f	0.10971295
58	0x3f8e2111	1.1103841
59	0x3deb5695	0.114911236
60	0xbef18c11	-0.47177175
61	0x3f103743	0.5633432
62	0xbefc3429	-0.49258545
63	0x3eb540b6	0.35400933

bn1.running_var f4 [64]
0	0x3e818250	0.25294733
1	0x3dca3ee0	0.09875274
2	0x3e0dc138	0.13843238
3	0x3e0900ac	0.13379163
4	0x3e790e3e	0.24321839
5	0x3e17cc0b	0.1482393
6	0x3e666a7b	0.22501557
7	0x3e315a6d	0.17319651
8	0x3e24af27	0.1608244
9	0x3e3dd38e	0.18537733
10	0x3e0d6f3f	0.13811968
11	0x3e318759	0.17336787
12	0x3e8f0db2	0.27940136
13	0x3e42a5dd	0.19008584
14	0x3ea81718	0.3283012
15	0x3e4d773e	0.20065019
16	0x3e819896	0.25311726
17	0x3e1b823f	0.15186404
18	0x3e24d310	0.16096139
19	0x3e525a9a	0.20542374
20	0x3d974160	0.07385516
21	0x3e350549	0.17677797
22	0x3dd3b2b8	0.10336822
23	0x3eb41a41	0.3517628
24	0x3d9d13de	0.07669805
25	0x3d88aa13	0.06673064
26	0x3e02695d	0.12735505
27	0x3e4682a7	0.19385777
28	0x3de61e75	0.11236278
29	0x3e546574	0.20741826
30	0x3e928691	0.2861829
31	0x3e93ec52	0.28891236
32	0x3e1a35d1	0.15059592
33	0x3e2347a7	0.15945302
34	0x3dc8f282	0.0981188
35	0x3e36d4d3	0.17854623
36	0x3e1bcdaf	0.15215181
37	0x3ea657fb	0.32489
38	0x3e1621f9	0.14661397
39	0x3e839497	0.25699303
40	0x3e83538c	0.2564968
41	0x3e198e84	0.14995772
42	0x3f06b167	0.52614444
43	0x3e43137a	0.19050398
44	0x3e872e67	0.2640259
45	0x3e6497ad	0.22323485
46	0x3dfee5ee	0.12446199
47	0x3e1a9d09	0.15098967
48	0x3e803035	0.2503678
49	0x3e92428d	0.285664
50	0x3e53ea18	0.20694768
51	0x3e6474e3	0.22310214
52	0x3e6b265b	0.2296385
53	0x3d7a932b	0.061175507
54	0x3ed445df	0.41459557
55	0x3ea1631a	0.3152092
56	0x3ec90d67	0.39268038
57	0x3e4b331e	0.19843718
58	0x3e2a1b1b	0.16611902
59	0x3e5a7e85	0.21337326
60	0x3e0a74cc	0.13521117
61	0x3e986fd6	0.29772824
62	0x3e97dfb6	0.29662865
63	0x3e35d55d	0.17757173

bn2.weight f4 [64]
0	0x3f7eb529	0.9949518
1	0x3f80a10a	1.0049145
2	0x3f7eba86	0.9950336
3	0x3f7fdcb5	0.9994615
4	0x3f7ebac0	0.9950371
5	0x3f80a5cc	1.0050597
6	0x3f7eef06	0.9958347
7	0x3f7ed218	0.9953933
8	0x3f809e03	1.0048221
9	0x3f7fa1f9	0.99856526
10	0x3f7ebea4	0.99509645
11	0x3f7ebad4	0.9950383
12	0x3f7eafe4	0.9948714
13	0x3f809e35	1.0048281
14	0x3f7eb687	0.99497265
15	0x3f806e44	1.003365
16	0x3f809d0d	1.0047928
17	0x3f80926a	1.0044682
18	0x3f7f59bd	0.99746305
19	0x3f809049	1.0044032
20	0x3f80a4fb	1.0050348
21	0x3f80879d	1.0041386
22	0x3f804615	1.0021387
23	0x3f7eb16c	0.99489474
24	0x3f7ec9e6	0.9952682
25	0x3f7ec068	0.9951234
26	0x3f8033ec	1.0015845
27	0x3f8079be	1.0037153
28	0x3f7eb8a7	0.9950051
29	0x3f7ef953	0.9959919
30	0x3f809f13	1.0048546
31	0x3f7ebccb	0.99506825
32	0x3f7ec987	0.99526256
33	0x3f7f25a6	0.9966682
34	0x3f80a236	1.0049503
35	0x3f809c73	1.0047745
36	0x3f7ead91	0.9948359
37	0x3f7eb82a	0.9949976
38	0x3f809ce1	1.0047876
39	0x3f7eb8ba	0.9950062
40	0x3f7ebd32	0.9950744
41	0x3f8069d4	1.0032296
42	0x3f80a169	1.0049258
43	0x3f7f190c	0.99647593
44	0x3f7eb9a0	0.9950199
45	0x3f80a285	1.0049597
46	0x3f7eb4c7	0.99494594
47	0x3f7ebc35	0.9950593
48	0x3f80a52f	1.005041
49	0x3f7ef917	0.9959883
50	0x3f7ecdfa	0.99533045
51	0x3f80a4c8	1.0050287
52	0x3f809da1	1.0048105
53	0x3f80a09e	1.0049016
54	0x3f80a63f	1.0050734
55	0x3f7ebb43	0.9950449
56	0x3f809e74	1.0048356
57	0x3f7ebb47	0.9950451
58	0x3f809336	1.0044925
59	0x3f7fd7e8	0.9993882
60	0x3f8087a7	1.0041398
61	0x3f7ed2c5	0.9954036
62	0x3f806c84	1.0033116
63	0x3f8090dd	1.0044209

bn2.bias f4 [64]
0	0xbba48248	-0.0050204135
1	0x3b9f271c	0.004856957
2	0xbba1b270	-0.0049346015
3	0xbb943f03	-0.004524113
4	0xbba05dae	-0.00489398
5	0x3ba5f15a	0.0050641717
6	0xbb9e766c	-0.0048358943
7	0xbb933ad0	-0.004493095
8	0x3b9cdf0d	0.004787332
9	0xbba77fb1	-0.0051116575
10	0xbba40ad1	-0.005006172
11	0xbba2f15b	-0.0049726195
12	0xbba141e1	-0.0049211835
13	0x3b8bf9d5	0.0042717257
14	0xbba39a1d	-0.004992737
15	0xbb9502f9	-0.0045474735
16	0x3b1e1c28	0.002412567
17	0xbb8334a2	-0.004004077
18	0xbb8b84c2	-0.0042577693
19	0xbb8efbd0	-0.0043635145
20	0x3ba6b49a	0.0050874474
21	0xbba0ce4d	-0.0049074055
22	0xbb486452	-0.0030577374
23	0xbba6bdb0	-0.0050885305
24	0xbb9e628d	-0.0048335255
25	0xbba1766c	-0.004927447
26	0xbb994a88	-0.0046780743
27	0xbb449ff6	-0.003000257
28	0xbba26902	-0.0049563656
29	0xbb931960	-0.004489109
30	0xbb896977	-0.0041934806
31	0xbb9f0624	-0.004853027
32	0xbba1ba86	-0.0049355654
33	0xbba07a95	-0.0048974254
34	0x3b92ce68	0.004480172
35	0xbaea2d04	-0.0017866199
36	0xbba651dc	-0.0050756764
37	0xbba4c35d	-0.005028172
38	0x3b71b009	0.0036878607
39	0xbba380e3	-0.0049897297
40	0xbba15822	-0.0049238363
41	0xbba41ad9	-0.0050080833
42	0x3ba2df18	0.0049704425
43	0xbb9c7d16	-0.0047756536
44	0xbba34944	-0.004983099
45	0x3ba205eb	0.004944553
46	0xbba462fb	-0.005016682
47	0xbba26025	-0.004955309
48	0x3ba35ded	0.004985562
49	0xbb98d620	-0.0046641976
50	0xbba2d8c3	-0.0049696877
51	0x3ba8884f	0.0051432024
52	0x3b9d583a	0.004801777
53	0x3ba1d967	0.0049392465
54	0x3b9d6e60	0.0048044175
55	0xbba3fee7	-0.005004752
56	0x3b9ed85d	0.00484757
57	0xbba22036	-0.0049476875
58	0xbb7640a3	-0.0037575148
59	0x39ce9e6a	0.0003940941
60	0xbb7074c3	-0.003669069
61	0xbba0edfb	-0.004911182
62	0xbb9a8a55	-0.0047161975
63	0xbb941e52	-0.004520216

bn2.running_mean f4 [64]
0	0x3dd55205	0.104160346
1	0x3d68ba29	0.05681816
2	0x3e0a85b0	0.1352756
3	0x3f2e9dce	0.6820954
4	0xbd53ee95	-0.0517412
5	0xbe63ca28	-0.22245085
6	0xbe4af9c2	-0.19821838
7	0x3ec1c749	0.37847355
8	0xbf24bc38	-0.643497
9	0x3ed5b6f4	0.41741145
10	0xbeadefc4	-0.3397199
11	0xbe832b11	-0.25618795
12	0x3f49ba8d	0.7880028
13	0x3f3815f6	0.7190851
14	0x3e0d9d91	0.13829638
15	0xbee8b536	-0.45450753
16	0x3f351f6e	0.7075108
17	0x3e40cf59	0.18829097
18	0x3eb62638	0.35576034
19	0x3ee10e38	0.4395616
20	0x3ef0b242	0.47011
21	0x3c1721ae	0.009224338
22	0xbd9558a9	-0.07292301
23	0xbf2fc0e8	-0.68653727
24	0x3d91c732	0.071180716
25	0x3e9e35d2	0.30900437
26	0x3ec26900	0.37970734
27	0x3ec52cc2	0.3851071
28	0xbe03cfa2	-0.12872174
29	0x3ebc7d48	0.36814332
30	0xbe2bc63f	-0.16774844
31	0x3f1e4ce2	0.61836064
32	0xbe1ad440	-0.1512003
33	0xbe730aa8	-0.23734534
34	0x3e5aba97	0.21360241
35	0x3e09f514	0.13472396
36	0x3ebde90b	0.3709186
37	0xbd854286	-0.06506829
38	0x3eff4d73	0.49863777
39	0x3ea8edf6	0.3299405
40	0x3ed9db80	0.42550278
41	0x3ed0cf94	0.4078337
42	0x3e903262	0.2816344
43	0x3d4a68e7	0.04941645
44	0x3e160028	0.14648497
45	0xbe49ccb6	-0.19706997
46	0x3e37122f	0.1787803
47	0x3dd962cd	0.10614548
48	0xbe2d714b	-0.16937749
49	0x3f11df1f	0.5698108
50	0x3d035190	0.032060206
51	0xbdedc1e3	-0.116092466
52	0xbf208973	-0.6270973
53	0x3d4b960e	0.04970365
54	0xbe54eb1f	-0.20792817
55	0xbef40316	-0.47658604
56	0x3ea50e08	0.32237267
57	0x3e098180	0.13428307
58	0x3e366e7a	0.17815581
59	0xbdea0635	-0.11426965
60	0xbf188f7c	-0.5959394
61	0xbe928b8e	-0.28622097
62	0x3db4ee06	0.08834462
63	0x3e0b246e	0.13588116

bn2.running_var f4 [64]
0	0x3dc9acea	0.09847434
1	0x3de37b47	0.11107498
2	0x3e3d331b	0.18476526
3	0x3e290653	0.16506319
4	0x3e1190d1	0.142154
5	0x3e164146	0.14673337
6	0x3e445512	0.19173077
7	0x3e1df09d	0.15423818
8	0x3e5d533d	0.21613784
9	0x3e149008	0.14508069
10	0x3df917a8	0.12162715
11	0x3e15a811	0.14614893
12	0x3e181031	0.14849927
13	0x3e54eb8c	0.20792979
14	0x3e3a936e	0.18220302
15	0x3e63a61a	0.22231331
16	0x3e3539c9	0.17697825
17	0x3e0eee17	0.13958012
18	0x3e22fe33	0.15917282
19	0x3e17893a	0.14798442
20	0x3e29b6eb	0.16573684
21	0x3e160050	0.14648557
22	0x3de7994b	0.11308535
23	0x3e2f97fc	0.17147821
24	0x3e0c31c5	0.1369086
25	0x3ddaf550	0.10691321
26	0x3e09251b	0.13393061
27	0x3e08360d	0.13301869
28	0x3e006c96	0.12541422
29	0x3e285d11	0.16441752
30	0x3e08c291	0.13355471
31	0x3e174118	0.14770925
32	0x3df74b9b	0.120749675
33	0x3dcc1cef	0.09966456
34	0x3e245864	0.16049343
35	0x3df20402	0.11817171
36	0x3e5bc6da	0.21462575
37	0x3dba0bb0	0.090842605
38	0x3de03a20	0.109485865
39	0x3e20d3eb	0.1570584
40	0x3eb80955	0.3594462
41	0x3e0c4f62	0.13702157
42	0x3e185bc9	0.14878763
43	0x3e087d23	0.13328986
44	0x3e059d8a	0.13048378
45	0x3e09ca69	0.1345612
46	0x3df3ee6b	0.11910709
47	0x3e302c06	0.17204294
48	0x3e23df64	0.16003186
49	0x3dd9a4af	0.10627114
50	0x3e026807	0.12734996
51	0x3e0f22ff	0.13978194
52	0x3e444b94	0.19169456
53	0x3e0872b1	0.13325001
54	0x3e2d1df6	0.1690596
55	0x3e513ce9	0.20433392
56	0x3da50785	0.08058075
57	0x3e23bf70	0.15990996
58	0x3dd25423	0.10269954
59	0x3dfd4a96	0.12367742
60	0x3e1cb2b1	0.1530254
61	0x3e603cb9	0.21898164
62	0x3e354218	0.17700994
63	0x3e2f503a	0.17120448

classifier.weight f4 [10, 64]
0	0x3d418aea	0.04725162
1	0x3d49f11a	0.049302198
2	0x3d650670	0.055914342
3	0x3dd48d85	0.10378555
4	0x3d966d1d	0.073450305
5	0xbdb9a11b	-0.090639316
6	0xbdee54b6	-0.11637251
7	0xbd80daa5	-0.06291703
8	0x3df59390	0.11991036
9	0x3d024907	0.031807926
10	0xbd21ca62	-0.039499648
11	0x3d45c777	0.048285928
12	0xbd9229ba	-0.07136865
13	0x3d5bef3e	0.053694956
14	0x3df1cdd0	0.11806834
15	0xbd09b873	-0.03362317
16	0x3d3d8e31	0.046278182
17	0xbddb5df6	-0.10711281
18	0x3dcc05a4	0.09962013
19	0xbd86f298	-0.0658924
20	0xbdbb6e4f	-0.09151899
21	0xbaf0d541	-0.0018374101
22	0xbddb51d3	-0.10708966
23	0xbc42d2c2	-0.011891069
24	0xbdf521e4	-0.11969355
25	0xbdf19b7b	-0.11797234
26	0x3dd096e9	0.10185034
27	0xbba99c42	-0.005176098
28	0x3cab9fea	0.020950276
29	0xbde770e6	-0.113008305
30	0x3dc6b892	0.09703173
31	0xbde89936	-0.11357348
32	0xbdc0a55e	-0.09406541
33	0x3d3db78f	0.046317633
34	0xbde64362	-0.11243321
35	0xbd95f301	-0.0732174
36	0xbdf4c35a	-0.11951323
37	0x3da4fa95	0.08055607
38	0x3dedda2e	0.1161388
39	0xbdd489fc	-0.10377881
40	0xbd017ef2	-0.031615205
41	0xbde8f7a1	-0.113753565
42	0xbc8be7e9	-0.017078357
43	0x3d3a97b1	0.04555482
44	0x3daeb554	0.08530679
45	0x3bcfdc95	0.006343434
46	0xbce9491b	-0.028477242
47	0x3df4ca6d	0.11952672
48	0x3d5ec053	0.054382633
49	0xbd01d001	-0.03169251
50	0x3d0bde39	0.034147475
51	0xbdadffdc	-0.08496067
52	0xbd6fb702	-0.05852414
53	0xbdc31b05	-0.09526638
54	0xbd5acbca	-0.053417005
55	0x3dcbf18a	0.09958179
56	0xbdd21c16	-0.10259263
57	0xbce4e164	-0.027939506
58	0xbda700bf	-0.08154439
59	0x3d64f378	0.055896252
60	0x3d8dcdc6	0.06924014
61	0xbb1a9fa5	-0.002359369
62	0xbd872da4	-0.06600502
63	0xbd848891	-0.064713605
64	0x3c5eaf8b	0.013591657
65	0xbd8d0fa0	-0.06887746
66	0xbded2d0b	-0.11580857
67	0xbd7b7cf2	-0.061398454
68	0x3dfe90bd	0.124299504
69	0x3def9dfe	0.117000565
70	0xbdd82d30	-0.10555494
71	0xbc7b1ea7	-0.015327132
72	0x3d349cb6	0.044094764
73	0x3db330b0	0.08749521
74	0x3dbc990a	0.092088774
75	0x3cfc4281	0.03079343
76	0x3de65f29	0.11248619
77	0xbdb6b36d	-0.089209415
78	0xbd0755b9	-0.033040736
79	0x3cddb466	0.02706356
80	0x3d08a828	0.03336349
81	0xbded890e	-0.11598407
82	0x3da7c9e7	0.08192807
83	0xbd12d34b	-0.035846036
84	0x3d7aa464	0.06119193
85	0x3d6f5669	0.058432017
86	0xbddca4da	-0.107736304
87	0x3de7b22e	0.11313282
88	0x3db821f5	0.08990852
89	0x3dcbb4da	0.09946604
90	0xbd28ed28	-0.041241795
91	0x3bc8155d	0.0061060623
92	0x3e020b92	0.12699726
93	0x3d8ae782	0.06782438
94	0xbc720f26	-0.0147741195
95	0xbdcf6465	-0.101265706
96	0xbd169dc4	-0.03677155
97	0xbd85a0c0	-0.06524801
98	0xbd9eae6c	-0.07748112
99	0x3db68ac6	0.08913188
100	0x3d58df25	0.052947182
101	0xbc574853	-0.013139802
102	0x3cf8193e	0.030285474
103	0xbdcb091f	-0.09913849
104	0xbd690352	-0.056887932
105	0xbcedef2e	-0.029044714
106	0xbd9a12e3	-0.075231336
107	0x3dbc0aa9	0.09181721
108	0x3c0bef3f	0.008540927
109	0x3ce3da96	0.02781419
110	0xbd928ea6	-0.07156114
111	0x3d10f884	0.035393253
112	0x3d8cdc72	0.06877984
113	0xbdadff48	-0.08495957
114	0xbd749709	-0.05971435
115	0xbdb4f113	-0.08835044
116	0xbdd8c02e	-0.1058353
117	0xbbd658f1	-0.0065413644
118	0x3d32d7b5	0.043662746
119	0x3d8cbaa4	0.068715364
120	0xbd59e815	-0.053199846
121	0x3dd83d41	0.10558558
122	0x3d221536	0.03957101
123	0x3b538b8a	0.0032279217
124	0x3d1e9f65	0.03872623
125	0x3d433e9e	0.04766714
126	0xbc8132da	-0.015771318
127	0x3d707755	0.058707554
128	0xbc9e56b9	-0.019328462
129	0x3dd4393c	0.10362479
130	0x3dcaaf20	0.09896684
131	0xbcca9342	-0.024728421
132	0xbd58270b	-0.05277161
133	0xbb3c6081	-0.0028744044
134	0xbda5d105	-0.08096508
135	0xbddc4195	-0.10754696
136	0x3d74f16a	0.059800543
137	0x3d0994a0	0.033589005
138	0x3cc72906	0.024311554
139	0xbdc69aeb	-0.09697517
140	0xbdd16963	-0.10225179
141	0xbda0494b	-0.078264795
142	0x3bfebbf1	0.007773869
143	0xbd0e01bc	-0.034669623
144	0x3bcd3210	0.0062620714
145	0x3d98d243	0.07461979
146	0x3de98ef8	0.11404222
147	0x3dbe19d1	0.09282268
148	0xbd888695	-0.066662945
149	0x3d4ce2e1	0.050021056
150	0xbd98a57e	-0.0745344
151	0xbd835783	-0.06413176
152	0x3da62a43	0.081135295
153	0x3d1726b4	0.036902145
154	0x3d864ddf	0.065578215
155	0xbd0875c4	-0.033315435
156	0xbdda177c	-0.106490105
157	0xbdcefaf9	-0.10106463
158	0x3dd7ce5e	0.10537408
159	0xbda202fa	-0.07910724
160	0xbda0d3f4	-0.07852927
161	0x3d5ff161	0.054673556
162	0xbdb7e708	-0.089796126
163	0xbd94fce8	-0.072748005
164	0x3da9d403	0.08292391
165	0x3dbeef96	0.09323041
166	0xbdbd3645	-0.09238867
167	0xbd94512e	-0.07242046
168	0xbdbb154e	-0.09134923
169	0x3ccbfca4	0.024900742
170	0xbde69e6e	-0.11260687
171	0x3d81f487	0.06345468
172	0x3de8b399	0.113623805
173	0x3d35ef78	0.04441783
174	0x3d99e7b8	0.075149
175	0xbd45d5ed	-0.04829972
176	0xbd7ed860	-0.06221807
177	0x3d3ff37b	0.04686306
178	0x3de6b18b	0.112643324
179	0xbddc7293	-0.10764041
180	0xbcf93775	-0.030421952
181	0x3e030abd	0.12797065
182	0x3dd21447	0.10257774
183	0xbb62b1a5	-0.0034590748
184	0xbd29314f	-0.04130679
185	0xbd9d27c9	-0.07673604
186	0xbdd76589	-0.10517413
187	0xbdd44194	-0.103640705
188	0xbdae377f	-0.08506679
189	0x3d866291	0.06561769
190	0xbdbed9b4	-0.09318867
191	0xba8f8fe5	-0.0010952918
192	0xbdd84dcb	-0.10561713
193	0xbbbcd907	-0.0057631764
194	0xbbaf0903	-0.0053416505
195	0x3daae567	0.08344536
196	0x3d0e2a15	0.0347081
197	0x3d971e1a	0.07378788
198	0xbdf5dfd7	-0.12005585
199	0x3ded8fc3	0.11599686
200	0x3cbe979e	0.023265656
201	0xbcb96724	-0.02263219
202	0x3d9d1a4f	0.076710336
203	0xbca7b539	-0.020472156
204	0x3ddfae16	0.10921876
205	0x3d463d38	0.048398226
206	0xbdad05c7	-0.084483676
207	0x3d16c9dd	0.036813606
208	0x3d35d3c3	0.044391405
209	0xbc8f4283	-0.01748777
210	0xbd85a68a	-0.065259054
211	0xbd01f344	-0.031726137
212	0x3da1f405	0.07907871
213	0x3da3dcad	0.08001075
214	0xbcb518d5	-0.022106567
215	0xbc9ecc4f	-0.019384531
216	0xbd4d4847	-0.050117757
217	0xb9dd7394	-0.00042238517
218	0xbce80aa5	-0.028325388
219	0x3dc7004e	0.09716855
220	0xbdb7e44f	-0.08979093
221	0x3c3f4e95	0.01167645
222	0xbd9e5562	-0.07731129
223	0x3d23570d	0.03987794
224	0x3d48bfb9	0.049010966
225	0xbd896a87	-0.067097716
226	0x3dc3dc5c	0.095635146
227	0xbdc59404	-0.09647372
228	0x3db0ad4a	0.08626802
229	0x3bb9d349	0.005670939
230	0xbc1b1026	-0.009464299
231	0xbd260024	-0.040527478
232	0x3defb3ed	0.1170424
233	0x3ce8488b	0.028354904
234	0x3c6929b1	0.014231131
235	0x3d1dfbb8	0.038570136
236	0xbdd27f7b	-0.10278221
237	0x3dd3dec9	0.10345227
238	0xbdab93bf	-0.0837779
239	0x3dbc51d3	0.09195294
240	0xbce96991	-0.02849272
241	0xbda58c56	-0.080834076
242	0x3c50dcee	0.012747986
243	0xbdc0c16d	-0.09411893
244	0x3dc46cd5	0.095910706
245	0x3df6a147	0.1204248
246	0xbdbb753a	-0.091532186
247	0xbd4b2cfa	-0.04960344
248	0x3c3584f0	0.011079058
249	0x398878b4	0.00026029872
250	0x3dbd5693	0.09245028
251	0x3d199892	0.037499018
252	0xbdf330a8	-0.11874515
253	0x3d14eac3	0.0363567
254	0xbdd35725	-0.10319356
255	0xbb802947	-0.0039111706

classifier.bias f4 [10]
0	0x3d8a62c5	0.0675712
1	0x3d248486	0.040165447
2	0x3d5a2276	0.05325552
3	0x3dd6c2ee	0.10486399
4	0xbca8f443	-0.020624286
5	0x3cbd4bd1	0.023107441
6	0xbd86b9b7	-0.06578391
7	0x3d18ee3a	0.037336566
8	0xbd7351f3	-0.059404325
9	0x3d14876f	0.036261972
