checkpoints/checkpoint_epoch_75.pt (torch, 547720 bytes, 37 tensors)

prototypes f4 [100, 64]
0.15316816 -0.27704635 -0.08185534 2.218329 -0.65820223 0.68319464 0.20111142 -0.89165395
0.091816455 2.9625075 -1.0028989 -0.9798774 -0.56216955 -1.0389504 -0.65715957 1.6445765
-0.7251631 0.37616938 0.9969051 1.5234692 -2.212022 -0.17453526 -0.4032158 0.16061823
0.25695354 0.2399467 0.2176651 0.7834332 -0.5145153 0.5956245 -0.42835996 0.32033634
-1.8864335 1.4783556 -0.3592495 0.25388226 -0.28372154 -0.81141514 0.86906964 -1.9205766
-0.4677164 0.030087003 1.1807725 0.45274886 1.2157286 -0.15041453 -0.2620848 0.20129007
1.8756305 -0.44731754 0.20713943 -0.5602638 -0.68280435 -0.7943904 -0.60977376 0.5156206
1.3099159 -0.26960465 0.12702413 -1.8798554 -0.20677878 0.86440855 -0.3057245 1.3382785
-0.046015214 1.8217279 -1.1015258 0.13605961 -1.2926649 -0.89278644 -0.422786 0.026884222
-0.42668986 -0.12558864 0.13298862 0.96718305 0.012446108 0.8356613 -1.0154824 -0.2939569
0.55166775 0.7540045 -0.82703745 -0.4930484 0.37180147 -1.9844342 0.89867395 0.4671468
-1.21225 1.7506847 -1.5442841 -0.18860455 1.674715 0.48607206 0.58600473 -0.48342296
1.0038263 -1.0747145 -1.8178535 -0.17863694 1.3509253 -0.94591975 -0.38126713 -0.42216468
-1.1762218 -1.2713825 0.0044362913 -0.4541483 -1.2382305 0.16584556 0.39887017 1.8443235
-0.13413268 -0.25039804 -1.8980653 -1.0268077 -0.045558356 1.1363609 -0.15396883 0.5180073
-1.2658774 0.044605684 -1.3651357 -0.6399666 -1.0194255 -0.8958877 -1.9804376 1.0747275
0.47886297 -0.6553183 0.6265112 -1.8341222 0.44600937 0.51037997 0.031113181 0.60050863
-1.423994 0.019405771 -0.69820803 0.11682555 1.5745317 0.00039657054 -1.8607208 -0.55358416
0.8047609 -1.8671075 1.1588935 0.0058086347 0.08766784 -0.034029853 -0.8535885 3.2095497
1.3790318 -0.34638205 0.29983652 -1.0947849 -0.050614707 -0.86166686 1.159129 -1.5751714
0.98000884 0.05979375 -2.1269703 0.839676 0.003739536 -0.72670364 -1.0864499 -2.0309083
-0.014754785 -0.9794716 1.0778644 -0.053502616 -1.2822754 -0.3514543 -0.3643141 1.978602
0.5844689 0.35883301 -0.5941232 -1.7906406 -0.6455158 -0.07744083 -0.953793 -0.59075487
-0.64556044 -0.9634643 -0.3736645 -1.0341471 -0.582053 0.8004481 0.009602424 0.92895347
-0.08328609 1.3542758 0.26766106 1.195663 0.35718614 2.110109 -0.5086124 0.23567328
3.4743104 1.9071143 -3.0039577 0.40837407 0.3439277 0.30682102 0.85942614 0.19241336
-1.4635054 -1.280092 -1.7605988 0.4206187 0.7424614 -0.21738058 -0.2426467 0.44076893
0.58984804 -1.0316342 -0.9845472 -0.39000875 1.406718 0.03683239 1.061583 -0.5258898
0.85338163 1.8720156 -0.2718727 -1.1128929 -0.5249858 0.80567825 0.1090194 0.7073572
1.5031421 -1.3359873 0.43576196 0.71053404 -0.66826457 -2.0942962 0.343824 0.49245822
-1.8490412 -0.6378315 -0.9373269 0.4868377 0.017470686 0.46932092 0.61891484 -0.08955088
0.71009576 -0.96246296 -0.43309215 1.0440732 1.3496387 0.48460427 -1.5501951 -1.2682561
00000000: 1dd8 1c3e 05d9 8dbe c6a3 a7bd 1af9 0d40
00000010: f17f 28bf d8e5 2e3f 27f0 4d3e 6f43 64bf
00000020: 440a bc3d b999 3d40 fe5e 80bf 3fd9 7abf
00000030: 58ea 0fbf 54fc 84bf 9c3b 28bf 7c81 d23f
00000040: 4aa4 39bf 4699 c03e 2c35 7f3f 0a01 c33f
00000050: c591 0dc0 5fb9 32be 4d72 cebe 1b79 243e
00000060: 6a8f 833e 96b4 753e 9ae3 5e3e 148f 483f
00000070: 46b7 03bf d97a 183f ff51 dbbe 2003 a43e
00000080: a776 f1bf c23a bd3f 8def b7be dbfc 813e
00000090: f343 91be e7b8 4fbf 597b 5e3f 74d5 f5bf
000000a0: 8678 efbe 0579 f63c 8e23 973f b3ce e73e
000000b0: ff9c 9b3f 4406 1abe fb2f 86be fc1e 4e3e
000000c0: a914 f03f ce06 e5be 5c1c 543e 736d 0fbf
000000d0: 44cc 2ebf 2b5d 4bbf 221a 1cbf b6ff 033f
000000e0: 53ab a73f 9f09 8abe 9d12 023e 1a9f f0bf
000000f0: d1bd 53be e149 5d3f ec87 9cbe b64c ab3f
00000100: 737a 3cbd 612e e93f ccfe 8cbf 3653 0b3e
00000110: 0b76 a5bf a78d 64bf 6877 d8be 4d3c dc3c
00000120: 1877 dabe 4f9a 00be 2b2e 083e 4f99 773f
00000130: c3ea 4b3c e6ed 553f 54fb 81bf 8581 96be
00000140: 193a 0d3f 7006 413f bab8 53bf d770 fcbe
00000150: c35c be3e f101 febf 7f0f 663f de2d ef3e
00000160: 022b 9bbf 7016 e03f 1aab c5bf 8d21 41be
00000170: 105d d63f 70de f83e 6804 163f 3783 f7be
00000180: 617d 803f 3f90 89bf 6caf e8bf 9aec 36be
00000190: 1feb ac3f cc27 72bf 7235 c3be f825 d8be
000001a0: 708e 96bf a9bc a2bf 4f5e 913b 2086 e8be
000001b0: 567e 9ebf 6bd3 293e b638 cc3e cb12 ec3f
000001c0: 145a 09be 2c34 80be cef3 f2bf 6f6e 83bf
000001d0: 669b 3abd 4674 913f 01aa 1dbe 209c 043f
000001e0: 4508 a2bf 73b4 363d c4bc aebf dad4 23bf
000001f0: 897c 82bf e558 65bf fb7e fdbf ac90 893f
00000200: 872d f53e f1c2 27bf 0a63 203f 84c4 eabf
00000210: 575b e43e 43a8 023f 12e1 fe3c efba 193f
00000220: 6f45 b6bf daf8 9e3c c3bd 32bf 3c42 ef3d
00000230: 418a c93f ccea cf39 192c eebf b1b7 0dbf
00000240: cf04 4e3f 61fd eebf 9f56 943f 5c56 be3b
00000250: 328b b33d e362 0bbd c784 5abf 4369 4d40
00000260: 1d84 b03f fd58 b1be 2c84 993e e921 8cbf
00000270: 5e51 4fbd 3396 5cbf 575e 943f 379f c9bf
00000280: dce1 7a3f 4bea 743d 4820 08c0 02f5 563f
00000290: 0113 753b 4009 3abf ca10 8bbf 67fa 01c0
000002a0: 0ebe 71bc a7be 7abf 76f7 893f 8f25 5bbd
000002b0: 9a21 a4bf d1f1 b3be 6187 babe d542 fd3f
000002c0: c19f 153f f6b8 b73e 7518 18bf b633 e5bf
000002d0: 8640 25bf 4c99 9ebd c72b 74bf b63b 17bf
000002e0: 7343 25bf 99a5 76bf f450 bfbe ef5e 84bf
000002f0: 6d01 15bf 2bea 4c3f 7c53 1d3c e5cf 6d3f
00000300: e691 aabd e958 ad3f df0a 893e 7c0b 993f
00000310: 1ae1 b63e 070c 0740 6c34 02bf 5654 713e
00000320: 1a5b 5e40 521c f43f d840 40c0 6816 d13e
00000330: 4b17 b03e a517 9d3e 5a03 5c3f 0208 453e
00000340: 2554 bbbf 0eda a3bf 4d5b e1bf 565b d73e
00000350: f311 3e3f 0499 5ebe 6078 78be 77ac e13e
00000360: 4800 173f 970c 84bf 490b 7cbf 3aaf c7be
00000370: 560f b43f 8fdd 163d f4e1 873f b7a0 06bf
00000380: 3877 5a3f 359e ef3f e632 8bbe 4673 8ebf
00000390: 7865 06bf ee40 4e3f 9045 df3d 5d15 353f
000003a0: f666 c03f a201 abbf 311c df3e 8fe5 353f
000003b0: 6313 2bbf f308 06c0 b309 b03e 7c23 fc3e
000003c0: 62ad ecbf ed48 23bf a8f4 6fbf ca42 f93e
000003d0: af1e 8f3c d54a f03e 3471 1e3f 7466 b7bd
000003e0: d6c8 353f f963 76bf 41be ddbe 31a4 853f
000003f0: f6c0 ac3f 0d1e f83e cb6c c6bf 3756 a2bf

conv1.bias f4 [64]
-0.00015658952 -2.133993e-05 -9.957245e-05 -0.000116088806 -2.266639e-06 3.6280417e-06 0.00022794386 -0.00018035158
-3.6467976e-05 -9.026721e-07 -0.00012284976 9.881173e-05 -2.3702649e-05 -3.114173e-05 0.000101359146 -8.646956e-06
9.9319404e-05 -3.2050062e-05 -8.63497e-05 -0.00015614639 -3.562958e-05 -1.7762864e-05 0.0002847189 7.3394012e-06
8.8796456e-05 0.00011936471 5.6600362e-05 6.8895906e-06 5.6032346e-05 2.126531e-05 -3.8031583e-05 -0.00022985037
3.905183e-05 3.660515e-05 3.2734577e-05 7.217068e-05 -4.2465897e-05 -0.00028565424 -3.1847123e-06 -4.590751e-06
-5.084561e-05 2.2465661e-05 -3.0965475e-05 -6.213458e-05 0.00012785371 -1.7486613e-05 -7.985616e-05 0.00018197254
0.00019694815 1.3351914e-06 -7.681655e-05 -0.00011141267 0.0001948535 3.096348e-05 -0.00017590354 0.00021027647
-2.7075437e-05 2.7716866e-05 -1.8223467e-05 9.915373e-05 -2.225279e-05 8.724175e-05 7.1151762e-06 4.5532277e-05
00000000: 2e32 24b9 2703 b3b7 8dd1 d0b8 b474 f3b8
00000010: 901c 18b6 4879 7336 3704 6f39 c21c 3db9
00000020: 31f5 18b8 284f 72b5 3bd1 00b9 2539 cf38
00000030: 0dd5 c6b7 2e9e 02b8 c790 d438 6512 11b7
00000040: b349 d038 7e6d 06b8 a416 b5b8 3abb 23b9
00000050: f870 15b8 7601 95b7 5346 9539 fa44 f636
00000060: 3c38 ba38 7153 fa38 2d66 6d38 222d e736
00000070: 4604 6b38 e862 b237 1a84 1fb8 fd03 71b9
00000080: 95cb 2338 7b88 1938 7c4c 0938 575a 9738
00000090: 691d 32b8 ddc3 95b9 f1b8 55b6 400a 9ab6
000000a0: 0f43 55b8 a474 bc37 ede0 01b8 404e 82b8
000000b0: 7810 0639 37b0 92b7 7378 a7b8 e2cf 3e39
000000c0: de83 4e39 d434 b335 9218 a1b8 39a6 e9b8
000000d0: 9751 4c39 c9de 0138 bf72 38b9 a97d 5c39
000000e0: 0f20 e3b7 8481 e837 99de 98b7 c1f0 cf38
000000f0: 81ab bab7 8ff5 b638 e6be ee36 e9f9 3e38

conv1.lin.weight f4 [64, 512]
-0.019100165 -0.03731992 -0.060432363 -0.04142314 -0.071121186 -0.09370958 0.028007729 -0.031085804
0.023414485 0.04564034 -0.021385983 0.013668897 -0.03647092 -0.10173941 0.014254301 -0.06904998
-0.10151303 -0.04048915 -0.032519653 0.034840524 -0.044603404 0.074632905 0.0029728825 -0.0062344237
-0.0005756895 -0.05636192 -0.10605469 -0.08947922 -0.018589837 0.012695527 0.02947508 0.0021368603
0.10450728 0.017677115 0.043847054 -0.012661848 -0.053921465 -0.03705236 0.09410197 0.04697455
0.014481461 -0.03908273 -0.021951552 0.016280176 0.078615054 -0.007885092 -0.085504025 0.017935367
-0.052520167 -0.021114813 -0.091969654 0.053204026 0.06807127 -0.008163654 0.05336798 -0.071618155
-0.06657336 0.051923458 -0.059419166 -0.06590896 0.055560116 -0.110396184 -0.01449507 -0.018765245
0.061341707 0.033111215 -0.054614168 -0.040622707 0.05730249 0.04761719 0.0069962936 -0.014452773
0.024442293 -0.004189651 -0.07410571 -0.039280854 0.039973047 0.03790481 -0.079884745 -0.040904637
-0.08847451 -0.006510421 0.011740544 -0.008391362 -0.034812972 0.010496268 0.11550596 0.0016611946
0.016909895 -0.01822794 0.031936765 -0.11368497 0.057962175 -0.03815444 -0.05997271 -0.051573545
0.09071643 -0.007287171 0.042173762 0.062021427 0.099951066 0.013031952 0.019394962 0.0879189
0.09965744 0.05608678 0.056900248 0.03789773 -0.030587014 0.01934787 0.02156036 0.029016051
-0.06709345 0.026246151 -0.054879285 -0.023102585 -0.016993843 0.08720748 0.0869865 -0.07125654
-0.044827152 0.06299736 -0.033363067 -0.056751672 0.05479698 0.10192594 -0.052019242 -0.031078706
0.0990769 -0.011424109 -0.084132 0.043884654 0.07251451 -0.068317465 -0.04486693 0.007018968
-0.08318028 -0.027654685 0.007729821 0.030227277 -0.06473018 -0.019194944 -0.056079455 -0.05991344
0.006878476 -0.023892513 0.037703726 -0.020880206 0.09666736 -0.0360647 0.08076455 -0.07945526
0.062566556 0.05076135 0.04411559 0.07578866 0.048271175 -0.077966444 -0.013090962 0.10412132
0.024638964 -0.058978923 0.01557166 0.022868175 0.099138424 0.09094626 -0.05269332 0.031094344
0.0031904124 -0.043109037 0.08058403 -0.050425597 0.06071838 -0.015225618 -0.0036744839 0.035894748
-0.0779166 -0.034780443 -0.09690038 0.0043621226 0.053391982 -0.09464339 -0.031083824 -0.031192297
0.014977666 0.056528103 0.09399181 -0.014913566 -0.040107246 0.094925866 -0.04623134 0.010894978
-0.009067341 0.054414853 0.09053021 -0.09779909 0.04805169 -0.07504018 0.02790936 -0.025388597
-0.008588467 -0.029676307 -0.091239244 0.027298503 -0.017846797 -0.037100963 0.08782929 -0.017256115
-0.038267348 -0.036132902 0.046724048 0.0077153784 -0.0028168797 -0.058667917 -0.10022452 -0.09449111
-0.02858666 0.06427413 0.07121846 -0.027889583 0.086185545 -0.09947491 -0.061967693 0.015177197
-0.021870058 -0.07037632 0.023665266 -0.043070722 0.042524043 0.078982666 -0.0034977784 -0.065994546
-0.05076857 0.051012922 -0.02217755 -0.027227744 0.007044003 -0.09568306 -0.1188246 -0.018296367
0.07912121 0.024320358 0.068401285 -0.11172204 -0.041899487 0.023680251 -0.05516582 -0.100810066
0.073383994 -0.0494919 -0.0837635 0.03488883 -0.1141647 0.102820486 0.012793989 0.036168993
00000000: f377 9cbc c6dc 18bd ed87 77bd 4fab 29bd
00000010: fca7 91bd cfea bfbd 7770 e53c a8a7 febc
00000020: bccf bf3c 5df1 3a3d a831 afbc 82f3 5f3c
00000030: 8862 15bd c05c d0bd df8a 693c 136a 8dbd
00000040: 10e6 cfbd f3d7 25bd 5433 05bd f0b4 0e3d
00000050: 0fb2 36bd 23d9 983d b1d4 423b 234a ccbb
00000060: dee9 16ba c2db 66bd 3433 d9bd e240 b7bd
00000070: b749 98bc e600 503c b975 f13c 910a 0c3b
00000080: ea07 d63d 99cf 903c f898 333d a473 4fbc
00000090: c1dc 5cbd 37c4 17bd 89b8 c03d 6368 403d
000000a0: a643 6d3c 3615 20bd bed3 b3bc 015e 853c
000000b0: ee00 a13d 7930 01bc bc1c afbd 31ed 923c
000000c0: 631f 57bd f9f8 acbc 965a bcbd 77ec 593d
000000d0: f368 8b3d d9c0 05bc 6298 5a3d 8aac 92bd
000000e0: 9d57 88bd b1ad 543d 8361 73bd 47fb 86bd
000000f0: 0193 633d 6517 e2bd bb7c 6dbc 92b9 99bc
00000100: 7141 7b3d a09f 073d 1bb3 5fbd ff63 26bd
00000110: 04b6 6a3d 3e0a 433d 2a41 e53b 53cb 6cbc
00000120: 343b c83c 5749 89bb bcc4 97bd f6e4 20bd
00000130: c7ba 233d 1342 1b3d 9d9a a3bd 9f8b 27bd
00000140: 2032 b5bd 5f55 d5bb 695b 403c ec7b 09bc
00000150: 0c98 0ebd 8af8 2b3c 648e ec3d 71bc d93a
00000160: 9f86 8a3c c352 95bc 20d0 023d aad3 e8bd
00000170: bf69 6d3d d447 1cbd f2a5 75bd c83e 53bd
00000180: 89c9 b93d 39c9 eebb 65be 2c3d 2e0a 7e3d
00000190: 25b3 cc3d f883 553c 2fe2 9e3c d30e b43d
000001a0: 3319 cc3d 40bb 653d 3c10 693d a63a 1b3d
000001b0: 9e91 fabc 6d7f 9e3c 5a9f b03c 12b3 ed3c
000001c0: 4a68 89bd 2b02 d73c 1ac9 60bd a241 bdbc
000001d0: ac36 8bbc d699 b23d fa25 b23d f3ee 91bd
000001e0: ad9c 37bd c304 813d b6a7 08bd 7174 68bd
000001f0: cc72 603d 8cbe d03d 2112 55bd c598 febc
00000200: d4e8 ca3d 302c 3bbc 664d acbd 65c0 333d
00000210: 7d82 943d 07ea 8bbd 63c6 37bd 5fff e53b
00000220: 6c5a aabd 148c e2bc 704a fd3b 329f f73c
00000230: 4291 84bd b73e 9dbc 92b3 65bd cc67 75bd
00000240: d764 e13b 3bba c3bc 396f 1a3d f70c abbc
00000250: 89f9 c53d 94b8 13bd e267 a53d 70b9 a2bd
00000260: e522 803d 22eb 4f3d 8db2 343d 1637 9b3d
00000270: ffb7 453d dfac 9fbd 797b 56bc 8f3d d53d
00000280: a7d7 c93c e293 71bd 4720 7f3c 0a56 bb3c
00000290: 1609 cb3d 0842 ba3d f3d4 57bd 91b9 fe3c
000002a0: 3d16 513b 1a93 30bd 3d09 a53d 128b 4ebd
000002b0: d6b3 783d df74 79bc 9ccf 70bb 5f06 133d
000002c0: bd92 9fbd f075 0ebd b573 c6bd 23f0 8e3b
000002d0: 8db1 5a3d 65d4 c1bd 81a3 febc fd86 ffbc
000002e0: e264 753c 038a 673d c77e c03d 0858 74bc
000002f0: 7f47 24bd 7e68 c23d 135d 3dbd da80 323c
00000300: 2f8f 14bc 1ce2 5e3d e767 b93d e44a c8bd
00000310: d9d1 443d aaae 99bd 2ca2 e43c bffb cfbc
00000320: a4b6 0cbc ba1b f3bc a4db babd 1ca1 df3c
00000330: 7233 92bc 2ef7 17bd d8df b33d b25c 8dbc
00000340: 39be 1cbd 1800 14bd b761 3f3d 49d1 fc3b
00000350: 669b 38bb c54d 70bd 8342 cdbd 8e84 c1bd
00000360: 922e eabc 28a2 833d fcda 913d b278 e4bc
00000370: 0c82 b03d 80b9 cbbd d6d1 7dbd c7a9 783c
00000380: d628 b3bc 7621 90bd a9dd c13c ed6a 30bd
00000390: b12d 2e3d aac1 a13d fc3a 65bb 2628 87bd
000003a0: b4f2 4fbd edf2 503d b1ad b5bc b80c dfbc
000003b0: 61d1 e63b 7bf5 c3bd 505a f3bd 43e2 95bc
000003c0: 4d0a a23d 7d3b c73c f915 8c3d 86ce e4bd
000003d0: cc9e 2bbd 16fd c13c 8ef5 61bd 8275 cebd
000003e0: 594a 963d 05b8 4abd 338c abbd 97e7 0e3d
000003f0: 2fcf e9bd 8c93 d23d e19d 513c f025 143d

conv2.bias f4 [64]
0.0008525845 -0.00040480486 -4.0104624e-05 0.00013341484 -3.2634453e-05 -0.00015497275 -0.00011107855 1.3857039e-06
0.00020306339 6.3799234e-05 2.7868193e-05 3.4235407e-05 -2.4216512e-05 -3.3008495e-05 0.000539218 -6.458954e-05
3.5483718e-05 0.00016614115 -0.00015188342 2.37979e-05 -1.3337062e-06 3.0539624e-05 4.448894e-05 3.0038627e-05
-5.073119e-06 -8.8017274e-05 -0.0005815733 -0.0010379185 -0.00013315825 4.9355807e-05 -6.181265e-05 4.502316e-05
-9.135831e-06 -0.00033602404 0.00017978057 -0.00034453027 0.00012734887 -0.0005738394 1.1528656e-05 6.62936e-06
4.457119e-05 0.0003590373 2.6855978e-06 -0.00042867372 -7.914807e-05 2.80073e-05 0.0002623921 -6.2426705e-05
-5.231472e-05 0.00035430852 0.0001049566 5.0601793e-05 3.090255e-05 -4.9447764e-05 -7.3137664e-05 -9.87814e-07
-9.1405605e-07 0.00019780328 6.523611e-05 2.029193e-05 3.0540505e-05 -2.8475493e-05 -4.9850332e-06 -4.0640252e-06
00000000: fa7f 5f3a fd3b d4b9 0336 28b8 46e5 0b39
00000010: fae0 08b8 2e80 22b9 d8f2 e8b8 6cfc b935
00000020: 6aed 5439 f4cb 8538 7dc6 e937 fd97 0f38
00000030: 9024 cbb7 9a72 0ab8 4f5a 0d3a 3f74 87b8
00000040: 5ad4 1438 2d36 2e39 e542 1fb9 9aa1 c737
00000050: cc01 b3b5 ac17 0038 a399 3a38 76fb fb37
00000060: c339 aab6 ea95 b8b8 b974 18ba c40a 88ba
00000070: 65a0 0bb9 6503 4f38 6aa1 81b8 40d7 3c38
00000080: 1846 19b7 622c b0b9 7b83 3c39 12a2 b4b9
00000090: f488 0539 b66d 16ba 336b 4137 c571 de36
000000a0: f3f1 3a38 2c3d bc39 383a 3436 9dbf e0b9
000000b0: 4cfc a5b8 38f1 ea37 ac91 8939 15eb 82b8
000000c0: 816c 5bb8 7cc2 b939 251c dc38 433d 5438
000000d0: 5c9d 0138 2266 4fb8 7c61 99b8 0895 84b5
000000e0: 745d 75b5 6a69 4f39 5fcf 8838 9638 aa37
000000f0: 9e18 0038 a8de eeb7 1c45 a7b6 b65d 88b6

conv2.lin.weight f4 [64, 64]
0.04573796 -0.16132171 0.015626742 0.14572367 0.101975195 0.15605932 0.15632197 0.08414759
0.031081531 0.18118562 -0.10679691 -0.11456787 -0.18137845 -0.037209082 -0.014156076 0.24207576
-0.19138497 -0.030808996 0.097289056 0.105535306 0.2609953 -0.055869035 -0.17281604 -0.032843728
0.08517725 0.1762043 0.0936391 -0.16639318 -0.06428585 0.14817268 -0.008533561 -0.032858074
0.10779108 -0.06159877 0.07310981 -0.059085414 0.037837725 0.025377296 0.15442677 0.10533314
-0.13936052 0.10858436 0.03282786 0.07533727 0.12957448 -0.11515752 0.14499539 0.04720732
0.08484942 0.101646 -0.16421622 -0.08591314 -0.012148902 0.08419095 -0.096608676 0.058380816
-0.04116341 0.1858201 0.110647224 -0.12614644 0.09978737 0.09269775 0.2685312 0.13133474
0.1289666 0.17668745 -0.10032706 0.17635684 -0.16459313 -0.10002257 0.12352264 -0.09231676
-0.08912544 -0.16023915 0.2263337 0.1820236 0.058554024 -0.25632983 0.16433918 -0.2199383
0.03424119 -0.18628308 0.0019399353 -0.079615615 -0.1338212 0.10384199 -0.17652749 0.0712398
-0.15369749 0.056160532 -0.05427348 -0.016478034 0.007897426 -0.2418396 0.013286602 0.10101073
-0.022224644 0.065719575 0.07292316 -0.23269863 -0.08817467 -0.07562753 0.19946855 -0.013934674
0.16807453 0.015924005 -0.06933201 0.007926841 0.021723717 -0.13769366 0.14488177 -0.064160876
0.10946181 -0.06837664 -0.0024343082 -0.19005394 -0.041235376 -0.037196465 0.11854051 -0.009969637
0.12002844 -0.089912824 -0.045968276 -0.02397259 0.13073055 -0.06958947 -0.14420696 -0.03607168
0.004110249 0.031753372 0.14015375 0.112821646 -0.10274868 0.107875854 -0.07636211 0.060383014
-0.025658289 -0.08834092 -0.14157535 -0.11440493 -0.018568812 0.01868506 -0.047292784 0.2147218
-0.16718733 -0.07767124 -0.13004248 0.103215076 0.005903986 -0.21023181 0.14408605 0.10973414
0.10475012 0.20433372 0.0008521859 -0.17395763 -0.10915737 0.021108354 0.20155802 -0.15393999
-0.10567574 0.07958942 -0.23909585 0.21568148 0.022001462 -0.11594505 -0.11239763 0.06056376
0.06308712 0.15096743 0.20556425 -0.036163375 0.26188186 0.060468722 0.10595633 0.06104848
0.015154989 0.16326219 -0.19784865 -0.16868074 -0.11237977 0.04142327 -0.13809551 0.250421
-0.0778812 0.11019066 0.09667149 0.09415804 -0.0757184 -0.037849493 0.25229913 -0.08837381
-0.21021888 0.024851922 -0.11433588 -0.25226164 0.11551151 0.10440899 0.20340495 0.20757566
-0.02368591 0.046687983 -0.096444845 0.09609082 -0.05918585 -0.06620677 -0.16133438 0.20053367
-0.0099914735 0.1960259 -0.1204729 0.10105308 -0.07997876 0.026575081 0.11654758 0.07544463
-0.011872152 0.081160635 0.19026896 0.092911266 0.12299193 -0.17248403 -0.090402074 -0.22411665
0.050523177 0.11172592 0.06934794 0.029720476 0.031594384 -0.2575282 0.11766195 0.1036443
0.1307885 0.13259763 -0.11688552 0.0073223393 0.06574156 -0.052957483 -0.2584729 -0.16281036
0.08173004 0.01971974 -0.050507303 0.09519218 -0.2562542 0.22728623 0.14471354 0.14269227
-0.05380888 -0.060302187 0.040538333 0.14289843 0.11417832 0.16868986 -0.24495867 -0.04484589
00000000: ba57 3b3d 8531 25be a703 803c 9638 153e
00000010: 5fd8 d03d 04ce 1f3e de12 203e 9255 ac3d
00000020: b29e fe3c b988 393e 57b8 dabd 8fa2 eabd
00000030: 46bb 39be 8d68 18bd e3ee 67bc b5e2 773e
00000040: 6cfa 43be 2663 fcbc 7c3f c73d e522 d83d
00000050: 2da1 853e eed6 64bd b0f6 30be 2587 06bd
00000060: 6971 ae3d e66e 343e dbc5 bf3d f962 2abe
00000070: 4da8 83bd 94ba 173e 59d0 0bbc 3096 06bd
00000080: 92c1 dc3d fe4e 7cbd 99ba 953d 8c03 72bd
00000090: bbfb 1a3d 0ce4 cf3c 0d22 1e3e e7b8 d73d
000000a0: 86b4 0ebe 7a61 de3d 8276 063d 6d4a 9a3d
000000b0: 2caf 043e b5d7 ebbd ac79 143e 765c 413d
000000c0: 88c5 ad3d c72b d03d 4c28 28be 3af3 afbd
000000d0: 300c 47bc 4e6c ac3d c5da c5bd b920 6f3d
000000e0: f79a 28bd a047 3e3e 039b e23d 882c 01be
000000f0: 525d cc3d 51d8 bd3d ec7c 893e 9d7c 063e
00000100: d20f 043e 8eed 343e 4678 cdbd e396 343e
00000110: 1a8b 28be a2d8 ccbd 70f9 fc3d 9210 bdbd
00000120: 6687 b6bd bb15 24be 05c4 673e 6564 3a3e
00000130: 58d6 6f3d aa3d 83be 8848 283e 8137 61be
00000140: 7d40 0c3d fec0 3ebe 6d45 fe3a 830d a3bd
00000150: 6d08 09be 1cab d43d 9fc3 34be 2ce6 913d
00000160: e062 1dbe 9608 663d de4d 5ebd f1fc 86bc
00000170: 3564 013c cda4 77be 0cb0 593c b7de ce3d
00000180: 7510 b6bc fc97 863d bd58 953d 8d48 6ebe
00000190: ec94 b4bd 9be2 9abd 7c41 4c3e 424e 64bc
000001a0: bb1b 2c3e 0f73 823c f1fd 8dbd 95df 013c
000001b0: f0f5 b13c 91ff 0cbe e35b 143e c766 83bd
000001c0: 832d e03d 0d09 8cbd ea88 1fbb 809d 42be
000001d0: 6de6 28bd 525b 18bd 5ec5 f23d b057 23bc
000001e0: 79d1 f53d 3724 b8bd 3b49 3cbd 2a62 c4bc
000001f0: 3bde 053e ed84 8ebd fdaa 13be e6bf 13bd
00000200: 45af 863b d30f 023d 7784 0f3e 090f e73d
00000210: e66d d2bd 04ee dc3d bd63 9cbd 2e54 773d
00000220: 5531 d2bc 16ec b4bd 21f9 10be 224d eabd
00000230: 9f1d 98bc 6911 993c 14b6 41bd 08e0 5b3e
00000240: 2833 2bbe 1912 9fbd db29 05be 6d62 d33d
00000250: 3976 c13b 0247 57be 4b8b 133e 4bbc e03d
00000260: 3b87 d63d dc3c 513e 3a65 5f3a f321 32be
00000270: e68d dfbd 6deb ac3c 3a65 4e3e 72a2 1dbe
00000280: 866c d8bd c7ff a23d 8bd5 74be 9bdb 5c3e
00000290: 693c b43c 9974 edbd bb30 e6bd b511 783d
000002a0: d233 813d 3597 1a3e 6f7f 523e 0c20 14bd
000002b0: 6115 863e 0dae 773d a2ff d83d f90d 7a3d
000002c0: a24c 783c 342e 273e d698 4abe a5ba 2cbe
000002d0: 5d27 e6bd 72ab 293d e968 0dbe 2e37 803e
000002e0: 2e80 9fbd a4ab e13d b4fb c53d eed5 c03d
000002f0: 4012 9bbd 1208 1bbd 5a2d 813e 54fd b4bd
00000300: 9e43 57be 4296 cb3c ee28 eabd 7028 81be
00000310: 4c91 ec3d 61d4 d53d 6349 503e b78e 543e
00000320: f408 c2bc e63b 3f3d e084 c5bd 44cb c43d
00000330: dd6c 72bd 6a97 87bd d734 25be b358 4d3e
00000340: 47b3 23bc 03bb 483e 7fba f6bd ebf4 ce3d
00000350: e7cb a3bd fcb3 d93c 7fb0 ee3d b782 9a3d
00000360: 6a83 42bc 8c37 a63d ded5 423e 4348 be3d
00000370: 31e3 fb3d a79f 30be b924 b9bd d67e 65be
00000380: 64f1 4e3d 8fd0 e43d 4b06 8e3d 5b78 f33c
00000390: 1d69 013d bcda 83be c0f8 f03d 7643 d43d
000003a0: 6ced 053e acc7 073e ad61 efbd 3cf0 ef3b
000003b0: 83a3 863d f2e9 58bd 8f56 84be c2b7 26be
000003c0: 1462 a73d 4b8b a13c bfe0 4ebd 1ef4 c23d
000003d0: c033 83be b9bd 683e c92f 143e ec1d 123e
000003e0: b366 5cbd 6dff 76bd 860b 263d f753 123e
000003f0: 53d6 e93d 09bd 2c3e 72d6 7abe 53b0 37bd

bn1.weight f4 [64]
1.0493338 1.031381 1.0226916 0.97609633 1.0158587 1.0023077 0.9662774 0.968523
0.93850577 0.93746156 0.948312 0.9573651 0.930586 1.0532117 0.97477376 0.981642
1.0154089 0.94836986 0.960941 0.9403453 0.9860926 1.0382295 0.97726744 0.95149016
1.0625085 1.053007 0.9527484 0.94624585 0.94149745 1.0013391 1.0588208 0.9340214
0.9525449 0.9703979 1.0221478 1.0658739 1.0451636 1.0626321 0.96358395 1.008609
0.96466655 1.0097225 1.040161 1.0632054 0.9541869 0.952696 1.0211191 0.98399234
0.9837542 0.9573246 1.0376542 1.0444951 0.94629604 1.0572476 0.97466177 1.0045179
0.94870496 1.0435103 1.0146976 0.98929495 0.94349396 1.0583119 1.0232148 1.0236766
00000000: 9250 863f 4b04 843f 8fe7 823f 73e1 793f
00000010: a807 823f 9e4b 803f f55d 773f 20f1 773f
00000020: ea41 703f 7bfd 6f3f 93c4 723f e115 753f
00000030: e23a 6e3f a4cf 863f c68a 793f e44c 7b3f
00000040: ebf8 813f 5ec8 723f 3b00 763f 78ba 703f
00000050: 9170 7c3f b4e4 843f 332e 7a3f dc94 733f
00000060: 4700 883f efc8 863f 52e7 733f 2b3d 723f
00000070: fa05 713f e12b 803f 7187 873f 071c 6f3f
00000080: fcd9 733f ff6b 783f bdd5 823f 8e6e 883f
00000090: ecc7 853f 5404 883f 70ad 763f 1a1a 813f
000000a0: 63f4 763f 963e 813f ff23 853f 1d17 883f
000000b0: 9845 743f e3e3 733f 08b4 823f ece6 7b3f
000000c0: 51d7 7b3f 3a13 753f dad1 843f 04b2 853f
000000d0: 7540 723f e453 873f 6f83 793f 0b94 803f
000000e0: 54de 723f bf91 853f 9ce1 813f 6f42 7d3f
000000f0: d288 713f c476 873f b4f8 823f d607 833f

bn1.bias f4 [64]
0.03447548 0.025225554 0.0018548752 -0.011948557 0.0003333884 0.012001495 -0.03165266 -0.031145474
-0.058769662 -0.05343937 -0.052114088 -0.029275553 -0.04675286 0.0492988 -0.036159303 -0.038318846
0.024581281 -0.058717318 -0.012136309 -0.037790224 -0.007924166 0.015182596 -0.0026819825 -0.031622086
0.057363816 0.048563797 -0.049382463 -0.054319717 -0.054595 0.004112265 0.04838905 -0.05453998
-0.05078843 -0.023607397 0.011557952 0.05400009 0.028848369 0.059902817 -0.007568931 0.014512036
-0.023480264 0.005731994 0.037746616 0.05067919 -0.0528566 -0.048078466 0.045335863 0.0073317206
-0.028711408 -0.024042584 0.015932748 0.031851687 -0.054246277 0.05039438 -0.0016596266 0.008221214
-0.04170676 0.021503495 0.034219958 0.00020708589 -0.047546223 0.044201676 -0.01266367 0.037382547
00000000: 2936 0d3d d2a5 ce3c 491f f33a e1c3 43bc
00000010: a2ca ae39 eba1 443c 38a6 01bd cb24 ffbc
00000020: 75b8 70bd 3ee3 5abd 9575 55bd 49d3 efbc
00000030: ed7f 3fbd 8aed 493d c71b 14bd 39f4 1cbd
00000040: af5e c93c 9281 70bd 5fd7 46bc ecc9 1abd
00000050: 5cd4 01bc 6cc0 783c 33c4 2fbb 2986 01bd
00000060: 52f6 6a3d d5ea 463d 4445 4abd 5a7e 5ebd
00000070: 029f 5fbd 2ec0 863b 9933 463d 5065 5fbd
00000080: 8707 50bd 4d64 c1bc 905d 3d3c 332f 5d3d
00000090: 6a53 ec3c a85c 753d cc04 f8bb e4c3 6d3c
000000a0: af59 c0bc 73d3 bb3b 329c 1a3d fb94 4f3d
000000b0: 2a80 58bd eded 44bd 19b2 393d ee3e f03b
000000c0: 3034 ebbc f4f4 c4bc 6585 823c ea76 023d
000000d0: 5831 5ebd 566a 4e3d d487 d9ba 45b2 063c
000000e0: b5d4 2abd 1928 b03c 3a2a 0c3d 3225 5939
000000f0: d4bf 42bd d10c 353d 487b 4fbc 711e 193d

bn1.running_mean f4 [64]
-0.9511671 -0.034029007 -1.1687546 -2.774732 -0.7939171 0.16416913 0.9413452 -1.536756
0.5255866 1.3004284 -2.545578 -2.2739468 1.555627 1.5444427 2.9055371 -0.3864846
2.2497451 0.19540013 -0.9820187 1.8126255 -2.6216745 1.0273304 2.5945733 -0.19668733
1.7629272 -1.625415 0.83949727 -0.064873874 -1.7590007 0.06480549 -2.232176 -0.8496891
1.3634114 -0.18018518 0.76904225 -1.3672755 0.58769953 -2.581581 0.31269827 0.5702576
-1.8373632 0.5021905 -2.3989956 -0.78754854 -3.018908 -0.5662053 -1.3216988 2.9951513
-1.3847904 -0.72600806 2.551503 2.1034184 -3.7678604 -0.48697445 -2.6302023 -3.01565
3.2346425 -0.9731642 -0.06509529 0.61542904 -2.666728 0.662594 -3.281835 -0.11279023
00000000: b07f 73bf 0062 0bbd c099 95bf 3695 31c0
00000010: 273e 4bbf f41b 283e 00fc 703f 6cb4 c4bf
00000020: d88c 063f 7074 a63f c0ea 22c0 5888 11c0
00000030: c91e c73f 4cb0 c53f 52f4 3940 4fe1 c5be
00000040: d3fb 0f40 f916 483e 9465 7bbf 1d04 e83f
00000050: 84c9 27c0 907f 833f 7d0d 2640 6768 49be
00000060: 99a7 e13f 990d d0bf 4be9 563f 98dc 84bd
00000070: ef26 e1bf beb8 843d f9db 0ec0 3a85 59bf
00000080: 4484 ae3f 7782 38be f4df 443f e202 afbf
00000090: 7a73 163f a038 25c0 fd19 a03e 67fc 113f
000000a0: b82e ebbf 8e8f 003f 2589 19c0 c89c 49bf
000000b0: ca35 41c0 d5f2 10bf 6d2d a9bf 8fb0 3f40
000000c0: d040 b1bf aadb 39bf d34b 2340 689e 0640
000000d0: a024 71c0 b754 f9be 3c55 28c0 6900 41c0
000000e0: 6204 4f40 4a21 79bf ae50 85bd c28c 1d3f
000000f0: acab 2ac0 c39f 293f 9609 52c0 90fe e6bd

bn1.running_var f4 [64]
0.8528975 0.60393035 0.81042486 0.5892129 0.7060473 0.6501302 0.7544748 0.7585997
0.51019233 0.60310954 0.73098147 0.9472578 0.7607257 0.7693571 0.77456486 0.6758841
0.552568 0.65096706 0.5953256 0.7686477 0.66830444 0.7739449 0.5328498 0.9548361
0.6918805 0.51491135 0.7315669 0.80563945 0.42036268 0.8008427 0.703593 0.67725295
0.81297606 0.7681436 0.6939314 0.9738781 0.68204767 0.60959697 0.8239392 0.97726965
0.9858918 0.7807148 1.2929198 0.5503673 0.75439924 1.010887 0.69369 0.63475823
0.8094263 0.97358835 0.7531361 0.7679321 0.71577907 0.5927164 0.8543876 0.9621954
0.57078576 0.8903983 0.96170056 0.69504166 0.49205303 1.1490234 1.1923217 0.781197
00000000: 7e57 5a3f 2e9b 1a3f 0178 4f3f a8d6 163f
00000010: 84bf 343f ef6e 263f 4325 413f 9733 423f
00000020: f79b 023f 6365 1a3f 9a21 3b3f 7d7f 723f
00000030: ebbe 423f 96f4 443f e249 463f be06 2d3f
00000040: 1975 0d3f c7a5 263f 4267 183f 18c6 443f
00000050: 0016 2b3f 4121 463f d868 083f 2370 743f
00000060: 151f 313f 3bd1 033f f847 3b3f 633e 4e3f
00000070: c739 d73e 0704 4d3f ac1e 343f 7360 2d3f
00000080: 331f 503f 0fa5 443f 7da5 313f 1350 793f
00000090: ad9a 2e3f 8c0e 1c3f aeed 523f 582e 7a3f
000000a0: 6863 7c3f eddc 473f 657e a53f dfe4 0c3f
000000b0: 4f20 413f bf64 813f ab95 313f 847f 223f
000000c0: 9036 4f3f 163d 793f 87cd 403f 3397 443f
000000d0: 4c3d 373f 43bc 173f 25b9 5a3f 7052 763f
000000e0: 041f 123f 25f1 633f 0232 763f 40ee 313f
000000f0: 60ee fb3e 3313 933f ff9d 983f 87fc 473f

bn2.weight f4 [64]
0.9281828 1.0241834 0.9467801 1.0782781 0.9198836 1.0657324 0.9250497 0.92452765
0.9620437 0.9405639 0.9209876 0.92477477 0.959043 1.05289 0.93769324 1.0631921
1.0361634 1.0634085 1.0612854 0.97989833 1.0735219 0.94456226 1.0846711 0.9747923
0.92183423 0.9359757 1.0907322 1.080883 0.92678297 0.9203075 0.94052815 0.92866296
1.01381 0.9046158 1.0689439 1.0688627 0.9275964 0.9338043 1.0605475 0.962718
0.92607564 0.96900266 1.0668135 1.0838536 0.9919933 1.080347 0.9267621 0.9172206
1.031306 1.0629346 0.94421774 1.0328807 1.0516245 1.0659856 1.0768651 0.9610635
1.034572 0.93867487 1.0851468 0.96292865 0.9335108 0.9342635 0.93659145 1.0135196
00000000: 639d 6d3f 7118 833f 2e60 723f 0405 8a3f
00000010: 7e7d 6b3f eb69 883f 0fd0 6c3f d8ad 6c3f
00000020: 7f48 763f ccc8 703f d8c5 6b3f 0abe 6c3f
00000030: d883 753f 19c5 863f aa0c 703f ae16 883f
00000040: 01a1 843f c51d 883f 33d8 873f 9eda 7a3f
00000050: 2a69 893f d5ce 713f 81d6 8a3f fd8b 793f
00000060: 54fd 6b3f 1a9c 6f3f 1d9d 8b3f 605a 8a3f
00000070: a641 6d3f 4699 6b3f 74c6 703f dbbc 6d3f
00000080: 87c4 813f e794 673f 27d3 883f 7ed0 883f
00000090: f576 6d3f cc0d 6f3f 05c0 873f b074 763f
000000a0: 4b13 6d3f 8f10 783f 588d 883f b7bb 8a3f
000000b0: 46f3 7d3f cf48 8a3f 4840 6d3f f8ce 6a3f
000000c0: d601 843f 3e0e 883f 41b8 713f 6f35 843f
000000d0: a29b 863f 3772 883f b7d6 893f 4208 763f
000000e0: db6c 843f ff4c 703f 17e6 8a3f 7e82 763f
000000f0: 90fa 6e3f e52b 6f3f 75c4 6f3f 03bb 813f

bn2.bias f4 [64]
-0.06818755 -0.011198953 -0.0363586 0.075718634 -0.07333389 0.073810264 -0.071887724 -0.051621318
-0.042508498 -0.062283844 -0.06410435 -0.072594695 -0.038201943 0.039119918 -0.05994692 0.004520576
0.0035031657 0.033306453 0.018855343 -0.072243005 0.08185962 -0.078578345 0.08404224 -0.039562333
-0.07490326 -0.05708804 0.054643977 0.081677586 -0.06594433 -0.07303063 -0.107566684 -0.06644627
-0.0028311561 -0.08396227 0.08232192 0.069139235 -0.06878009 -0.06253971 0.06239311 -0.02858708
-0.06820867 -0.05844366 0.068961635 0.050650597 -0.008356223 0.08931989 -0.073052734 -0.07623579
-0.036270358 0.05910799 -0.056931686 0.048873354 0.048068825 0.07826516 0.08805038 -0.031840116
0.04962112 -0.05949265 0.07424219 0.07058341 -0.08540828 -0.054817643 -0.0807509 -0.06397855
00000000: eaa5 8bbd d07b 37bc c1ec 14bd 5f12 9b3d
00000010: 1430 96bd d629 973d df39 93bd e070 53bd
00000020: 641d 2ebd 581d 7fbd 2449 83bd 87ac 94bd
00000030: a479 1cbd 353c 203d e78a 75bd 5721 943b
00000040: 5e95 653b 596c 083d 8576 9a3c 24f4 93bd
00000050: 04a6 a73d afed a0bd 571e ac3d 1d0c 22bd
00000060: e166 99bd 26d5 69bd 5dd2 5f3d 9446 a73d
00000070: d20d 87bd 1591 95bd ec4b dcbd fb14 88bd
00000080: eb8a 39bb 69f4 abbd 6598 a83d df98 8d3d
00000090: 93dc 8cbd d214 80bd eb8f 7f3d 742f eabc
000000a0: fdb0 8bbd 9f62 6fbd c23b 8d3d 0077 4f3d
000000b0: 8ae8 08bc 59ed b63d ac9c 95bd 8321 9cbd
000000c0: 3a90 14bd 381b 723d 3331 69bd 6d2f 483d
000000d0: d1e3 443d 7c49 a03d c253 b43d c86a 02bd
000000e0: 843f 4b3d 91ae 73bd 4a0c 983d 098e 903d
000000f0: 89ea aebd 7788 60bd ba60 a5bd 3007 83bd

bn2.running_mean f4 [64]
0.8693028 -0.40551612 0.36471802 0.27052277 0.1468823 -0.4571607 -0.5938766 -0.09609997
-0.4244633 0.46382493 0.012056205 0.031855006 0.44514513 0.6819351 0.3974944 0.012383281
0.45163864 0.53456044 0.7507457 -0.57516813 -0.45193934 0.44714177 -0.09657766 -0.095321864
-0.34050658 0.7614842 0.7722021 0.6539377 -0.63286924 -0.08639166 -0.47125176 1.044783
0.40587905 -0.2675874 0.49320656 0.8235628 0.658286 0.69529915 0.1272978 0.79924506
1.0787613 1.0047354 0.038837817 0.5301703 0.6008368 -0.12426767 -0.5759888 0.7163473
0.019753557 0.9908792 0.09936423 -0.010260619 -0.24998671 -0.73902404 0.025563711 -0.24539939
0.041452304 0.6695181 -0.073490925 -0.17786983 -0.815402 0.3057479 0.10221303 0.30792657
00000000: a18a 5e3f cf9f cfbe 52bc ba3e f681 8a3e
00000010: 5068 163e f810 eabe 4c08 18bf 10d0 c4bd
00000020: 4153 d9be 767a ed3e 6487 453c 657a 023d
00000030: 10ea e33e 4c93 2e3f 6384 cb3e 3fe3 4a3c
00000040: 2e3d e73e f4d8 083f df30 403f 383e 13bf
00000050: 9864 e7be c4ef e43e 82ca c5bd 1c38 c3bd
00000060: e156 aebe a1f0 423f 09af 453f 7668 273f
00000070: b803 22bf 1cee b0bd e947 f1be 73bb 853f
00000080: 61cf cf3e 3701 89be 9285 fc3e 03d5 523f
00000090: 6e85 283f 20ff 313f 5b5a 023e 539b 4c3f
000000a0: da14 8a3f 2b9b 803f 6714 1f3d 3eb9 073f
000000b0: 71d0 193f 0c80 febd 0174 13bf 8962 373f
000000c0: 36d2 a13c 42aa 7d3f 797f cb3d 281c 28bc
000000d0: 84fc 7fbe ae30 3dbf fd6a d13c fa49 7bbe
000000e0: e4c9 293d 8a65 2b3f 6982 96bd 8223 36be
000000f0: 2fbe 50bf fd8a 9c3e 1155 d13d 8da8 9d3e

bn2.running_var f4 [64]
0.24209481 0.46495286 0.42083198 0.64237523 0.33692884 0.37097684 0.44231883 0.25538573
0.8690713 0.46982297 0.31566486 0.46345222 0.2932867 0.525882 0.55306244 0.7459702
0.4838087 0.60478425 0.3165813 0.23376554 0.4136547 0.28961885 0.38375255 0.3165688
0.7636265 0.43663332 0.8263464 0.6719628 0.73975027 0.5251726 0.5470232 0.5013478
0.5452992 0.33695936 0.4218145 0.4101529 0.5446459 0.193564 0.48023444 0.49547595
0.48338026 0.35612637 0.4563633 0.4784753 0.67491233 0.31521943 0.5147822 0.24140757
0.36960804 0.53947324 0.49275133 0.57949483 0.52714634 0.5886309 0.6196604 0.26863778
0.40088052 0.5272307 0.5685465 0.465677 0.67288053 0.5658014 0.32578745 0.4580256
00000000: b4e7 773e 4d0e ee3e 4a77 d73e b472 243f
00000010: f081 ac3e adf0 bd3e 9d77 e23e ebc1 823e
00000020: 757b 5e3f a38c f03e d39e a13e 9c49 ed3e
00000030: ad29 963e 34a0 063f 8095 0d3f e7f7 3e3f
00000040: c6b5 f73e 24d3 1a3f f216 a23e 3c60 6f3e
00000050: 8dca d33e ec48 943e 377b c43e 4e15 a23e
00000060: 077d 433f 678e df3e 708b 533f c105 2c3f
00000070: 4660 3d3f b671 063f b609 0c3f 5458 003f
00000080: ba98 0b3f f085 ac3e 12f8 d73e 90ff d13e
00000090: ea6d 0b3f a435 463e 4ae1 f53e 06af fd3e
000000a0: 9e7d f73e 3256 b63e 73a8 e93e b7fa f43e
000000b0: 0ec7 2c3f 7164 a13e c4c8 033f 8c33 773e
000000c0: 443d bd3e eb1a 0a3f e749 fc3e c659 143f
000000d0: 10f3 063f 84b0 163f 10a2 1e3f e48a 893e
000000e0: 3640 cd3e 97f8 063f 438c 113f 376d ee3e
000000f0: e641 2c3f 5cd8 103f 9dcd a63e 5582 ea3e

classifier.weight f4 [10, 64]
0.081791975 0.13542351 0.03900801 0.012125844 0.17006813 -0.017638536 -0.18824436 -0.13178612
0.2013046 -0.03885406 -0.09815076 0.13924041 -0.05707642 0.04195026 0.040996205 -0.10077403
-0.028306978 -0.10036397 0.14350404 -0.14524566 -0.0022467063 -0.045485564 -0.15790783 -0.10087823
-0.11830585 -0.11183664 0.16677685 -0.0560904 0.10689868 -0.18808365 0.052769918 -0.0556246
-0.15851468 0.11564319 -0.10723129 0.009215026 -0.059141863 0.12447887 0.21178897 -0.17319663
-0.093606785 -0.15750381 0.06612766 -0.04517657 0.008431218 -0.0337546 -0.029620262 0.095434204
-0.011083856 0.019421987 -0.028335402 -0.0062301964 -0.015821109 -0.07200259 -0.08806777 0.013046047
-0.02282703 -0.019468794 -0.1776083 0.13740344 0.05789729 -0.050914917 -0.12246275 -0.1252077
-0.04474345 0.0024462757 -0.17266347 -0.14010137 0.2067516 0.20025375 -0.1724439 0.06199435
0.1068558 0.046841 0.13435893 0.118256435 0.034245778 -0.011906229 -0.11177514 -0.034499
-0.0344395 -0.044761956 -0.0057794657 0.06453881 0.15258262 -0.019952744 -0.13883826 0.02670883
0.040014446 0.12030894 0.027975146 -0.063283615 0.21695645 -0.0024076235 -0.05949933 -0.056356948
-0.11555087 0.0066241273 -0.029250955 0.09091234 0.106613144 0.020333815 0.119240135 -0.15951437
-0.11930244 -0.09058975 -0.15177533 0.008380359 -0.061377298 0.01864043 0.021985643 -0.014641528
-0.00018959111 -0.02720364 -0.12404574 -0.024999281 -0.033805873 0.054464947 0.10481267 0.15602298
0.0065132906 0.17571501 -0.05251352 0.07046715 0.049383506 0.06575614 -0.073747374 -0.00707067
0.02072573 0.029590646 0.14356248 0.04923969 -0.12423468 -0.08781826 -0.00430231 -0.1370471
-0.0020154887 0.082479425 0.046920437 -0.16999081 -0.040461533 -0.09976954 0.010776636 -0.017406277
0.06774232 0.032189865 0.1782637 0.10282636 -0.15597458 0.11013816 -0.03040949 0.010353885
0.13864036 0.0085105095 0.020576589 0.011883176 -0.17970406 -0.039770946 0.09311999 -0.09430332
-0.04101604 -0.0090884855 -0.13367598 -0.11268855 0.038372476 0.10290852 -0.1810815 -0.02165253
-0.039813727 0.03959 -0.07050021 0.14684474 0.18220627 0.08214932 -0.009271775 -0.050490145
0.005187419 0.03710539 0.13252623 -0.16420154 -0.09253727 0.12108229 0.10590431 0.052363764
-0.09451022 -0.1113067 -0.019363273 -0.15626198 -0.049700983 0.06379905 -0.08921672 0.03918577
-0.07281784 -0.091871604 0.018569235 0.16968589 -0.042840336 0.001777335 -0.1260369 0.1040794
-0.036421657 0.052634597 0.15963578 -0.10485022 0.02823731 0.0787561 -0.04127606 0.11640096
0.07017585 0.012673049 -0.008919192 -0.0632356 -0.008144697 0.10383364 0.042361632 0.048225947
-0.13791448 0.03649786 0.066731416 0.16634934 -0.16990487 -0.022765458 -0.12311068 0.04943569
0.1256958 -0.112814665 0.17380852 -0.023057556 0.09430539 0.008744431 -0.09776944 0.045113944
0.1686109 0.049001224 -0.07993546 0.12167126 -0.016749864 0.16391899 -0.17891178 0.07210368
-0.077746056 -0.026002737 0.05274438 -0.15492667 0.105089106 0.082831465 -0.0036674186 0.041086126
-0.042491615 0.03287458 0.18370913 -0.008212157 -0.18201286 0.1070539 -0.034824587 -0.00773723
00000000: 8d82 a73d 76ac 0a3e ddc6 1f3d 7aab 463c
00000010: 5726 2e3e b17e 90bc 21c3 40be f1f2 06be
00000020: cb22 4e3e 6f25 1fbd 4403 c9bd 0a95 0e3e
00000030: f7c8 69bd 09d4 2b3d a3eb 273d 9d62 cebd
00000040: 09e4 e7bc a08b cdbd b9f2 123e 47bb 14be
00000050: 7a3d 13bb 124f 3abd 97b2 21be 3f99 cebd
00000060: 564a f2bd 9c0a e5bd 8dc7 2a3e 0cbf 65bd
00000070: b2ed da3d 0099 40be 4525 583d 9fd6 63bd
00000080: ac51 22be 56d6 ec3d 149c dbbd 9ffa 163c
00000090: bd3e 72bd c7ee fe3d 35df 583e 755a 31be
000000a0: eab4 bfbd ae48 21be f06d 873d 110b 39bd
000000b0: 1723 0a3c 4342 0abd 31a6 f2bc 0273 c33d
000000c0: 1099 35bc dc1a 9f3c a51f e8bc ad26 ccbb
000000d0: 459b 81bc 1876 93bd e05c b4bd 16bf 553c
000000e0: c0ff babc 057d 9fbc f3de 35be 7db3 0c3e
000000f0: b525 6d3d 298c 50bd c0cd fabd 7336 00be
00000100: e844 37bd b251 203b b1ce 30be bc76 0fbe
00000110: b1b6 533e 520f 4d3e 2295 30be caed 7d3d
00000120: 37d7 da3d 59dc 3f3d 6395 093e 6e30 f23d
00000130: 4d45 0c3d 5812 43bc 5dea e4bd d34e 0dbd
00000140: 6f10 0dbd 5058 37bd ac61 bdbb ec2c 843d
00000150: 9e3e 1c3e f073 a3bc 9e2b 0ebe 7acc da3c
00000160: 30e6 233d 8964 f63d 222c e53c d79a 81bd
00000170: d529 5e3e 38c9 1dbb 92b5 73bd 8bd6 66bd
00000180: efa5 ecbd 350f d93b b39f efbc 4030 ba3d
00000190: fe57 da3d 1a93 a63c 2c34 f43d bc57 23be
000001a0: d654 f4bd 1e87 b9bd fe6a 1bbe c64d 093c
000001b0: c366 7bbd d1b3 983c 3c1b b43c 05e3 6fbc
000001c0: facc 46b9 2bda debc b10b febd 4bcb ccbc
000001d0: 0778 0abd a316 5f3d 06a8 d63d 7dc4 1f3e
000001e0: 716d d53b a3ee 333e 6b18 57bd 1551 903d
000001f0: 5c46 4a3d 28ab 863d dd08 97bd 14b1 e7bb
00000200: 02c9 a93c 1568 f23c 0b02 133e 8faf 493d
00000210: c06e febd 0fda b3bd 64fa 8cbb 1356 0cbe
00000220: 4a16 04bb f9ea a83d a52f 403d 1212 2ebe
00000230: feba 25bd f953 ccbd 7d90 303c 9c97 8ebc
00000240: 7cbc 8a3d 85d9 033d c28a 363e a096 d23d
00000250: cdb7 1fbe 1e90 e13d 531d f9bc 57a3 293c
00000260: bdf7 0d3e aa6f 0b3c 3c90 a83c a7b1 423c
00000270: 5704 38be dce6 22bd b1b5 be3d 1922 c1bd
00000280: 6f00 28bd dfe7 14bc 5be2 08be 41c9 e6bd
00000290: 752c 1d3d b4c1 d23d 6e6d 39be a660 b1bc
000002a0: b813 23bd 2029 223d 6a62 90bd 785e 163e
000002b0: 4894 3a3e e73d a83d a5e8 17bc c1ce 4ebd
000002c0: 39fb a93b d2fb 173d f5b4 073e 7324 28be
000002d0: 2e84 bdbd fef9 f73d 5ce4 d83d 637b 563d
000002e0: 938e c1bd c4f4 e3bd ba9f 9ebc 2403 20be
000002f0: 4293 4bbd 14a9 823d 41b7 b6bd 4281 203d
00000300: 8521 95bd 2e27 bcbd 821e 983c 23c2 2d3e
00000310: 5979 2fbd 77f5 e83a d10f 01be 9527 d53d
00000320: e02e 15bd 6097 573d 9077 233e b6bb d6bd
00000330: ee51 e73c e14a a13d 1611 29bd a063 ee3d
00000340: 5bb8 8f3d 9fa2 4f3c cd21 12bc ab81 81bd
00000350: 5671 05bc bba6 d43d 6483 2d3d 9288 453d
00000360: 7439 0dbe c87e 153d 7baa 883d 7b57 2a3e
00000370: 8bfb 2dbe a07e babc 7421 fcbd 147d 4a3d
00000380: 66b6 003e 600b e7bd dcfa 313e 33e3 bcbc
00000390: 2f23 c13d cd44 0f3c 583b c8bd 66c9 383d
000003a0: 56a8 2c3e 82b5 483d 34b5 a3bd c82e f93d
000003b0: 0337 89bc 61da 273e a634 37be 18ab 933d
000003c0: 5339 9fbd b103 d5bc 7e0a 583d 19a5 1ebe
000003d0: f538 d73d 8ba3 a93d 1359 70bb ed49 283d
000003e0: b00b 2ebd 7fa7 063d 3f1e 3c3e 488c 06bc
000003f0: 9461 3abe 133f db3d 3aa4 0ebd 9788 fdbb

classifier.bias f4 [10]
0.044093534 0.01797686 0.02625865 0.0822391 -0.0067574545 0.023495479 -0.027798567 0.035590395
-0.022941388 0.014699596
00000000: 6c9b 343d 3544 933c 611c d73c f96c a83d
00000010: a36d ddbb 9779 c03c d2b9 e3bc 3cc7 113d
00000020: 94ef bbbc 93d6 703c

exp_avg f4 [100, 64]
-0.000707719 4.9655573e-05 -0.0034946126 -7.709772e-05 0.00033650894 0.0003871703 -6.560622e-05 0.0014602188
-0.0013093296 -0.00054353167 -5.5635508e-05 0.00080736604 5.613086e-06 0.0004050045 -0.00013759822 0.00059793284
-0.0023365328 0.0032088703 -0.00038066524 0.00023436421 0.0010237569 -0.00065275654 -0.0046828524 -0.00050937326
0.00014652766 0.002902506 0.00029122006 -0.0034058918 0.00087987713 -0.00047365684 0.009075505 -0.0031976537
0.00016407041 0.0012922798 8.9539935e-05 -1.0859949e-05 0.0013229147 -0.0020666723 0.000319724 -5.5161803e-05
-0.00027070934 0.005773634 -0.0002456887 -0.00030796038 0.00013696024 -0.008567094 0.00040583767 0.006780213
0.0015302023 -0.00061331375 0.004672382 -0.002899958 5.5069893e-05 -0.0053866226 3.839662e-05 0.00012331104
-0.0044111237 0.00023124025 -0.00030817225 -0.0019453883 -0.0011690311 0.000989843 0.00051871256 0.0024339186
-0.00030213446 -0.00064248435 -0.002856647 0.00060666347 -8.224e-05 -0.00054175436 3.21462e-05 0.0010323063
-0.0017189271 -0.00014617895 9.885502e-06 0.0002827783 0.00012350552 0.00013086146 0.00030714914 0.0011679351
-0.0018095854 0.0026606766 9.3097515e-05 -0.00025525023 -0.0003302246 -0.0002823377 -0.003834836 -2.3193757e-05
4.7233887e-05 0.0026255704 0.00042835117 -0.0024815185 -6.744173e-05 -0.00016860141 0.008114541 -0.0029140783
0.00059872394 0.00084848347 0.00039220313 0.00019368851 0.0011460215 -0.0019543292 -3.3660213e-05 0.0003880655
4.0222043e-05 0.0057173884 -0.00026133715 0.00048400566 0.0005551705 -0.0074214214 -0.00034479244 0.00646859
0.0017223728 -0.000616261 0.0048803785 -0.0032036887 -0.00053219916 -0.006154879 0.0001819015 6.352804e-05
-0.004343702 0.00020470178 0.00039620255 -0.0023250743 -0.0013450417 0.00095649716 0.00091412116 0.0027866033
-0.00050541543 -0.00023100481 -0.0032821393 0.00035746576 0.0004678089 0.0005295014 -0.00027879316 0.0016395526
-0.001337862 -1.1030609e-05 0.0002456365 0.0008246445 -0.00029954233 0.00069024565 -5.736533e-05 0.0012493276
-0.002376902 0.0032043005 -0.0003185293 0.00020272942 0.0006627949 -0.0006518476 -0.0040568286 -0.00022694477
-0.0001692187 0.0029018654 0.0009566459 -0.002780445 0.0006194722 -0.0007011992 0.0081441 -0.002884186
0.000778789 0.0014536496 0.00066781166 0.00038002827 0.001566393 -0.0017812207 0.00036668553 0.00026903415
3.47145e-05 0.00547371 -0.00071867666 0.0003901533 0.00047009962 -0.007529744 3.45835e-05 0.00644053
0.0012633812 -0.000113075046 0.004738745 -0.0028891268 0.0002711238 -0.0055317236 0.00070277194 0.0005043782
-0.0039251866 0.0005049304 0.00027038003 -0.0017294674 -0.0014576489 0.0014281456 0.00091616664 0.0022107074
-0.00030046309 -0.0014863383 -0.002792853 0.001057922 -0.0007667608 -0.0019771324 0.00031972004 0.0010038598
-0.0027696427 0.00027297623 -0.000373801 -0.00072694756 0.0003248982 0.00029011752 0.0006684528 0.0014842129
-0.0019158227 0.0028367706 0.00013638768 -0.0008895331 -0.0017370334 9.74374e-05 -0.0042010536 0.0004488645
8.973586e-05 0.002870907 0.00028485092 -0.002540182 -0.00081434567 8.6491105e-05 0.009524364 -0.003484177
0.0012911902 0.00027619945 0.00040797106 -0.0001412733 0.0011053395 -0.0020549411 -0.0015950325 0.0007851843
0.0006042234 0.006761652 -0.00045096249 0.0010091892 0.0008002964 -0.008311776 -0.0009341103 0.0078035514
0.0021756373 -0.0007275591 0.005699705 -0.0048542367 -0.0009766554 -0.0074605215 0.00019109453 2.398379e-06
-0.006407557 5.9820868e-05 0.0007792114 -0.003860143 -0.0016342899 0.0012238598 0.000969134 0.0033332573
00000000: 3886 39ba 4445 5038 df05 65bb 86af a1b8
00000010: 776d b039 1efd ca39 1296 89b8 d064 bf3a
00000020: d09d abba cb7b 0eba 2c5a 69b8 6ba5 533a
00000030: 0b58 bc36 c956 d439 3e48 10b9 98be 1c3a
00000040: 8420 19bb e94b 523b 0694 c7b9 aabf 7539
00000050: 952f 863a c01d 2bba 9d72 99bb 7687 05ba
00000060: 38a5 1939 f837 3e3b e5ae 9839 6235 5fbb
00000070: 8ea7 663a 2555 f8b9 6db1 143c ba8f 51bb
00000080: 510a 2c39 b761 a93a 63c7 bb38 2033 36b7
00000090: a765 ad3a 0271 07bb a1a0 a739 895d 67b8
000000a0: feed 8db9 c130 bd3b c7cf 80b9 be75 a1b9
000000b0: fc9c 0f39 ff5c 0cbc 9cc6 d439 8d2c de3b
000000c0: 1291 c83a cac6 20ba c81a 993b 390d 3ebb
000000d0: d9fa 6638 4482 b0bb 0f0c 2138 0e4d 0139
000000e0: 308b 90bb 1579 7239 2e92 a1b9 66fc feba
000000f0: 2d3a 99ba 9fbd 813a 36fa 073a 6182 1f3b
00000100: cd67 9eb9 656c 28ba 9536 3bbb 7f08 1f3a
00000110: 4478 acb8 8504 0eba b8d4 0638 744e 873a
00000120: 9f4d e1ba 9d47 19b9 e8d9 2537 dc41 9439
00000130: 4381 0139 db37 0939 dc08 a139 6615 993a
00000140: 9c2f edba bf5e 2e3b 593d c338 1bd3 85b9
00000150: ff21 adb9 ba06 94b9 df51 7bbb 3790 c2b7
00000160: 001d 4638 c311 2c3b 5294 e039 f9a0 22bb
00000170: 816f 8db8 99ca 30b9 daf2 043c 1ffa 3ebb
00000180: aff3 1c3a c36c 5e3a 9da0 cd39 dd18 4b39
00000190: 1a36 963a 3414 00bb 612e 0db8 4575 cb39
000001a0: 17b4 2838 ee58 bb3b 1404 89b9 24c2 fd39
000001b0: dd88 113a 652f f3bb 42c5 b4b9 77f6 d33b
000001c0: 3ec1 e13a 938c 21ba 95eb 9f3b faf4 51bb
000001d0: 4883 0bba deae c9bb d0bc 3e39 5b3a 8538
000001e0: 9d55 8ebb 37a5 5639 68b9 cf39 4660 18bb
000001f0: 1c4c b0ba 70bd 7a3a a2a1 6f3a 729f 363b
00000200: db7d 04ba e239 72b9 2919 57bb 3e6a bb39
00000210: 3f44 f539 3dce 0a3a fc2a 92b9 42e6 d63a
00000220: 335b afba 1b10 39b7 c6c8 8039 f52c 583a
00000230: e40b 9db9 9af1 343a 8e9b 70b8 7ac0 a33a
00000240: ccc5 1bbb 3eff 513b 4700 a7b9 c493 5439
00000250: 6abf 2d3a c0e0 2aba 25ef 84bb 06f8 6db9
00000260: 4d70 31b9 392d 3e3b 6bc7 7a3a 2038 36bb
00000270: 1364 223a afd0 37ba d56e 053c 9d04 3dbb
00000280: a527 4c3a 6388 be3a 1510 2f3a 883e c739
00000290: 6d4f cd3a d977 e9ba b33f c039 270d 8d39
000002a0: 699a 1138 cf5c b33b 9365 3cba 7d8d cc39
000002b0: b477 f639 12bc f6bb c00d 1138 150b d33b
000002c0: 0a98 a53a b422 edb8 7947 9b3b 8157 3dbb
000002d0: 9f25 8e39 7643 b5bb 3a3a 383a 3f38 043a
000002e0: da9e 80bb 4e5d 043a cbc1 8d39 4caf e2ba
000002f0: 950e bfba 9d30 bb3a e72a 703a 84e1 103b
00000300: 7987 9db9 3dd1 c2ba 4c08 37bb f9a9 8a3a
00000310: 7200 49ba c792 01bb 19a0 a739 f293 833a
00000320: e582 35bb 401e 8f39 b9fa c3b9 a090 3eba
00000330: 1957 aa39 ea1a 9839 1c3b 2f3a ec89 c23a
00000340: 581c fbba 1de9 393b 4a03 0f39 8e2f 69ba
00000350: 2bad e3ba 4e57 cc38 fea8 89bb 9355 eb39
00000360: 9330 bc38 d425 3c3b 0b58 9539 2f79 26bb
00000370: d079 55ba 8f62 b538 140c 1c3c ca56 64bb
00000380: 273d a93a ddce 9039 f3e4 d539 c322 14b9
00000390: 0ae1 903a 31ac 06bb 6910 d1ba d4d4 4d3a
000003a0: bf64 1e3a d990 dd3b 296f ecb9 c546 843a
000003b0: fbca 513a 1e2e 08bc 15df 74ba efb4 ff3b
000003c0: 2395 0e3b aab9 3eba 97c4 ba3b 4a10 9fbb
000003d0: 1e03 80ba 6477 f4bb 8c60 4839 d6f3 2036
000003e0: 7cf6 d1bb 2be8 7a38 fe43 4c3a 74fa 7cbb
000003f0: ab35 d6ba ec69 a03a 7b0d 7e3a c772 5a3b
