checkpoints/checkpoint_epoch_30.pt (torch, 547720 bytes, 37 tensors)

prototypes f4 [100, 64]
0	0x3de7a9ee	0.113117084
1	0xbe8c413a	-0.27393514
2	0xbe090620	-0.13381243
3	0x400e428c	2.2228117
4	0xbf1823e8	-0.5942979
5	0x3f35f856	0.71082056
6	0x3e5d6d0f	0.21623634
7	0xbf595d46	-0.8490795
8	0x3d3ba493	0.045811247
9	0x403b5efe	2.9276729
10	0xbf83900f	-1.0278338
11	0xbf6ffc8a	-0.9374472
12	0xbf0cb310	-0.5496073
13	0xbf809512	-1.0045493
14	0xbf27f44c	-0.6560714
15	0x3fd7e599	1.6866943
16	0xbf46617e	-0.7749251
17	0x3ed97aa7	0.4247639
18	0x3f75c9a5	0.9601081
19	0x3fc80921	1.5627786
20	0xc009d8bc	-2.1538534
21	0xbe5f55ab	-0.21810023
22	0xbeea01e1	-0.45704558
23	0x3dec2dc1	0.11532164
24	0x3e9471f0	0.28993177
25	0x3e945dd7	0.28977844
26	0x3e804eae	0.25060028
27	0x3f3bbac5	0.7333186
28	0xbef1d7c5	-0.47234932
29	0x3f0fb6ed	0.561385
30	0xbebe9e85	-0.37230316
31	0x3e88d6cb	0.26726374
32	0xbfee8a10	-1.8635883
33	0x3fc37734	1.5270753
34	0xbeaf9107	-0.34290335
35	0x3e715530	0.23567653
36	0xbe74108e	-0.2383444
37	0xbf5bf251	-0.8591662
38	0x3f6a58c6	0.9154171
39	0xbff4e269	-1.9131595
40	0xbf00dbdc	-0.5033548
41	0x3dac7fd2	0.08422817
42	0x3f927f3d	1.144508
43	0x3ecfb1a7	0.40565225
44	0x3f9f3b8f	1.2440051
45	0xbe53de16	-0.20690188
46	0xbe5b9ca4	-0.21446472
47	0x3e83d7ee	0.2575068
48	0x3ff62316	1.9229457
49	0xbefa2897	-0.48859093
50	0x3e867c64	0.26266778
51	0xbf1cbfd1	-0.6123019
52	0xbf34a76b	-0.7056796
53	0xbf59a1a0	-0.85012245
54	0xbf1a43e7	-0.6025986
55	0x3f0c3129	0.5476251
56	0x3fa0e888	1.2570963
57	0xbe7854dd	-0.24251123
58	0x3d920eea	0.07131751
59	0xbff69a2c	-1.92658
60	0xbe8017c7	-0.2501814
61	0x3f683daf	0.9071912
62	0xbe886c9f	-0.2664537
63	0x3fb1ca2d	1.3889824
64	0xbda25f90	-0.07928383
65	0x3fe3f12c	1.7807975
66	0xbf938898	-1.152606
67	0x3e36ea71	0.1786287
68	0xbfa918c9	-1.3210689
69	0xbf6e90e9	-0.93189865
70	0xbece11f8	-0.40248084
71	0x3d9022db	0.07037898
72	0xbef24095	-0.47314897
73	0xbe1f6e78	-0.15569484
74	0x3e00820c	0.12549609
75	0x3f815de8	1.0106783
76	0x3d188777	0.037238564
77	0x3f61c76d	0.88194925
78	0xbf7bbb95	-0.983331
79	0xbe808b40	-0.2510624
80	0x3f00cbdd	0.5031107
81	0x3f4eb404	0.8074343
82	0xbf5607d8	-0.8360572
83	0xbf11e075	-0.5698312
84	0x3ea2d199	0.31800535
85	0xc0012c5b	-2.0183322
86	0x3f585a81	0.845131
87	0x3ee731da	0.4515522
88	0xbf98afd1	-1.1928655
89	0x3fe6dafd	1.803558
90	0xbfc093ae	-1.5045068
91	0xbe755fcb	-0.23962323
92	0x3fd2cf98	1.6469603
93	0x3ee8cbf7	0.45468113
94	0x3f24e502	0.6441194
95	0xbf088521	-0.5332814
96	0x3f85f447	1.0465173
97	0xbf84880a	-1.0354016
98	0xbfe354fe	-1.7760313
99	0xbe1baafc	-0.15201944
100	0x3fb2b541	1.3961564
101	0xbf7e516b	-0.99342984
102	0xbece85e3	-0.40336522
103	0xbec4d180	-0.38441086
104	0xbf94827c	-1.1602321
105	0xbf9bc208	-1.2168589
106	0xbd105662	-0.03523863
107	0xbecfa193	-0.4055296
108	0xbf99c85e	-1.2014272
109	0x3ddf45e9	0.10902006
110	0x3eade662	0.3396483
111	0x3ff36d1a	1.901767
112	0xbdb30275	-0.08740703
113	0xbe930c21	-0.2872019
114	0xbfec17da	-1.8444779
115	0xbf89fa34	-1.0779481
116	0xbda85bb1	-0.08220614
117	0x3f8a850e	1.0821855
118	0xbdb8f306	-0.09030728
119	0x3f0e705e	0.5564021
120	0xbfa8e95c	-1.3196216
121	0x3d9b6f52	0.07589592
122	0xbfa96335	-1.32334
123	0xbf3097d1	-0.68981653
124	0xbf885e1e	-1.0653722
125	0xbf5aa05e	-0.8540095
126	0xbff8694b	-1.9407133
127	0x3f902e8b	1.1264204
128	0x3ee2e4a3	0.4431506
129	0xbf328e6d	-0.69748574
130	0x3f134c16	0.5753797
131	0xbfe65ce3	-1.7997097
132	0x3f01d4e3	0.50715464
133	0x3f0db60b	0.553559
134	0xbc3ac9f5	-0.011400689
135	0x3f25a719	0.64708096
136	0xbfbc3b0d	-1.4705521
137	0xbbbc2260	-0.0057414025
138	0xbf292edb	-0.6608712
139	0x3e252a10	0.16129327
140	0x3fc23216	1.5171535
141	0x3d3a68bf	0.04551005
142	0xbfed1592	-1.8522208
143	0xbf02bf5f	-0.5107326
144	0x3f41c9a7	0.7569832
145	0xbfe89942	-1.817177
146	0x3f907971	1.1287061
147	0x3d6640e1	0.056214217
148	0x3e16cd6a	0.14726797
149	0xbd940513	-0.0722753
150	0xbf67be35	-0.9052461
151	0x404bb0ae	3.1826587
152	0x3fad5085	1.3540198
153	0xbe979b26	-0.29610556
154	0x3eb0a75e	0.3450269
155	0xbf929706	-1.1452339
156	0xbb99d6e2	-0.0046948055
157	0xbf6726e5	-0.90293723
158	0x3f9bc744	1.2170186
159	0xbfd06131	-1.627966
160	0x3f82afe5	1.0209929
161	0x3dd6087e	0.104508385
162	0xc0059bc2	-2.0876317
163	0x3f632c12	0.8873912
164	0x3d45b79a	0.0482708
165	0xbf458de7	-0.7716965
166	0xbf82dd34	-1.0223756
167	0xbfffd92c	-1.9988151
168	0xbc8e44d5	-0.017366806
169	0xbf6ca320	-0.9243641
170	0x3f8481c3	1.03521
171	0xbba06c8e	-0.004895753
172	0xbf9fa547	-1.2472314
173	0xbed0b4d2	-0.40762955
174	0xbebc82ca	-0.36818534
175	0x40023bc4	2.0348978
176	0x3f21300a	0.62963927
177	0x3ea9b4b7	0.33145687
178	0xbf0a34de	-0.5398692
179	0xbfebbe5d	-1.8417469
180	0xbf261793	-0.6487972
181	0xbe06c96d	-0.13162775
182	0xbf6656c8	-0.8997617
183	0xbf0907aa	-0.5352732
184	0xbf3330ad	-0.6999615
185	0xbf6d65f7	-0.9273371
186	0xbeadab45	-0.3391973
187	0xbf8a64b5	-1.0811983
188	0xbf207adb	-0.6268746
189	0x3f583ddc	0.8446939
190	0x3d53bce3	0.05169381
191	0x3f7b8d54	0.98262525
192	0xbde8865a	-0.113537505
193	0x3fa766ec	1.3078284
194	0x3e5bc8d3	0.21463327
195	0x3f9f7ca9	1.2459918
196	0x3e9e5fc0	0.30932426
197	0x4003f62d	2.0619004
198	0xbef38849	-0.47564915
199	0x3e910bac	0.28329217
200	0x405b4c03	3.4265144
201	0x3ff41a1e	1.907047
202	0xc042ec44	-3.0456705
203	0x3eb4aa85	0.35286346
204	0x3ec27a3b	0.3798388
205	0x3ebd9176	0.3702504
206	0x3f6711cd	0.90261537
207	0x3e746363	0.23866038
208	0xbfc1b35c	-1.5132861
209	0xbf9d0850	-1.2268162
210	0xbfe1d75b	-1.7643846
211	0x3eb67f8c	0.35644186
212	0x3f2de1f7	0.6792292
213	0xbe6dcb22	-0.2322202
214	0xbe9858ab	-0.29755148
215	0x3ef7a094	0.483647
216	0x3f1ca45b	0.61188287
217	0xbf7b1aab	-0.9808757
218	0xbf718623	-0.943453
219	0xbee319cb	-0.44355616
220	0x3fac2965	1.3450133
221	0x3d59addc	0.05314432
222	0x3f8f7a71	1.1209241
223	0xbf13521f	-0.5754718
224	0x3f666edc	0.9001291
225	0x3ff3c808	1.904542
226	0xbe516d6a	-0.20451894
227	0xbf92f6ad	-1.148153
228	0xbef76030	-0.48315573
229	0x3f41b53f	0.75667185
230	0x3d60e7d2	0.05490858
231	0x3f40ef7b	0.7536542
232	0x3fc8da3a	1.5691597
233	0xbfa4033e	-1.281349
234	0x3ec59625	0.38591114
235	0x3f445203	0.7668764
236	0xbf203523	-0.6258108
237	0xc009cfdd	-2.153312
238	0x3e930a12	0.2871862
239	0x3f0c5633	0.5481903
240	0xbfe6b983	-1.8025364
241	0xbf2d0b2d	-0.6759518
242	0xbf61e7b2	-0.88244164
243	0x3ede24ed	0.43387547
244	0xbcb18c97	-0.021673484
245	0x3ed3c50e	0.41361278
246	0x3f1f95de	0.62338054
247	0xbdd36962	-0.103228346
248	0x3f27d69d	0.6556185
249	0xbf712826	-0.94201887
250	0xbec3e30d	-0.38259163
251	0x3f7e07f7	0.99230903
252	0x3fa74553	1.3068031
253	0x3f08dde6	0.5346359
254	0xbfc14780	-1.5099945
255	0xbf9bd00c	-1.2172866

conv1.bias f4 [64]
0	0xb82a2e1b	-4.0574098e-05
1	0x386f7887	5.709429e-05
2	0x3805fc9e	3.194494e-05
3	0x38464908	4.7274894e-05
4	0x3913ad21	0.00014083508
5	0xb6abdcaa	-5.121886e-06
6	0xb83aba2c	-4.451924e-05
7	0xb68d8b88	-4.218371e-06
8	0xb8025481	-3.1073116e-05
9	0xb9225e85	-0.00015484735
10	0xb964e352	-0.00021828458
11	0xb85ba604	-5.2368283e-05
12	0x38bbe65f	8.959765e-05
13	0xb88fa21e	-6.848968e-05
14	0xb8710e66	-5.7472287e-05
15	0x3907dde0	0.00012957258
16	0x3959d7a2	0.00020775062
17	0xb880b349	-6.13691e-05
18	0xb849c62a	-4.810669e-05
19	0x3927e3d9	0.00016011241
20	0xb95cdb3c	-0.00021062506
21	0x3871129f	5.747622e-05
22	0x38c7b4b7	9.52272e-05
23	0xb8490313	-4.7924997e-05
24	0x398ea531	0.00027207428
25	0x382ee6ac	4.1699663e-05
26	0xb837d086	-4.3824803e-05
27	0xb933586e	-0.00017103713
28	0xb66fb440	-3.5718695e-06
29	0x37c25fbb	2.317118e-05
30	0x3968c22b	0.00022197577
31	0x373b42be	1.1161608e-05
32	0x398022d9	0.00024440026
33	0xb8c487e5	-9.3713206e-05
34	0xb83910ee	-4.4123204e-05
35	0xb924e53f	-0.0001572566
36	0x38c7ba14	9.523719e-05
37	0x3947087b	0.00018981278
38	0x35a60ffd	1.2372617e-06
39	0xb7fbe8f9	-3.0030018e-05
40	0x37d5bd90	2.547985e-05
41	0xb81d8c04	-3.7562117e-05
42	0x3820a9a3	3.830496e-05
43	0xb7aaead9	-2.0374939e-05
44	0x379ba62d	1.8554822e-05
45	0x361f59a6	2.3745029e-06
46	0x36174c54	2.2545182e-06
47	0xb937c89f	-0.00017526977
48	0xb8ee73fd	-0.00011370329
49	0x3885a77f	6.373133e-05
50	0x39667d9c	0.00021981302
51	0xb90abe17	-0.0001323152
52	0x389fd316	7.6210286e-05
53	0x38eb62eb	0.00011224098
54	0xb8c2b356	-9.284045e-05
55	0x389c8179	7.462776e-05
56	0xb96611cd	-0.0002194114
57	0x3797cd70	1.8096267e-05
58	0x385b0940	5.2222284e-05
59	0xb8607bfc	-5.352123e-05
60	0x38a244e3	7.737593e-05
61	0x37165eb4	8.9627465e-06
62	0xb9678b1c	-0.00022081699
63	0x369c6c1c	4.661748e-06

conv1.lin.weight f4 [64, 512]
0	0xbcb32827	-0.021869732
1	0xbc68dfbb	-0.014213498
2	0xbd29e74f	-0.04148036
3	0xbd4b4b32	-0.04963226
4	0xbd9e00ed	-0.0771502
5	0xbdc7c7c2	-0.09754898
6	0x3d23fac5	0.040034074
7	0xbce25250	-0.02762714
8	0x3cd28d0c	0.025702022
9	0x3d2622b2	0.04056043
10	0xbceae730	-0.028674692
11	0x3cb52eb8	0.022117004
12	0xbd3637bf	-0.044486757
13	0xbdd3f2fb	-0.10349079
14	0x3bf130b3	0.0073605417
15	0xbd89112c	-0.066927284
16	0xbda8458d	-0.08216391
17	0xbd089547	-0.033345487
18	0xbd000bc7	-0.03126123
19	0x3d6c26e7	0.057654288
20	0xbd2bec56	-0.041973434
21	0x3d8d95ed	0.06913362
22	0x3b8f3691	0.0043705185
23	0x3a83fe34	0.0010070265
24	0x3c6cbd49	0.014449426
25	0xbd84a283	-0.06476309
26	0xbdd70083	-0.104981445
27	0xbdb35cbc	-0.08757922
28	0xbd0f8a13	-0.035043787
29	0x3c093666	0.008374786
30	0x3ce7be01	0.028288843
31	0xbc7c7e27	-0.015410936
32	0x3dcae27b	0.09906479
33	0x3c8b7bdb	0.017026832
34	0x3d6c5f27	0.05770793
35	0xbcab56cc	-0.020915411
36	0xbd44769a	-0.04796467
37	0xbd01cafe	-0.03168773
38	0x3dc65ecc	0.0968605
39	0x3d8705f5	0.06592933
40	0x3c3a56bf	0.011373221
41	0xbd3b6fe3	-0.045761
42	0xbc53d530	-0.012929246
43	0x3c301ac6	0.010748571
44	0x3da714fe	0.08158301
45	0xbc44e012	-0.012016313
46	0xbdb30075	-0.087403215
47	0x3cf5e7a7	0.030017687
48	0xbd4c83e9	-0.049930487
49	0xbcbd4363	-0.023103422
50	0xbdbc02ed	-0.091802455
51	0x3d2c7769	0.042106066
52	0x3d94ed96	0.072718784
53	0x3a400742	0.00073253
54	0x3d35419a	0.044252016
55	0xbda1cbd3	-0.079002045
56	0xbd8d810f	-0.069093816
57	0x3d420095	0.047363836
58	0xbd43264b	-0.04764394
59	0xbd91af2e	-0.07113491
60	0x3d83fca8	0.06444675
61	0xbdde75dc	-0.10862324
62	0xbc7a6a70	-0.015284166
63	0xbc5e5360	-0.013569683
64	0x3d751e9c	0.059843644
65	0x3d415401	0.047199253
66	0xbd035b79	-0.032069657
67	0xbd18a4de	-0.037266605
68	0x3da34444	0.07972005
69	0x3d37c093	0.044861387
70	0x3b29f940	0.0025935918
71	0x39249874	0.00015697052
72	0x3d21111d	0.03932296
73	0xbc7eb62a	-0.015546361
74	0xbd77eaca	-0.060526647
75	0xbc50373c	-0.012708481
76	0x3d0e9bfc	0.034816727
77	0x3d0f2fbf	0.034957644
78	0xbd9abdbb	-0.075557195
79	0xbd15017b	-0.036378365
80	0xbdb3d239	-0.08780331
81	0xbc43982a	-0.011938134
82	0x3b418abc	0.0029532155
83	0xbce66f23	-0.028129166
84	0xbc5c7343	-0.013455215
85	0x3c75fe96	0.015014311
86	0x3dc9c099	0.09851188
87	0x3c2d3d34	0.010573674
88	0x3d26afcf	0.040695008
89	0x3b907b66	0.0044092415
90	0x3d3a9f5a	0.045562126
91	0xbdddc6a1	-0.10828901
92	0x3d91c4b1	0.07117594
93	0xbd136d1e	-0.035992734
94	0xbd78012e	-0.060548
95	0xbd7ccdad	-0.061719585
96	0x3dc51764	0.09623602
97	0x3b4ba412	0.0031073135
98	0x3d75f79c	0.06005059
99	0x3da169e7	0.078815274
100	0x3db2731d	0.08713362
101	0x3a16cd07	0.00057525974
102	0x3cb5cb75	0.022191742
103	0x3dc3d5dc	0.09562275
104	0x3dbe0768	0.092787564
105	0x3d5804a4	0.0527388
106	0x3d68e2d2	0.056856938
107	0x3d093e93	0.03350694
108	0xbd1c4b27	-0.03815761
109	0x3d25dfd4	0.040496662
110	0x3c4d629f	0.01253572
111	0x3d5a59ab	0.05330817
112	0xbd8f7fea	-0.070068195
113	0x3d2c7bae	0.042110138
114	0xbd3d6d27	-0.046246674
115	0xbc57da53	-0.013174611
116	0xbc496f3e	-0.012294589
117	0x3dbd712f	0.09250104
118	0x3da2d4d9	0.07950754
119	0xbd8e372f	-0.06944119
120	0xbd39cc9b	-0.045361143
121	0x3da900b7	0.082520895
122	0xbce5afab	-0.028037867
123	0xbd311434	-0.043232158
124	0x3d5dce60	0.054151893
125	0x3daa0b40	0.08302927
126	0xbd71ab1e	-0.05900108
127	0xbd0f9235	-0.035051543
128	0x3dd94845	0.106094874
129	0xbc01f1d1	-0.007931189
130	0xbd97a674	-0.07404795
131	0x3d552e58	0.05204615
132	0x3dacfc58	0.08446568
133	0xbd911d55	-0.07085673
134	0xbd2bf609	-0.041982684
135	0x3c530aa4	0.012880955
136	0xbdb87f67	-0.09008675
137	0xbcc96662	-0.024584953
138	0xbba0cff7	-0.004907604
139	0x3cd86350	0.026414543
140	0xbd884832	-0.06654395
141	0xbbec885b	-0.0072184033
142	0xbd3975ab	-0.045278233
143	0xbd637cbb	-0.055538874
144	0xba20d1d4	-0.00061347825
145	0xbca05c3e	-0.019575235
146	0x3d22bb27	0.039729264
147	0xbbc4eeff	-0.006009936
148	0x3dc26153	0.09491219
149	0xbc7edf30	-0.015556142
150	0x3da8fef0	0.082517505
151	0xbda34a3e	-0.07973145
152	0x3d70767f	0.058706757
153	0x3d090492	0.033451624
154	0x3d875b9e	0.066092715
155	0x3d93c768	0.07215768
156	0x3cfa61b0	0.03056416
157	0xbdb722c2	-0.089421764
158	0xbcb6dcb6	-0.02232204
159	0x3dc407ef	0.09571826
160	0x3d378271	0.044802133
161	0xbd7262c2	-0.059176214
162	0x3cd5f0cb	0.026115796
163	0x3cc3ac87	0.023885978
164	0x3dca4a6e	0.098774776
165	0x3db8aa1c	0.09016821
166	0xbd2b4312	-0.04181201
167	0x3cd6770a	0.02617981
168	0xbc278313	-0.010224122
169	0xbd48482f	-0.048896965
170	0x3dabcd70	0.083887935
171	0xbd31d5c5	-0.043416757
172	0x3d753f01	0.05987454
173	0xbc7bc9ab	-0.015367906
174	0x3c890e74	0.016730525
175	0x3d023b3b	0.031794768
176	0xbdac44d5	-0.08411566
177	0xbd2c8230	-0.042116344
178	0xbdc06a1e	-0.0939524
179	0xbbaafd43	-0.0052181794
180	0x3d8cf9dd	0.06883595
181	0xbda81162	-0.082064405
182	0xbd07544f	-0.033039387
183	0xbc822c6e	-0.015890326
184	0x3c8a13b5	0.0168551
185	0x3d5d6af7	0.054057088
186	0x3dbd8d28	0.09255439
187	0xbc726a4c	-0.014795851
188	0xbcf7bafd	-0.03024053
189	0x3dc2cb60	0.09511447
190	0xbcd65fee	-0.02616879
191	0x3d0a6702	0.033789642
192	0xbc2073ae	-0.009793205
193	0x3d81714d	0.063204385
194	0x3dbf058d	0.093272306
195	0xbdc35b2c	-0.09538874
196	0x3d4510f7	0.048111882
197	0xbd802e13	-0.06258788
198	0x3cdb69d1	0.026783856
199	0xbc839c4b	-0.016065737
200	0xbc26e708	-0.010186918
201	0xbcbd79d3	-0.02312938
202	0xbda982f5	-0.08276931
203	0x3ca0a20e	0.019608524
204	0xbc68acdb	-0.014201368
205	0xbcac5f3a	-0.021041501
206	0x3dc40fe0	0.095733404
207	0xbc8d6779	-0.017261254
208	0xbcb8122a	-0.022469599
209	0xbd57e518	-0.052708715
210	0x3d39201b	0.045196634
211	0x3b6a5a93	0.0035759553
212	0x3b7f954f	0.0038998907
213	0xbd70282c	-0.05863206
214	0xbdc73ad8	-0.097280204
215	0xbdbd014a	-0.092287615
216	0xbc81de2a	-0.015853006
217	0x3d5f8939	0.054574225
218	0x3dad3468	0.08457261
219	0xbcc6cda6	-0.024267983
220	0x3dad075c	0.08448669
221	0xbdbf46ff	-0.09339713
222	0xbd6ad492	-0.05733163
223	0x3d0c91f6	0.034318887
224	0xbab88cf3	-0.0014080092
225	0xbd9bb5b7	-0.07603019
226	0x3c52e440	0.012871802
227	0xbcf4cae5	-0.029881904
228	0x3d5c6b03	0.05381299
229	0x3da7e80b	0.081985556
230	0x3aa55db9	0.0012616433
231	0xbd7bae2c	-0.0614454
232	0xbd1f4de8	-0.038892657
233	0x3d4ffd79	0.05077884
234	0xbc80e932	-0.015736196
235	0xbcdad035	-0.026710609
236	0x3bcbb845	0.006217035
237	0xbdaeee69	-0.08541567
238	0xbde2eb8d	-0.11080084
239	0xbc9e65b4	-0.019335605
240	0x3d9e3c29	0.077263184
241	0x3c86d968	0.01646109
242	0x3d7fef33	0.062483978
243	0xbdd82acb	-0.10555037
244	0xbd40733a	-0.04698489
245	0x3c1d91e9	0.009617307
246	0xbcf6a55e	-0.03010815
247	0xbdd187f2	-0.10231008
248	0x3d7b5b85	0.061366577
249	0xbd4b1246	-0.049577974
250	0xbdb8ac59	-0.09017248
251	0x3d1dd37e	0.038531773
252	0xbdd141b9	-0.10217614
253	0x3dd9855c	0.106211394
254	0x3d0314fe	0.03200244
255	0x3d3b53c1	0.04573417

conv2.bias f4 [64]
0	0xb9707ef4	-0.00022935477
1	0xb7eda502	-2.832944e-05
2	0x3894bb10	7.092033e-05
3	0xb96b09ca	-0.00022414993
4	0x385040ec	4.9651528e-05
5	0xb91c3d21	-0.00014900092
6	0x3797e1f0	1.8105813e-05
7	0xb88b822d	-6.6522836e-05
8	0xb6be73cc	-5.675922e-06
9	0xb8fe39f0	-0.000121224555
10	0xb84bd4fc	-4.859733e-05
11	0xb9086636	-0.00013008047
12	0x38af7262	8.365956e-05
13	0xb5279590	-6.242999e-07
14	0xb7944283	-1.7673947e-05
15	0xb760251e	-1.3360082e-05
16	0xb986938a	-0.00025668397
17	0x39691dc7	0.00022231704
18	0x383b89fc	4.4712782e-05
19	0xb7537479	-1.2603698e-05
20	0x38ae4a1e	8.310772e-05
21	0x387701fd	5.889124e-05
22	0xb8dddfa8	-0.000105797604
23	0xb7bef27a	-2.2762677e-05
24	0xb70995e4	-8.2007355e-06
25	0xb9ad102b	-0.00033009177
26	0xb9dafb12	-0.00041767262
27	0x39a35482	0.00031152746
28	0xb9198ceb	-0.00014643713
29	0xb7e7e475	-2.764373e-05
30	0x392351a4	0.00015575305
31	0xb87e3006	-6.0603044e-05
32	0x3880956e	6.131349e-05
33	0xb8cbb614	-9.713709e-05
34	0xb9970094	-0.00028801395
35	0x383ef1a4	4.5524575e-05
36	0x39a7b8dd	0.00031990456
37	0xb99f235e	-0.00030353194
38	0xb7df1e31	-2.659773e-05
39	0xba14f9ef	-0.0005682995
40	0xb8915a61	-6.930973e-05
41	0xb8e0f654	-0.000107270345
42	0xb900f642	-0.0001229877
43	0xb8a6ee6d	-7.959907e-05
44	0x38ad92a8	8.2766e-05
45	0x38883a65	6.495862e-05
46	0x37257a18	9.863194e-06
47	0xba0f57b8	-0.0005468088
48	0x3716034e	8.941466e-06
49	0x39fea8f8	0.00048572547
50	0xb7758059	-1.4633021e-05
51	0x390f8fd9	0.0001369113
52	0x397ce4d1	0.00024117834
53	0xba092bd0	-0.0005232664
54	0x38c911ff	9.587779e-05
55	0x38a62f16	7.924267e-05
56	0xb6d1ab6a	-6.2486406e-06
57	0x3a158a44	0.0005704502
58	0xb78a92b3	-1.6519194e-05
59	0xb8a4ad67	-7.852428e-05
60	0xb9991b1c	-0.00029202632
61	0x38ad654f	8.268153e-05
62	0x376ae1a6	1.4000025e-05
63	0xb8ccbf99	-9.763166e-05

conv2.lin.weight f4 [64, 64]
0	0x3c449343	0.011998001
1	0xbe39e366	-0.18153152
2	0xbc33ac55	-0.01096638
3	0x3ddf59b5	0.10905782
4	0x3da8d19e	0.08243106
5	0x3e0aba2e	0.13547584
6	0x3e116c3e	0.14201447
7	0x3d737094	0.059433535
8	0x3c81fc70	0.015867442
9	0x3e517b78	0.20457256
10	0xbe15a45b	-0.14613478
11	0xbe20f50c	-0.15718478
12	0xbe358c0e	-0.17729208
13	0xbcb21c90	-0.021742135
14	0xbbd7ed6a	-0.0065895813
15	0x3e72e611	0.23720576
16	0xbe3b0f64	-0.1826759
17	0xbd361105	-0.044449825
18	0x3d9f14f5	0.07767669
19	0x3df4489a	0.1192791
20	0x3e71b13b	0.23602764
21	0xbdad69c8	-0.08467442
22	0xbe39f71a	-0.18160668
23	0xbd61374c	-0.054984376
24	0x3de33411	0.11093915
25	0x3e1d8e13	0.15386228
26	0x3de95006	0.113922164
27	0xbe4434d0	-0.19160771
28	0xbdc0ab46	-0.09407668
29	0x3e0b8b4d	0.13627358
30	0xbd1a8794	-0.037726954
31	0xbd825cfd	-0.06365392
32	0x3df4b7a2	0.11949088
33	0xbdbbdbd3	-0.091727875
34	0x3d7e8b01	0.062144283
35	0xbda84a3d	-0.08217285
36	0x3c96ca0a	0.018406887
37	0xba5ab168	-0.00083424756
38	0x3e164919	0.14676322
39	0x3dc06488	0.09394175
40	0xbe3b9158	-0.18317163
41	0x3dba1707	0.09086423
42	0x3af055a8	0.0018336074
43	0x3d6ba116	0.05752667
44	0x3dc73c7a	0.09728332
45	0xbe15971e	-0.14608428
46	0x3e03be23	0.128655
47	0x3d498bdc	0.049205646
48	0x3d8b95c1	0.06815673
49	0x3dea920e	0.11453639
50	0xbe43806c	-0.19091958
51	0xbdea9b0a	-0.114553526
52	0xbd59d1e9	-0.0531787
53	0x3d848f13	0.06472602
54	0xbe0f7d3e	-0.1401262
55	0x3cec1af8	0.028821453
56	0xbd0b9549	-0.034077916
57	0x3e2d25ab	0.169089
58	0x3dd1384c	0.10215816
59	0xbe202617	-0.1563953
60	0x3d881eab	0.066464745
61	0x3da4bd4a	0.080439165
62	0x3e70ad18	0.2350353
63	0x3e09fe2a	0.13475862
64	0x3e06edff	0.13176726
65	0x3e5593b0	0.2085712
66	0xbda61289	-0.08109004
67	0x3e3a303f	0.18182467
68	0xbe0a98e2	-0.13534883
69	0xbdaeab83	-0.08528807
70	0x3e0c1de5	0.13683279
71	0xbd9ee1a0	-0.07757878
72	0xbdf21438	-0.11820263
73	0xbe0e9592	-0.13924244
74	0x3e56fcce	0.20994875
75	0x3e293df6	0.16527542
76	0x3d47c724	0.0487739
77	0xbe71c950	-0.23611951
78	0x3e49323d	0.1964807
79	0xbe4b6911	-0.19864298
80	0x3c533ed1	0.012893395
81	0xbe273b99	-0.16331328
82	0xbad8d81c	-0.0016543898
83	0xbdd778e8	-0.10521108
84	0xbe06f9db	-0.1318125
85	0x3dfbc669	0.12293703
86	0xbe2b4bf2	-0.1672819
87	0x3dbbde36	0.09173243
88	0xbe04b6ee	-0.12960407
89	0x3dad8de9	0.08474333
90	0xbcca5a97	-0.0247014
91	0x3c0253bf	0.007954537
92	0x3cfc5008	0.03079988
93	0xbe63043f	-0.22169589
94	0x3d0a88f6	0.033822022
95	0x3dd1cdca	0.10244329
96	0xba54184a	-0.00080907776
97	0x3d879e48	0.06621987
98	0x3dcc2488	0.09967905
99	0xbe525104	-0.20538718
100	0xbe0a553e	-0.1350908
101	0xbd886454	-0.06659761
102	0x3e5f5c95	0.21812661
103	0xbbacb47e	-0.00527054
104	0x3e24ec2b	0.16105716
105	0x3d33d686	0.043905757
106	0xbdafc0a9	-0.08581669
107	0x3d0aac7d	0.033855904
108	0x3cc3058f	0.023806361
109	0xbe1b1fd2	-0.15148857
110	0x3e273531	0.16328885
111	0xbda9c31b	-0.082891665
112	0x3e084075	0.13305838
113	0xbd930462	-0.0717857
114	0x3cced05c	0.025245838
115	0xbe311a17	-0.17295109
116	0xbd1d47c8	-0.038398534
117	0xbc90278a	-0.017596979
118	0x3dd9e30c	0.10639009
119	0xba70b5a5	-0.00091823406
120	0x3e0a7daa	0.135245
121	0xbd871965	-0.065966405
122	0xbd50cb76	-0.050975285
123	0x3b21163d	0.0024579905
124	0x3ded26ed	0.1157969
125	0xbd3bc620	-0.045843244
126	0xbe3c34b3	-0.18379478
127	0xbd8da96d	-0.06917081
128	0x3b9faab5	0.004872645
129	0x3d4c6b46	0.04990699
130	0x3dfb7405	0.12277988
131	0x3da201f3	0.07910528
132	0xbe07c6c9	-0.13259424
133	0x3ddd57cd	0.10807762
134	0xbdc3f2e2	-0.095678106
135	0x3cc6c5da	0.024264265
136	0xbd81f028	-0.06344634
137	0xbda98b5a	-0.08278532
138	0xbe3bcbd5	-0.18339474
139	0xbe1a5998	-0.1507324
140	0x3bfd0daf	0.0077225785
141	0x3d3f1a4f	0.04665595
142	0xbc9ae627	-0.018908573
143	0x3e61d8b1	0.22055317
144	0xbe473f17	-0.1945766
145	0xbda8cbe6	-0.082420155
146	0xbe1fa0ba	-0.15588656
147	0x3dfb67d0	0.1227566
148	0xbcfb56e7	-0.030681087
149	0xbe4b9fd9	-0.19885196
150	0x3e36e716	0.1786159
151	0x3df6d09f	0.1205151
152	0x3e053a39	0.13010491
153	0x3e3c7346	0.18403348
154	0x3cf7ef5a	0.030265499
155	0xbe3556ae	-0.17708847
156	0xbe0906a2	-0.13381436
157	0x3d0ad861	0.03389776
158	0x3e398367	0.18116532
159	0xbe27ec5b	-0.16398756
160	0xbdafbcf5	-0.085809626
161	0x3d3ef444	0.04661967
162	0xbe61aba5	-0.22038133
163	0x3e4e316d	0.20136042
164	0xbc6310b4	-0.013858963
165	0xbe12c05f	-0.14331196
166	0xbdf2a396	-0.11847608
167	0x3da08a68	0.07838899
168	0x3cc63d23	0.024199074
169	0x3e20b6dc	0.15694755
170	0x3e378764	0.17922741
171	0xbcd5838f	-0.026063709
172	0x3e70b265	0.23505552
173	0x3d88cfa8	0.06680232
174	0x3decb2ac	0.115575165
175	0x3dbf27c6	0.09333758
176	0xbc108376	-0.008820405
177	0x3e387071	0.18011643
178	0xbe4e2db1	-0.20134617
179	0xbe1b468b	-0.15163629
180	0xbe23cf1f	-0.15996979
181	0x3d1299dd	0.035791267
182	0xbe320580	-0.1738491
183	0x3e6338f9	0.22189702
184	0xbd5eadc6	-0.054364942
185	0x3decb1af	0.11557328
186	0x3dcbf420	0.099586725
187	0x3dea8213	0.11450591
188	0xbde11bb2	-0.109916106
189	0xbc878ac1	-0.016545655
190	0x3e634b19	0.22196616
191	0xbd925a51	-0.07146133
192	0xbe3491e4	-0.17633778
193	0xbc46de51	-0.012137965
194	0xbe0b629d	-0.13611837
195	0xbe6aedb3	-0.22942238
196	0x3de9a51e	0.11408447
197	0x3db79939	0.08964772
198	0x3e557a1d	0.20847364
199	0x3e65d56d	0.22444697
200	0xbcd98bc2	-0.0265559
201	0x3cf60e11	0.030036004
202	0xbd89a63a	-0.06721158
203	0x3e005ac3	0.12534623
204	0xbd235118	-0.03987226
205	0xbdb54321	-0.088506944
206	0xbe39a8e9	-0.1813084
207	0x3e3ed0d9	0.18634357
208	0xbca93885	-0.020656833
209	0x3e35b489	0.1774465
210	0xbdb9d6f9	-0.09074206
211	0x3dfa8b9a	0.12233658
212	0xbd83e196	-0.064395115
213	0x3d4cd582	0.050008304
214	0x3dc2fcdf	0.095208876
215	0x3d8fe92b	0.07026895
216	0xbd0749f2	-0.033029504
217	0x3dcd8b10	0.1003629
218	0x3e281b5c	0.16416687
219	0x3e088950	0.1333363
220	0x3e2a0566	0.16603622
221	0xbe0e5769	-0.13900532
222	0xbdbb9371	-0.091589816
223	0xbe4eaf33	-0.2018402
224	0x3d97b0b4	0.0740675
225	0x3dfd949a	0.12381859
226	0x3d9dcb98	0.07704848
227	0x3adc0851	0.0016787146
228	0x3d054a59	0.032541607
229	0xbe5fa771	-0.21841218
230	0x3e162598	0.14662778
231	0x3e07ccf7	0.13261782
232	0x3e24ca1f	0.16092728
233	0x3dedab23	0.11604907
234	0xbdc5b541	-0.09653712
235	0x3d5e536e	0.054278784
236	0x3dc31895	0.09526173
237	0xbc4c0e4a	-0.012454579
238	0xbe666a14	-0.22501403
239	0xbe27ddb1	-0.16393162
240	0x3d81eadf	0.06343626
241	0x3d47b401	0.04875565
242	0xbd537cb3	-0.051632594
243	0x3deb325b	0.11484214
244	0xbe63c774	-0.22244054
245	0x3e59ce47	0.21270095
246	0x3e2b5648	0.16732132
247	0x3e2cc43d	0.16871734
248	0xbd95122f	-0.07278859
249	0xbcae0e9f	-0.021247206
250	0x3da366c8	0.07978588
251	0x3e394eb4	0.18096429
252	0x3e0f3fef	0.13989232
253	0x3e4ca916	0.19986376
254	0xbe5c6651	-0.21523406
255	0xbbafeec5	-0.0053690397

bn1.weight f4 [64]
0	0x3f82a8ac	1.0207725
1	0x3f80971e	1.0046117
2	0x3f814872	1.0100234
3	0x3f7e14aa	0.9925028
4	0x3f8190ce	1.0122316
5	0x3f804520	1.0021095
6	0x3f7a620a	0.97805846
7	0x3f7c0e12	0.9845897
8	0x3f7a5f46	0.97801626
9	0x3f786e94	0.9704373
10	0x3f78537e	0.970024
11	0x3f7b1d27	0.9809136
12	0x3f797f02	0.97459424
13	0x3f83acd0	1.0287113
14	0x3f7bf562	0.984213
15	0x3f7eede6	0.99581754
16	0x3f831826	1.0241745
17	0x3f79a1f6	0.9751276
18	0x3f79bd4f	0.97554487
19	0x3f798f5b	0.9748437
20	0x3f7c6d6b	0.9860446
21	0x3f832f8c	1.0248885
22	0x3f7bd712	0.98375046
23	0x3f7925d0	0.9732332
24	0x3f83e53d	1.0304333
25	0x3f833dcd	1.0253235
26	0x3f798583	0.9746935
27	0x3f7921b8	0.97317076
28	0x3f78c227	0.9717125
29	0x3f8084bb	1.0040506
30	0x3f839152	1.0278723
31	0x3f78387d	0.96961194
32	0x3f79390d	0.9735268
33	0x3f7a1c3f	0.9769935
34	0x3f815802	1.0104983
35	0x3f83a825	1.0285689
36	0x3f82f8cd	1.0232178
37	0x3f837cb0	1.0272427
38	0x3f7b762f	0.9822721
39	0x3f81cb4e	1.0140169
40	0x3f7c6a66	0.9859985
41	0x3f7eb451	0.9949389
42	0x3f8300f6	1.0234668
43	0x3f826466	1.0186889
44	0x3f793228	0.9734216
45	0x3f787bf3	0.9706413
46	0x3f819d8a	1.0126202
47	0x3f81f1ac	1.0151877
48	0x3f7d33df	0.98907274
49	0x3f7baa12	0.9830638
50	0x3f80d31b	1.0064424
51	0x3f83b67c	1.0290065
52	0x3f77f951	0.968648
53	0x3f83c304	1.0293889
54	0x3f800f0b	1.0004591
55	0x3f810a7d	1.0081326
56	0x3f794dab	0.97384137
57	0x3f8253db	1.0181841
58	0x3f82c8ab	1.0217489
59	0x3f816510	1.0108967
60	0x3f795d48	0.9740796
61	0x3f842b29	1.0325671
62	0x3f7f1123	0.99635524
63	0x3f82ba11	1.0213033

bn1.bias f4 [64]
0	0x3cb6014c	0.022217415
1	0x3b8f16a8	0.0043667145
2	0x3c2dcfcb	0.010608624
3	0x3bbf381c	0.005835546
4	0x3be2a4d9	0.006916624
5	0x3b5fbd15	0.0034139801
6	0xbc9a0291	-0.018800052
7	0xbc57d904	-0.013174299
8	0xbca54070	-0.020172328
9	0xbcc83bd9	-0.0244426
10	0xbce22274	-0.02760432
11	0xbb08305e	-0.0020780782
12	0xbc32eca8	-0.010920681
13	0x3ce07335	0.027398685
14	0xbc8d2364	-0.01722879
15	0xbc172594	-0.009225268
16	0x3cd291a6	0.025704216
17	0xbccd73d3	-0.025079643
18	0xbc9561dd	-0.018235141
19	0xbc56ab3a	-0.013102347
20	0xbc3a5cf5	-0.011374702
21	0x3cc9140c	0.024545692
22	0xbc148f7e	-0.009067414
23	0xbcc0583d	-0.023479575
24	0x3cfaa3e6	0.030595731
25	0x3cc86f46	0.024467122
26	0xbcc6ea3b	-0.024281612
27	0xbcce3ae7	-0.025174571
28	0xbcad8140	-0.021179795
29	0x3c4ed980	0.012625098
30	0x3cde41bc	0.027130954
31	0xbca19ce4	-0.019728132
32	0xbcce3fc5	-0.025176892
33	0xbca6c99e	-0.02035981
34	0x3c56708b	0.013088356
35	0x3cce3532	0.02517185
36	0x3ca03444	0.019556172
37	0x3cddf4bc	0.027094238
38	0xb8c36d9b	-9.31874e-05
39	0x3c924339	0.01785432
40	0x3a9249b0	0.0011160877
41	0xbb0931b6	-0.002093417
42	0x3ccf6115	0.025314847
43	0x3c9a1e10	0.018813163
44	0xbcd46575	-0.025927285
45	0xbcea634c	-0.028611802
46	0x3cb67310	0.022271663
47	0x3c9736e7	0.018458797
48	0xbc9fd9c5	-0.01951302
49	0xbbacc6e6	-0.005272734
50	0x3c28bf59	0.010299527
51	0x3ce28ac0	0.027654052
52	0xbcf43a85	-0.02981306
53	0x3ce4a204	0.027909286
54	0x3c09374d	0.008375001
55	0x3c7fbf72	0.015609609
56	0xbcba7f4a	-0.022765774
57	0x3c8f558e	0.01749685
58	0x3ccaeff3	0.02477262
59	0x3c659ab6	0.014013937
60	0xbc905ea4	-0.017623253
61	0x3cfdec48	0.030996457
62	0xba7343e4	-0.0009279831
63	0x3cc894e3	0.024485057

bn1.running_mean f4 [64]
0	0x3e9a1060	0.30090618
1	0xbf49f8f8	-0.7889552
2	0xbf60fe2a	-0.87887824
3	0xbfbedbca	-1.4910824
4	0xbee99589	-0.456219
5	0xbbd81066	-0.0065937517
6	0x3e0fbd9f	0.14037178
7	0xbeec93bb	-0.4620646
8	0x3ee05bfa	0.43820173
9	0x3faeda70	1.3660412
10	0xbfd5c28b	-1.6699995
11	0xbfab74be	-1.3395002
12	0x3f745f87	0.95458263
13	0x3f8cb93e	1.0994031
14	0x401c0f48	2.4384327
15	0xbf392f78	-0.72338057
16	0x3fc9ebbb	1.5775064
17	0x3f541566	0.8284515
18	0xbe1ba472	-0.1519945
19	0x3fb81ff8	1.4384756
20	0xbfd3c008	-1.6542978
21	0x3f155e6f	0.5834722
22	0x3fabdb3a	1.3426278
23	0xbdeec13e	-0.11657952
24	0x3f6d7536	0.92756975
25	0xbf53f0fe	-0.827896
26	0x3e8e4867	0.27789614
27	0x3e823029	0.25427368
28	0xbef72f94	-0.48278487
29	0x3e451bce	0.19248888
30	0xbfb89cf7	-1.4422902
31	0xbd70735d	-0.05870377
32	0x3f577e2b	0.8417689
33	0x3e1276b5	0.14303096
34	0x3e05b742	0.13058189
35	0xbfae7f4a	-1.3632596
36	0x3efb229a	0.49049836
37	0xbfd1a778	-1.6379232
38	0x3edcd28a	0.4312938
39	0x3e462c78	0.19352901
40	0xbf8b774b	-1.089578
41	0x3e5bcd47	0.21465026
42	0xbf9dd35c	-1.2330127
43	0x3d69fdbd	0.05712675
44	0xc011a92e	-2.275951
45	0x3cf916a4	0.030406304
46	0xbebb101c	-0.36535728
47	0x4004b0ce	2.0732913
48	0x3eb7a961	0.35871413
49	0xbe6c1159	-0.23053493
50	0x400223dd	2.033439
51	0x3fc8109f	1.5630072
52	0xc025f1ca	-2.5928826
53	0xbe526859	-0.20547618
54	0xbf9b5585	-1.2135473
55	0xbff415b4	-1.9069123
56	0x40167c03	2.351319
57	0xbda693e7	-0.08133679
58	0x3f3cfde2	0.73824894
59	0x3d4fa1bd	0.050691355
60	0xbfbadf2c	-1.4599357
61	0x3f3bb2a2	0.7331945
62	0xbfdc582e	-1.721441
63	0x3f1d1f14	0.61375546

bn1.running_var f4 [64]
0	0x3f34fc24	0.70697236
1	0x3e565229	0.20929779
2	0x3ef902bb	0.48634896
3	0x3eba622b	0.3640302
4	0x3ec6f2ae	0.38857025
5	0x3ecce3cb	0.40017542
6	0x3efde498	0.49588466
7	0x3edda282	0.43288046
8	0x3ea2bbdb	0.31783947
9	0x3eb068ca	0.34454948
10	0x3ec5e695	0.38652483
11	0x3ee03594	0.43790877
12	0x3f0b9583	0.5452501
13	0x3efe4496	0.49661702
14	0x3f06c508	0.52644396
15	0x3ec32454	0.38113654
16	0x3edb1876	0.427921
17	0x3ebd80ec	0.37012422
18	0x3e9a1c5c	0.3009976
19	0x3eea6b3d	0.4578494
20	0x3eb79f5b	0.35863766
21	0x3efef04e	0.49792713
22	0x3e905ec7	0.2819731
23	0x3ef47c6e	0.47751182
24	0x3eae375d	0.34026614
25	0x3e7aa5fc	0.2447738
26	0x3eaee2b3	0.34157333
27	0x3f0dd5e4	0.55404496
28	0x3e7b09fd	0.24515529
29	0x3ee9294f	0.45539328
30	0x3f04df70	0.5190344
31	0x3f0a5f72	0.5405189
32	0x3ee8c163	0.45460042
33	0x3ee067a3	0.4382907
34	0x3ebb299d	0.36555186
35	0x3f018e90	0.5060816
36	0x3edbd638	0.42936873
37	0x3ec3c53a	0.3823641
38	0x3ede2989	0.43391064
39	0x3f1988a0	0.599741
40	0x3edde052	0.43335205
41	0x3ee4faac	0.44722497
42	0x3f86d952	1.0535071
43	0x3e89ca39	0.26912096
44	0x3efd4ab8	0.49471068
45	0x3f0de77c	0.5543134
46	0x3ecf52d6	0.40492886
47	0x3ecd9f42	0.40160567
48	0x3ef8f039	0.48620775
49	0x3f28babc	0.65909934
50	0x3ed80d84	0.42197812
51	0x3eecafc3	0.46227846
52	0x3eb5b558	0.35489917
53	0x3e8f810f	0.2802815
54	0x3f29371f	0.66099733
55	0x3f2140dd	0.629896
56	0x3ea0bc16	0.31393498
57	0x3efb3523	0.49063978
58	0x3f0e0460	0.55475426
59	0x3ebe8ba3	0.3721591
60	0x3e96b000	0.29431152
61	0x3f2dbc5a	0.67865527
62	0x3f43b218	0.76443624
63	0x3ee292b2	0.44252545

bn2.weight f4 [64]
0	0x3f780e0f	0.9689645
1	0x3f831f1f	1.0243872
2	0x3f79987d	0.97498304
3	0x3f8443ef	1.0333232
4	0x3f7713d7	0.9651465
5	0x3f83dabf	1.0301131
6	0x3f7771d4	0.9665806
7	0x3f77b17a	0.9675518
8	0x3f814249	1.0098354
9	0x3f7d9ab3	0.9906418
10	0x3f776306	0.9663547
11	0x3f77cbee	0.96795547
12	0x3f78ff92	0.9726497
13	0x3f82ddeb	1.0223974
14	0x3f78df65	0.97215873
15	0x3f840d84	1.0316625
16	0x3f83a97c	1.0286098
17	0x3f83d63c	1.0299754
18	0x3f81497f	1.0100554
19	0x3f82754f	1.019205
20	0x3f83aba1	1.0286752
21	0x3f7ff30e	0.9998025
22	0x3f84b333	1.0367187
23	0x3f79b37d	0.975395
24	0x3f77d0af	0.968028
25	0x3f78b87d	0.97156507
26	0x3f840c8c	1.0316329
27	0x3f849bac	1.0360007
28	0x3f774097	0.9658293
29	0x3f7803dc	0.9688089
30	0x3f818a47	1.0120324
31	0x3f7760e9	0.9663225
32	0x3f7ab0e5	0.9792617
33	0x3f76cd74	0.96407247
34	0x3f83917c	1.0278773
35	0x3f838818	1.0275908
36	0x3f785c84	0.9701617
37	0x3f789b21	0.9711171
38	0x3f83c5f9	1.0294791
39	0x3f79a2a8	0.9751382
40	0x3f7785ec	0.96688724
41	0x3f7ea45d	0.9946955
42	0x3f838ab3	1.0276703
43	0x3f831908	1.0242014
44	0x3f7abca4	0.9794409
45	0x3f84152f	1.0318965
46	0x3f77ea0c	0.968415
47	0x3f777906	0.9666904
48	0x3f831948	1.024209
49	0x3f81330b	1.0093702
50	0x3f7dd2af	0.991496
51	0x3f8386b6	1.0275486
52	0x3f8365d6	1.0265453
53	0x3f83728a	1.026933
54	0x3f83f95d	1.0310475
55	0x3f79f3d8	0.976377
56	0x3f833f3f	1.0253676
57	0x3f787254	0.9704945
58	0x3f84ae4b	1.036569
59	0x3f7fb378	0.9988322
60	0x3f7e13a8	0.99248743
61	0x3f790b22	0.9728261
62	0x3f807d88	1.0038309
63	0x3f82a917	1.0207852

bn2.bias f4 [64]
0	0xbcf4e03d	-0.029892081
1	0x3cc337db	0.023830345
2	0xbcb5841c	-0.022157721
3	0x3cb843fe	0.022493359
4	0xbd03ffb8	-0.032226294
5	0x3d01e337	0.03171083
6	0xbcfa0571	-0.030520173
7	0xbcddcf72	-0.027076457
8	0x3c1bb5a9	0.00950376
9	0xbcc80209	-0.024415033
10	0xbcf149bf	-0.02945411
11	0xbcfffdca	-0.031248946
12	0xbcd32cd1	-0.025778206
13	0x3c869591	0.01642874
14	0xbcdfa058	-0.027298138
15	0xbc2c89b5	-0.010530879
16	0x3cb7b798	0.022426412
17	0x3bd6762e	0.00654485
18	0xbc891978	-0.016735777
19	0xbc92aa9b	-0.017903617
20	0x3d00ae30	0.03141612
21	0xbd04b1bd	-0.032396067
22	0x3ce31959	0.027722048
23	0xbce84b53	-0.02835623
24	0xbce923d4	-0.028459467
25	0xbcd7c809	-0.026340501
26	0xbb4a1313	-0.0030834123
27	0x3ce48f40	0.027900338
28	0xbd01cc3d	-0.031688917
29	0xbce221e9	-0.02760406
30	0xbd0aa1d4	-0.033845738
31	0xbd02d5bd	-0.031942118
32	0xbcbce639	-0.023058997
33	0xbcff946a	-0.031198699
34	0x3cf031d2	0.029320631
35	0x3c85f03c	0.016349904
36	0xbce00498	-0.02734594
37	0xbce6c10e	-0.028168228
38	0x3d00374c	0.031302735
39	0xbccb0ddc	-0.024786882
40	0xbd0141e2	-0.03155697
41	0xbceb9dc1	-0.028761746
42	0x3ceeb67f	0.029139755
43	0xbbfeaec1	-0.007772297
44	0xbcb35a75	-0.02189372
45	0x3d0a6c22	0.03379453
46	0xbcfc75fa	-0.030817974
47	0xbcfea50f	-0.031084565
48	0x3c51d199	0.01280632
49	0x3aa04d94	0.0012230151
50	0xbcabe1e5	-0.020981738
51	0x3cfa29fc	0.030537598
52	0x3cd2df14	0.025741138
53	0x3cf871bd	0.030327672
54	0x3d0e6648	0.03476551
55	0xbcc40559	-0.023928331
56	0x3cee73d0	0.029107958
57	0xbcea5260	-0.028603733
58	0x3cd0d0e8	0.02549024
59	0x3cd1f282	0.025628332
60	0xbd023d7c	-0.031796917
61	0xbcdb95e3	-0.02680487
62	0xbcf25ef4	-0.029586293
63	0xbcc15634	-0.023600675

bn2.running_mean f4 [64]
0	0x3edca6aa	0.43095905
1	0xbe2fa0bf	-0.17151164
2	0x3e4dab58	0.20084894
3	0x3f198ea2	0.59983265
4	0x3dd66db5	0.10470144
5	0xbe1f5fcd	-0.15563889
6	0xbef0a35c	-0.46999633
7	0x3e40a05e	0.18811175
8	0xbf180ec0	-0.59397507
9	0x3ef4fc16	0.47848576
10	0xbe0e2c39	-0.13884057
11	0xbe05488b	-0.13015954
12	0x3f124ad4	0.5714543
13	0x3f2fec47	0.68719906
14	0x3e901e21	0.28147987
15	0xbe88a11f	-0.26685426
16	0x3f147e4c	0.58005214
17	0x3ea9562c	0.33073556
18	0x3efb9dac	0.49143732
19	0x3d8e3e15	0.06945435
20	0x3e43d11e	0.1912274
21	0x3e08b71f	0.13351105
22	0xbbed1164	-0.007234739
23	0xbeeedb76	-0.4665181
24	0xbe473a14	-0.19455749
25	0x3f02b235	0.5105317
26	0x3f0e2178	0.5551982
27	0x3f070acb	0.52750844
28	0xbe8a7533	-0.2704254
29	0x3e30219a	0.17200318
30	0xbeccc8d9	-0.39996985
31	0x3f458a8f	0.7716455
32	0x3db52724	0.08845356
33	0xbe8182c6	-0.25295085
34	0x3ed99357	0.42495224
35	0x3edf2d04	0.43589032
36	0x3ee87b99	0.45406798
37	0x3e97032a	0.294946
38	0x3ec2ab22	0.3802119
39	0x3f0fef33	0.56224364
40	0x3f2288bf	0.6348991
41	0x3f26d716	0.65171945
42	0x3d6daa88	0.05802396
43	0x3e62855c	0.22121185
44	0x3eafb2f4	0.34316218
45	0xbd8fe9e6	-0.070270345
46	0xbdaad456	-0.08341281
47	0x3eaacdae	0.33360046
48	0xbe43daa7	-0.19126378
49	0x3f454322	0.7705556
50	0x3dd2e152	0.10296883
51	0xbe103e2c	-0.14086217
52	0xbf00a78a	-0.50255644
53	0xbe8f5306	-0.2799303
54	0xbdfd33ab	-0.123633705
55	0xbea3f6d8	-0.32024264
56	0x3e3c4c95	0.18388589
57	0x3ebd13ef	0.3692927
58	0x3cdfcca1	0.027319254
59	0xbe031d27	-0.1280409
60	0xbf3b1b61	-0.7308865
61	0xbd51dd10	-0.051236212
62	0x3d65a679	0.056066964
63	0x3e2c9b99	0.16856231

bn2.running_var f4 [64]
0	0x3e0bea32	0.13663557
1	0x3e640ba3	0.22270064
2	0x3e98defc	0.29857624
3	0x3f0266de	0.5093821
4	0x3e23ac11	0.15983607
5	0x3e684a79	0.22684659
6	0x3e5ba5f6	0.21450028
7	0x3e5c7041	0.21527196
8	0x3f37803d	0.7168005
9	0x3e9b2240	0.30299568
10	0x3e330dc9	0.17485727
11	0x3e8b2e0a	0.27183563
12	0x3e262250	0.16224027
13	0x3e891ba6	0.26778907
14	0x3e938c30	0.28817892
15	0x3ef79585	0.48356262
16	0x3e8fbc1d	0.28073207
17	0x3e82b18f	0.2552609
18	0x3e6565a9	0.22402062
19	0x3e052328	0.13001692
20	0x3e43f889	0.19137777
21	0x3e57d0c8	0.21075737
22	0x3e8d67ee	0.27618355
23	0x3e5911ff	0.21198271
24	0x3ea9c7dc	0.33160293
25	0x3e406d73	0.18791752
26	0x3ec73737	0.38909313
27	0x3eb1ef1e	0.34752744
28	0x3ea2fc03	0.31832895
29	0x3ea42eb3	0.3206688
30	0x3e65ce04	0.2244187
31	0x3e8be09e	0.27319807
32	0x3e67acde	0.22624537
33	0x3e207076	0.156679
34	0x3e2fd452	0.17170838
35	0x3e5358b0	0.206393
36	0x3e864849	0.26227024
37	0x3dce4ebb	0.100736104
38	0x3e604aaf	0.2190349
39	0x3e4cb088	0.19989216
40	0x3e8189d7	0.25300476
41	0x3e197515	0.1498607
42	0x3e8adec3	0.2712308
43	0x3e47b5ee	0.19502994
44	0x3e9847e0	0.29742336
45	0x3e7283aa	0.23683038
46	0x3e67e6f5	0.22646697
47	0x3e57e4ab	0.21083324
48	0x3e7926b9	0.24331178
49	0x3e5a0f58	0.21294916
50	0x3eb626b5	0.35576406
51	0x3ec701fc	0.388687
52	0x3ee0a2d6	0.43874234
53	0x3e8fdadd	0.28096667
54	0x3e957614	0.2919165
55	0x3e335157	0.17511497
56	0x3e4d0431	0.2002113
57	0x3e7a3af0	0.24436545
58	0x3ecdadf1	0.4017177
59	0x3e56b9f8	0.20969379
60	0x3e9ecb1f	0.31014344
61	0x3ea7bebd	0.3276271
62	0x3e73651f	0.23769043
63	0x3e8dfeda	0.277335

classifier.weight f4 [10, 64]
0	0x3d8689e8	0.06569272
1	0x3da6f3c1	0.08151961
2	0x3d7e74dd	0.06212317
3	0x3d8d3c8c	0.06896314
4	0x3dd3d83e	0.10343979
5	0xbd87a616	-0.06623475
6	0xbe113522	-0.14180425
7	0xbdaa1e47	-0.08306556
8	0x3e18bf57	0.1491674
9	0x3c8296e6	0.015941095
10	0xbd27b86c	-0.040947363
11	0x3daadcd0	0.08342898
12	0xbdaf9f76	-0.08575337
13	0x3d9cd057	0.07656925
14	0x3dbb9f16	0.091612026
15	0xbd6c1193	-0.057633948
16	0x3cc7e556	0.024401348
17	0xbdc88b0b	-0.09792145
18	0x3decb59e	0.11558078
19	0xbdc7aeef	-0.09750163
20	0xbd758213	-0.0599385
21	0x39a6aa0e	0.00031788688
22	0xbde7d234	-0.1131939
23	0xbd379d74	-0.044827893
24	0xbe0bc0e2	-0.13647798
25	0xbdee9fb3	-0.11651554
26	0x3e07db4f	0.13267253
27	0xbc92d43a	-0.017923463
28	0x3d4c4654	0.049871758
29	0xbe12c3eb	-0.1433255
30	0x3da3ecc7	0.08004146
31	0xbdb7575c	-0.08952209
32	0xbdbfb131	-0.093599685
33	0x3d7ddf57	0.06198057
34	0xbdc06574	-0.09394351
35	0xbd329e14	-0.043607786
36	0xbdd02356	-0.1016299
37	0x3dbee7e0	0.093215704
38	0x3e1d6f8f	0.15374587
39	0xbdffdc6d	-0.12493215
40	0xbd624edf	-0.055251
41	0xbe025b37	-0.12730108
42	0xbb94803a	-0.0045318874
43	0x3c6ee0de	0.01457998
44	0x3d789c22	0.060695775
45	0x3a4bd433	0.00077754556
46	0xbd1aeb4f	-0.037822064
47	0x3ddaa6f8	0.10676378
48	0x3cfd34d7	0.030908985
49	0xbbb215c7	-0.005434725
50	0x3c2c05fe	0.0104994755
51	0xbd6aaccd	-0.057293702
52	0xbd10251a	-0.035191633
53	0xbdac6ec8	-0.08419567
54	0xbd03ed2f	-0.032208618
55	0x3d8f5356	0.06998317
56	0xbd9d0900	-0.07667732
57	0xbc4f8fb9	-0.0126685435
58	0xbdf1d84a	-0.11808832
59	0x3da93cf5	0.0826358
60	0x3d884ade	0.06654905
61	0xbc776c51	-0.015101508
62	0xbdb7de14	-0.08977905
63	0xbdaf70fa	-0.085664704
64	0x3bb266df	0.005444392
65	0xbd2ad4f7	-0.041707005
66	0xbdffb1e2	-0.124851
67	0xbdb88d04	-0.090112716
68	0x3e1f8f98	0.1558212
69	0x3e1752ac	0.1477763
70	0xbe057187	-0.13031588
71	0x3c6631c4	0.014049951
72	0x3d89c2e1	0.06726623
73	0x3dbe6350	0.09296286
74	0x3de6fe0c	0.11278924
75	0x3d7d9e8b	0.061918776
76	0x3da8f21e	0.08249305
77	0xbd5ef98e	-0.054437213
78	0xbd7466df	-0.059668418
79	0x3bbb050f	0.00570739
80	0x3c8ebcda	0.017424036
81	0xbdb41b8a	-0.08794315
82	0x3d4b71b1	0.04966897
83	0x39e5c687	0.00043826198
84	0x3dbda117	0.09259241
85	0x3d00be1e	0.03143131
86	0xbddba5a1	-0.107249506
87	0x3daf336b	0.08554729
88	0x3d892eec	0.06698403
89	0x3dc67c1d	0.096916415
90	0xbc1d59ae	-0.009603901
91	0xbc57fe77	-0.013183228
92	0x3e2311c4	0.15924746
93	0x3d2841ea	0.041078486
94	0xbd0acf22	-0.033888943
95	0xbda1b484	-0.07895759
96	0xbd65c12e	-0.056092434
97	0xbd482230	-0.04886073
98	0xbd52dd0b	-0.051480334
99	0x3dafd6c7	0.085858874
100	0x3d793948	0.060845643
101	0xbab622af	-0.0013895835
102	0x3d6e6cf1	0.058209363
103	0xbdeeb52f	-0.11655652
104	0xbda230e9	-0.07919485
105	0xbd50d95f	-0.05098855
106	0xbddd5582	-0.10807325
107	0x3d7ecbb0	0.06220597
108	0xbc4389bd	-0.011934695
109	0x3d0be9e8	0.034158617
110	0xbd126a4d	-0.035745908
111	0x3c800312	0.015626464
112	0x3d343a51	0.044000927
113	0xbd6ce5f4	-0.057836488
114	0xbdada567	-0.084788136
115	0xbd8493e1	-0.06473518
116	0xbda06e2d	-0.07833514
117	0x3c4b7a24	0.012419257
118	0x3d8f623d	0.07001159
119	0x3dd3f1e7	0.103488736
120	0xbcf778bd	-0.03020894
121	0x3e0d06a0	0.13772058
122	0x3b7aa064	0.0038242573
123	0x3ce5c1e9	0.028046565
124	0x3d44c057	0.048034992
125	0x3d3a5c79	0.045498345
126	0xbd1e086f	-0.03858226
127	0x3d0b36d9	0.033987854
128	0xbb4a01a7	-0.0030823739
129	0x3d9654f0	0.07340419
130	0x3ded8b0b	0.11598786
131	0xba1a3799	-0.00058829185
132	0xbd89d2fe	-0.06729697
133	0xbcf86e04	-0.030325897
134	0xbd61ae91	-0.05509812
135	0xbdfdd451	-0.12394012
136	0x3d401c4b	0.046901982
137	0x3d5484b3	0.051884364
138	0x3d05799f	0.03258669
139	0xbdfd6068	-0.12371904
140	0xbdabc681	-0.08387471
141	0xbdcaa8c7	-0.09895473
142	0xbae76b7a	-0.0017655932
143	0xbd1a40d6	-0.03765949
144	0x3cefb574	0.029261328
145	0x3d5ce566	0.05392971
146	0x3e0a53f1	0.13508584
147	0x3de64e7e	0.1124544
148	0xbdc76e60	-0.09737849
149	0x3d92234e	0.0713564
150	0xbd66640e	-0.056247763
151	0xbd1577a2	-0.036491044
152	0x3dd359b2	0.103198424
153	0x3cb1c678	0.021701083
154	0x3d2d345c	0.042286262
155	0xbc71dc95	-0.0147620635
156	0xbe08d3ad	-0.13361998
157	0xbd9fe8ba	-0.07808061
158	0x3dc1a7b6	0.094558164
159	0xbda9afcb	-0.08285483
160	0xbda830eb	-0.08212455
161	0x3cff793f	0.031185744
162	0xbde5012d	-0.11181865
163	0xbd96c929	-0.07362587
164	0x3d8383bc	0.06421611
165	0x3dd6f64a	0.10496195
166	0xbe00963b	-0.12557308
167	0xbd852b25	-0.0650237
168	0xbd912e97	-0.070889644
169	0x3ca87c38	0.020567045
170	0xbdbc526a	-0.09195407
171	0x3dc35d67	0.095392995
172	0x3e06d833	0.13168411
173	0x3d77672c	0.060401127
174	0x3d3ea6b0	0.046545684
175	0xbd66dee4	-0.05636491
176	0xbd308c75	-0.0431027
177	0x3d307f15	0.043089945
178	0x3de76a3d	0.1129956
179	0xbdf8f5c9	-0.12156255
180	0xbd559186	-0.052140735
181	0x3e0948a8	0.13406622
182	0x3dd1c49a	0.10242577
183	0x3c9721dc	0.018448763
184	0xbd5a06dd	-0.0532292
185	0xbdcd70b1	-0.1003126
186	0xbd9ba8ef	-0.07600581
187	0xbde5b0da	-0.112153724
188	0xbd8bd29b	-0.06827279
189	0x3d71e3b9	0.059055064
190	0xbdc34064	-0.09533766
191	0x3b2f9cbf	0.0026796309
192	0xbdc5c639	-0.096569486
193	0xbd1ee4a6	-0.038792275
194	0x3b43d4d5	0.0029881496
195	0x3df0ed1f	0.11763977
196	0x3c56d871	0.013113127
197	0x3d5aa76c	0.053382322
198	0xbde1fc33	-0.11034431
199	0x3dcc72f2	0.099828616
200	0x3c4be584	0.0124448575
201	0x3bc67123	0.0060559674
202	0x3dd92c96	0.10604207
203	0xbd4f5761	-0.05062044
204	0x3daeb6d3	0.08530965
205	0x3cfe573f	0.031047462
206	0xbdaec66c	-0.0853394
207	0x3d882843	0.06648304
208	0x3d5ca2ff	0.053866383
209	0xbcd1c33a	-0.025605787
210	0xbd63cf50	-0.05561763
211	0xbc6dcb2f	-0.014513775
212	0x3d480fb8	0.048843116
213	0x3d9279eb	0.0715216
214	0xbb0ea4d8	-0.0021765735
215	0xbbf90b0b	-0.0076001934
216	0xbd9d08d7	-0.07667702
217	0x3b4017a5	0.0029310968
218	0xbb2b3966	-0.0026126741
219	0x3dfc3074	0.12313929
220	0xbdf34fb4	-0.118804365
221	0x3ca80a23	0.020512646
222	0xbdc03de8	-0.09386808
223	0x3d177b47	0.0369828
224	0x3d7f8cbe	0.06239008
225	0xbd95b42d	-0.073097564
226	0x3ddaacfe	0.10677527
227	0xbd907b95	-0.070548214
228	0x3daaa83d	0.0833287
229	0x3c2414d4	0.010014731
230	0xbd106ce6	-0.035260104
231	0xbc40d948	-0.011770554
232	0x3e0b1212	0.13581112
233	0x3cbae799	0.022815512
234	0xbc8ae335	-0.016954044
235	0x3d8c7e86	0.0686007
236	0xbd95b9d3	-0.07310834
237	0x3dfce885	0.12349037
238	0xbdf3ccf1	-0.11904324
239	0x3db2a1c0	0.087222576
240	0xbd3b45cc	-0.04572086
241	0xbda0fa3d	-0.07860229
242	0x3cb6a61d	0.022296006
243	0xbde2af87	-0.110686354
244	0x3db622bc	0.08893344
245	0x3df087fb	0.11744686
246	0xbd7f2a86	-0.062296413
247	0xbc9ad63f	-0.018900989
248	0x3acddc57	0.0015705925
249	0xbc692481	-0.014229895
250	0x3e0369f8	0.12833393
251	0x3d004bc2	0.03132225
252	0xbe0561a1	-0.13025524
253	0x3d70d1e2	0.05879391
254	0xbd9fdcb2	-0.07805766
255	0xbc02118b	-0.007938753

classifier.bias f4 [10]
0	0x3d64bc07	0.05584338
1	0x3cdab7b1	0.026698919
2	0x3d23f30e	0.040026717
3	0x3dc24625	0.09486035
4	0xbc2c6efd	-0.010524509
5	0x3cd065d3	0.025439179
6	0xbd4645fc	-0.048406586
7	0x3d1add4a	0.037808694
8	0xbd3871d2	-0.045030423
9	0x3cd1cda7	0.025610758
