checkpoints/checkpoint_epoch_60.pt (torch, 547720 bytes, 37 tensors)

prototypes f4 [100, 64]
0.14174917 -0.2730914 -0.09942656 2.2148147 -0.637671 0.70200986 0.20074233 -0.87850815
0.07691763 2.9530847 -1.0077515 -0.9665978 -0.56077045 -1.028882 -0.66173345 1.6565921
-0.7415468 0.39235356 0.98632026 1.5410175 -2.1932964 -0.18687376 -0.42166838 0.14650354
0.26419863 0.2564841 0.22800785 0.7664981 -0.5011795 0.58505917 -0.4084638 0.3021983
-1.8814335 1.4931027 -0.35443258 0.2511561 -0.27024764 -0.82691455 0.88881254 -1.9222809
-0.4793715 0.049145646 1.170032 0.43734935 1.2217389 -0.17037313 -0.24693361 0.22100969
1.8906684 -0.45933723 0.22657785 -0.5781715 -0.685489 -0.8139353 -0.6029197 0.5307169
1.2913352 -0.26250935 0.1067442 -1.89546 -0.22041349 0.87729543 -0.29484406 1.3552718
-0.05479437 1.8095138 -1.1190594 0.1489389 -1.2994094 -0.90404767 -0.41943774 0.04055696
-0.44145828 -0.13279048 0.13323669 0.98178124 0.020118425 0.8503387 -1.0065421 -0.28102311
0.53551316 0.77195644 -0.8249327 -0.5165475 0.35536844 -1.9934083 0.8797675 0.464756
-1.2092162 1.7682285 -1.531684 -0.20626712 1.6631894 0.47693762 0.6067177 -0.5005156
1.0157969 -1.0626397 -1.8044835 -0.16418156 1.3650881 -0.9616164 -0.38616908 -0.41097736
-1.1667045 -1.2524822 -0.0071718465 -0.43901867 -1.2279563 0.14545405 0.38081816 1.8643649
-0.119066775 -0.26078707 -1.8795639 -1.0440111 -0.05544706 1.1175786 -0.13466462 0.5284295
-1.2843438 0.053644717 -1.352625 -0.65618974 -1.0336034 -0.88342535 -1.9688325 1.091822
0.46895358 -0.6672244 0.60937786 -1.8230323 0.46558753 0.531508 0.014739084 0.6150109
-1.4389734 0.0153610315 -0.68025166 0.13067426 1.5578899 0.014271146 -1.8615941 -0.5406
0.7894835 -1.8506887 1.1509295 0.028488437 0.10710617 -0.044688925 -0.8714712 3.203293
1.3659985 -0.32995802 0.3139274 -1.111841 -0.03566661 -0.87382495 1.1798955 -1.5933138
0.9919049 0.073394015 -2.1142719 0.858358 0.017204324 -0.74148285 -1.0660172 -2.021391
-0.0101377545 -0.9602061 1.0655571 -0.038039412 -1.2727847 -0.37145847 -0.36094618 1.998426
0.5997437 0.35235548 -0.575296 -1.8080542 -0.63896114 -0.09598355 -0.93703055 -0.5735108
-0.66454244 -0.95292205 -0.36243606 -1.0497646 -0.59552145 0.81377643 0.021977851 0.94715124
-0.09100465 1.3400694 0.24920292 1.2111452 0.34165126 2.094457 -0.49900827 0.25094146
3.4592035 1.9128406 -3.0170548 0.3914185 0.35528427 0.32971972 0.87249535 0.2065883
-1.4803766 -1.2616743 -1.7551478 0.40030897 0.72298884 -0.21743715 -0.26204294 0.4598459
0.5942334 -1.0143819 -0.9703497 -0.4086973 1.3876685 0.048274837 1.0827389 -0.5426331
0.86748403 1.8827453 -0.25113335 -1.1241432 -0.5114084 0.7892988 0.09172743 0.72180736
1.5232848 -1.3170397 0.4194863 0.72817934 -0.6558379 -2.1153498 0.3256119 0.5120049
-1.8340603 -0.64844984 -0.9184282 0.4693263 0.0065800133 0.45001727 0.6258556 -0.09199826
0.69176066 -0.9573859 -0.41744512 1.0272163 1.3364588 0.49966905 -1.5384469 -1.2512732
00000000: b226 113e a3d2 8bbe 27a0 cbbd 86bf 0d40
00000010: 683e 23bf ebb6 333f 668f 4d3e e9e5 60bf
00000020: fe86 9d3d 57ff 3c40 00fe 80bf f472 77bf
00000030: a78e 0fbf 68b2 83bf 5d67 29bf 360b d43f
00000040: 03d6 3dbf 91e2 c83e 7c7f 7c3f 1040 c53f
00000050: f85e 0cc0 d65b 3fbe ebe4 d7be 0605 163e
00000060: 0b45 873e e251 833e e47a 693e 3839 443f
00000070: 4d4d 00bf 70c6 153f 2b22 d1be bcb9 9a3e
00000080: d0d2 f0bf fd1d bf3f 3078 b5be 8897 803e
00000090: e65d 8abe acb0 53bf 3889 633f 4d0d f6bf
000000a0: 2e70 f5be f24c 493d 9cc3 953f 41ec df3e
000000b0: f161 9c3f 4b76 2ebe 2adc 7cbe 5d50 623e
000000c0: 6c01 f23f 402e ebbe 0604 683e 0c03 14bf
000000d0: 357c 2fbf 105e 50bf f258 1abf 10dd 073f
000000e0: 794a a53f a067 86be b49c da3d 6f9e f2bf
000000f0: 13b4 61be 6f96 603f cdf5 96be 8c79 ad3f
00000100: 1070 60bd 269e e73f 573d 8fbf 7083 183e
00000110: 0c53 a6bf ab6f 67bf 8bc0 d6be 0e1f 263d
00000120: d206 e2be 3afa 07be 336f 083e 0456 7b3f
00000130: 65cf a43c ccaf 593f 5fd6 80bf 43e2 8fbe
00000140: 6417 093f f09e 453f ca2e 53bf 753c 04bf
00000150: daf2 b53e 0128 ffbf 7138 613f 80f4 ed3e
00000160: 99c7 9abf 5055 e23f 390e c4bf b037 53be
00000170: 64e3 d43f 2b31 f43e da51 1b3f ca21 00bf
00000180: a205 823f 9404 88bf 51f9 e6bf 361f 28be
00000190: 35bb ae3f 7e2c 76bf f4b7 c5be a06b d2be
000001a0: 9356 95bf 5651 a0bf cf01 ebbb 0ec7 e0be
000001b0: ac2d 9dbf e8f1 143e 99fa c23e 82a3 ee3f
000001c0: 48d9 f3bd e285 85be 8d95 f0bf 28a2 85bf
000001d0: 751c 63bd d10c 8f3f 86e5 09be 2847 073f
000001e0: 6165 a4bf 90ba 5b3d d122 adbf 0dfc 27bf
000001f0: 1e4d 84bf 2a28 62bf b402 fcbf d3c0 8b3f
00000200: af1a f03e 38cf 2abf 3000 1c3f 1f59 e9bf
00000210: 7d61 ee3e e910 083f 337c 713c 5b71 1d3f
00000220: 4830 b8bf d6ac 7b3c f924 2ebf 79cf 053e
00000230: f068 c73f 86d1 693c b748 eebf c364 0abf
00000240: 971b 4a3f 5ee3 ecbf a851 933f 9560 e93c
00000250: 7b5a db3d bc0b 37bd bd18 5fbf c102 4d40
00000260: 0ad9 ae3f 42f0 a8be 18bb a03e ce50 8ebf
00000270: 2717 12bd feb2 5fbf d106 973f b5f1 cbbf
00000280: 7bed 7d3f 9a4f 963d 3b50 07c0 5abd 5b3f
00000290: 15f0 8c3c d2d1 3dbf 4073 88bf 785e 01c0
000002a0: d318 26bc 11d0 75bf 2d64 883f 37cf 1bbd
000002b0: 9cea a2bf ce2f bebe f0cd b8be 6ccc ff3f
000002c0: ce88 193f f067 b43e 9946 13bf 526e e7bf
000002d0: f592 23bf 0693 c4bd 3ce1 6fbf 9bd1 12bf
000002e0: 741f 2abf b3f2 73bf 3891 b9be b05e 86bf
000002f0: 1874 18bf a753 503f e50a b43c 8178 723f
00000300: a560 babd 6587 ab3f 0d2f 7f3e ce06 9b3f
00000310: eaec ae3e 950b 0640 037e ffbe 667b 803e
00000320: 9763 5d40 f6d7 f43f 6d17 41c0 0168 c83e
00000330: d2e7 b53e 06d1 a83e db5b 5f3f e28b 533e
00000340: fb7c bdbf 8b7e a1bf afa8 e0bf 4cf5 cc3e
00000350: cc15 393f d8a7 5ebe 7e2a 86be ec70 eb3e
00000360: ae1f 183f 44d7 81bf d768 78bf c640 d1be
00000370: 1f9f b13f d6bb 453d 3097 8a3f 01ea 0abf
00000380: 6f13 5e3f ccfd f03f 8d94 80be ede3 8fbf
00000390: a9eb 02bf 7c0f 4a3f 97db bb3d 5ec8 383f
000003a0: fffa c23f c294 a8bf e9c6 d63e f669 3a3f
000003b0: fee4 27bf e461 07c0 9ab6 a63e c112 033f
000003c0: 7dc2 eabf cf00 26bf 1c1e 6bbf 894b f03e
000003d0: 279d d73b aa68 e63e 1338 203f 9569 bcbd
000003e0: 3a17 313f 3e17 75bf 5ebb d5be d37b 833f
000003f0: 1511 ab3f 9fd4 ff3e d4eb c4bf b829 a0bf

conv1.bias f4 [64]
-3.3956247e-05 -6.640306e-06 7.689279e-05 -8.2504055e-05 -3.1976033e-05 2.5294099e-05 -0.00019095694 1.2200164e-05
-0.00019525737 -7.0171176e-05 -6.0957726e-05 0.00018824065 -5.5636287e-06 3.304832e-05 9.415458e-05 7.309558e-05
-2.5009078e-05 -6.594047e-05 0.00010242857 -0.00012865859 -8.9567286e-05 -2.9251685e-05 0.0002253192 -2.5147538e-05
0.00024631273 0.00015477597 5.9290865e-05 6.483342e-06 4.803698e-05 -4.859205e-06 -0.00019246244 0.0001268764
0.00018317193 4.4770874e-05 -4.6957985e-06 0.00015620753 -7.345412e-05 -6.439314e-05 -3.2312993e-05 9.483322e-05
2.7393417e-05 0.0001927205 -4.9927577e-05 4.04153e-05 8.000558e-06 3.381053e-05 -0.00013059803 -0.0001116174
-5.4147484e-05 2.6298263e-05 0.00012695065 3.356599e-05 -0.00013700218 -9.113321e-05 1.8458786e-05 -0.00026322674
-0.00013813197 -0.0001381746 -6.40337e-05 -2.7219578e-05 0.00010054006 -5.7089932e-05 0.00036576658 -4.934872e-06
00000000: 3e6c 0eb8 cbcf deb6 8141 a138 0706 adb8
00000010: 011e 06b8 aa2e d437 9d3b 48b9 4eaf 4c37
00000020: 00be 4cb9 dd28 93b8 dcac 7fb8 7762 4539
00000030: 35af bab6 5d9d 0a38 db74 c538 e44a 9938
00000040: 96ca d1b7 8549 8ab8 ebce d638 87e8 06b9
00000050: 12d6 bbb8 8461 f5b7 aa43 6c39 edf3 d2b7
00000060: 8923 8139 5c4b 2239 15af 7838 7c8b d936
00000070: 517b 4938 410c a3b6 becf 49b9 200a 0539
00000080: d711 4039 5cc8 3b38 9a90 9db6 a4cb 2339
00000090: 610b 9ab8 ce0a 87b8 d087 07b8 33e1 c638
000000a0: eaca e537 0415 4a39 5469 51b8 9983 2938
000000b0: 233a 0637 c8cf 0d38 24f1 08b9 2314 eab8
000000c0: 6b1c 63b8 179b dc37 0e1e 0539 35c9 0c38
000000d0: 3ea8 0fb9 c51e bfb8 f1d7 9a37 b201 8ab9
000000e0: 85d7 10b9 f6e2 10b9 d549 86b8 9955 e4b7
000000f0: 09d9 d238 d973 6fb8 5cc4 bf39 3a96 a5b6

conv1.lin.weight f4 [64, 512]
-0.021673454 -0.031715795 -0.05686336 -0.0415489 -0.07128698 -0.09485985 0.030646656 -0.0318389
0.02346505 0.042844836 -0.02271346 0.014836958 -0.037584372 -0.10088162 0.012071954 -0.069588065
-0.09575143 -0.03899364 -0.030993402 0.041031398 -0.044356395 0.07186572 0.004392322 -0.003220115
0.003076796 -0.05813777 -0.10664471 -0.08929428 -0.023217289 0.012054429 0.03159856 -0.0019592515
0.104757935 0.018893098 0.047963817 -0.0138089135 -0.05075868 -0.037359156 0.09480904 0.04966249
0.014078105 -0.03957823 -0.01872393 0.015879633 0.07885936 -0.0069194557 -0.08741216 0.020876525
-0.050688285 -0.022274721 -0.092092 0.050616868 0.07074956 -0.0051131193 0.053628042 -0.07366275
-0.065552205 0.050431766 -0.055569936 -0.06729626 0.057598677 -0.11049297 -0.013049414 -0.016048122
0.05919361 0.03541541 -0.049243055 -0.04039828 0.062058266 0.047641784 0.004761277 -0.009950593
0.027887048 -0.0055839005 -0.07025868 -0.032343805 0.0398338 0.0384702 -0.07963053 -0.03914041
-0.086866885 -0.004908259 0.009398775 -0.014455821 -0.0298677 0.013673491 0.11120236 0.0035477376
0.022707425 -0.01267643 0.035972152 -0.11174861 0.06277295 -0.036477722 -0.060516536 -0.053296596
0.0913568 -0.0052897464 0.046647456 0.067326985 0.09502916 0.011221418 0.021366918 0.0907937
0.09999507 0.0573581 0.057541143 0.037659004 -0.032404598 0.024653107 0.01911849 0.03451722
-0.06629716 0.030645812 -0.0527793 -0.020064903 -0.012826542 0.087829374 0.08452692 -0.07056265
-0.044371266 0.06728539 -0.030881504 -0.053955574 0.054929335 0.09681026 -0.053911038 -0.029470498
0.10234602 -0.0104699 -0.08075168 0.04724712 0.0743825 -0.06738169 -0.04161541 0.011280223
-0.08576101 -0.02538297 0.0045963596 0.03231144 -0.063200325 -0.018424047 -0.051190656 -0.058639847
0.004659641 -0.023435703 0.037429944 -0.016774751 0.09667963 -0.03191065 0.08158051 -0.0804692
0.062471006 0.04601968 0.04934112 0.07549695 0.04266052 -0.08230747 -0.0131870825 0.101719946
0.030585414 -0.06028183 0.018652182 0.023451945 0.099555925 0.091604725 -0.048259873 0.031041028
0.00080824655 -0.042640314 0.08178697 -0.048060115 0.060443535 -0.015052879 0.00043623665 0.037583455
-0.07825952 -0.035000045 -0.09688591 0.003035017 0.057180583 -0.09111429 -0.030303212 -0.02761042
0.01769201 0.056318585 0.093260325 -0.0135067515 -0.037186377 0.09738491 -0.040519614 0.015052391
-0.00664205 0.057360742 0.093268916 -0.09495105 0.048691146 -0.07282692 0.029262573 -0.02012972
-0.0061493786 -0.030325262 -0.08903598 0.027244687 -0.01765397 -0.034522284 0.08996959 -0.01790135
-0.03492612 -0.042013973 0.04714039 0.008041933 -0.0001192868 -0.058082808 -0.098626934 -0.09347863
-0.024594946 0.06091465 0.07263606 -0.026739355 0.08645603 -0.09825944 -0.05982955 0.018357705
-0.01751462 -0.07307494 0.0217978 -0.040326156 0.045213312 0.08191596 -0.0015604596 -0.06464639
-0.046608824 0.051523313 -0.017467475 -0.026192361 0.008221686 -0.09365516 -0.118544556 -0.019849077
0.07750634 0.024278425 0.06728038 -0.110426255 -0.042660613 0.02068231 -0.049696922 -0.10276764
0.071260914 -0.04981524 -0.085964 0.035452627 -0.11292467 0.10653269 0.01807466 0.038592536
00000000: 878c b1bc 6ce8 01bd 8ee9 68bd 2e2f 2abd
00000010: e8fe 91bd e245 c2bd b20e fb3c 8269 02bd
00000020: c739 c03c 117e 2f3d 9411 babc b616 733c
00000030: 12f2 19bd 069b cebd 72c9 453c 3084 8ebd
00000040: 5319 c4bd ccb7 1fbd e0e5 fdbc 8a10 283d
00000050: 0daf 35bd 562e 933d 78ed 8f3b 9108 53bb
00000060: 12a4 493b df21 6ebd 8b68 dabd ebdf b6bd
00000070: 2f32 bebc f17f 453c 7e6d 013d c966 00bb
00000080: 548b d63d b3c5 9a3c b575 443d c83e 62bc
00000090: 55e8 4fbd ea05 19bd 3e2b c23d e56a 4b3d
000000a0: daa7 663c c81c 22bd ed62 99bc 0116 823c
000000b0: 0481 a13d 9abc e2bb 2605 b3bd 3f05 ab3c
000000c0: 859e 4fbd 7a79 b6bc bb9a bcbd a253 4f3d
000000d0: 25e5 903d f48b a7bb 14a9 5b3d 7fdc 96bd
000000e0: 3c40 86bd 8a91 4e3d 4d9d 63bd 9fd2 89bd
000000f0: 97ec 6b3d 234a e2bd 36cd 55bc 5a77 83bc
00000100: 0075 723d c00f 113d 16b3 49bd ab78 25bd
00000110: cf30 7e3d 0824 433d 7d04 9c3b d007 23bc
00000120: 6173 e43c 27f9 b6bb c8e3 8fbd f07a 04bd
00000130: c428 233d ee92 1d3d 5515 a3bd b251 20bd
00000140: 44e7 b1bd 76d5 a0bb 52fd 193c 1cd8 6cbc
00000150: 1bad f4bc c706 603c 10be e33d 2981 683b
00000160: ec04 ba3c cdb0 4fbc 8957 133d 75dc e4bd
00000170: 1b8f 803d aa69 15bd 30e0 77bd 884d 5abd
00000180: 4619 bb3d 9c55 adbb 6711 3f3d bbe2 893d
00000190: a69e c23d 0ada 373c ad09 af3c 0cf2 b93d
000001a0: 37ca cc3d 54f0 6a3d 43b0 6b3d 5440 1a3d
000001b0: afba 04bd 50f5 c93c 619e 9c3c ee61 0d3d
000001c0: cec6 87bd ed0c fb3c 1b2f 58bd 275f a4bc
000001d0: 6b26 52bc e3df b33d 731c ad3d 2783 90bd
000001e0: a5be 35bd eccc 893d 35fb fcbc 8500 5dbd
000001f0: 95fd 603d 7544 c63d d2d1 5cbd 1d6c f1bc
00000200: ca9a d13d f289 2bbc 2361 a5bd 3286 413d
00000210: da55 983d 69ff 89bd ec74 2abd afd0 383c
00000220: 78a3 afbd f2ef cfbc 0f9d 963b 0059 043d
00000230: 2c6f 81bd 07ee 96bc 4bad 51bd 5630 70bd
00000240: e7af 983b 3bfc bfbc 2450 193d 346b 89bc
00000250: f8ff c53d beb4 02bd af13 a73d 09cd a4bd
00000260: 99e1 7f3d 227f 3c3d ea19 4a3d 259e 9a3d
00000270: ccbc 2e3d d290 a8bd a20e 58bc 8c52 d03d
00000280: 438e fa3c 15ea 76bd 76cc 983c 4b1e c03c
00000290: fae3 cb3d 429b bb3d 25ac 45bd c149 fe3c
000002a0: 82e0 533a 9ca7 2ebd ed7f a73d afda 44bd
000002b0: a493 773d 5aa0 76bc b1b6 e439 1cf1 193d
000002c0: 8746 a0bd 355c 0fbd 1f6c c6bd 23e7 463b
000002d0: 3036 6a3d 219a babd 713e f8bc 3f2f e2bc
000002e0: d6ee 903c 51ae 663d 45ff be3d 6c4b 5dbc
000002f0: be50 18bd bd71 c73d e5f7 25bd 4e9e 763c
00000300: 8ea5 d9bb 19f3 6a3d c603 bf3d b275 c2bd
00000310: 5e70 473d 4826 95bd 10b8 ef3c 15e7 a4bc
00000320: ba80 c9bb af6c f8bc 7f58 b6bd 4030 df3c
00000330: 0f9f 90bc 3d67 0dbd fa41 b83d daa5 92bc
00000340: b10e 0fbd d816 2cbd 4816 413d 50c2 033c
00000350: 9d29 fab8 3de8 6dbd ebfc c9bd b971 bfbd
00000360: 577b c9bc a481 793d 37c2 943d 7e0c dbbc
00000370: dc0f b13d 3f3c c9bd d50f 75bd e662 963c
00000380: d27a 8fbc 50a8 95bd 4d91 b23c 0a2d 25bd
00000390: 9831 393d 8ec3 a73d 5688 ccba 5465 84bd
000003a0: e5e8 3ebd 1c0a 533d f317 8fbc 5d91 d6bc
000003b0: 40b4 063c 47ce bfbd 7dc7 f2bd 889a a2bc
000003c0: a5bb 9e3d 8ce3 c63c 4cca 893d 2927 e2bd
000003d0: e5bc 2ebd f36d a93c 008f 4bbd d777 d2bd
000003e0: 3ef1 913d 110b 4cbd e50d b0bd c636 113d
000003f0: 0d45 e7bd d02d da3d 4f11 943c 3513 1e3d

conv2.bias f4 [64]
0.0003974315 0.00019799997 -0.00016694661 4.942451e-05 -2.7327093e-05 0.00027689553 -1.376713e-06 2.213628e-05
-0.00016314378 2.2186261e-05 1.5014686e-05 -2.1770362e-05 5.7639107e-05 0.00017993424 -3.973556e-05 -1.78884e-05
-8.0500984e-05 -2.8584338e-05 -0.000349398 0.00017401474 9.1087924e-05 1.3527956e-06 6.249822e-05 6.886456e-05
0.000118014235 0.00038151402 -0.0002786554 -6.2935405e-06 0.00011811444 1.2480974e-05 0.0002592932 -1.7208979e-05
3.6430953e-05 3.180463e-05 0.00012656672 -2.9424931e-05 0.00022424234 0.0020947722 -9.8539465e-05 0.00013374565
5.3623928e-05 -0.00036713015 -5.631002e-06 -0.00015269402 -5.3367316e-05 0.000116055184 -0.0002993013 -0.00038955422
4.0318948e-05 0.00055393664 3.371688e-05 -5.0367875e-05 0.00015511246 9.282488e-06 -1.6364247e-05 8.8464025e-05
4.650484e-05 -7.7208584e-05 -4.2864107e-05 2.7974438e-05 -0.00014436616 -5.8472224e-06 1.8027236e-05 2.8042132e-05
00000000: 5a5e d039 369e 4f39 640e 2fb9 2a4d 4f38
00000010: 7c3c e5b7 4a2c 9139 80c7 b8b5 4db1 b937
00000020: 9311 2bb9 a21c ba37 96e7 7b37 7f9f b6b7
00000030: 85c1 7138 bbac 3c39 bca9 26b8 0c0f 96b7
00000040: a3d2 a8b8 66c8 efb7 682f b7b9 ba77 3639
00000050: 7506 bf38 b491 b535 7a11 8338 616b 9038
00000060: 697e f738 f205 c839 7f18 92b9 1a2d d3b6
00000070: 35b4 f738 6065 5137 bff1 8739 005c 90b7
00000080: 70cd 1838 f665 0538 ffb6 0439 8fd5 f6b7
00000090: 9822 6b39 7248 093b f9a6 ceb8 133e 0c39
000000a0: 41ea 6038 607b c0b9 f0f1 bcb6 7d1c 20b9
000000b0: b8d6 5fb8 a762 f338 8aeb 9cb9 153d ccb9
000000c0: 241c 2938 0f36 113a 396b 0d38 1842 53b8
000000d0: afa5 2239 fbbb 1b37 f445 89b7 c385 b938
000000e0: 310e 4338 0beb a1b8 fcc8 33b8 a6aa ea37
000000f0: ff60 17b9 4233 c4b6 3239 9737 053c eb37

conv2.lin.weight f4 [64, 64]
0.035169788 -0.16495216 0.009156485 0.13527237 0.097725786 0.15183838 0.1538015 0.078322396
0.023162149 0.18933006 -0.11854804 -0.12665783 -0.18165007 -0.030711662 -0.013682816 0.24314326
-0.19151525 -0.03361113 0.090599634 0.109100886 0.25549605 -0.06429481 -0.17633288 -0.038410693
0.09376639 0.17075905 0.10216395 -0.17351152 -0.07189849 0.14452845 -0.016475497 -0.043287512
0.111684695 -0.0693661 0.071630344 -0.06469886 0.032558233 0.018168386 0.15110573 0.10066853
-0.15154871 0.1068525 0.024491847 0.070987105 0.1209565 -0.12572819 0.13949615 0.048295066
0.080676824 0.104909934 -0.17260514 -0.09394433 -0.025005156 0.08009652 -0.10969313 0.050647274
-0.039751235 0.18104763 0.10683344 -0.13357936 0.0902081 0.09068411 0.25994456 0.13068366
0.12693919 0.18417816 -0.09706299 0.17690694 -0.1581997 -0.09834308 0.1256191 -0.09022583
-0.09783222 -0.15502805 0.21868764 0.17642613 0.05598046 -0.25129062 0.17246364 -0.21432328
0.029189346 -0.1816432 0.00097606285 -0.08793586 -0.13665098 0.10870006 -0.17442201 0.07705133
-0.14743513 0.06345789 -0.04700859 -0.011356639 0.0136525 -0.23806512 0.018314267 0.10004818
-0.018038925 0.062563024 0.08019141 -0.22712319 -0.10297342 -0.07633282 0.20309828 -0.012161559
0.16414766 0.0236712 -0.07888731 0.015046765 0.018155208 -0.14357316 0.14882177 -0.069944166
0.11497464 -0.07024965 0.0046653403 -0.18632735 -0.04283065 -0.032792628 0.11505221 -0.0088704415
0.1243872 -0.08431483 -0.048837364 -0.017533226 0.12707992 -0.063959025 -0.15724981 -0.047715183
-0.0007374406 0.03666033 0.13569361 0.102760114 -0.1118326 0.10739052 -0.082073435 0.04986681
-0.037690926 -0.08716138 -0.1552025 -0.124820806 -0.011522087 0.026403584 -0.041417453 0.21692067
-0.1755556 -0.07976309 -0.14257267 0.1074109 -0.004757459 -0.20924778 0.15311325 0.111539885
0.11152215 0.19779497 0.008656786 -0.17799394 -0.11832166 0.02258852 0.19483864 -0.16079539
-0.101327375 0.070428945 -0.23594348 0.21151865 0.012106299 -0.12468795 -0.11683545 0.063553326
0.052964244 0.15414539 0.19848287 -0.036129773 0.2543391 0.059150487 0.106929496 0.069687895
0.00612067 0.16645756 -0.20203103 -0.16624959 -0.12660354 0.038662404 -0.15035498 0.24359585
-0.07153296 0.1085817 0.09541471 0.09891871 -0.08597305 -0.03365196 0.24377261 -0.08610517
-0.19905627 0.013907275 -0.120860994 -0.24641982 0.115594804 0.10117595 0.20750664 0.21589488
-0.02412832 0.043234874 -0.08847037 0.10469994 -0.053495858 -0.07280181 -0.16634066 0.19673726
-0.013289706 0.19241336 -0.11186215 0.10802901 -0.07769639 0.036005702 0.11186077 0.0741572
-0.018047009 0.08840564 0.18436308 0.105751954 0.13590792 -0.16263066 -0.09175976 -0.21720788
0.0583127 0.1156911 0.07413002 0.02017386 0.031151056 -0.24634516 0.12760712 0.11357523
0.13856325 0.12845244 -0.11193469 0.022438783 0.07354908 -0.040757004 -0.2490044 -0.16350555
0.07742561 0.028931456 -0.049870595 0.10312556 -0.24761857 0.22402796 0.15136217 0.15000018
-0.059268173 -0.04782307 0.052575752 0.15504596 0.12158587 0.18119198 -0.23819122 -0.032570794
00000000: 320e 103d 38e9 28be 1505 163c d784 0a3e
00000010: 7524 c83d 857b 1b3e 247e 1d3e 7e67 a03d
00000020: 8cbe bd3c bddf 413e 51c9 f2bd 97b2 01be
00000030: 7a02 3abe 0697 fbbc e42d 60bc 8cfa 783e
00000040: 931c 44be d3ab 09bd 4d8c b93d 4970 df3d
00000050: 61d0 823e ffac 83bd 9b90 34be 8854 1dbd
00000060: 9808 c03d 76db 2e3e 553b d13d 01ad 31be
00000070: 843f 93bd 44ff 133e 9ff7 86bc 3f4e 31bd
00000080: f2ba e43d d00f 8ebd eeb2 923d d680 84bd
00000090: c85b 053d ded5 943c 76bb 1a3e 4d2b ce3d
000000a0: 962f 1bbe 7cd5 da3d 20a3 c83c b061 913d
000000b0: 0bb8 f73d e4be 00be 14d8 0e3e 0cd1 453d
000000c0: e439 a53d 05db d63d 67bf 30be e365 c0bd
000000d0: 9dd7 ccbc a509 a43d cba6 e0bd 8473 4f3d
000000e0: 31d2 22bd 8d64 393e 7ecb da3d 07c9 08be
000000f0: 06bf b83d 97b8 b93d 7417 853e f0d1 053e
00000100: 59fc 013e 3399 3c3e f6c8 c6bd 1827 353e
00000110: 1aff 21be 1968 c9bd 4ba2 003e 52c8 b8bd
00000120: 425c c8bd acbf 1ebe a7ef 5f3e 0da9 343e
00000130: c44b 653d 2aa9 80be 4f9a 303e 9077 5bbe
00000140: 7f1e ef3c ad00 3abe 78de 7f3a b717 b4bd
00000150: 3cee 0bbe 239e de3d af9b 32be 16cd 9d3d
00000160: 3cf9 16be 36f6 813d 148c 40bd 3211 3abc
00000170: bcae 5f3c 58c7 73be cd07 963c 0fe6 cc3d
00000180: 5ec6 93bc 0b21 803d 653b a43d fb92 68be
00000190: bae3 d2bd 6254 9cbd fff8 4f3e 4741 47bc
000001a0: 5316 283e 1bea c13c ac8f a1bd b586 763c
000001b0: 3bba 943c d804 13be bc64 183e e33e 8fbd
000001c0: d377 eb3d 0cdf 8fbd b6df 983b 99cc 3ebe
000001d0: 316f 2fbd 9051 06bd 7ea0 eb3d 5455 11bc
000001e0: b7be fe3d 41ad acbd b009 48bd d7a1 8fbc
000001f0: 3d21 023e f3fc 82bd 1806 21be ff70 43bd
00000200: cd50 41ba 2429 163d 44f3 0a3e e573 d23d
00000210: 7d08 e5bd 90ef db3d 1e16 a8bd 2441 4c3d
00000220: cd61 1abd aa81 b2bd 67ed 1ebe 0da2 ffbd
00000230: 23c7 3cbc 544c d83c 59a5 29bd 7420 5e3e
00000240: d9c4 33be d55a a3bd 92fe 11be 3ffa db3d
00000250: 75e4 9bbb 0d45 56be b8c9 1c3e 066f e43d
00000260: ba65 e43d c48a 4a3e 31d5 0d3c 0b44 36be
00000270: a052 f2bd 8f0b b93c c883 473e 8ca7 24be
00000280: ba84 cfbd 0d3d 903d 2b9b 71be 5898 583e
00000290: 8059 463c 655c ffbd 6d47 efbd 3f28 823d
000002a0: 09f1 583d 4ad8 1d3e 183f 4b3e d0fc 13bd
000002b0: bc38 823e c847 723d dafd da3d 87b8 8e3d
000002c0: e78f c83b da73 2a3e 39e1 4ebe 553d 2abe
000002d0: 5ca4 01be 785c 1e3d a8f6 19be 3171 793e
000002e0: df7f 92bd 1560 de3d ca68 c33d e595 ca3d
000002f0: a312 b0bd a3d6 09bd 879f 793e e857 b0bd
00000300: 68d5 4bbe 57db 633c f885 f7bd 7a55 7cbe
00000310: f8bc ec3d 5635 cf3d 9f7c 543e 8c13 5d3e
00000320: c1a8 c5bc 0d17 313d f42f b5bd ec6c d63d
00000330: 791e 5bbd 1e19 95bd 3555 2abe 7e75 493e
00000340: 11bd 59bc 0208 453e fc17 e5bd 503e dd3d
00000350: 491f 9fbd b77a 133d 4217 e53d bbdf 973d
00000360: 52d7 93bc 040e b53d adc9 3c3e 7b94 d83d
00000370: 722b 0b3e a788 26be 8bec bbbd be6b 5ebe
00000380: 4cd9 6e3d 75ef ec3d 7bd1 973d a743 a53c
00000390: 8030 ff3c e841 7cbe 71ab 023e 219a e83d
000003a0: 86e3 0d3e 0989 033e 043e e5bd 8ad1 b73c
000003b0: e6a0 963d d1f0 26bd 02fb 7ebe 006e 27be
000003c0: 5191 9e3d a901 ed3c 1c45 4cbd 7e33 d33d
000003d0: b98f 7dbe 9667 653e affe 1a3e a699 193e
000003e0: 2fc3 72bd 20e2 43bd ac59 573d 5ec4 1e3e
000003f0: 0302 f93d 648a 393e 66e8 73be f468 05bd

bn1.weight f4 [64]
1.0389729 1.0182606 1.0229905 0.9764426 1.018132 1.0016993 0.9699812 0.9739093
0.9520117 0.94649184 0.95266825 0.96065485 0.9424639 1.0475457 0.97617906 0.9825342
1.022874 0.9557202 0.9667693 0.9516729 0.985069 1.0370734 0.97922236 0.95710915
1.054805 1.0470104 0.95913184 0.95399374 0.9477517 1.0045549 1.0499184 0.943603
0.95877963 0.9694157 1.0232114 1.0561384 1.0394309 1.0516406 0.96960545 1.0120422
0.9678734 1.0049702 1.0353389 1.0521957 0.95755345 0.9573777 1.018799 0.9955574
0.9800445 0.9648004 1.0291966 1.0418532 0.9507923 1.0492284 0.982392 1.0022151
0.9563233 1.0365422 1.021001 0.99649644 0.9497738 1.0547271 1.014382 1.0256976
00000000: 10fd 843f 5d56 823f 5af1 823f 24f8 793f
00000010: 2652 823f af37 803f b050 783f 1f52 793f
00000020: 0ab7 733f 4a4d 723f 11e2 733f 7aed 753f
00000030: 5045 713f fa15 863f dfe6 793f 5d87 7b3f
00000040: 89ed 823f 14aa 743f 317e 773f d6a0 733f
00000050: 7b2d 7c3f d2be 843f 51ae 7a3f 1b05 753f
00000060: da03 873f 7004 863f aa89 753f ef38 743f
00000070: db9f 723f 4195 803f ba63 863f f78f 713f
00000080: 9572 753f a12b 783f 97f8 823f 8b2f 873f
00000090: 120c 853f 299c 863f 1038 783f 998a 813f
000000a0: 8dc6 773f dda2 803f fc85 843f 59ae 863f
000000b0: 3922 753f b416 753f 0168 823f dadc 7e3f
000000c0: 32e4 7a3f 29fd 763f b7bc 833f 725b 853f
000000d0: 2067 733f 1e4d 863f 0b7e 7b3f 9648 803f
000000e0: 9bd1 743f 6aad 843f 29b0 823f 641a 7f3f
000000f0: 6024 733f 4c01 873f 45d7 813f 0f4a 833f

bn1.bias f4 [64]
0.031592138 0.015292594 0.009361698 -0.0073983646 0.0056389053 0.0086697815 -0.026681097 -0.023419773
-0.045234483 -0.045142043 -0.045431472 -0.02130268 -0.036297116 0.045046035 -0.030126497 -0.030858349
0.028847005 -0.048759922 -0.014226825 -0.030609284 -0.00799116 0.023474876 -0.003620543 -0.031161506
0.051863246 0.045647833 -0.04319483 -0.04497247 -0.04642248 0.01121592 0.04373728 -0.04514033
-0.04226483 -0.024836928 0.016606383 0.048462562 0.029318258 0.050901487 -0.002333935 0.019223636
-0.014919159 0.0045523387 0.035875767 0.046011392 -0.04579018 -0.043033134 0.038335867 0.013064353
-0.0295901 -0.016823275 0.017256482 0.034926493 -0.049162023 0.044174362 0.004027004 0.010840383
-0.035604425 0.023435067 0.034590077 0.004644816 -0.04099687 0.04575285 -0.0060899 0.035998315
00000000: c266 013d ca8d 7a3c cf61 193c fb6d f2bb
00000010: 91c6 b83b b30b 0e3c 5192 dabc d3da bfbc
00000020: cb47 39bd dde6 38bd 5a16 3abd f582 aebc
00000030: 49ac 14bd 3182 383d d8cb f6bc a6ca fcbc
00000040: 8e50 ec3c 7cb8 47bd a117 69bc 52c0 fabc
00000050: 5bed 02bc 624e c03c a246 6dbb 6a46 ffbc
00000060: 8e6e 543d 39f9 3a3d 10ed 30bd 0d35 38bd
00000070: 8025 3ebd fac2 373c dd25 333d 11e5 38bd
00000080: e31d 2dbd d076 cbbc 1c0a 883c ae80 463d
00000090: d82c f03c 147e 503d eef4 18bb e37a 9d3c
000000a0: 7d6f 74bc c92b 953b 78f2 123d 7176 3c3d
000000b0: 7c8e 3bbd 8343 30bd 1206 1d3d de0b 563c
000000c0: f066 f2bc f7d0 89bc 775d 8d3c 150f 0f3d
000000d0: 1e5e 49bd 2df0 343d f5f4 833b dd9b 313c
000000e0: f2d5 11bd e6fa bf3c 53ae 0d3d 8a33 983b
000000f0: 55ec 27bd 5767 3b3d c98d c7bb f872 133d

bn1.running_mean f4 [64]
-0.54302007 -0.15383507 -0.99023545 -2.4548388 -0.6533611 0.12823263 0.77179164 -1.141558
0.5429953 1.3517269 -2.2795954 -1.9743644 1.3806138 1.404649 2.7898827 -0.42774543
2.1400564 0.4224881 -0.68689585 1.6813836 -2.3770049 0.9261468 2.3645701 -0.060672585
1.5299432 -1.337754 0.7161659 0.13062139 -1.4374523 0.20788476 -1.8565015 -0.5143303
1.2723596 -0.011148683 0.71338165 -1.1427971 0.59547895 -2.3474545 0.41134903 0.5275834
-1.5821861 0.46604052 -2.061391 -0.46200162 -2.8548594 -0.4202591 -1.0478936 2.7722526
-0.8624665 -0.5460744 2.3447814 1.9252615 -3.484117 -0.3033358 -2.2695723 -2.7525458
3.0762312 -0.6311087 0.17665137 0.5378022 -2.4349823 0.72952676 -2.9108243 0.10121211
00000000: 5d03 0bbf f186 1dbe 1280 7dbf 141c 1dc0
00000010: ac42 27bf 6a4f 033e 2394 453f 931e 92bf
00000020: bd01 0b3f 6305 ad3f e4e4 11c0 f9b7 fcbf
00000030: f4b7 b03f 8acb b33f 708d 3240 7301 dbbe
00000040: aff6 0840 5c50 d83e 68d8 2fbf 9437 d73f
00000050: d920 18c0 f517 6d3f 1e55 1740 d183 78bd
00000060: 2ed5 c33f 863b abbf a656 373f 9dc1 053e
00000070: 70fe b7bf bedf 543e d7a1 edbf 27ab 03bf
00000080: aedc a23f f7a8 36bc 2ea0 363f 2d47 92bf
00000090: 4f71 183f b23c 16c0 579c d23e b50f 073f
000000a0: 1385 cabf dd9c ee3e d5ed 03c0 7a8b ecbe
000000b0: 04b6 36c0 332c d7be 6121 86bf 966c 3140
000000c0: 9bca 5cbf 88cb 0bbf e610 1640 f86e f63f
000000d0: c6fb 5ec0 d44e 9bbe ac40 11c0 b629 30c0
000000e0: f9e0 4440 5790 21bf 19e4 343e 68ad 093f
000000f0: c0d6 1bc0 44c2 3a3f f24a 3ac0 4b48 cf3d

bn1.running_var f4 [64]
0.8351129 0.4790729 0.73310244 0.5232549 0.62884825 0.58558905 0.70806694 0.6561415
0.4609066 0.5185081 0.6534505 0.798578 0.71448237 0.71521866 0.72716635 0.605463
0.53567374 0.5757557 0.5286603 0.69959694 0.5749882 0.69638366 0.46934062 0.8308581
0.6151232 0.44870082 0.647421 0.75311816 0.3816256 0.7180954 0.67085123 0.6748984
0.7267996 0.6720496 0.61106324 0.87558454 0.6183449 0.5522159 0.72285706 0.8790405
0.7728562 0.689023 1.2597165 0.47642544 0.681975 0.8932326 0.63588274 0.5834806
0.6958215 0.89924115 0.6728746 0.7044966 0.6290224 0.5031941 0.865272 0.8442719
0.47814256 0.7875136 0.8679497 0.6024203 0.4580527 1.0297227 1.1054004 0.6757199
00000000: f6c9 553f 0b49 f53e 9aac 3b3f 08f4 053f
00000010: 33fc 203f 2ae9 153f e043 353f e4f8 273f
00000020: f3fb eb3e f2bc 043f 8848 273f 9c6f 4c3f
00000030: 51e8 363f 9218 373f 9327 3a3f a0ff 1a3f
00000040: ea21 093f ba64 133f 4856 073f c918 333f
00000050: 6d32 133f 3346 323f 6a4d f03e 1eb3 543f
00000060: b778 1d3f 1dbc e53e 62bd 253f 5acc 403f
00000070: 6e64 c33e 1ad5 373f e8bc 2b3f 24c6 2c3f
00000080: 8a0f 3a3f 710b 2c3f a46e 1c3f 4f26 603f
00000090: da4b 1e3f 055e 0d3f 290d 393f cc08 613f
000000a0: e7d9 453f d063 303f 643e a13f 09ee f33e
000000b0: ea95 2e3f e4aa 643f 36c9 223f fc5e 153f
000000c0: 5c21 323f ab34 663f 8341 2c3f e459 343f
000000d0: 9d07 213f 54d1 003f 7782 5d3f 3422 583f
000000e0: 1acf f43e 7e9a 493f f431 5e3f 3738 1a3f
000000f0: e285 ea3e f4cd 833f c37d 8d3f fbfb 2c3f

bn2.weight f4 [64]
0.9411488 1.0294399 0.9549383 1.0647388 0.93300426 1.0555283 0.9351208 0.9368371
0.9805456 0.96502376 0.934431 0.93794644 0.95758396 1.0403699 0.94886744 1.0542718
1.040721 1.0531075 1.0439961 0.99965185 1.0593313 0.9638453 1.0710582 0.97082806
0.93673944 0.94652754 1.0728806 1.0676448 0.9376059 0.93372 0.96638685 0.9391519
0.9987908 0.9219132 1.056452 1.0550427 0.9416693 0.94568783 1.054256 0.96428263
0.9376443 0.98737496 1.0535218 1.0658098 0.9839844 1.0641799 0.9399661 0.9333564
1.0327437 1.045986 0.96684664 1.0347841 1.0436392 1.0536416 1.0618825 0.9639967
1.0361882 0.9478778 1.0711892 0.9723183 0.9527294 0.946386 0.95796734 1.0199529
00000000: 21ef 703f b0c4 833f d676 743f 5c49 883f
00000010: 5ed9 6e3f 8d1b 873f 1464 6f3f 8ed4 6f3f
00000020: 0905 7b3f cc0b 773f df36 6f3f 421d 703f
00000030: 3924 753f d72a 853f fae8 723f 61f2 863f
00000040: 5936 853f 3acc 863f aaa1 853f 2fe9 7f3f
00000050: 2b98 873f 91be 763f 6f18 893f 3088 783f
00000060: 28ce 6f3f a14f 723f 2754 893f 96a8 883f
00000070: f106 703f 4608 6f3f 2165 773f 426c 703f
00000080: c1b0 7f3f 8102 6c3f d239 873f a40b 873f
00000090: 3d11 713f 9918 723f dcf1 863f 3adb 763f
000000a0: 7509 703f 9bc4 7c3f cdd9 863f 756c 883f
000000b0: 67e6 7b3f 0c37 883f 9ea1 703f 72f0 6e3f
000000c0: f230 843f dfe2 853f 4383 773f ce73 843f
000000d0: f895 853f badd 863f c4eb 873f 7dc8 763f
000000e0: d1a1 843f 1fa8 723f ba1c 893f dae9 783f
000000f0: 13e6 733f 5a46 723f 593d 753f d18d 823f

bn2.bias f4 [64]
-0.05599842 0.010222457 -0.033852994 0.059921447 -0.06215614 0.061234955 -0.06010589 -0.049083523
-0.025841942 -0.04694824 -0.054208 -0.060277328 -0.041238952 0.023822907 -0.04941144 -0.004090197
0.022731692 0.025605885 0.0016201831 -0.05321366 0.06634172 -0.06412015 0.0668495 -0.03945516
-0.059242092 -0.048097443 0.03514092 0.06536617 -0.057313465 -0.060150143 -0.0832522 -0.05757881
-0.0158015 -0.06810046 0.06678358 0.051206596 -0.055141263 -0.051774982 0.058379687 -0.031217821
-0.0581516 -0.047158383 0.055436067 0.030552916 -0.017923497 0.07035967 -0.059580408 -0.061559133
-0.016994359 0.04039542 -0.041502453 0.043219917 0.03818942 0.06265183 0.07060837 -0.032241996
0.04630375 -0.050748527 0.06195456 0.05329755 -0.06730735 -0.04700226 -0.06434769 -0.05012115
00000000: 995e 65bd 187c 273c 70a9 0abd 3170 753d
00000010: 7097 7ebd 81d1 7a3d 9831 76bd ce0b 49bd
00000020: 7bb2 d3bc cc4c 40bd 3509 5ebd 5ce5 76bd
00000030: 2dea 28bd 4228 c33c a663 4abd 0f07 86bb
00000040: d037 ba3c 6fc3 d13c 535c d43a 91f6 59bd
00000050: 2bde 873d 6d51 83bd 64e8 883d bc9b 21bd
00000060: d6a7 72bd d301 45bd edef 0f3d b3de 853d
00000070: 86c1 6abd ff5f 76bd 2180 aabd c2d7 6bbd
00000080: 2672 81bc 4178 8bbd d4c5 883d 02be 513d
00000090: cedb 61bd 0112 54bd 8a1f 6f3d 84bc ffbc
000000a0: 5f30 6ebd 2629 41bd ee10 633d 1c4a fa3c
000000b0: 4cd4 92bc bb18 903d 960a 74bd 6e25 7cbd
000000c0: c137 8bbc ab75 253d 7afe 29bd 5e07 313d
000000d0: 826c 1c3d 9a4f 803d 1f9b 903d 2f10 04bd
000000e0: 00a9 3d3d b0dd 4fbd 11c4 7d3d 884e 5a3d
000000f0: 70d8 89bd 7185 40bd b9c8 83bd d64b 4dbd

bn2.running_mean f4 [64]
0.7549017 -0.38062096 0.2892592 0.3776289 0.16651826 -0.33622158 -0.600809 0.01969189
-0.48155776 0.47297636 -0.0074201664 0.0001217064 0.46537766 0.7040365 0.37183124 -0.051985923
0.46427736 0.50122494 0.6667968 -0.40538415 -0.26934746 0.3665136 -0.05882691 -0.17220183
-0.3349104 0.70280576 0.71946645 0.62061906 -0.5172362 -0.030330373 -0.5010527 0.98950994
0.3267199 -0.25633097 0.48982352 0.7351565 0.5958734 0.6204868 0.18948862 0.74397814
0.9655719 0.9086857 0.0028524052 0.43863863 0.52341515 -0.06155697 -0.43506828 0.60921705
-0.0499868 0.9557493 0.10941662 -0.044741508 -0.28429538 -0.60382384 -0.00682263 -0.25170875
0.06932857 0.6064475 -0.09907958 -0.1616407 -0.80145216 0.22495607 0.08921274 0.26502088
00000000: 3d41 413f c0e0 c2be c819 943e 9358 c13e
00000010: c383 2a3e 3c25 acbe 9ece 19bf e350 a13c
00000020: bd8e f6be f529 f23e de24 f3bb a03c ff38
00000030: fb45 ee3e bc3b 343f aa60 be3e 31ef 54bd
00000040: c3b5 ed3e 4750 003f 32b3 2a3f 838e cfbe
00000050: e9e7 89be aca7 bb3e 7cf4 70bd ad55 30be
00000060: 6079 abbe 14eb 333f f42e 383f e4e0 1e3f
00000070: 9769 04bf 6777 f8bc fd44 00bf 8650 7d3f
00000080: d547 a73e d03d 83be 26ca fa3e 3733 3c3f
00000090: 298b 183f 39d8 1e3f 4e09 423e 5a75 3e3f
000000a0: b82f 773f a09f 683f 6bef 3a3b 3e95 e03e
000000b0: 89fe 053f 2923 7cbd 45c1 debe a6f5 1b3f
000000c0: f5be 4cbd fcab 743f d215 e03d df42 37bd
000000d0: 2a8f 91be 3394 1abf 5e90 dfbb f8df 80be
000000e0: 23fc 8d3d 2540 1b3f 3cea cabd 2485 25be
000000f0: f82b 4dbf e25a 663e 2bb5 b63d d1b0 873e

bn2.running_var f4 [64]
0.20272583 0.39695495 0.36584705 0.648843 0.27529848 0.3109289 0.3660275 0.23491916
0.8267474 0.44666982 0.28914654 0.4196485 0.2502783 0.45281553 0.47283414 0.7027636
0.4208704 0.4901139 0.28687397 0.19305174 0.33677277 0.253327 0.37171298 0.26070645
0.6391147 0.35592034 0.6950466 0.61334795 0.6334447 0.4292786 0.45705038 0.41987
0.46970084 0.27915403 0.3617619 0.34403893 0.45233175 0.16302888 0.40285146 0.3871621
0.39623335 0.29287893 0.4071783 0.40709555 0.561101 0.32795805 0.4120991 0.21279109
0.33829072 0.41478157 0.46120805 0.5383305 0.46319252 0.47983587 0.538151 0.23807152
0.36259905 0.44935098 0.5257966 0.38829604 0.5516289 0.47828546 0.31722412 0.4076507
00000000: 5c97 4f3e ae3d cb3e 4e50 bb3e 931a 263f
00000010: ecf3 8c3e 1332 9f3e f567 bb3e a68e 703e
00000020: b8a5 533f e8b1 e43e 040b 943e 2bdc d63e
00000030: 7a24 803e 70d7 e73e 5117 f23e 51e8 333f
00000040: 537c d73e 36f0 fa3e 25e1 923e 5baf 453e
00000050: 7b6d ac3e 14b4 813e 2a51 be3e 517b 853e
00000060: 059d 233f 313b b63e 93ee 313f 5f04 1d3f
00000070: 6f29 223f 68ca db3e 8202 ea3e 33f9 d63e
00000080: a17c f03e 47ed 8e3e db38 b93e df25 b03e
00000090: 0798 e73e 0bf1 263e 8c42 ce3e 1c3a c63e
000000a0: 19df ca3e 3af4 953e ad79 d03e d46e d03e
000000b0: 51a4 0f3f 1eea a73e a7fe d23e e8e5 593e
000000c0: 7134 ad3e 405e d43e 7623 ec3e 07d0 093f
000000d0: 9227 ed3e 0cad f53e 44c4 093f 05c9 733e
000000e0: 95a6 b93e 5511 e63e 9b9a 063f bdce c63e
000000f0: 8d37 0d3f d5e1 f43e 336b a23e 98b7 d03e

classifier.weight f4 [10, 64]
0.077940226 0.11764386 0.047915973 0.030848365 0.14916667 -0.034097094 -0.17312385 -0.11557665
0.18477248 -0.020716015 -0.07821996 0.12154201 -0.07290041 0.06060293 0.058003154 -0.08537865
-0.0117232045 -0.09470078 0.1363786 -0.13107088 -0.021397099 -0.02926621 -0.14219433 -0.08287523
-0.13109921 -0.11133568 0.15987654 -0.042780854 0.08762087 -0.17400882 0.06123408 -0.06577211
-0.13734514 0.09821164 -0.09650595 -0.0070752813 -0.072044216 0.11279005 0.19379124 -0.15516901
-0.080944195 -0.14626156 0.0425706 -0.025037037 0.02608644 -0.021348082 -0.046197 0.09934689
0.002728641 0.014742083 -0.015330284 -0.022842593 -0.019210182 -0.07785925 -0.06275257 0.031974107
-0.040112417 -0.009701947 -0.15862739 0.11994256 0.058134485 -0.036638536 -0.11158243 -0.11192534
-0.027777484 -0.013592319 -0.1565531 -0.12255376 0.19074596 0.18326573 -0.15863533 0.04814356
0.09315815 0.06543297 0.1295772 0.09931173 0.049452398 -0.022509346 -0.094450824 -0.020178016
-0.018019924 -0.05617669 0.011844037 0.04489212 0.13275942 -0.0036021527 -0.12547407 0.045705326
0.04657959 0.114509255 0.018343346 -0.046580642 0.19798073 0.01222776 -0.05240911 -0.06108501
-0.09334999 -0.010651274 -0.032110937 0.08930078 0.094209895 0.012166819 0.09760977 -0.14172632
-0.10480653 -0.07737108 -0.13987812 0.026636928 -0.043195475 0.027288206 0.0032005773 -0.0049940767
0.014132351 -0.034283843 -0.11173238 -0.03865837 -0.04729662 0.03933035 0.09683634 0.14169885
-0.0062041488 0.16553332 -0.03420148 0.0561075 0.047237314 0.061101142 -0.0630745 0.006205796
0.012895071 0.04349713 0.13468707 0.032405917 -0.105846785 -0.06916663 -0.020765342 -0.13449205
0.014294473 0.071958505 0.041815363 -0.15500529 -0.05509999 -0.106464036 0.0035344523 -0.027250802
0.055423968 0.037014637 0.16299085 0.114397585 -0.13682544 0.09711788 -0.038565554 -0.0051642093
0.12880252 0.01037692 0.02507791 0.0033189708 -0.16414706 -0.052396577 0.092455596 -0.09173611
-0.058372047 0.0034795732 -0.128702 -0.09901768 0.04466502 0.1058363 -0.16322446 -0.0389083
-0.05119598 0.03093429 -0.07482937 0.12969552 0.16479039 0.07502446 0.010736527 -0.054411672
-0.010562214 0.036243275 0.1246688 -0.14986542 -0.08076975 0.12841453 0.09866842 0.041558113
-0.08059489 -0.11170378 -0.037400372 -0.14073828 -0.053937823 0.059452288 -0.091030024 0.02539746
-0.080901556 -0.07473811 0.015203183 0.1530035 -0.026122425 0.017397119 -0.11591255 0.09770191
-0.02052817 0.03793554 0.14202572 -0.08812384 0.046740778 0.05332443 -0.055435583 0.1003307
0.06719781 -0.00604623 -0.024227193 -0.045339193 0.010310204 0.09322511 0.028072331 0.030141328
-0.11870156 0.021199487 0.04430303 0.15260091 -0.1533417 -0.0033193054 -0.11278704 0.0417045
0.105700575 -0.09989429 0.1529525 -0.040006984 0.082067035 0.0098313615 -0.07837975 0.026561411
0.15612286 0.03827764 -0.059336025 0.10442443 -0.034469236 0.15054697 -0.15966815 0.077521786
-0.06642795 -0.047619116 0.04379307 -0.14018568 0.09034968 0.09617942 -0.023452569 0.020393733
-0.027618555 0.010426275 0.16707855 0.005253445 -0.16408223 0.09003333 -0.048141763 -0.006806313
00000000: 209f 9f3d 44ef f03d 8a43 443d b6b5 fc3c
00000010: 26bf 183e 65a9 0bbd 6147 31be 73b3 ecbd
00000020: ff34 3d3e a2b4 a9bc c931 a0bd 04eb f83d
00000030: cf4c 95bd c73a 783d b794 6d3d 00db aebd
00000040: af12 40bc 7cf2 c1bd d5a6 0b3e 7237 06be
00000050: f848 afbc b1bf efbc 649b 11be 7dba a9bd
00000060: df3e 06be f603 e4bd adb6 233e fa3a 2fbd
00000070: 9272 b33d 5e2f 32be 96d0 7a3d 87b3 86bd
00000080: 34a4 0cbe 2f23 c93d e9a4 c5bd c3d7 e7bb
00000090: eb8b 93bd 78fe e63d 3671 463e a0e4 1ebe
000000a0: 12c6 a5bd 97c5 15be 825e 2e3d 791a cdbc
000000b0: 3bb3 d53c 2ce2 aebc 1139 3dbd 6276 cb3d
000000c0: 00d3 323b c788 713c df2b 7bbc 6420 bbbc
000000d0: ac5e 9dbc ac74 9fbd 6b84 80bd 48f7 023d
000000e0: eb4c 24bd eaf4 1ebc 386f 22be 72a4 f53d
000000f0: 6d1e 6e3d 4a12 16bd 5485 e4bd 1d39 e5bd
00000100: 9b8d e3bc 51b2 5ebc 754f 20be 77fd fabd
00000110: e952 433e 03aa 3b3e 4d71 22be 2e32 453d
00000120: b3c9 be3d b901 863d e3af 043e f363 cb3d
00000130: 998e 4a3d 8565 b8bc 6f6f c1bd 5e4c a5bc
00000140: 859e 93bc 8719 66bd 7e0d 423c cde0 373d
00000150: 16f2 073e 1812 6cbb 467c 00be 8235 3b3d
00000160: 3dca 3e3d d483 ea3d c944 963c 58cb 3ebd
00000170: 76bb 4a3e f156 483c efaa 56bd 4734 7abd
00000180: 482e bfbd ae82 2ebc c286 03bd 54e3 b63d
00000190: 1ef1 c03d 5657 473c a2e7 c73d b420 11be
000001a0: cea4 d6bd bb74 9ebd 363c 0fbe b035 da3c
000001b0: bded 30bd 848b df3c c7c0 513b 5aa5 a3bb
000001c0: 608b 673c 376d 0cbd f2d3 e4bd 3d58 1ebd
000001d0: 1aba 41bd dc18 213d 2252 c63d 8119 113e
000001e0: 2c4c cbbb 9181 293e da16 0cbd fad0 653d
000001f0: ea7b 413d 3145 7a3d 342d 81bd fd59 cb3b
00000200: d945 533c 0c2a 323d 68eb 093e 11bc 043d
00000210: 33c6 d8bd 3ca7 8dbd 141c aabc 49b8 09be
00000220: 5e33 6a3c fb5e 933d 9646 2b3d b5b9 1ebe
00000230: 87b0 61bd d109 dabd 45a2 673b 133d dfbc
00000240: 3e04 633d a99c 173d 13e7 263e 4849 ea3d
00000250: f81b 0cbe bde5 c63d eaf6 1dbd 8738 a9bb
00000260: cfe4 033e f503 2a3c 3070 cd3c 1783 593b
00000270: 2b16 28be cb9d 56bd 5c59 bd3d 24e0 bbbd
00000280: 8717 6fbd 8d09 643b 75ca 03be c8c9 cabd
00000290: abf2 363d b4c0 d83d 5024 27be 4f5e 1fbd
000002a0: e0b2 51bd e869 fd3c 2440 99bd e7ce 043e
000002b0: d0be 283e 6da6 993d 42e8 2f3c c6de 5ebd
000002c0: 230d 2dbc d473 143d 5b52 ff3d 5276 19be
000002d0: 9c6a a5bd 197f 033e ab12 ca3d d738 2a3d
000002e0: ef0e a5bd f4c4 e4bd 2231 19bd b21d 10be
000002f0: e8ed 5cbd 3e84 733d f36d babd 560e d03c
00000300: b7af a5bd 4b10 99bd c516 793c f3ac 1c3e
00000310: b2fe d5bc 6784 8e3c 8f63 edbd f017 c83d
00000320: b12a a8bc 4c62 1b3d 316f 113e 467a b4bd
00000330: 4273 3f3d b86a 5a3d 6c10 63bd 2f7a cd3d
00000340: 019f 893d 741f c6bb 1b78 c6bc 97b5 39bd
00000350: 21ec 283c ceec be3d f2f7 e53c f2ea f63c
00000360: ce19 f3bd 8caa ad3c 1877 353d 6a43 1c3e
00000370: 9b05 1dbe b488 59bb e4fc e6bd 56d2 2a3d
00000380: 8b79 d83d 6195 ccbd 959f 1c3e 5dde 23bd
00000390: c312 a83d b813 213c 9085 a0bd 5197 d93c
000003a0: acde 1f3e 04c9 1c3d 550a 73bd 7adc d53d
000003b0: 9d2f 0dbd fc28 1a3e 0c80 23be bec3 9e3d
000003c0: 610b 88bd 430c 43bd 5d60 333d d68c 0fbe
000003d0: 4109 b93d b7f9 c43d 9a1f c0bc c210 a73c
000003e0: 4f40 e2bc f8d2 2a3c a416 2b3e 1725 ac3b
000003f0: 2c05 28be 6563 b83d 4c30 45bd 7e07 dfbb

classifier.bias f4 [10]
0.0482949 0.019335449 0.030035885 0.08604549 -0.0069790524 0.023355357 -0.033848997 0.036266737
-0.029667981 0.017994791
00000000: e0d0 453d 6065 9e3c d10d f63c 9e38 b03d
00000010: 89b0 e4bb bc53 bf3c 3fa5 0abd 6e8c 143d
00000020: 440a f3bc d069 933c

exp_avg f4 [100, 64]
-0.000961338 2.8862516e-05 -0.0033103055 2.993456e-06 0.00032260877 0.00026185025 4.8283408e-05 0.0017028858
-0.0014394486 -0.0008083006 -0.0001233234 0.0009194235 4.9934475e-05 0.00047434156 -4.59524e-05 0.000837507
-0.0023637358 0.0031622017 -0.00046524362 0.00020429575 0.0010212898 -0.00084614154 -0.0042479653 -0.000555781
0.00032346652 0.0028828124 0.0003275257 -0.0032786124 0.0009864528 -0.0005524115 0.007596021 -0.002978846
0.00035106268 0.0015075464 0.00012209824 -6.095013e-05 0.0016170639 -0.0021875016 0.00029457462 1.3892535e-05
-0.00029403836 0.005027207 -0.00031547356 -0.00031000888 0.00032479622 -0.0071974983 0.00042813667 0.0057808515
0.0016902875 -0.00086961815 0.004065456 -0.002704339 -0.00016680047 -0.0046232347 3.0441579e-05 0.0001140474
-0.0038968865 0.00029758853 -0.00024674626 -0.001991186 -0.001362181 0.0012364611 0.0007896698 0.0023894175
-0.0005166465 -0.0007660941 -0.002677655 0.00071253424 -0.00012885401 -0.0006872732 0.00012106465 0.0012178926
-0.001886005 -0.00029167806 -8.809672e-06 0.0003060755 0.00012682065 0.00015315955 0.00038703455 0.0014362824
-0.0018441079 0.002551106 -4.2841248e-06 -0.00022922838 -0.00034455195 -0.00045044115 -0.0033638119 -7.38172e-05
0.00016153337 0.00257046 0.00048432618 -0.0023096395 -5.614238e-05 -0.00023794234 0.0066082426 -0.0027461865
0.0007814845 0.0010680896 0.0004485458 0.00015984934 0.0013421624 -0.0020252077 -6.1437975e-05 0.00047072288
4.1305528e-05 0.005045173 -0.00035516435 0.0005289504 0.0007621114 -0.006082348 -0.00034905758 0.0054973215
0.0018588082 -0.000884013 0.004370189 -0.003076073 -0.0007799889 -0.005458651 0.0001850473 8.9377776e-05
-0.003906944 0.00025867796 0.00046659893 -0.002382601 -0.0015610654 0.0012198668 0.0012138792 0.002749679
-0.00074965274 -0.00030097648 -0.0031761653 0.0004052288 0.00046325618 0.0003840138 -0.00027169773 0.001851424
-0.0014849872 -0.00017210754 0.00020696851 0.0009183595 -0.00035518926 0.00075449503 1.23615555e-05 0.0015200432
-0.0025479852 0.003192318 -0.0004353511 0.00014696864 0.0006154427 -0.0008875434 -0.0036963827 -0.0003755543
-0.0001400493 0.0029212101 0.0010494639 -0.0026713377 0.0006378176 -0.0008541752 0.0066406424 -0.0026772057
0.00095621025 0.0017227476 0.0007327254 0.0003487449 0.00186801 -0.0018886245 0.00032457226 0.0003483935
7.198694e-06 0.0047835466 -0.00090536504 0.00041957127 0.0006865856 -0.0062678214 -1.6591815e-05 0.0054531028
0.0013312106 -0.00032468696 0.004199051 -0.0027644325 4.033786e-05 -0.004977238 0.00072898995 0.00051444996
-0.0034709845 0.00060500344 0.00030882334 -0.0017923375 -0.0017401132 0.0017220182 0.001189743 0.002084051
-0.00055025046 -0.0017034775 -0.002516835 0.0011642753 -0.00080188195 -0.0020907866 0.0004053342 0.0011337963
-0.0030370904 8.3859166e-05 -0.00042020425 -0.00077523215 0.00033792402 0.00025838983 0.00073865853 0.0017235208
-0.001885624 0.0026336585 1.52158045e-05 -0.00085425883 -0.0017591674 -9.385237e-05 -0.0036376729 0.00041111727
0.0001887947 0.002764006 0.00031089192 -0.0022978608 -0.00082185847 4.151475e-05 0.007668477 -0.003336383
0.0014862708 0.00036705242 0.0004015307 -0.00018204546 0.001280957 -0.0020792745 -0.0016490412 0.00086709147
0.0005976352 0.005960485 -0.000501618 0.0010441781 0.0010068399 -0.0067305644 -0.0009076371 0.006696653
0.0023762565 -0.0010484256 0.005072578 -0.0047235265 -0.0013480415 -0.006565265 0.0001082437 -1.6746731e-05
-0.005931322 9.181912e-05 0.0008399713 -0.003917007 -0.0019607316 0.0014444098 0.001273057 0.0032877775
00000000: 4d02 7cba c81d f237 b6f1 58bb 2fe3 4836
00000010: d123 a939 f248 8939 ea83 4a38 5e33 df3a
00000020: e1ab bcba 23e4 53ba 6050 01b9 7705 713a
00000030: bc70 5138 0cb1 f839 04bd 40b8 258c 5b3a
00000040: e8e8 1abb f13c 4f3b f1eb f3b9 3938 5639
00000050: cddc 853a 99cf 5dba 8432 8bbb d5b1 11ba
00000060: f196 a939 91ed 3c3b c1b7 ab39 fddd 56bb
00000070: dd4b 813a b5cf 10ba 0be8 f83b be38 43bb
00000080: d60e b839 dd98 c53a 7f07 0039 b4a4 7fb8
00000090: a9f3 d33a 305c 0fbb 2371 9a39 fc13 6937
000000a0: 2929 9ab9 45bb a43b 2566 a5b9 b088 a2b9
000000b0: 6949 aa39 fed8 ebbb 8877 e039 4c6d bd3b
000000c0: a38c dd3a 16f7 63ba 8437 853b 483b 31bb
000000d0: 29e7 2eb9 817e 97bb cb5c ff37 bb2c ef38
000000e0: e862 7fbb a805 9c39 b95d 81b9 8f7e 02bb
000000f0: 368b b2ba c010 a23a d801 4f3a c697 1c3b
00000100: 8f6f 07ba b4d3 48ba 997b 2fbb 5dc9 3a3a
00000110: fc1c 07b9 202a 34ba 17e4 fd38 b2a1 9f3a
00000120: d433 f7ba 5eec 98b9 41cd 13b7 c278 a039
00000130: 29fb 0439 7499 2039 e6ea ca39 a441 bc3a
00000140: feb5 f1ba 7530 273b 5ac0 8fb6 065d 70b9
00000150: fba4 b4b9 3029 ecb9 6673 5cbb 4fce 9ab8
00000160: 4961 2939 2a75 283b 29ed fd39 525d 17bb
00000170: 6c7a 6bb8 2980 79b9 f589 d83b 5df9 33bb
00000180: 89dc 4c3a 24ff 8b3a cc2a eb39 3b9d 2739
00000190: 7feb af3a 59b9 04bb 43d8 80b8 5bcb f639
000001a0: 793f 2d38 fb51 a53b 5a35 bab9 43a9 0a3a
000001b0: 6ec8 473a 6f4e c7bb b701 b7b9 e022 b43b
000001c0: 41a3 f33a 1cbd 67ba cd33 8f3b f197 49bb
000001d0: 2b78 4cba 7cde b2bb 4209 4239 5470 bb38
000001e0: d205 80bb 2b9f 8739 d9a1 f439 6925 1cbb
000001f0: aa9c ccba f0e3 9f3a 071b 9f3a f533 343b
00000200: 5884 44ba 61cc 9db9 3627 50bb e474 d439
00000210: 31e1 f239 7655 c939 a772 8eb9 7bab f23a
00000220: e7a3 c2ba c477 34b9 b005 5939 10be 703a
00000230: b238 bab9 4ec9 453a 7a64 4f37 303c c73a
00000240: 19fc 26bb 3536 513b d63f e4b9 981b 1a39
00000250: a955 213a 08aa 68ba 033f 72bb 0be6 c4b9
00000260: 33da 12b9 c671 3f3b 2a8e 893a 9c11 2fbb
00000270: 3733 273a baea 5fba bf99 d93b 0f74 2fbb
00000280: 2faa 7a3a d1cd e13a 5f14 403a c0d7 b639
00000290: 04d8 f43a b98b f7ba 5a2b aa39 96a8 b639
000002a0: 508c f136 4cbf 9c3b 0556 6dba e7f9 db39
000002b0: fbfb 333a 4c62 cdbb a72e 8bb7 f1af b23b
000002c0: 047c ae3a bf3a aab9 3198 893b 7b2b 35bb
000002d0: 7330 2938 1918 a3bb b019 3f3a 27dc 063a
000002e0: 7579 63bb 1899 1e3a 91e9 a139 deec eaba
000002f0: 8314 e4ba 58b5 e13a 27f1 9b3a 9394 083b
00000300: af3e 10ba 3847 dfba 7cf1 24bb 999a 983a
00000310: 6335 52ba 9405 09bb 0983 d439 e49b 943a
00000320: ec09 47bb 8cdd af38 dc4e dcb9 f338 4bba
00000330: 652b b139 7f78 8739 89a2 413a c3e7 e13a
00000340: 0b27 f7ba 7599 2c3b 6247 7f37 57f0 5fba
00000350: dd93 e6ba 9cd2 c4b8 0666 6ebb 3a8b d739
00000360: 31f7 4539 5324 353b 35ff a239 b597 16bb
00000370: fd71 57ba 2020 2e38 d947 fb3b 38a7 5abb
00000380: f9ce c23a f170 c039 8a84 d239 75e3 3eb9
00000390: c9e5 a73a 7044 08bb a424 d8ba 864d 633a
000003a0: 9faa 1c3a 2c50 c33b 047f 03ba cedc 883a
000003b0: f1f7 833a 118c dcbb 7fee 6dba 996f db3b
000003c0: f8ba 1b3b 536b 89ba de37 a63b d0c7 9abb
000003d0: c4b0 b0ba 6f21 d7bb e500 e338 557b 8cb7
000003e0: 895b c2bb 048f c038 8531 5c3a 3c5a 80bb
000003f0: 9e7f 00bb 5a52 bd3a b4dc a63a c177 573b
