checkpoints/checkpoint_epoch_15.pt (torch, 547720 bytes, 37 tensors)

prototypes f4 [100, 64]
000000 6b 51 c8 3d b7 62 8f be dd bd 19 be 5c cb 0e 40
       0.09781154 -0.28005 -0.15013833 2.231162
000010 9a e0 15 bf 04 f4 33 3f 02 80 6a 3e a3 63 55 bf
       -0.5854584 0.70294213 0.22900394 -0.8335516
000020 3a 96 fa 3c 9b 6f 3a 40 d3 83 85 bf 14 2a 6c bf
       0.030589212 2.9130619 -1.0430855 -0.92251706
000030 5a 15 0a bf 17 8d 7d bf 91 71 25 bf 9d ea d9 3f
       -0.5393883 -0.9904341 -0.64626414 1.7024723
000040 f3 89 4a bf c7 9a e1 3e 9d fd 71 3f 41 57 c7 3f
       -0.79116744 0.44063398 0.9452761 1.5573503
000050 d2 9d 08 c0 83 cb 70 be ef 87 f2 be 2f ea ca 3d
       -2.1346326 -0.23515134 -0.47369334 0.09907948
000060 c1 5e 9c 3e 95 95 9c 3e be d2 86 3e 17 a6 37 3f
       0.30541041 0.30582872 0.2633266 0.7173781
000070 d1 0e ea be d8 50 0c 3f 04 45 b6 be 48 c3 80 3e
       -0.4571443 0.5481086 -0.3559953 0.25148988
000080 76 06 ed bf 22 ad c5 3f e2 40 aa be c2 86 64 3e
       -1.8517597 1.5443461 -0.33252627 0.22317031
000090 02 47 63 be 1c 13 60 bf 91 c6 69 3f 3c aa f3 bf
       -0.22195056 -0.8752916 0.91318613 -1.9036326
0000a0 21 4e 04 bf a0 13 cd 3d 29 c8 90 3f d6 9f c6 3e
       -0.51681715 0.10013509 1.1311084 0.3879382
0000b0 18 fb a0 3f 48 e5 64 be a8 d7 48 be f6 56 8c 3e
       1.2576628 -0.22353089 -0.19613516 0.27410096
0000c0 e3 37 f8 3f 26 ba 00 bf ac c6 8e 3e 30 bf 20 bf
       1.9392055 -0.5028404 0.2788595 -0.6279173
0000d0 3d 16 38 bf 09 e1 5d bf 08 81 1d bf 92 63 0a 3f
       -0.7190893 -0.866715 -0.6152501 0.5405818
0000e0 52 ee 9e 3f 3e 2a 6a be 12 05 80 3d 5c 82 f8 bf
       1.241648 -0.22867677 0.06250967 -1.9414783
0000f0 7c ce 87 be 6d 0d 6c 3f 07 b6 80 be bd db b3 3f
       -0.26524723 0.92207986 -0.25138876 1.4051434
000100 74 ab be bd 6a e3 e1 3f e5 82 95 bf cc 95 47 3e
       -0.09310046 1.7647526 -1.1680571 0.19490737
000110 c4 e3 aa bf 0f a5 72 bf b8 2a c7 be 93 59 ae 3d
       -1.3350759 -0.9478311 -0.3889978 0.08513179
000120 36 88 fa be cf 50 2d be 21 7a ec 3d 4d c4 82 3f
       -0.48932046 -0.16925357 0.11546732 1.0216156
000130 f4 38 4c 3d 8d 54 65 3f 5b 20 78 bf 84 03 71 be
       0.049859002 0.8958214 -0.9692437 -0.23536497
000140 3c cd f9 3e db e6 52 3f b7 ea 58 bf 86 e9 11 bf
       0.48789394 0.8238351 -0.84733146 -0.56996953
000150 41 1d 99 3e dc 10 02 c0 ea 66 54 3f e0 76 e1 3e
       0.2990513 -2.032279 0.82969534 0.44036007
000160 02 0e 97 bf 9d 06 e9 3f f2 d9 be bf 36 7c 82 be
       -1.180115 1.8205143 -1.4910262 -0.2548539
000170 23 2c d2 3f 5e 21 e3 3e bd 29 29 3f 0e 8f 0c bf
       1.641972 0.44361395 0.6607931 -0.54905784
000180 90 28 88 3f ac be 82 bf 1f 8d e1 bf 30 72 22 be
       1.0637379 -1.0214438 -1.7621192 -0.15863872
000190 31 bb b4 3f 6f 1f 81 bf a9 e5 d5 be 3d 0d bd be
       1.4119626 -1.0087718 -0.4177678 -0.36924163
0001a0 3c 25 95 bf 8e a4 99 bf 9f 46 4a bd 03 b5 c6 be
       -1.1651988 -1.2003343 -0.049383756 -0.38809976
0001b0 aa de 97 bf e2 82 be 3d ba 42 a2 3e c8 a0 f5 3f
       -1.1864827 0.09302308 0.31691533 1.9189692
0001c0 5b a7 92 bd 9a 9c 9a be c9 fe e9 bf b8 16 8c bf
       -0.07160827 -0.30197603 -1.8280879 -1.0944433
0001d0 86 ce c7 bd 86 6c 88 3f 84 b4 a3 bd fa c3 13 3f
       -0.09756188 1.0658119 -0.07993415 0.5772091
0001e0 06 13 ab bf 6e 42 b5 3d 4c 5b a7 bf 4b db 34 bf
       -1.336518 0.08850561 -1.3074737 -0.70647115
0001f0 b6 6c 8a bf 0b ac 56 bf 9f 77 f6 bf 53 53 92 3f
       -1.0814426 -0.83856267 -1.9255255 1.1431679
000200 78 c2 db 3e 0d 94 36 bf 5d 1b 0f 3f 13 c8 e4 bf
       0.42921805 -0.7131966 0.5590113 -1.7873558
000210 95 2a 04 3f b6 c9 0c 3f 8f 08 57 bc ee e4 29 3f
       0.51627475 0.54995286 -0.013124599 0.66364944
000220 40 2c be bf f9 32 92 bc e7 55 2a bf e4 bb 35 3e
       -1.4857254 -0.017846571 -0.66537327 0.17747456
000230 6d 2a c1 3f c6 9d 80 3d 06 c6 eb bf d9 6f fd be
       1.5091072 0.06280093 -1.8419807 -0.49499395
000240 3a 86 3d 3f c7 7c e6 bf 74 97 8e 3f 4d 86 6d 3d
       0.7403294 -1.8006829 1.113997 0.057989407
000250 b4 d4 2d 3e fe 84 b5 bd a4 d4 6b bf c7 bd 4a 40
       0.16975671 -0.08863257 -0.9212134 3.167833
000260 ea ac ad 3f 70 ff 8e be 66 35 b9 3e 25 a5 94 bf
       1.3568394 -0.27929258 0.36173552 -1.1612898
000270 91 3c 35 3c c4 58 6b bf 13 d7 9d 3f c0 68 d2 bf
       0.011061803 -0.9193232 1.233126 -1.6438217
000280 cb c3 84 3f 17 28 f8 3d 36 af 04 c0 5d 29 63 3f
       1.0372251 0.121170215 -2.073194 0.8873499
000290 67 8e 84 3d a8 8f 49 bf 33 ca 80 bf 36 38 fe bf
       0.064724736 -0.7873483 -1.0061706 -1.9860904
0002a0 4a 4c f9 bc b2 92 68 bf f6 60 82 3f 5d 19 30 3c
       -0.030431885 -0.9084884 1.018584 0.010748235
0002b0 e5 c3 9d bf 5a 15 d9 be b8 79 b4 be 37 4b 03 40
       -1.2325407 -0.42399102 -0.35249114 2.0514657
0002c0 74 96 24 3f 47 c9 a3 3e 81 16 06 bf 1b bf ed bf
       0.64292073 0.319895 -0.5237809 -1.8573946
0002d0 e2 d3 28 bf 2e 33 18 be d9 2c 61 bf 7c c7 03 bf
       -0.6594831 -0.14863274 -0.8795906 -0.51476264
0002e0 e7 4b 37 bf 32 86 69 bf a4 ae a7 be 3c 4b 8c bf
       -0.7160019 -0.9122039 -0.32750428 -1.096046
0002f0 fd c9 24 bf ef 71 5c 3f 5d da 89 3d 51 a9 7f 3f
       -0.6437071 0.8611135 0.067311026 0.9986773
000300 2f 6f 01 be cd 2d a5 3f 99 ed 4b 3e 0b f3 a1 3f
       -0.1264007 1.2904602 0.19914855 1.2652296
000310 ce e4 96 3e 3a eb 02 40 83 38 ec be e1 99 98 3e
       0.2947144 2.045607 -0.46136865 0.298049
000320 67 41 5a 40 3c df f2 3f ac e7 43 c0 69 6d a9 3e
       3.4102418 1.8974376 -3.0610151 0.33091286
000330 36 90 ca 3e 41 aa c1 3e e3 7e 6b 3f 3e a2 82 3e
       0.3956315 0.37825206 0.9199049 0.25514406
000340 74 a3 c3 bf 54 15 9b bf e2 09 e3 bf f5 b9 ad 3e
       -1.5284257 -1.2115884 -1.7737391 0.33930936
000350 ee d7 28 3f a5 b7 78 be 99 65 a0 be d5 f1 f5 3e
       0.6595448 -0.24288805 -0.31327513 0.48036066
000360 66 1c 20 3f fe 15 77 bf 9f af 6e bf 96 06 eb be
       0.6254333 -0.9651793 -0.93236727 -0.45903462
000370 46 2b a9 3f fc 68 48 3d 9f a8 91 3f df 8b 17 bf
       1.3216331 0.048928246 1.1379584 -0.591978
000380 78 ee 6a 3f aa 15 f5 3f 6b 27 4b be bd 85 94 bf
       0.91770124 1.9147236 -0.19839256 -1.1603314
000390 12 2d f0 be 4d d6 3d 3f ae 27 15 3d c5 40 45 3f
       -0.46909386 0.7415512 0.036414795 0.77051955
0003a0 7f f1 cb 3f 91 e2 a1 bf 07 32 be 3e ca 77 49 3f
       1.5933074 -1.2647268 0.37147543 0.7869841
0003b0 b6 22 1c bf 42 e1 0a c0 20 64 88 3e 4c 90 10 3f
       -0.60990465 -2.1699986 0.2663889 0.5647018
0003c0 71 bc e4 bf 1a 1f 31 bf 97 8d 5d bf b5 3e d5 3e
       -1.7870008 -0.6918808 -0.86544174 0.41649404
0003d0 f5 cb 1a bd 13 21 cb 3e 60 33 1d 3f 46 13 e7 bd
       -0.037792165 0.3967367 0.6140652 -0.11282973
0003e0 b9 61 23 3f 28 00 6f bf c7 3a ba be 75 a5 79 3f
       0.6382099 -0.93359613 -0.3637297 0.9751809
0003f0 60 50 a5 3f 12 59 0d 3f 49 48 bf bf 25 bc 99 bf
       1.2915154 0.55214036 -1.4943935 -1.2010542

conv1.bias f4 [64]
000000 58 fa 81 37 c5 fa ed 37 62 db aa 38 51 ef 57 39
       1.5494574e-05 2.8369375e-05 8.147095e-05 0.0002059315
000010 77 a9 36 38 d2 95 98 b7 77 45 9f 38 e1 04 5a b7
       4.3550008e-05 -1.8189578e-05 7.59465e-05 -1.29949485e-05
000020 e4 0d 31 37 b6 82 62 b9 7b 01 1c b9 e5 10 aa b8
       1.0553256e-05 -0.00021601733 -0.00014877871 -8.1093785e-05
000030 84 78 ea b6 92 c4 82 b7 64 d4 59 b8 5d e5 f6 37
       -6.9877733e-06 -1.5588743e-05 -5.1934636e-05 2.943229e-05
000040 10 3a 0f 39 fd dd 0e 39 48 9a 36 38 92 f5 ad b8
       0.00013659173 0.00013624872 4.3535867e-05 -8.295024e-05
000050 57 88 d3 38 66 59 14 b7 6e 71 ab 38 64 6a 96 38
       0.00010086659 -8.842302e-06 8.175043e-05 7.172374e-05
000060 07 e2 ca 38 4c f4 14 b8 34 63 ec b7 06 0d 6d b6
       9.6742115e-05 -3.551347e-05 -2.8179587e-05 -3.5323333e-06
000070 f0 7b d3 b8 e8 f8 83 b6 f3 0d cd 39 bf 74 2c b7
       -0.00010084349 -3.9330807e-06 0.0003911104 -1.0279181e-05
000080 0b dc ee b8 ea 0a 40 38 17 6b bf 38 bd ac ff b7
       -0.000113897106 4.578653e-05 9.127537e-05 -3.0478806e-05
000090 51 07 57 37 87 be b0 39 11 f2 45 b8 ad b4 0f b8
       1.2816702e-05 0.0003371129 -4.7193902e-05 -3.4262124e-05
0000a0 32 9e 17 37 f0 90 a4 b8 01 73 ab 37 63 6d 4c b8
       9.037134e-06 -7.847126e-05 2.0438341e-05 -4.8739264e-05
0000b0 45 0f be b9 fa 48 36 38 80 02 1c b6 3e 95 87 b7
       -0.00036251 4.3460146e-05 -2.3247267e-06 -1.616275e-05
0000c0 86 8e e2 b8 70 f8 05 38 74 0e 00 b9 4c 17 2f 39
       -0.00010803067 3.1941046e-05 -0.00012212415 0.0001669798
0000d0 1b 32 e1 38 aa aa 23 b9 31 9c b2 38 17 c5 70 b9
       0.00010738169 -0.00015608469 8.516794e-05 -0.00022961605
0000e0 72 ec 5c 39 2b cf 86 b7 d9 8c 96 b9 cb ce 86 37
       0.00021068918 -1.6070515e-05 -0.0002871517 1.607034e-05
0000f0 2a 9c 89 39 88 d8 eb b7 b1 fd d2 b8 ca 5a 58 b6
       0.00026247028 -2.8115013e-05 -0.00010060834 -3.2239354e-06

conv1.lin.weight f4 [64, 512]
000000 b2 3f ad bc 4b 21 19 bc fd fd 0f bd 67 4a 73 bd
       -0.021148536 -0.009346317 -0.03515433 -0.059397127
000010 a8 0d aa bd e2 41 cc bd 93 b4 4c 3d 0f e0 dc bc
       -0.08303386 -0.09973504 0.049976896 -0.026962308
000020 05 97 d1 3c ac 8a 22 3d 06 e4 07 bd 7c 59 c6 3c
       0.025584707 0.03968303 -0.033176444 0.024212591
000030 72 1f 4a bd f4 c6 d0 bd 09 1b ea 3b 70 1b 76 bd
       -0.049346395 -0.10194197 0.007144336 -0.06008476
000040 d6 db a4 bd d7 f6 d2 bc fc 6f e3 bc f0 81 81 3d
       -0.08049743 -0.025752468 -0.02776336 0.06323612
000050 9a f6 2c bd c1 74 93 3d f4 68 0f 3b 3a b9 98 bb
       -0.042227365 0.072000034 0.0021882625 -0.0046607526
000060 a2 ab b5 3c b2 40 8c bd bd 11 cd bd df 43 ac bd
       0.022176567 -0.06848277 -0.10013149 -0.08411383
000070 eb c0 25 bd b6 96 d8 3a 83 c0 dc 3c 57 08 cb bc
       -0.040467184 0.0016524408 0.026947265 -0.02478425
000080 ae a3 b6 3d 6e a3 68 3c b5 af 5c 3d 03 49 bb bc
       0.08917938 0.014199121 0.053878505 -0.022861963
000090 00 02 55 bd a9 0d f3 bc 6d 4e c7 3d da e9 9d 3d
       -0.05200386 -0.0296696 0.097317554 0.07710619
0000a0 56 8b d8 3b 2d 81 62 bd 4a 4a 0d bc 2f 85 3f 3c
       0.006608407 -0.055298973 -0.008623669 0.011689468
0000b0 40 ac ac 3d 0b aa a6 bc 9e 7c ad bd 17 54 08 3d
       0.084312916 -0.020344755 -0.084710345 0.03328332
0000c0 52 41 4f bd 73 1a a8 bc 96 52 c0 bd de e5 16 3d
       -0.050599404 -0.020520424 -0.09390752 0.036840312
0000d0 d0 04 8e 3d 06 17 c5 3b c9 50 0d 3d 8b 83 a5 bd
       0.06934512 0.0060147075 0.03450087 -0.080817305
0000e0 84 58 9d bd 82 b0 46 3d 46 5d 3e bd e0 28 98 bd
       -0.07682899 0.048508175 -0.04647567 -0.07429671
0000f0 dc c2 91 3d 09 8f d7 bd 66 12 9f bc 4d b7 8d bc
       0.071172446 -0.10525329 -0.019417953 -0.017299319
000100 87 88 6e 3d 01 25 6b 3d fd f4 9f bc f7 5d 0a bd
       0.05823567 0.057408337 -0.019526 -0.033781018
000110 16 45 ba 3d 48 c5 3a 3d 75 f9 70 b9 a7 b0 c5 3b
       0.09095208 0.0455983 -0.00022981114 0.0060330215
000120 9d 90 2a 3d 41 bb b6 bc 52 38 64 bd 2f a3 97 bb
       0.04164182 -0.022306086 -0.055717774 -0.0046276073
000130 16 fc 02 3d 6b fc f8 3c f6 20 92 bd 26 2a 19 bd
       0.03197869 0.0303938 -0.07135193 -0.03739371
000140 c1 9c be bd c9 3b ab bc 7a dd 89 bb b1 9d 06 bd
       -0.09307242 -0.020902531 -0.0042073103 -0.03286523
000150 f5 78 c9 bb 0c 43 2b 3c 66 5c b8 3d 8b d4 86 3c
       -0.0061484524 0.010452997 0.090019986 0.01645877
000160 a9 56 46 3d 0c 4c 6f 3c 7f 1b 3e 3d 38 59 d4 bd
       0.04842249 0.014605533 0.04641294 -0.103685796
000170 40 3f 9e 3d a0 8b 2f bd 8c 35 79 bd 05 b2 8f bd
       0.07726908 -0.042857766 -0.060842082 -0.070163764
000180 11 2f c3 3d ec 2f 2d 3c 24 9f 86 3d e4 43 ab 3d
       0.095304616 0.0105705075 0.065733224 0.083625585
000190 e3 df ae 3d 92 c4 23 bc 10 ef ad 3c cd 37 ba 3d
       0.08538797 -0.0099955965 0.021232158 0.090926744
0001a0 c1 bd b1 3d 75 ba 3b 3d 06 20 69 3d f7 79 df 3c
       0.08678771 0.045832116 0.056915306 0.027279837
0001b0 ba 86 2c bd 03 0b 3b 3d 59 21 33 3c 45 cb 78 3d
       -0.042120673 0.0456648 0.010933244 0.060740728
0001c0 b6 4f 9a bd f8 87 2e 3d a5 6c 2a bd ca 7f 51 bc
       -0.07534735 0.04261014 -0.041607518 -0.012786815
0001d0 78 7a 85 bc 89 92 bd 3d 16 f5 a2 3d 4b 67 8e bd
       -0.01629375 0.09256465 0.07956903 -0.06953295
0001e0 6f 4a 31 bd 13 1e b2 3d b4 67 04 bd bd 26 25 bd
       -0.043283876 0.086971425 -0.03232546 -0.040320147
0001f0 cc 05 5b 3d 1f 98 9e 3d 67 4a 7c bd 91 58 30 bd
       0.053472325 0.077438585 -0.061594393 -0.043053214
000200 50 37 cf 3d 12 6c 74 bb a4 98 9c bd 70 96 50 3d
       0.10117972 -0.003729586 -0.076463014 0.05092472
000210 e7 6f bc 3d 9b 5d a0 bd 99 f3 47 bd 6b 54 db 3b
       0.09201031 -0.07830354 -0.048816297 0.006693413
000220 f9 a0 c1 bd d4 e3 e9 bc c9 e1 1f bc 35 1d a3 3c
       -0.09454531 -0.02855102 -0.009758421 0.019911388
000230 86 9b 92 bd 8b 3b ba 3a 95 0c 3d bd 16 70 71 bd
       -0.0715857 0.0014208419 -0.046154577 -0.058944784
000240 37 0e b5 bb 21 50 81 bc 5f be 3c 3d 66 53 88 b9
       -0.005525376 -0.015785279 0.04607999 -0.00026002078
000250 32 14 c2 3d 3a d4 b6 bb 25 b5 a7 3d a6 72 a2 bd
       0.09476508 -0.0055794986 0.081888475 -0.07932024
000260 44 96 73 3d c8 b7 dd 3c 58 b8 97 3d e5 e7 92 3d
       0.059469476 0.027065173 0.07408208 0.071731366
000270 b8 e1 c4 3c a9 5f b9 bd 41 6e f9 bc ae a1 c5 3d
       0.024033412 -0.09051449 -0.030448081 0.096499786
000280 9d b3 4c 3d af 04 61 bd 5b b6 04 3d 5b 41 c7 3c
       0.04997598 -0.054936107 0.03240047 0.024323156
000290 c6 a9 c8 3d f0 90 b6 3d 78 20 25 bd 35 55 cc 3c
       0.09798007 0.089143634 -0.040314168 0.024942974
0002a0 e7 b6 9f bc 27 49 66 bd cb cf ac 3d 43 81 25 bd
       -0.019496394 -0.056222107 0.08438071 -0.040406477
0002b0 c2 b7 71 3d d1 5b 2a bc bc 96 dd 3c 60 99 c1 3c
       0.059013136 -0.010397867 0.027049415 0.023632705
0002c0 15 5e bb bd 67 dd 41 bd 83 86 b9 bd a3 a0 5b bc
       -0.09148804 -0.047330286 -0.09058859 -0.013404998
0002d0 96 8b 99 3d 5f af 94 bd 8c f2 1f bd 17 d6 47 bc
       0.07497327 -0.07260012 -0.03904967 -0.012197039
0002e0 df 73 26 3c d4 e4 5e 3d 8d d3 ba 3d 8f 87 7a bc
       0.010159462 0.054417446 0.09122381 -0.015291109
0002f0 dd e6 f4 bc 46 4b bd 3d 06 55 cc bc 1c 5c 30 3d
       -0.02989524 0.09242873 -0.024942886 0.043056592
000300 f9 fa 8f bc cb 17 78 3d 45 c2 b4 3d 89 4b ce bd
       -0.017575728 0.060569566 0.088261165 -0.10073001
000310 b7 03 3e 3d e3 e5 6d bd e6 31 b0 3c 30 06 9b bc
       0.04639026 -0.058080565 0.021508168 -0.018923849
000320 2d ee 8d bc 26 f0 a5 bc fc 95 9a bd aa c6 3b 3c
       -0.017325485 -0.020256113 -0.075481385 0.011460939
000330 fc 18 18 bc f2 4f 7d bc 85 70 bf 3d 7d e4 7d bc
       -0.0092833005 -0.015460955 0.09347633 -0.01549637
000340 4d ac 51 bc b2 72 66 bd 9d e3 22 3d 91 59 22 ba
       -0.012797427 -0.056261726 0.03976785 -0.0006193156
000350 be 89 cf 3b da 31 7a bd 68 6b c3 bd 48 38 bd bd
       0.006333559 -0.0610827 -0.095419705 -0.092392504
000360 b1 ca 83 bc d9 eb 52 3d 07 95 b7 3d 79 48 a3 bc
       -0.016087862 0.051494453 0.089639716 -0.019932019
000370 9f 7c a1 3d b4 0e b4 bd 11 ea 60 bd 6c 18 39 3d
       0.07885098 -0.08791867 -0.054910723 0.045189306
000380 27 9d 0b 3c 22 bf 99 bd 20 86 93 3b 28 2e e0 bc
       0.008521355 -0.07507159 0.004502073 -0.027365759
000390 aa 82 7b 3d 6f 50 a0 3d 41 17 a5 3b ef 9c 81 bd
       0.061403908 0.078278415 0.0050381725 -0.06328761
0003a0 1e 34 0d bd 18 62 3a 3d f7 fe a5 bc b7 d8 05 bd
       -0.03447353 0.045503706 -0.020263178 -0.03267738
0003b0 97 0d 60 3b 04 2b aa bd 00 26 d7 bd c7 83 a1 bc
       0.0034187788 -0.08308986 -0.10505295 -0.019716157
0003c0 d1 07 9c 3d fe 81 0b 3c 7e 28 7b 3d 2b a4 d6 bd
       0.07618678 0.008514879 0.061317913 -0.10480531
0003d0 50 88 44 bd 70 d9 7c 3a 5b b2 b9 bc a2 07 ce bd
       -0.04798156 0.0009645438 -0.022668054 -0.100600496
0003e0 ea d6 5a 3d c6 a9 39 bd 4f 0e b1 bd 5b 0b 1b 3d
       0.053427614 -0.045327924 -0.08645307 0.037852626
0003f0 d5 fb ba bd d8 9c ca 3d 5e 1c 20 3d fe ba 58 3d
       -0.091300644 0.09893197 0.039089553 0.052912705

conv2.bias f4 [64]
000000 70 fc d5 b7 78 eb 83 b7 b0 a6 8b 38 db 4d 86 b9
       -2.5509129e-05 -1.5726066e-05 6.6590845e-05 -0.00025616479
000010 ca 94 d2 b6 0f 4a e4 b9 4f 61 a3 38 c3 f2 b4 38
       -6.275809e-06 -0.00043542727 7.790571e-05 8.628287e-05
000020 85 3d 74 b8 30 37 e5 39 67 6b e3 b8 70 ba a8 38
       -5.8231428e-05 0.00043719402 -0.00010844209 8.045591e-05
000030 11 53 db b8 21 f6 31 39 94 09 ca b9 fe f2 93 39
       -0.00010458206 0.00016971726 -0.0003853558 0.00028219068
000040 10 f2 e2 b7 c0 69 ce b8 70 f3 97 b8 19 1a c6 38
       -2.7054019e-05 -9.842543e-05 -7.245585e-05 9.446237e-05
000050 0e 66 2f 3a 12 3f 10 38 f0 b2 a5 b7 d3 bb b9 b8
       0.00066909275 3.4391014e-05 -1.9752857e-05 -8.8564724e-05
000060 f4 c0 7c b7 d3 bf 36 b9 a9 9a 99 b9 79 91 bd b9
       -1.5065296e-05 -0.00017428333 -0.00029297665 -0.00036157275
000070 c5 f3 63 39 8d 9e 3e b8 57 d0 02 39 a6 87 58 39
       0.00021739218 -4.5447192e-05 0.00012475379 0.00020649898
000080 f0 74 8d b8 9e fd 0e 38 4a 5c 02 39 da 82 a9 39
       -6.745185e-05 3.4091638e-05 0.00012432146 0.00032331684
000090 15 1f b8 39 c7 97 3e 39 bf d6 0e 39 15 65 fe b8
       0.00035118373 0.00018176353 0.00013622174 -0.00012130492
0000a0 4f 0c 9f b8 5a 64 56 39 ca 08 91 b9 d0 46 fa b7
       -7.5840035e-05 0.00020446014 -0.00027663104 -2.9835297e-05
0000b0 c5 bf f7 b8 e8 4f bc 38 fa fc 57 b8 8a 6d 7c b6
       -0.00011813598 8.979422e-05 -5.1495597e-05 -3.7614686e-06
0000c0 64 f0 01 38 36 ec 2c b9 91 b5 0e 38 a0 6a 7a b5
       3.0979878e-05 -0.00016491194 3.4024535e-05 -9.328742e-07
0000d0 fc 1e a9 39 ea ec 94 b7 ba e7 c4 b9 cb ae 47 39
       0.00032257277 -1.7753297e-05 -0.00037556683 0.00019043234
0000e0 e0 cd 2a b6 ba 24 f0 39 72 8c 13 38 c3 dc 68 38
       -2.545181e-06 0.0004580373 3.517833e-05 5.551871e-05
0000f0 41 7a 73 b8 84 3d 10 b8 98 71 91 b7 42 3e 96 b8
       -5.8049573e-05 -3.4389566e-05 -1.7338243e-05 -7.164154e-05

conv2.lin.weight f4 [64, 64]
000000 a6 50 3c 3c 49 ff 47 be 58 61 e5 bc 5b 94 c1 3d
       0.011493837 -0.19530977 -0.028000519 0.09452125
000010 39 13 8f 3d 0d cd f5 3d 26 58 04 3e af a9 2e 3d
       0.06986088 0.12002001 0.12924251 0.04264229
000020 7f f8 ab 3c c5 41 4f 3e 3b b0 22 be b4 28 31 be
       0.020992516 0.20239933 -0.15887539 -0.17300683
000030 0b ef 2c be c0 16 c4 bc de 67 76 3b 19 ba 68 3e
       -0.16888063 -0.02393663 0.003759853 0.2272724
000040 5f 5e 32 be bb 99 61 bd 85 f3 98 3d a6 f3 04 3e
       -0.17418812 -0.05507825 0.07468323 0.1298357
000050 c5 97 5f 3e b2 3f c5 bd 37 d3 3d be 72 98 8d bd
       0.21835239 -0.096312895 -0.18537603 -0.06913842
000060 d5 46 ee 3d 61 49 0f 3e ad 30 e8 3d ba ef 4e be
       0.11634604 0.13992836 0.11337409 -0.20208636
000070 eb ef dd bd 5a 6c 06 3e c4 9d 60 bd b7 44 85 bd
       -0.10836776 0.1312727 -0.054837957 -0.06507247
000080 d3 b6 ff 3d 1e 38 e1 bd 26 7d 5b 3d f3 86 c5 bd
       0.12486043 -0.10997032 0.053586148 -0.0964488
000090 a8 34 25 3c 32 d1 53 bc e3 8e 15 3e 78 7c c4 3d
       0.010083355 -0.012928294 0.14605288 0.09594053
0000a0 48 a3 4b be 1d 31 99 3d 2c 89 70 bc 44 c0 3f 3d
       -0.19886506 0.07480071 -0.014681142 0.04681422
0000b0 cc 9f a7 3d b6 73 18 be ef c8 03 3e 5f 71 57 3d
       0.08184776 -0.1488789 0.12869619 0.052598353
0000c0 7c fc 67 3d 10 94 fe 3d b4 c9 49 be 69 09 00 be
       0.056637272 0.124305844 -0.1970585 -0.1250359
0000d0 6c 82 84 bd 3b be 4a 3d 8b e8 18 be 7b 31 51 3c
       -0.064701885 0.049497824 -0.14932458 0.012768145
0000e0 e7 a5 10 bd 21 1f 28 3e bb 7a da 3d 4b bc 31 be
       -0.035314467 0.16418125 0.1066794 -0.17356984
0000f0 41 5d 66 3d 5f 78 94 3d cb 9e 60 3e 86 a7 12 3e
       0.056241278 0.072495215 0.21935575 0.14321718
000100 f6 7e 04 3e 2c a1 5b 3e 7f 83 90 bd cd d6 3b 3e
       0.12939057 0.21448201 -0.07056331 0.18343659
000110 d3 b9 f8 bd a6 3a 96 bd 9d 69 16 3e 1a da 89 bd
       -0.12144818 -0.07335405 0.14688726 -0.06731053
000120 87 31 06 be 9d 27 04 be 09 65 4f 3e 93 12 20 3e
       -0.1310483 -0.12905736 0.20253386 0.15632086
000130 a2 8e 24 3d 40 91 68 be 3c b0 50 3e 4e d7 41 be
       0.040175088 -0.22711658 0.20379728 -0.18929788
000140 6c ae 02 b8 88 7a 1b be 96 4f fc bb f5 ab e9 bd
       -3.115686e-05 -0.1518346 -0.007699917 -0.11409751
000150 f4 46 fc bd 7b a4 08 3e 8d bf 23 be e4 78 ce 3d
       -0.12318221 0.13343994 -0.1599104 0.10081652
000160 f0 15 f4 bd 74 c9 cb 3d 66 62 44 bc 78 dd ad 3c
       -0.11918247 0.099505335 -0.011986351 0.021223769
000170 ca 6a 2c 3d ce b5 56 be 8d 3f 38 3d 1e b1 cf 3d
       0.04209403 -0.2096779 0.04498248 0.10141204
000180 4b ba 74 3c 92 79 97 3d 8f 40 e6 3d c2 bb 42 be
       0.014936994 0.073962346 0.11242782 -0.19016936
000190 3f 34 17 be fb 45 66 bd 12 c8 61 3e 47 2d a3 bb
       -0.14766024 -0.056219082 0.22048977 -0.0049797627
0001a0 2e c8 24 3e bc b4 65 3d c7 51 aa bd 5e 26 3d 3d
       0.16091987 0.056080565 -0.08316379 0.046179168
0001b0 ff 1b ff 3c 2b 68 1f be 5d da 30 3e df ad bf bd
       0.03114128 -0.1556708 0.17270799 -0.09359335
0001c0 61 cb 14 3e a2 85 91 bd 5b fa 28 3d 74 94 28 be
       0.14530708 -0.071055666 0.041254383 -0.1646288
0001d0 c1 e0 fb bc 39 06 eb bb e7 08 c9 3d a8 73 e5 3b
       -0.03074682 -0.0071723727 0.09816151 0.0070023127
0001e0 75 3d 13 3e a9 6c 56 bd 77 ce 67 bd ed e7 84 3c
       0.14378913 -0.05234972 -0.056593385 0.016223872
0001f0 ae 82 d7 3d 29 6b 10 bd 70 29 48 be 60 9a a1 bd
       0.10522972 -0.035258446 -0.19547057 -0.07890773
000200 97 38 75 3c be 61 62 3d 80 87 e2 3d 57 9e 85 3d
       0.014967105 0.055268995 0.11061001 0.065243416
000210 25 b8 15 be b7 1f e8 3d c0 b5 d5 bd da 6a 1e 3c
       -0.14621027 0.11334174 -0.10435057 0.00966903
000220 a5 e5 97 bd e2 71 ad bd ea 82 4b be de 8b 28 be
       -0.07416848 -0.08468987 -0.19874159 -0.16459605
000230 43 9c 8d 3c 75 ee 78 3d 35 a0 70 bb 78 44 61 3e
       0.017286425 0.060774285 -0.0036716585 0.21998775
000240 93 dc 52 be f3 69 b2 bd da 9f 1c be fa 8f 05 3e
       -0.20591955 -0.087116145 -0.15295354 0.13043204
000250 07 70 43 bd 5b e4 40 be 97 62 49 3e 5f eb 00 3e
       -0.04771426 -0.1883711 0.19666515 0.12589787
000260 a7 21 12 3e 44 b5 32 3e a9 30 37 3d 66 51 31 be
       0.1427065 0.1745196 0.04472414 -0.17316207
000270 26 1d 09 be 3d 7f 28 3d 7f ce 2f 3e 76 66 24 be
       -0.13390025 0.04113697 0.17168616 -0.16054711
000280 d9 4c 9c bd d0 ed fd 3c 38 dd 52 be c7 39 44 3e
       -0.07631845 0.030997187 -0.20592201 0.19162665
000290 4a ba f1 bc de a6 1e be 43 b0 f5 bd 4d b7 b7 3d
       -0.029507775 -0.15493342 -0.1199651 0.08970509
0002a0 d0 b9 0c 3c 9c e2 23 3e be 1d 2b 3e 3f 7f 82 bc
       0.008589223 0.16004413 0.16710564 -0.015929816
0002b0 bc 40 64 3e 35 30 9b 3d 81 2a fd 3d c3 d7 dd 3d
       0.22290319 0.07577554 0.123616226 0.10832169
0002c0 a8 67 87 bc 5c ea 44 3e e2 73 49 be 83 f7 0b be
       -0.01652892 0.19230026 -0.19673112 -0.13668637
0002d0 cd 67 33 be 22 d1 04 3d 52 7f 3c be 94 28 54 3e
       -0.17520066 0.032426007 -0.18407944 0.20718604
0002e0 08 1b 32 bd 53 b6 f8 3d 29 be d1 3d 19 40 01 3e
       -0.04348281 0.121441506 0.10241348 0.12622108
0002f0 25 58 fc bd 18 53 e4 ba f9 1d 56 3e 5e ce 70 bd
       -0.123215 -0.0017419783 0.20909871 -0.058790557
000300 19 c4 29 be 08 66 a8 bc a0 ca 14 be 9a 80 61 be
       -0.16578712 -0.020556465 -0.1453042 -0.22021714
000310 72 7d dd 3d a3 42 9f 3d 4f cd 50 3e b3 e7 60 3e
       0.108149424 0.07776382 0.20390819 0.21963386
000320 58 8f db bc ff d0 a7 3c 9e 1a 64 bd 24 15 0e 3e
       -0.02680175 0.0204854 -0.055689447 0.13875252
000330 03 03 fd bc 8f 52 c8 bd 59 38 42 be 8b b0 36 3e
       -0.030885225 -0.09781372 -0.18966807 0.17840783
000340 6b 1c a0 bc bf 12 29 3e 17 45 a6 bd 9e 3f 05 3e
       -0.0195448 0.16511057 -0.081186466 0.1301255
000350 58 59 70 bd 3b e4 4c 3d d3 92 a7 3d 77 a5 85 3d
       -0.058678955 0.050022345 0.08182301 0.065257005
000360 0a dd 2e bd 80 75 c5 3d fb 15 1b 3e 11 07 15 3e
       -0.042691268 0.09641552 0.15145104 0.14553477
000370 df bf 39 3e a2 f7 0a be 73 2c c1 bd 21 b9 46 be
       0.181396 -0.13571027 -0.09432306 -0.19406559
000380 7d 6b a5 3d 4b 27 01 3e ad 35 93 3d 72 bd 17 bc
       0.080771424 0.12612645 0.07187972 -0.009261476
000390 d2 70 03 3d 90 51 50 be 86 76 1f 3e b7 42 11 3e
       0.032090016 -0.20343614 0.15572557 0.14185606
0003a0 b7 ac 34 3e 48 26 d6 3d d9 74 b5 bd 4d 83 6a 3d
       0.1764401 0.1045652 -0.088601775 0.057254124
0003b0 d0 c9 e0 3d fa f7 66 3b a3 60 58 be 75 d9 25 be
       0.10975993 0.003524302 -0.21130614 -0.16196235
0003c0 5a 67 58 3d c2 d9 6e 3d ba 83 5e bd 8f 6a f2 3d
       0.05283294 0.05831314 -0.054324843 0.11836731
0003d0 5b cb 57 be e2 4c 50 3e 4a f6 34 3e 97 d5 33 3e
       -0.21073668 0.20341828 0.17672077 0.17561947
0003e0 b4 c9 a6 bd 1d 8d 1f bc 76 9d be 3d 0d a0 3e 3e
       -0.081439406 -0.009738234 0.09307377 0.18615742
0003f0 8f f9 19 3e 51 b0 4d 3e 42 b5 4d be f2 96 e5 3b
       0.15036605 0.2008679 -0.20088676 0.0070065195

bn1.weight f4 [64]
000000 aa 70 81 3f 2a e3 80 3f c9 43 7f 3f e2 77 80 3f
       1.0112507 1.0069325 0.99712807 1.0036585
000010 0e 26 80 3f ce aa 7e 3f ad c5 7c 3f 6f 26 7d 3f
       1.0011613 0.9947938 0.9873913 0.9888677
000020 1d 87 7c 3f 95 dc 7c 3f 84 cf 7b 3f cc 29 7e 3f
       0.98643667 0.9877408 0.9836352 0.99282527
000030 1c 10 7d 3f d5 0b 82 3f f1 07 7d 3f 42 f9 80 3f
       0.98852706 1.0159861 0.9884024 1.0076067
000040 62 bb 81 3f 83 54 7d 3f bf b3 7c 3f e1 30 7d 3f
       1.013531 0.9895708 0.9871177 0.9890271
000050 14 29 7d 3f 7f cb 81 3f 57 ef 7c 3f 20 8d 7c 3f
       0.98890805 1.0140227 0.98802704 0.9865284
000060 a2 6d 81 3f 39 fb 80 3f 2f 4f 7c 3f 29 3d 7c 3f
       1.0111582 1.0076667 0.98558325 0.98530823
000070 bf 6d 7d 3f d0 d3 80 3f 69 be 81 3f 2a ad 7c 3f
       0.98995584 1.006464 1.0136234 0.9870173
000080 02 57 7c 3f fe 98 7c 3f 61 82 7f 3f 35 58 81 3f
       0.98570263 0.9867095 0.9980832 1.0105044
000090 f0 5b 81 3f 5b cc 81 3f 7d 5d 7e 3f ee 90 81 3f
       1.0106182 1.0140489 0.993614 1.0122354
0000a0 79 cd 7f 3f cb 42 7d 3f 05 e4 81 3f f3 31 80 3f
       0.999229 0.98930043 1.0147711 1.0015243
0000b0 69 5b 7c 3f f6 c3 7b 3f 70 50 81 3f f5 75 81 3f
       0.9857698 0.9834589 1.0102673 1.0114123
0000c0 6e 41 80 3f df 3b 7d 3f fe 74 80 3f 5c e5 81 3f
       1.0019968 0.9891948 1.0035703 1.014812
0000d0 79 3d 7c 3f 28 ea 81 3f 4b 3b 80 3f 25 3f 81 3f
       0.985313 1.0149584 1.0018095 1.0097395
0000e0 88 54 7c 3f 6d 74 81 3f 98 c2 81 3f 1a 19 81 3f
       0.98566484 1.0113655 1.013751 1.0085785
0000f0 99 4e 7d 3f 55 fe 81 3f 04 b5 7d 3f 0e a5 81 3f
       0.98948056 1.0155741 0.9910433 1.0128496

bn1.bias f4 [64]
000000 5e e2 50 3c 78 01 c6 3b c9 78 28 3a 0c df 16 3c
       0.012749283 0.0060426556 0.000642669 0.009208452
000010 b6 28 1c bb de b5 a7 bb e7 18 34 bc a1 1d 31 bc
       -0.0023827977 -0.005118116 -0.010992265 -0.010810287
000020 e1 96 52 bc 8a 6d 1a bc 4f 57 7b bc a2 45 bf 3a
       -0.012853355 -0.00942553 -0.01534064 0.0014592896
000030 53 f6 4f bb 80 93 78 3c 3a 0c 4d bc b0 69 a0 3b
       -0.0031732514 0.0151718855 -0.012515122 0.0048954114
000040 0b 11 65 3c 11 15 31 bc b9 20 20 bc dc 89 3c bb
       0.013981114 -0.010808245 -0.009773427 -0.0028768694
000050 22 93 27 bc 73 48 6c 3c e0 33 26 bc fb 4f 53 bc
       -0.01022795 0.01442157 -0.010144204 -0.012897487
000060 33 9a 41 3c 63 0e 0d 3c 35 b7 53 bc 9c 23 69 bc
       0.011816549 0.008609387 -0.012922098 -0.014229681
000070 46 e7 a6 bb 31 9d 12 3c 1b a1 63 3c f7 86 de bb
       -0.005093488 0.00894861 0.013893391 -0.0067909914
000080 f9 02 5f bc c4 17 47 bc 9e b6 1d 3b 9c 31 16 3c
       -0.013611549 -0.012151662 0.0024065147 0.009167101
000090 e5 be e2 3b 21 27 64 3c 16 47 ba 3a 21 61 49 3c
       0.006919729 0.013925345 0.0014211859 0.012291224
0000a0 0f 3e c8 3b fa 24 03 bc c8 91 7b 3c 8a 2f 13 3b
       0.0061109136 -0.008004421 0.015354581 0.0022458755
0000b0 08 79 5d bc 6d 09 83 bc f0 f4 4b 3c fc be 31 3c
       -0.013517626 -0.015995706 0.012448534 0.010848757
0000c0 58 8a 9d bb 9e fb b9 bb e3 53 c2 3b 27 8e 66 3c
       -0.0048077516 -0.005675747 0.00593041 0.014071978
0000d0 ac 34 5c bc 18 3e 75 3c b1 e2 3d 3b 48 5d 3f 3c
       -0.013440292 0.014968418 0.002897423 0.011679955
0000e0 0a 42 5c bc c3 ad 3b 3c ab 0e 6a 3c d5 89 1c 3c
       -0.013443479 0.011455002 0.014285724 0.009554346
0000f0 94 cc 04 bc 40 a3 81 3c 85 93 88 bb e9 e4 38 3c
       -0.008105416 0.015824914 -0.0041679763 0.011285045

bn1.running_mean f4 [64]
000000 37 70 09 3f 74 87 9c bf ae 27 8c bf fa 9d 6f bf
       0.5368685 -1.2228837 -1.0949609 -0.9360043
000010 f0 8c 81 bd a8 07 75 be c2 62 f0 bd aa 5d 3d be
       -0.0632571 -0.23928702 -0.117375866 -0.18492761
000020 8c 39 18 3f 53 1c af 3f 2f dd 94 bf 82 1f 96 bf
       0.5946281 1.3680519 -1.163 -1.1728365
000030 42 58 bc 3e 4a 53 ff 3e ca 25 02 40 e5 fa 69 bf
       0.36786085 0.49868232 2.0335565 -0.9139846
000040 f9 c2 9f 3f ac 46 78 3f fb 06 bc 3e b1 22 8f 3f
       1.2481376 0.96982837 0.36724076 1.1182462
000050 62 8d 84 bf 14 78 85 3e fe 88 e5 3e b5 ee d9 3d
       -1.0355647 0.26068175 0.4483108 0.10641233
000060 81 a1 be 3e e9 42 12 bf 62 89 60 be 62 34 c2 bd
       0.37232593 -0.57133347 -0.21927407 -0.094826475
000070 20 5f 2f 3b cc 92 dd bd c0 fc b0 bf ce 02 a6 3d
       0.002675958 -0.10819015 -1.3827133 0.08106004
000080 11 5e af 3e e0 5b 80 bd 71 3c f0 be 53 7b c7 bf
       0.34251454 -0.06267524 -0.46921113 -1.558451
000090 f4 22 b8 3e a6 76 a2 bf f4 1b 91 3d f2 65 1b be
       0.35964167 -1.2692459 0.0708541 -0.15175608
0000a0 7d ee 84 bf 24 15 02 3e 28 aa 42 bf e1 82 a3 3e
       -1.0385281 0.12703377 -0.7604089 0.3193579
0000b0 6a 44 f8 bf 06 8c 1e 3f 72 94 98 3d 33 65 a7 3f
       -1.9395878 0.6193241 0.07450189 1.3077759
0000c0 35 52 8b 3f e0 ac a8 3d d0 30 d2 3f 24 e3 96 3f
       1.0884463 0.08236098 1.6421146 1.1788068
0000d0 19 69 ee bf 2a 0f e1 bd 6c 78 f8 be b6 e0 9a bf
       -1.8625823 -0.109892204 -0.48529375 -1.2099826
0000e0 e5 10 d4 3f c9 a1 b8 3d f8 dc 67 3f 5c d1 aa bb
       1.6567656 0.09015233 0.90571547 -0.005212946
0000f0 4a 93 64 bf 7d 3d 2a 3f 61 1f 71 bf ae b6 35 3f
       -0.89287245 0.66500074 -0.94188505 0.7098187

bn1.running_var f4 [64]
000000 2a b0 f5 3e b7 14 d4 3d 97 cc 94 3e 1e 23 70 3e
       0.47985965 0.103555135 0.2906234 0.23450896
000010 b8 85 79 3e f1 80 87 3e 93 03 af 3e a4 21 8c 3e
       0.24367416 0.26465562 0.34182414 0.27369416
000020 0b 3e 56 3e 51 1d 83 3e be 0e 55 3e cb c0 89 3e
       0.20922105 0.25608304 0.20806405 0.26904902
000030 ef 24 cd 3e 98 5a a6 3e 56 72 da 3e f5 3d 94 3e
       0.4006724 0.32490993 0.42665356 0.2895352
000040 6c 59 9a 3e 88 1c 7f 3e e9 2e 3e 3e 3b 97 8b 3e
       0.30146348 0.24913228 0.18572582 0.27263817
000050 e7 c2 44 3e 85 dc a2 3e 97 72 27 3e cb 14 bf 3e
       0.19214974 0.31808868 0.16352306 0.3732055
000060 35 7b 24 3e 17 9b eb 3d e0 df 36 3e 20 8a a7 3e
       0.16062625 0.115041904 0.17858839 0.3272257
000070 23 96 2b 3e 90 9a 8d 3e c8 34 b5 3e 65 c8 c9 3e
       0.16756491 0.27656984 0.3539183 0.394107
000080 bd 91 67 3e ab a5 90 3e 41 c5 48 3e f0 3a 83 3e
       0.22614188 0.28251395 0.19606496 0.25630903
000090 fc 8d 87 3e 1f 2d a4 3e 39 ed 80 3e a2 b8 d2 3e
       0.26475513 0.32065675 0.25180987 0.4115649
0000a0 79 3b 9f 3e a6 ad 75 3e 15 94 54 3f e9 5e 6e 3e
       0.31100062 0.23992023 0.83038455 0.23278393
0000b0 ee 94 ae 3e f1 bc a4 3e d2 83 5f 3e f9 db 8e 3e
       0.34098 0.321754 0.21827629 0.279022
0000c0 21 15 ba 3e 61 bb dc 3e 9f d1 89 3e 25 8d 91 3e
       0.36344245 0.4311171 0.2691774 0.28427997
0000d0 74 2a 86 3e ef f9 15 3e dc 22 01 3f 03 6a f4 3e
       0.26204264 0.14646123 0.50443816 0.4773713
0000e0 4f d7 a1 3e 55 fe 93 3e 6a 20 96 3e de 95 81 3e
       0.3160958 0.28904977 0.29321605 0.25309652
0000f0 f4 44 4e 3e 55 8d d3 3e c9 5e f8 3e e7 67 8c 3e
       0.20143491 0.41318765 0.48509815 0.2742302

bn2.weight f4 [64]
000000 31 08 7c 3f cf d4 81 3f 42 70 7c 3f 23 d4 81 3f
       0.9845 1.0143069 0.9860879 1.0142864
000010 d6 d6 7b 3f 61 f7 81 3f 3f 68 7c 3f 3d 44 7c 3f
       0.9837469 1.0153619 0.98596567 0.98541623
000020 0d 60 81 3f 20 62 7d 3f 78 b7 7b 3f f0 f6 7b 3f
       1.0107437 0.9897785 0.98326826 0.9842367
000030 2f 12 7c 3f 3d be 81 3f 79 2a 7c 3f b7 05 82 3f
       0.98465246 1.0136181 0.9850231 1.0157994
000040 08 c8 81 3f 29 e7 81 3f 4b e7 7f 3f 23 a0 81 3f
       1.013917 1.014867 0.999623 1.0126995
000050 fe d9 81 3f 42 d2 80 3f 0f bb 81 3f 34 3c 7c 3f
       1.0144651 1.0064166 1.0135211 0.9852936
000060 70 22 7c 3f 80 4c 7c 3f 0a 47 81 3f e8 3a 82 3f
       0.9849005 0.9855423 1.0099804 1.0174227
000070 81 b6 7b 3f db ce 7c 3f f3 ac 81 3f 94 f4 7b 3f
       0.98325354 0.98753136 1.0130905 0.9842007
000080 29 46 7c 3f 4d ed 7b 3f 76 ca 81 3f be e8 81 3f
       0.98544556 0.9840897 1.0139911 1.0149152
000090 67 e3 7b 3f cd 2c 7c 3f 17 bd 81 3f 43 71 7c 3f
       0.98393863 0.9850586 1.0135831 0.98610324
0000a0 68 f9 7b 3f ea 09 80 3f de d7 81 3f d5 5d 80 3f
       0.9842744 1.0003026 1.0144002 1.0028635
0000b0 1e 6f 7c 3f ed f7 81 3f 63 fb 7b 3f f3 f6 7b 3f
       0.9860705 1.0153786 0.9843046 0.9842369
0000c0 93 ca 81 3f 6a 68 7f 3f e6 69 7d 3f 7d f6 81 3f
       1.0139946 0.997687 0.98989713 1.0153347
0000d0 bf ce 81 3f 1a c6 81 3f 6f ff 81 3f 34 6c 7c 3f
       1.0141219 1.0138581 1.0156077 0.98602605
0000e0 b0 c7 81 3f 1f 30 7c 3f a6 08 82 3f 3c 9a 80 3f
       1.0139065 0.98510927 1.0158889 1.0047069
0000f0 3d e4 80 3f 4e f3 7c 3f 50 8b 81 3f b5 d7 81 3f
       1.0069653 0.98808753 1.012064 1.0143954

bn2.bias f4 [64]
000000 b8 b7 77 bc 13 6b 6b 3c 34 ad 5a bc 6a f1 cb 3a
       -0.015119486 0.01436879 -0.013346959 0.0015559618
000010 b6 2c 80 bc 6b 42 80 3c 6f 9c 6c bc 3f 13 48 bc
       -0.01564632 0.01565667 -0.014441594 -0.01221162
000020 67 81 3d 3c fa 3b 6f bc e7 ca 7b bc d5 bc 7e bc
       0.011566496 -0.014601702 -0.0153682 -0.015547951
000030 ef ed 67 bc 58 69 55 3c 0e a6 71 bc f5 05 16 bc
       -0.014155849 0.013025604 -0.014749063 -0.009156694
000040 db 3e ae 3b 36 4c aa bb 3b aa 38 bc 2d 90 1c bc
       0.0053175515 -0.0051970733 -0.011271055 -0.009555859
000050 43 1c 77 3c 1e 65 83 bc 58 3a 44 3b e7 97 80 bc
       0.015082422 -0.016039427 0.0029942002 -0.015697433
000060 77 f2 68 bc 51 03 68 bc db 47 2b bc 90 b5 02 3c
       -0.014217964 -0.014160947 -0.010454143 0.007977858
000070 74 cd 81 bc ac 9d 4e bc 34 71 49 bc ae 9a 76 bc
       -0.015845038 -0.012610834 -0.012295056 -0.015051527
000080 c7 b3 6a bc c6 09 7b bc ea 97 32 3c c4 ad 35 3b
       -0.014325089 -0.015322154 0.010900477 0.002772198
000090 b7 98 74 bc 8e bc 72 bc ab 2f 41 3c 2d 5f 67 bc
       -0.014928988 -0.014815463 0.01179115 -0.014121813
0000a0 9e 97 7b bc dc 83 81 bc 83 24 73 3c 24 99 32 bc
       -0.015355973 -0.015809946 0.014840248 -0.010900769
0000b0 5e f0 66 bc 0a 1e 82 3c 9f dd 7a bc e6 d3 75 bc
       -0.014095394 0.015883464 -0.015311628 -0.015004134
0000c0 ea c8 47 3c aa 05 e6 bb dd 38 5c bc 73 94 8a 3c
       0.012193898 -0.007019718 -0.013441292 0.01691649
0000d0 52 c3 6e 3c 93 4a 6f 3c 1c e3 87 3c 69 ce 6e bc
       0.014572935 0.014605182 0.016587786 -0.014575579
0000e0 e5 24 72 3c 47 0f 70 bc 1a 14 e2 3a cd 70 38 3c
       0.014779304 -0.01465208 0.0017248422 0.011257363
0000f0 6a 50 60 bc 9b 63 5f bc 68 04 56 bc e5 1a 2f bc
       -0.013691047 -0.013634588 -0.013062574 -0.0106875645

bn2.running_mean f4 [64]
000000 71 74 6c 3e f5 d3 07 bd f2 bd 30 3e 05 69 29 3f
       0.23091294 -0.033161122 0.17259958 0.6617587
000010 52 a7 e3 3c 20 08 44 be 77 de 9d be cb 54 93 3e
       0.027789745 -0.19143724 -0.3083379 0.2877563
000020 72 c6 1b bf 5d fc e4 3e ae 2e 82 be bd d9 4c be
       -0.6084968 0.44723788 -0.2542624 -0.20004936
000030 14 6d 38 3f 4e 21 35 3f 8a a7 50 3e 1f 99 c6 be
       0.7204144 0.70753944 0.20376411 -0.38788697
000040 a2 39 2b 3f 27 a2 72 3e 1e cf cc 3e 60 c9 a4 3e
       0.66884816 0.23694669 0.40001768 0.32184887
000050 44 01 ca 3e 66 77 49 3d 52 b3 26 bd 1a 5e 24 bf
       0.3945409 0.049186133 -0.040698357 -0.6420609
000060 a8 eb 9d bc 45 88 cf 3e c9 6a ea 3e 62 eb e7 3e
       -0.019277409 0.40533653 0.45784596 0.4529677
000070 f6 3b 2d be 7d be 9e 3e f0 79 8c be 60 26 2b 3f
       -0.16917405 0.31004706 -0.2743678 0.6685543
000080 76 c2 98 bd eb 38 65 be b1 00 a0 3e bb 46 82 3e
       -0.074589655 -0.22384994 0.31250528 0.25444588
000090 07 73 e4 3e 83 e5 88 3d 92 58 ff 3e c9 40 d6 3e
       0.4461901 0.06684401 0.4987226 0.41846302
0000a0 e2 94 f9 3e 0c a3 fb 3e 8e 96 3d 3e 93 8b eb 3d
       0.487464 0.49147832 0.18514463 0.11501231
0000b0 10 1a 76 3e 26 9f 10 be f3 d6 bc 3d d8 72 4b 3e
       0.2403338 -0.1412321 0.09220686 0.19868028
0000c0 c3 ee 4d be fa 37 27 3f cc a0 63 3d 1d e3 05 be
       -0.20110612 0.6531979 0.05557327 -0.13074918
0000d0 ee 76 1b bf a4 d6 b5 bd a3 75 37 be f7 0d d2 be
       -0.6072835 -0.0887883 -0.17915969 -0.4102628
0000e0 7e 68 8c 3e 15 22 54 3e 45 f1 e6 3d 6a 97 f0 bd
       0.2742347 0.20716126 0.11276487 -0.1174763
0000f0 13 87 29 bf a1 96 51 be 45 0d 59 3d 14 73 0d 3e
       -0.6622173 -0.20467617 0.05299117 0.1381343

bn2.running_var f4 [64]
000000 a7 7e d2 3d 25 4e 32 3e 27 9c 5e 3e 47 e1 b3 3e
       0.10278063 0.17412622 0.21739255 0.3513281
000010 ff cb 16 3e b3 a7 5b 3e f4 9e 3e 3e 54 12 54 3e
       0.14726256 0.21450691 0.18615323 0.20710117
000020 34 d3 ea 3e 66 c4 36 3e 36 fb da 3d 78 d9 34 3e
       0.4586426 0.17848358 0.10692446 0.17661083
000030 9c 7f 06 3e cf 0f 56 3e 36 51 42 3e dc 4f 9c 3e
       0.13134617 0.20904468 0.18976292 0.30529678
000040 23 01 42 3e 7a 67 31 3e 86 20 41 3e b4 3e 29 3e
       0.18945746 0.1732463 0.18860063 0.16527826
000050 f6 a7 2b 3e 93 87 21 3e d3 6f 22 3e 2f b4 4c 3e
       0.16763291 0.15774374 0.1586297 0.1999061
000060 02 78 39 3e ab 21 13 3e 8d be 83 3e cb 34 71 3e
       0.18112186 0.14368312 0.25731316 0.23555295
000070 e4 55 44 3e 8b f9 81 3e 2f c2 16 3e 95 17 7e 3e
       0.1917339 0.253857 0.14722513 0.24813683
000080 7a 02 02 3e b4 da bb 3d fb a6 f1 3d ba 28 12 3e
       0.12696257 0.09172574 0.11799427 0.14273348
000090 b7 3a 57 3e e9 ec d5 3d 11 c9 05 3e b0 dd 22 3e
       0.21018492 0.10445578 0.13064982 0.1590488
0000a0 e9 be 87 3e 39 17 00 3e b3 1a 4d 3e 75 4c 08 3e
       0.2651284 0.12508859 0.20029716 0.13310416
0000b0 71 3d 15 3e 04 1d 23 3e 70 b9 14 3e e2 f3 75 3e
       0.1457422 0.15929037 0.14523864 0.24018815
0000c0 ab ee 3d 3e 0f bc 2d 3e 0c 5a 52 3e 55 bc 75 3e
       0.18548076 0.1696627 0.20542163 0.23997624
0000d0 2e 5d b0 3e 27 91 28 3e 4d 5c 61 3e 84 cd 35 3e
       0.3444609 0.16461621 0.22007866 0.17754179
0000e0 e1 c8 f8 3d 5a 01 37 3e cb 90 5d 3e 9c 8c 10 3e
       0.121476896 0.1787161 0.21637265 0.14116138
0000f0 8f eb 37 3e 84 d2 95 3e 16 04 5d 3e 14 61 53 3e
       0.17960952 0.29262173 0.2158359 0.20642501

classifier.weight f4 [10, 64]
000000 e8 d4 65 3d 51 a0 80 3d e4 86 7f 3d 83 d8 b6 3d
       0.056111246 0.06280578 0.0623845 0.08928015
000010 51 74 a5 3d 7e c1 a5 bd d8 86 01 be 93 19 8e bd
       0.08078826 -0.08093546 -0.12649095 -0.06938472
000020 e5 7e 05 3e dd 1c fb 3c 60 65 0b bd a1 ae 7d 3d
       0.13036688 0.030653412 -0.034032226 0.061934117
000030 ce dd a3 bd da 74 85 3d 75 68 df 3d 90 65 33 bd
       -0.0800129 0.06516428 0.109085955 -0.04379803
000040 24 da 2f 3d 47 59 d7 bd 9b be da 3d 83 5f a1 bd
       0.042932644 -0.10515075 0.10680886 -0.078795455
000050 95 3f a2 bd f7 15 a5 3b 68 f3 d5 bd ed dd c9 bc
       -0.079222836 0.005038019 -0.10446817 -0.024641955
000060 59 fd 03 be b6 c7 f6 bd f3 56 e8 3d 00 66 df bb
       -0.12889613 -0.120498106 0.11344709 -0.0068175793
000070 16 d9 fb 3c 52 d4 00 be 11 ab b8 3d 79 86 d4 bd
       0.030743163 -0.12580994 0.09017003 -0.10377211
000080 01 37 af bd 2e 60 3b 3d 83 ca d0 bd 5f a7 7f bd
       -0.08555413 0.04574602 -0.10194876 -0.062415477
000090 7c db ef bd be db ae 3d bd 99 05 3e 8a 7d e6 bd
       -0.11711785 0.08538006 0.13046928 -0.112544134
0000a0 1b 05 2c bd c6 1d f4 bd 6f fd aa bc 75 48 08 3d
       -0.041997056 -0.11919741 -0.0208728 0.033272225
0000b0 c3 61 9d 3d 06 45 00 3c f5 18 00 bd 85 31 e6 3d
       0.07684662 0.0078289565 -0.0312738 0.11239914
0000c0 0c ee 36 3d ab 7b a9 bc f9 91 c6 3c 92 97 98 bd
       0.044660613 -0.020688852 0.024239527 -0.07450785
0000d0 77 2a 48 bd 87 9d b6 bd 9b 39 30 bd 34 57 b4 3d
       -0.048868623 -0.08916765 -0.043023687 0.08805695
0000e0 1b 38 c0 bd 94 20 b8 bc 57 9a c3 bd c8 ee 84 3d
       -0.09385701 -0.022476472 -0.09550922 0.064908564
0000f0 80 f2 91 3d bc d3 10 bc f8 55 9c bd 96 bc 96 bd
       0.07126331 -0.008839544 -0.07633585 -0.07360189
000100 05 68 7b 3c a9 9f 6a bd 3d 8d ea bd b0 4a 96 bd
       0.015344624 -0.05728117 -0.1145272 -0.07338464
000110 90 18 0c 3e e0 4d 04 3e 79 2b ed bd a6 1a a2 bb
       0.13681245 0.12920332 -0.115805574 -0.0049470244
000120 c3 b1 5c 3d 00 4b c1 3d 29 ac d0 3d f0 da 2d 3d
       0.053880464 0.09438133 0.10189087 0.042445123
000130 80 4e ce 3d 30 75 99 bd 72 88 29 bd f6 a0 93 3c
       0.100735664 -0.07493055 -0.04138989 0.018021088
000140 5a 12 0a 3d 97 ea db bd 82 0d 91 3d 99 39 bb bc
       0.033708908 -0.10738104 0.070826545 -0.022854613
000150 ee a1 95 3d 86 10 50 3d 70 23 d5 bd 85 e7 db 3d
       0.07306276 0.050797008 -0.1040715 0.10737518
000160 4f 04 a4 3d 6b ec c0 3d 30 aa e2 bc f9 da ed 3a
       0.08008634 0.09420093 -0.027669042 0.0018146924
000170 1f 9c 0e 3e 01 51 67 3d 7d e5 bd bc 7f 12 bc bd
       0.13926743 0.056473736 -0.023180718 -0.09183215
000180 7c 19 2d bd 4b 62 87 bd fb 1e 88 bd 01 f2 b4 3d
       -0.042260632 -0.06610545 -0.06646534 0.08835221
000190 74 93 48 3d 51 7a f1 bb 66 be 24 3d 3a 8b da bd
       0.048968747 -0.0073693176 0.04022064 -0.106710866
0001a0 21 26 88 bd 23 f8 1a bd 5e cf b5 bd 1a 3b a4 3d
       -0.066478975 -0.037834298 -0.08877443 0.08019085
0001b0 82 9e 85 3a 75 f8 05 3d 0c c0 72 bd 0f 70 db 3c
       0.0010194334 0.03270765 -0.05926518 0.026786832
0001c0 f8 ec 71 3d 81 32 96 bd 5e f2 8e bd f8 06 a1 bd
       0.05906388 -0.073338516 -0.069798216 -0.07862657
0001d0 fe 70 c2 bd b2 93 7c 3a f8 3c 60 3d 65 e3 a7 3d
       -0.09494208 0.00096350454 0.054745644 0.08197669
0001e0 04 36 32 bd 5b 4a f4 3d 21 26 cd 3c 67 da 5b 3c
       -0.043508545 0.11928245 0.025042595 0.01341877
0001f0 cc 29 38 3d 86 ad 31 3d c9 4f ce bc a4 28 47 3d
       0.044961736 0.043378375 -0.025184529 0.048622742
000200 28 f1 48 bc cb a4 ba 3d dc 93 d9 3d e1 7e 92 bc
       -0.012264527 0.09113463 0.10623905 -0.017882766
000210 f2 0f 56 bd a0 6d 36 bc 51 66 94 bd 1d 15 ec bd
       -0.0522613 -0.011134535 -0.07246078 -0.115274645
000220 bc 77 71 3d df 0f 28 3d ae 74 f0 3c 26 ac db bd
       0.05895208 0.04103076 0.029352512 -0.10726194
000230 e1 6b c9 bd 8e 01 b3 bd 0d 70 bb 3a 06 15 1a bd
       -0.098350294 -0.08740531 0.0014300362 -0.037617706
000240 d1 48 79 3c 82 0d 87 3d 9b 41 fa 3d 0e d0 ce 3d
       0.015215115 0.06594373 0.122195445 0.10098277
000250 68 e6 a0 bd 09 e6 6a 3d 89 91 88 bd ca 8a 5a bd
       -0.078564465 0.057348285 -0.06668384 -0.053355016
000260 41 08 b3 3d c8 c5 f8 3c 8c 93 62 3d 24 eb cc bc
       0.08741809 0.030367747 0.055316493 -0.025014468
000270 1d 65 f0 bd 79 09 bb bd 12 56 cb 3d c1 a8 9f bd
       -0.11738036 -0.09132666 0.09928526 -0.07795859
000280 25 d3 ab bd 1d e8 3b 3d d9 46 cc bd b6 d8 8c bd
       -0.08389882 0.045875657 -0.099744506 -0.06877272
000290 ca 56 9a 3d 99 17 cc 3d c7 91 d7 bd 68 e2 93 bd
       0.07536085 0.099654384 -0.10525852 -0.07220918
0002a0 a2 0a a8 bd 4e 98 a8 3c a7 46 d3 bd 42 63 9d 3d
       -0.08205153 0.020580437 -0.1031621 0.076849476
0002b0 64 cb ef 3d 9e 0e 54 3d 78 e9 87 3d 25 5e 59 bd
       0.117087156 0.051771753 0.066363275 -0.0530683
0002c0 5d 7b 6c bd 52 ff 43 3d 24 df e1 3d b5 42 df bd
       -0.057734836 0.047850914 0.11028889 -0.10901395
0002d0 41 aa 15 bd c7 ce 07 3e 3a dd d3 3d 62 5f a4 3b
       -0.03653932 0.13262473 0.1034493 0.0050162533
0002e0 b8 13 2b bd 17 42 b2 bd c5 4f c7 bd bd 10 d2 bd
       -0.041766852 -0.08704012 -0.09732012 -0.10257099
0002f0 a8 a0 9f bd 22 89 7c 3d 52 97 c4 bd 54 b6 36 bb
       -0.077943146 0.061654218 -0.095991746 -0.0027879672
000300 0a 2e d2 bd 32 88 9d bc eb 22 24 bb a4 de c7 3d
       -0.102626875 -0.019229982 -0.0025045227 0.09759262
000310 96 89 fa 3c f5 a6 8b 3d ae 84 e8 bd ce 05 dd 3d
       0.030583184 0.06818954 -0.11353432 0.10792123
000320 11 da c8 3c f5 09 42 bc dc 9f b1 3d f8 c1 f1 bc
       0.024518045 -0.011843194 0.08673069 -0.029511437
000330 28 f7 d5 3d 0f e1 29 3d 51 15 b9 bd da 81 45 3d
       0.10447532 0.0414744 -0.09037269 0.04821954
000340 fd aa 3f 3d 78 f6 ba bc 36 6e 84 bd 83 7f a9 bc
       0.046793927 -0.022822604 -0.064663336 -0.020690685
000350 8e 2f 8a 3d 55 b3 93 3d e6 ad 84 bc 97 66 9d bc
       0.067473516 0.07211939 -0.016196202 -0.019213958
000360 1d d9 63 bd 8d e4 1f b9 ce 9a b7 bc f0 60 db 3d
       -0.055626977 -0.00015248563 -0.022412684 0.10711849
000370 61 df ce bd 82 9f 86 3c bc 1e ad bd eb 60 23 3d
       -0.101012 0.016433481 -0.08453128 0.03988735
000380 00 81 3c 3d 76 5a 86 bd 16 c8 b7 3d 5d 87 b0 bd
       0.04602146 -0.06560223 0.0897371 -0.086195685
000390 b4 d4 b1 3d 71 b7 10 3c 4f 2f 3c bc b9 d9 f5 bc
       0.08683148 0.008832798 -0.011485889 -0.030011045
0003a0 ac ac 00 3e bc f1 be 3c 83 a3 a6 3b da d4 4d 3d
       0.12565869 0.023308627 0.00508541 0.05025182
0003b0 6c ad bf bd 06 97 e2 3d 47 c3 c6 bd 0b cb b8 3d
       -0.093592495 0.11063962 -0.09705215 0.090231024
0003c0 1b 2e 10 bd b1 1a a4 bd b8 31 59 3c 87 29 c8 bd
       -0.03520022 -0.080129035 0.013256483 -0.09773546
0003d0 f1 6e c4 3d b6 50 fa 3d c7 0c a4 bd 42 27 1c bd
       0.09591473 0.12222426 -0.080102496 -0.038123377
0003e0 4c bf 3d 3c b4 c9 05 bc 0b 9d d6 3d 04 f7 1e 3d
       0.011581253 -0.008165766 0.10479172 0.03880979
0003f0 e1 3a f5 bd af b7 38 3d e4 0a c2 bd 70 c9 df bb
       -0.11974121 0.04509705 -0.094747335 -0.006829433

classifier.bias f4 [10]
000000 fe 3c 7b 3d 60 b4 08 3d fa 41 40 3d 24 33 cd 3d
       0.061337464 0.033375144 0.04693792 0.1001952
000010 82 04 76 bc ae 27 d1 3c 2d 23 6d bd 21 0f 1d 3d
       -0.015015723 0.025531616 -0.057894874 0.038344506
000020 94 ae 59 bd 0e 2d fd 3c
       -0.053145006 0.030905273
