checkpoints/checkpoint_epoch_65.pt (torch, 547720 bytes, 37 tensors)

prototypes f4 [100, 64]
0	0x3e155a06	0.14585122
1	0xbe8c6432	-0.27420193
2	0xbdbf9dbf	-0.093562596
3	0x400dc6e5	2.2152646
4	0xbf2511c4	-0.64480233
5	0x3f324a78	0.6964488
6	0x3e4d11f3	0.20026378
7	0xbf620ff1	-0.88305575
8	0x3da7f685	0.08201317
9	0x403d3809	2.956545
10	0xbf80be05	-1.0057989
11	0xbf789fb2	-0.97118676
12	0xbf0fc11f	-0.56154054
13	0xbf8422c8	-1.0323114
14	0xbf292696	-0.660745
15	0x3fd37cda	1.6522477
16	0xbf3c6c03	-0.7360231
17	0x3ec61c68	0.38693547
18	0x3f7d6f8f	0.9899835
19	0x3fc489fc	1.535461
20	0xc00cc6e1	-2.1996386
21	0xbe3ad5a5	-0.18245561
22	0xbed4c31f	-0.41555116
23	0x3e1aefbb	0.15130512
24	0x3e85cb19	0.26131514
25	0x3e807947	0.25092527
26	0x3e65e50c	0.22450656
27	0x3f45abb9	0.7721515
28	0xbf01767e	-0.5057143
29	0x3f16b363	0.5886747
30	0xbed476c6	-0.41496867
31	0x3e9dd283	0.3082467
32	0xbff11452	-1.8834326
33	0x3fbe74d9	1.4879409
34	0xbeb6546d	-0.35611287
35	0x3e813762	0.25237566
36	0xbe8ccb7e	-0.27499002
37	0xbf52571b	-0.8216416
38	0x3f61d5c9	0.88216835
39	0xbff60a1f	-1.9221839
40	0xbef371c7	-0.47547743
41	0x3d2f9f09	0.042876277
42	0x3f963e2b	1.1737722
43	0x3ee28601	0.44242862
44	0x3f9c10fc	1.2192683
45	0xbe27c50c	-0.16383761
46	0xbe810796	-0.252011
47	0x3e5bad30	0.21452785
48	0x3ff15802	1.8854983
49	0xbee8f127	-0.45496485
50	0x3e61742b	0.22016971
51	0xbf127de1	-0.57223326
52	0xbf2f05a1	-0.68367964
53	0xbf4eb915	-0.8075116
54	0xbf1acc84	-0.60468316
55	0x3f069e60	0.5258541
56	0x3fa6128e	1.2974412
57	0xbe87afeb	-0.26501402
58	0x3de846fc	0.11341664
59	0xbff1f23d	-1.890205
60	0xbe5ce090	-0.21570039
61	0x3f5f6d12	0.87275803
62	0xbe9904de	-0.29886526
63	0x3facbeb1	1.3495694
64	0xbd52e477	-0.051487412
65	0x3fe82920	1.813755
66	0xbf8e7e75	-1.1132342
67	0x3e13f9bf	0.1445074
68	0xbfa60378	-1.2969809
69	0xbf666ab8	-0.9000659
70	0xbed78465	-0.42093197
71	0x3d12a54b	0.035802167
72	0xbedf70d7	-0.43640777
73	0xbe050e12	-0.12993649
74	0x3e08889f	0.13333367
75	0x3f7a0e94	0.97678494
76	0x3c90850d	0.017641569
77	0x3f5857ce	0.8450898
78	0xbf813d04	-1.0096745
79	0xbe923459	-0.28555563
80	0x3f0a7c99	0.5409637
81	0x3f4413c6	0.7659267
82	0xbf533430	-0.82501507
83	0xbf022d16	-0.50850046
84	0x3eb8d2be	0.36098284
85	0xbffeba29	-1.9900562
86	0x3f62d0a2	0.885996
87	0x3eee80f9	0.46582773
88	0xbf9af61f	-1.210636
89	0x3fe19371	1.762312
90	0xbfc49b76	-1.5359943
91	0xbe4d346d	-0.2003953
92	0x3fd5515a	1.6665452
93	0x3ef5e0b3	0.48022994
94	0x3f19963e	0.59994876
95	0xbefd5d48	-0.4948523
96	0x3f81795f	1.0115165
97	0xbf888f57	-1.0668744
98	0xbfe78eaa	-1.8090413
99	0xbe2cb76e	-0.16866848
100	0x3fae19f7	1.3601674
101	0xbf74d091	-0.9563075
102	0xbec4cf56	-0.38439435
103	0xbed46677	-0.41484424
104	0xbf95ba55	-1.1697489
105	0xbfa11da5	-1.2587172
106	0xbb42c026	-0.002971658
107	0xbee36e15	-0.44419923
108	0xbf9da640	-1.231636
109	0x3e1bc2cb	0.15211026
110	0x3ec61ef9	0.38695505
111	0x3fedcb77	1.8577718
112	0xbdfe6532	-0.12421645
113	0xbe839913	-0.25702724
114	0xbff15dac	-1.8856711
115	0xbf84e600	-1.038269
116	0xbd545fea	-0.051849283
117	0x3f8fd7ec	1.1237769
118	0xbe10e41a	-0.14149514
119	0x3f065360	0.5247097
120	0xbfa39d64	-1.2782407
121	0x3d4ec371	0.050479356
122	0xbfadb07c	-1.3569484
123	0xbf2693d5	-0.65069324
124	0xbf83abcd	-1.0286804
125	0xbf6348be	-0.8878287
126	0xbffc89e9	-1.9729587
127	0x3f8b041b	1.0860628
128	0x3ef1f687	0.47258398
129	0xbf29bbe3	-0.6630232
130	0x3f1d77be	0.6151084
131	0xbfe9d25b	-1.826732
132	0x3eeaeb71	0.45882753
133	0x3f066391	0.52495676
134	0x3ca5aff0	0.020225495
135	0x3f1c29a7	0.61001056
136	0xbfb787f6	-1.4338367
137	0x3c8eafb3	0.017417764
138	0xbf2f9e9d	-0.686014
139	0x3e00f0fc	0.12591928
140	0x3fc8273c	1.5636973
141	0x3c1ca76f	0.009561404
142	0xbfee49ff	-1.8616332
143	0xbf0b8d91	-0.5451289
144	0x3f4b70ba	0.7946888
145	0xbfed983c	-1.8562083
146	0x3f93aee3	1.1537746
147	0x3caeac3e	0.021322366
148	0x3dce2091	0.10064805
149	0xbd27584f	-0.040855702
150	0xbf5d9520	-0.8655567
151	0x404d2904	3.2056284
152	0x3faf5976	1.3699176
153	0xbeabc632	-0.3354965
154	0x3e9e4561	0.30912307
155	0xbf8d9614	-1.1061425
156	0xbd26b5e7	-0.04070082
157	0xbf5e9c94	-0.8695767
158	0x3f962861	1.1731073
159	0xbfcb2bf2	-1.5872786
160	0x3f7cdc4d	0.9877365
161	0x3d8c9cfc	0.0686588
162	0xc0079633	-2.1185424
163	0x3f5a2617	0.8521437
164	0x3c4cfc9c	0.012511399
165	0xbf3c8949	-0.7364698
166	0xbf895911	-1.0730306
167	0xc001947d	-2.024688
168	0xbc3605e3	-0.011109802
169	0xbf77707f	-0.9665603
170	0x3f88f309	1.0699168
171	0xbd319489	-0.043354545
172	0xbfa35b6d	-1.2762276
173	0xbebad70c	-0.36492193
174	0xbeb873e3	-0.36025915
175	0x3ffef73d	1.9919201
176	0x3f1833f3	0.5945427
177	0x3eb5cf8c	0.35509908
178	0xbf14ddf3	-0.5815117
179	0xbfe6b064	-1.802258
180	0xbf23d5d5	-0.63998157
181	0xbdb80716	-0.089857265
182	0xbf71599f	-0.94277376
183	0xbf145294	-0.57938504
184	0xbf288563	-0.6582853
185	0xbf74e14e	-0.9565629
186	0xbebb7d67	-0.36619112
187	0xbf85b1e6	-1.0444915
188	0xbf174038	-0.59082365
189	0x3f4f2251	0.8091174
190	0x3c8fdb3d	0.017560596
191	0x3f70e854	0.94104505
192	0xbdb4543b	-0.08805128
193	0x3fac280e	1.3449724
194	0x3e82b765	0.25530544
195	0x3f9a5806	1.2058113
196	0x3eb1a5e7	0.34696886
197	0x400662cc	2.09978
198	0xbf009bfc	-0.50238013
199	0x3e7b8a90	0.24564576
200	0x405db8ad	3.4643967
201	0x3ff4b153	1.9116615
202	0xc040cdda	-3.0125642
203	0x3ecb6733	0.39727172
204	0x3eb3fbbc	0.35152996
205	0x3ea4c515	0.32181612
206	0x3f5e3725	0.86802894
207	0x3e4e807f	0.20166205
208	0xbfbcc3af	-1.4747218
209	0xbfa2478d	-1.2678086
210	0xbfe0c2a6	-1.7559402
211	0x3ed08725	0.40728107
212	0x3f3ace93	0.7297146
213	0xbe5dd1a1	-0.21661998
214	0xbe82e526	-0.2556545
215	0x3ee83ae2	0.45357424
216	0x3f17aad0	0.59245014
217	0xbf829459	-1.0201522
218	0xbf79a550	-0.9751787
219	0xbece14c1	-0.4025021
220	0x3fb274ad	1.3941857
221	0x3d3aa935	0.045571525
222	0x3f89b493	1.0758232
223	0xbf097d90	-0.5370722
224	0x3f5cd164	0.86257005
225	0x3ff0839b	1.8790163
226	0xbe844878	-0.2583654
227	0xbf8f6587	-1.1202859
228	0xbf041fcb	-0.5161101
229	0x3f4b78eb	0.7948138
230	0x3dc7f852	0.0976416
231	0x3f37844c	0.71686244
232	0x3fc21665	1.5163084
233	0xbfa961b9	-1.3232948
234	0x3ed9ad1e	0.4251489
235	0x3f38dd16	0.7221235
236	0xbf2903bc	-0.66021323
237	0xc006f101	-2.1084597
238	0x3ea9df8c	0.33178365
239	0x3f016dcf	0.5055818
240	0xbfeb6a2b	-1.8391775
241	0xbf2504a1	-0.6446019
242	0xbf6cb779	-0.9246746
243	0x3ef34fc7	0.47521803
244	0x3c2c4a1a	0.010515714
245	0x3ee9ada8	0.45640302
246	0x3f1fc088	0.62403154
247	0xbdba0634	-0.090832144
248	0x3f32a7a4	0.6978705
249	0xbf759478	-0.9592967
250	0xbed879ef	-0.42280528
251	0x3f843776	1.0329425
252	0x3faba7ef	1.3410624
253	0x3efd1e7a	0.49437314
254	0xbfc57491	-1.5426198
255	0xbfa0e4f9	-1.2569877

conv1.bias f4 [64]
0	0xb9859dc3	-0.00025485278
1	0x3746a185	1.1839326e-05
2	0x38eca575	0.00011284176
3	0x395baa73	0.00020948965
4	0x3829801d	4.0412055e-05
5	0x37798c49	1.4874219e-05
6	0xb709851b	-8.196827e-06
7	0x398b9483	0.00026622796
8	0xb8b0b3cd	-8.4258245e-05
9	0xb687dfaf	-4.0493537e-06
10	0x38a14430	7.689779e-05
11	0x38953c12	7.1160626e-05
12	0x37f3b5a7	2.9052446e-05
13	0x390e8a31	0.00013593656
14	0x3947051a	0.0001898002
15	0xb7f12ccb	-2.8750297e-05
16	0x3952ee8c	0.00020116026
17	0x38fb0d44	0.000119710836
18	0xb891e086	-6.9559595e-05
19	0xb7c9b51e	-2.4045406e-05
20	0x386e3ae0	5.6798453e-05
21	0x37150a5a	8.883502e-06
22	0x37746e2a	1.4569183e-05
23	0x37f537bb	2.9232227e-05
24	0xb95e4056	-0.00021195537
25	0x389a6b10	7.363234e-05
26	0x390fa0ae	0.000136974
27	0x37a782b2	1.9968811e-05
28	0xb8d79d4b	-0.00010281297
29	0xb8140bce	-3.5296944e-05
30	0x3964c8c8	0.00021818571
31	0xb8b40fc4	-8.5860054e-05
32	0x37d6e07e	2.5615325e-05
33	0xb84814ac	-4.7702968e-05
34	0xb91b0eb0	-0.00014787423
35	0xb82fe8a9	-4.1939933e-05
36	0xb81d72f2	-3.7538768e-05
37	0xb982b51c	-0.0002493047
38	0x37a123cb	1.9209363e-05
39	0xb803f8f3	-3.1464686e-05
40	0xb8a3ccd4	-7.810598e-05
41	0xb82b2dfe	-4.081241e-05
42	0xb948d515	-0.00019152866
43	0x38dc50e9	0.00010505488
44	0xb8ddcdb7	-0.000105764186
45	0xb73b7f22	-1.1175669e-05
46	0x35a0498f	1.1942337e-06
47	0x38c10a84	9.204916e-05
48	0x38740607	5.8179747e-05
49	0xb5aca0c0	-1.2861783e-06
50	0x3816877f	3.5888977e-05
51	0x38d98aac	0.00010373196
52	0x37a1acc6	1.927315e-05
53	0x38f51dfb	0.00011688095
54	0xb42963e0	-1.5775686e-07
55	0xb7a911a4	-2.0154584e-05
56	0x387bee78	6.0065155e-05
57	0xb8f8ccd8	-0.00011863717
58	0xb76ed54a	-1.4235566e-05
59	0x38d9f086	0.00010392167
60	0xb7bbfd21	-2.241001e-05
61	0x37db69b2	2.6156053e-05
62	0xb7a519a0	-1.9681465e-05
63	0x36505e40	3.1049276e-06

conv1.lin.weight f4 [64, 512]
0	0xbcb578c3	-0.02215231
1	0xbd0afa0a	-0.033929862
2	0xbd6e4255	-0.058168728
3	0xbd2d6e1b	-0.042341333
4	0xbd928592	-0.07154383
5	0xbdc12644	-0.09431127
6	0x3cf0845e	0.029359993
7	0xbd047840	-0.03234124
8	0x3cbf6b3b	0.023366561
9	0x3d326ad6	0.043558918
10	0xbcb53532	-0.022120092
11	0x3c5e370e	0.013562931
12	0xbd1b1bcc	-0.037868306
13	0xbdce6cb4	-0.10079327
14	0x3c52f851	0.012876586
15	0xbd8f2482	-0.06989385
16	0xbdc95ecd	-0.09832535
17	0xbd2437e1	-0.040092353
18	0xbd00af1f	-0.03141701
19	0x3d1e73e6	0.038684748
20	0xbd365283	-0.044512283
21	0x3d9418d9	0.07231302
22	0x3b3cb179	0.0028792305
23	0xbb99aa7e	-0.0046895137
24	0x3a801b9c	0.0009773853
25	0xbd6b25c6	-0.05740907
26	0xbdd9776e	-0.106184825
27	0xbdb78de6	-0.08962612
28	0xbcb0418a	-0.021515626
29	0x3c3b1448	0.01141841
30	0x3cfd54b5	0.03092418
31	0xba2f2b6b	-0.000668219
32	0x3dd5a0fd	0.10431097
33	0x3c9979b7	0.018734796
34	0x3d3aaa9f	0.045572873
35	0xbc5d98dc	-0.013525214
36	0xbd542eed	-0.051802564
37	0xbd1c7489	-0.038197074
38	0x3dc2733a	0.09494634
39	0x3d46e070	0.048553884
40	0x3c6a7c48	0.0143118575
41	0xbd238163	-0.039918315
42	0xbca2438f	-0.019807605
43	0x3c8750c3	0.016518002
44	0x3da0e364	0.07855871
45	0xbbee3233	-0.007269168
46	0xbdb26575	-0.08710758
47	0x3ca2ee06	0.019888889
48	0xbd52d8dc	-0.051476344
49	0xbcb30153	-0.021851217
50	0xbdbdae34	-0.09261742
51	0x3d531647	0.051534917
52	0x3d8d4120	0.06897187
53	0xbbcf73d3	-0.006330946
54	0x3d598a55	0.05311044
55	0xbd963b79	-0.07335562
56	0xbd86df67	-0.06585579
57	0x3d5208a9	0.05127779
58	0xbd6b931b	-0.057513338
59	0xbd8850cf	-0.06656038
60	0x3d68ee66	0.05686798
61	0xbde19227	-0.110142045
62	0xbc678a37	-0.014132074
63	0xbc8e668f	-0.017382888
64	0x3d764cce	0.06013184
65	0x3d0b6aa7	0.03403726
66	0xbd52bef0	-0.051451623
67	0xbd27dfd2	-0.040984936
68	0x3d73e326	0.059542798
69	0x3d40b8ab	0.047051113
70	0x3bbcec38	0.005765464
71	0xbc3c5a2a	-0.011496106
72	0x3cd198b6	0.025585514
73	0xbba195e0	-0.0049311966
74	0xbd9329c8	-0.071857035
75	0xbd0eac27	-0.034832146
76	0x3d2368b6	0.039894782
77	0x3d1d53f5	0.038410146
78	0xbda37d46	-0.079828784
79	0xbd250b1c	-0.040293798
80	0xbdb32385	-0.08747009
81	0xbbaf114d	-0.0053426386
82	0x3c1b7240	0.009487689
83	0xbc51ce70	-0.012805566
84	0xbd022ea1	-0.03178275
85	0x3c551009	0.013004311
86	0x3de78edf	0.113065474
87	0x3b2ccd2d	0.0026367411
88	0x3cad4141	0.02114928
89	0xbc6b142f	-0.014348074
90	0x3d0de9b3	0.0346467
91	0xbde7811d	-0.11303923
92	0x3d774b1c	0.060374364
93	0xbd17d68f	-0.037069853
94	0xbd763749	-0.060111318
95	0xbd575b65	-0.052577395
96	0x3dbab73d	0.09116981
97	0xbba2518d	-0.0049535693
98	0x3d39bc6a	0.0453457
99	0x3d84f4ed	0.064920284
100	0x3dc3b833	0.095566176
101	0x3c3c2e41	0.011485637
102	0x3ca8b955	0.020596186
103	0x3db810f3	0.08987608
104	0x3dcc2d18	0.099695385
105	0x3d6900e1	0.056885604
106	0x3d69d892	0.057091303
107	0x3d1b2f94	0.03788717
108	0xbd050183	-0.032472145
109	0x3cbc9575	0.023020485
110	0x3ca397fa	0.019969929
111	0x3d0642be	0.032778494
112	0xbd8a380c	-0.06748971
113	0x3ced6260	0.028977573
114	0xbd5ab758	-0.053397506
115	0xbcaa4cb7	-0.020788534
116	0xbc6849e6	-0.014177775
117	0x3db3cd54	0.087793976
118	0x3daf4c2b	0.0855945
119	0xbd90c85a	-0.07069464
120	0xbd370ff7	-0.04469296
121	0x3d86dab5	0.06584684
122	0xbd05e741	-0.032691244
123	0xbd61eaec	-0.05515568
124	0x3d607964	0.054803267
125	0x3dca00ac	0.098634094
126	0xbd59f1d1	-0.05320913
127	0xbcfb6f67	-0.03069277
128	0x3dcd8d6a	0.10036738
129	0xbc374a17	-0.011187098
130	0xbda793a1	-0.08182455
131	0x3d3b10e2	0.045670398
132	0x3d960b5b	0.07326385
133	0xbd8a86e6	-0.06764011
134	0xbd2f69ec	-0.042825624
135	0x3c144e73	0.009051907
136	0xbdaf2a60	-0.08553004
137	0xbcda335a	-0.026635814
138	0x3b9eddb1	0.004848205
139	0x3d008122	0.03137315
140	0xbd82b3e5	-0.063819684
141	0xbc9db172	-0.019249652
142	0xbd5bbbe6	-0.05364599
143	0xbd72b385	-0.059253234
144	0x3ba8f3c3	0.005156012
145	0xbcc6d236	-0.024270158
146	0x3d1a5233	0.037676048
147	0xbc99a595	-0.018755713
148	0x3dc48190	0.095950246
149	0xbd0b3172	-0.0339827
150	0x3da580cf	0.08081209
151	0xbda56da8	-0.08077556
152	0x3d7f8527	0.062382843
153	0x3d43baf2	0.047785707
154	0x3d41c3de	0.047305934
155	0x3d99d3e7	0.0751112
156	0x3d34a16f	0.044099268
157	0xbda5ade2	-0.08089806
158	0xbc59a773	-0.013284552
159	0x3dd17be0	0.102287054
160	0x3ce8c9e9	0.02841659
161	0xbd7887af	-0.060676273
162	0x3c8b02b8	0.01696907
163	0x3cbe5c78	0.023237452
164	0x3dca73c7	0.09885364
165	0x3dba4a56	0.0909621
166	0xbd4c4421	-0.04986966
167	0x3cf95207	0.030434621
168	0x3a924f57	0.0011162561
169	0xbd31dfd8	-0.043426365
170	0x3da4e659	0.08051748
171	0xbd4cd83c	-0.050010905
172	0x3d74daab	0.05977885
173	0xbc7c5fb3	-0.015403676
174	0xbab8e326	-0.0014105781
175	0x3d16e950	0.036843598
176	0xbda0e695	-0.0785648
177	0xbd11352c	-0.0354511
178	0xbdc83bbd	-0.09777019
179	0x3b3fdc14	0.0029275464
180	0x3d63b6f2	0.055594392
181	0xbdbc9c2e	-0.092094764
182	0xbcfd64a3	-0.030931776
183	0xbcf0d2c9	-0.029397385
184	0x3c8a1400	0.01685524
185	0x3d64e639	0.05588362
186	0x3dbfc51e	0.09363769
187	0xbc5cb85f	-0.013471692
188	0xbd208157	-0.039185848
189	0x3dc4f687	0.09617334
190	0xbd2f39a6	-0.042779587
191	0x3c521015	0.012821217
192	0xbbfdd8e9	-0.007746805
193	0x3d65d6cf	0.05611306
194	0x3dbda003	0.092590354
195	0xbdc4dba3	-0.09612205
196	0x3d452cc4	0.048138395
197	0xbd957b30	-0.07298887
198	0x3cebee64	0.028800197
199	0xbcbc88c9	-0.023014443
200	0xbbf45480	-0.0074563622
201	0xbcfcffce	-0.030883696
202	0xbdb7b0de	-0.089692816
203	0x3cdc60c9	0.02690162
204	0xbc92d19d	-0.017922217
205	0xbd12c1e5	-0.035829443
206	0x3db7c482	0.08973028
207	0xbc918d75	-0.017767647
208	0xbd141223	-0.03615011
209	0xbd23a2f8	-0.03995034
210	0x3d3e33d9	0.046436165
211	0x3beba32e	0.0071910834
212	0x38e4ca9e	0.000109096276
213	0xbd706b2c	-0.058695957
214	0xbdcb602d	-0.099304534
215	0xbdc09c0c	-0.094047636
216	0xbcd20d32	-0.025641058
217	0x3d7c988f	0.06166893
218	0x3d91eadc	0.07124874
219	0xbcde200b	-0.027114889
220	0x3db13854	0.08653322
221	0xbdcb1f0b	-0.0991803
222	0xbd786154	-0.060639694
223	0x3c8a43ae	0.016877975
224	0xbc9e4a0f	-0.019322423
225	0xbd949576	-0.0725507
226	0x3cb63b36	0.02224503
227	0xbd2b93f1	-0.041889135
228	0x3d3428de	0.043984286
229	0x3da314f5	0.079629816
230	0xbaee5e4f	-0.0018186065
231	0xbd862cae	-0.06551491
232	0xbd45a5cc	-0.04825382
233	0x3d5283c9	0.05139521
234	0xbca30bc7	-0.019903077
235	0xbcde73d0	-0.027154833
236	0x3bf922dd	0.007603033
237	0xbdc189b5	-0.09450094
238	0xbdf3b76d	-0.1190022
239	0xbca434d8	-0.02004473
240	0x3da0694e	0.07832585
241	0x3cc469c9	0.023976224
242	0x3d8a66ef	0.06757914
243	0xbde58126	-0.11206274
244	0xbd2b043e	-0.041752093
245	0x3cada7a9	0.02119811
246	0xbd56e6a2	-0.052466042
247	0xbdd3132b	-0.103063904
248	0x3d921972	0.071337596
249	0xbd4cc577	-0.049993005
250	0xbdad9eb3	-0.08477535
251	0x3d0e576f	0.034751352
252	0xbde8e7f6	-0.11372368
253	0x3dd5ad3b	0.10433432
254	0x3c87154c	0.016489647
255	0x3d19833a	0.037478663

conv2.bias f4 [64]
0	0x3a25a528	0.00063188607
1	0x380f63fd	3.4186978e-05
2	0xb8e18791	-0.00010754087
3	0xb91a5eec	-0.00014721946
4	0x388b5f8e	6.645835e-05
5	0x39af57ac	0.00033443922
6	0x35888248	1.0170706e-06
7	0xb5ed9ed8	-1.7704106e-06
8	0xb8dc7fe7	-0.00010514241
9	0xb9141fef	-0.00014126276
10	0xb7abd2f6	-2.0483025e-05
11	0x383eb008	4.5463472e-05
12	0x37aef899	2.0858179e-05
13	0xb9098d74	-0.00013118034
14	0xb88ea5ee	-6.8019945e-05
15	0xb756b6dd	-1.279797e-05
16	0xb8c7d11b	-9.5280084e-05
17	0xb88ef389	-6.8164496e-05
18	0xb88d8549	-6.74823e-05
19	0x37b1cdcd	2.1195878e-05
20	0xb8728b13	-5.782682e-05
21	0xb8045a83	-3.1555548e-05
22	0xb821923a	-3.8521575e-05
23	0xb5caa81e	-1.5099101e-06
24	0x3928385f	0.00016042728
25	0x38c6cf11	9.479945e-05
26	0xb919fe20	-0.00014685886
27	0xb8e4582f	-0.00010888313
28	0x3926a5d5	0.00015892771
29	0x37c223ce	2.3143275e-05
30	0x398c2de9	0.00026737087
31	0x3857f058	5.1483832e-05
32	0xb92cc4cf	-0.00016476515
33	0x38d15a9d	9.982775e-05
34	0x39f2f082	0.0004633703
35	0x37af9e62	2.0935378e-05
36	0x393f4c64	0.00018243637
37	0x3a4bcc7e	0.0007774307
38	0xb7e2fefc	-2.7060036e-05
39	0xb710244a	-8.591518e-06
40	0xb92ce02d	-0.0001648671
41	0xb97b74b4	-0.000239807
42	0x37851b60	1.5867583e-05
43	0xb98a3112	-0.0002635797
44	0xb996a482	-0.00028732797
45	0x39cc2467	0.00038937034
46	0x399cedf9	0.00029931942
47	0x39459e9b	0.00018846469
48	0xb82bb319	-4.0936375e-05
49	0x38b0906c	8.419235e-05
50	0x37bb9bfa	2.236477e-05
51	0x388726cd	6.444529e-05
52	0x3824a462	3.925374e-05
53	0x3a0b1432	0.00053054385
54	0x3659e542	3.2468965e-06
55	0xb74473c2	-1.1709462e-05
56	0xb86ff78c	-5.7212586e-05
57	0xb7c01b6a	-2.290095e-05
58	0xb88da04e	-6.753263e-05
59	0x377b4bf3	1.4978449e-05
60	0x3984a4b8	0.00025299727
61	0x37d6d2bd	2.560892e-05
62	0x380267f2	3.1091222e-05
63	0x37eca720	2.8211216e-05

conv2.lin.weight f4 [64, 64]
0	0x3d1ecb84	0.038768306
1	0xbe277729	-0.1635405
2	0x3c3cb04a	0.01151664
3	0x3e0e2bc7	0.13883887
4	0x3dcb24de	0.09919141
5	0x3e1d554c	0.1536457
6	0x3e1e94a2	0.15486386
7	0x3da46caf	0.08028542
8	0x3cd48274	0.025941111
9	0x3e3eff7d	0.18652149
10	0xbdea82fd	-0.11450765
11	0xbdfadfba	-0.12249704
12	0xbe39cf61	-0.18145515
13	0xbd053275	-0.032518823
14	0xbc6bf2e6	-0.014401173
15	0x3e790563	0.24318461
16	0xbe447a09	-0.19187178
17	0xbd04cd1d	-0.032422174
18	0x3dbe22a5	0.09283952
19	0x3ddcca00	0.10780716
20	0x3e83d455	0.25747934
21	0xbd7c82d4	-0.061648205
22	0xbe3357ca	-0.17513958
23	0xbd15652d	-0.036473442
24	0x3db99e48	0.09063393
25	0x3e30b007	0.17254649
26	0x3dcc2b85	0.09969238
27	0xbe2f3234	-0.17108995
28	0xbd8d3e1a	-0.068966106
29	0x3e15a3bb	0.1461324
30	0xbc5f9917	-0.013647339
31	0xbd242489	-0.040073905
32	0x3de20da9	0.11037762
33	0xbd884e25	-0.0665553
34	0x3d93a35e	0.07208894
35	0xbd80a006	-0.06280522
36	0x3d0e340f	0.034717616
37	0x3caa9c78	0.020826563
38	0x3e1bd01f	0.1521611
39	0x3dd22bb5	0.10262243
40	0xbe16b141	-0.14716054
41	0x3ddcd0d5	0.10782019
42	0x3ce06eba	0.027396549
43	0x3d9510e9	0.07278616
44	0x3dfdcafe	0.12392233
45	0xbdf972b8	-0.12180084
46	0x3e108a03	0.14115147
47	0x3d438c24	0.04774107
48	0x3da81dbf	0.082087986
49	0x3dd3eabd	0.10347507
50	0xbe2e5093	-0.17022924
51	0xbdbabe31	-0.091183074
52	0xbca8f222	-0.02062327
53	0x3da714f1	0.08158291
54	0xbdd7aee9	-0.10531408
55	0x3d5aae58	0.053388923
56	0xbd24a269	-0.04019395
57	0x3e3a9e85	0.18224533
58	0x3ddd911e	0.108186945
59	0xbe064a25	-0.13114221
60	0x3dbf5621	0.093426
61	0x3dbba897	0.09163015
62	0x3e86ad72	0.26304203
63	0x3e05ddfc	0.13072962
64	0x3e024aa4	0.12723786
65	0x3e398cb7	0.18120085
66	0xbdc96761	-0.09834171
67	0x3e34a195	0.17639764
68	0xbe248108	-0.16064847
69	0xbdcb6977	-0.09932225
70	0x3dff8c2b	0.12477907
71	0xbdbaba93	-0.091176175
72	0xbdc25df7	-0.094905786
73	0xbe210301	-0.15723802
74	0x3e61cebb	0.22051518
75	0x3e3652f6	0.17805085
76	0x3d685b83	0.056727897
77	0xbe81c9e5	-0.25349346
78	0x3e2d84b1	0.16945149
79	0xbe5d6415	-0.2162021
80	0x3cfc656b	0.030810079
81	0xbe3be5cc	-0.1834938
82	0x3aad4b23	0.0013221245
83	0xbdae18f1	-0.08500851
84	0xbe0ad68f	-0.1355841
85	0x3ddb3a78	0.107045114
86	0xbe343f5f	-0.17602299
87	0x3d997e74	0.07494822
88	0xbe192fa3	-0.14959578
89	0x3d794aaa	0.06086222
90	0xbd4c686e	-0.04990428
91	0xbc58f1da	-0.013241256
92	0x3c3d17af	0.011541291
93	0xbe7573dd	-0.2396998
94	0x3c837752	0.016048107
95	0x3dcc381f	0.09971642
96	0xbc9f9e49	-0.019484656
97	0x3d81e86f	0.06343161
98	0x3d9ee1f6	0.077579424
99	0xbe6ab3f3	-0.22920208
100	0xbdc857fd	-0.097824074
101	0xbd9cf8f7	-0.07664674
102	0x3e4f255a	0.20229092
103	0xbc531707	-0.012883908
104	0x3e299946	0.16562375
105	0x3cac3dcb	0.021025559
106	0xbd9be02d	-0.076111175
107	0x3c4fdc7a	0.012686843
108	0x3c9e305b	0.019310167
109	0xbe111727	-0.14168988
110	0x3e16e660	0.14736319
111	0xbd8b2089	-0.06793315
112	0x3de76baa	0.11299832
113	0xbd8fddc3	-0.070247196
114	0x3b0f2acf	0.0021845584
115	0xbe401c33	-0.18760757
116	0xbd2d9fa7	-0.042388584
117	0xbd0c3e39	-0.034239028
118	0x3dedfba4	0.11620262
119	0xbc19d6dd	-0.009389606
120	0x3dfb2a24	0.12263897
121	0xbdb06622	-0.0861323
122	0xbd45598d	-0.048181105
123	0xbca3bb9d	-0.019986922
124	0x3e02ff4d	0.12792702
125	0xbd87a87f	-0.06623935
126	0xbe1c2eef	-0.15252279
127	0xbd3268d5	-0.043557007
128	0x3a2293c2	0.0006201827
129	0x3d0ef7c0	0.03490424
130	0x3e0c89ac	0.13724393
131	0x3dd98812	0.106216565
132	0xbdde56ce	-0.108564004
133	0x3ddcd6d6	0.10783164
134	0xbda3d272	-0.07999124
135	0x3d5b8d25	0.053601403
136	0xbd098c44	-0.033581033
137	0xbdb42c49	-0.08797509
138	0xbe1a3c74	-0.15062124
139	0xbdf82be3	-0.12117746
140	0xbc6aecb8	-0.014338665
141	0x3cc01898	0.023449227
142	0xbd333c15	-0.04375847
143	0x3e5d5ce8	0.21617472
144	0xbe312752	-0.17300156
145	0xbda1e759	-0.07905454
146	0xbe0e8eef	-0.13921712
147	0x3dd8d4cb	0.10587462
148	0xba674f12	-0.0008823733
149	0xbe56c96d	-0.20975275
150	0x3e195a97	0.14975964
151	0x3de2f9f8	0.11082834
152	0x3ddf293c	0.10896537
153	0x3e4d00eb	0.20019881
154	0x3bc00957	0.0058604884
155	0xbe34e7ee	-0.17666599
156	0xbdebfe44	-0.11523107
157	0x3cb39a67	0.02192421
158	0x3e49d1e9	0.1970898
159	0xbe2353aa	-0.15949884
160	0xbdd37297	-0.10324591
161	0x3d97489c	0.07386896
162	0xbe72d67a	-0.23714629
163	0x3e5a1cd3	0.21300058
164	0x3c7e66e0	0.015527457
165	0xbdf9492e	-0.12172161
166	0xbdedff24	-0.1162093
167	0x3d7dd77d	0.061973084
168	0x3d67b7b6	0.056571685
169	0x3e1cb382	0.15302852
170	0x3e4dc8b1	0.20096089
171	0xbd13dc1a	-0.036098577
172	0x3e8386f0	0.25688887
173	0x3d717046	0.058944963
174	0x3dd99051	0.10623229
175	0x3d889b2b	0.06670221
176	0x3c18bb25	0.0093219625
177	0x3e29181b	0.16513102
178	0xbe4dac4a	-0.20085254
179	0xbe2b02d5	-0.16700299
180	0xbdf98f4a	-0.12185533
181	0x3d2100eb	0.039307516
182	0xbe1605eb	-0.14650695
183	0x3e7bcfce	0.2459099
184	0xbd97b55a	-0.07407637
185	0x3dde2886	0.10847573
186	0x3dc37ccd	0.09545288
187	0x3dc735be	0.097270474
188	0xbda90b5a	-0.08254118
189	0xbd102aa9	-0.035196934
190	0x3e7c97e9	0.24667324
191	0xbdb27b9e	-0.08714984
192	0xbe504e3b	-0.20342343
193	0x3c8fe8f5	0.017567137
194	0xbdf2449b	-0.11829492
195	0xbe7e5617	-0.24837528
196	0x3decc91f	0.11561798
197	0x3dd2538a	0.1026984
198	0x3e5380c1	0.20654584
199	0x3e5a511c	0.21320003
200	0xbcbb0e1c	-0.022833876
201	0x3d36d496	0.04463633
202	0xbdbaf38a	-0.09128483
203	0x3dd0bfd7	0.101928405
204	0xbd63fdae	-0.05566185
205	0xbd90792c	-0.07054362
206	0xbe289372	-0.16462496
207	0x3e4ad535	0.19807895
208	0xbc3ce83e	-0.01152998
209	0x3e46412e	0.19360802
210	0xbdeb653d	-0.11493919
211	0x3dd8c405	0.10584263
212	0xbda17dbf	-0.07885312
213	0x3d06f29e	0.03294622
214	0x3de89912	0.11357321
215	0x3d98aa6b	0.0745438
216	0xbc832a06	-0.01601125
217	0x3daf5caf	0.085626
218	0x3e3e7808	0.18600476
219	0x3dcf4bea	0.10121901
220	0x3e06c74b	0.13161962
221	0xbe2a7aea	-0.1664845
222	0xbdbbe3d5	-0.09174315
223	0xbe610417	-0.21974216
224	0x3d634527	0.05548587
225	0x3dea4c94	0.11440387
226	0x3d94550c	0.07242784
227	0x3cc0c227	0.023530079
228	0x3d018202	0.031618126
229	0xbe803ada	-0.250449
230	0x3dfdd0db	0.12393352
231	0x3de19106	0.11013989
232	0x3e0afe8b	0.13573663
233	0x3e04c6d5	0.12966473
234	0xbde8db1b	-0.11369916
235	0x3c8b5a8b	0.017010948
236	0x3d91091d	0.07081816
237	0xbd392a80	-0.045206547
238	0xbe816321	-0.25270942
239	0xbe2758d3	-0.16342478
240	0x3da27be2	0.07933785
241	0x3cd13afd	0.025540823
242	0xbd4c04b9	-0.04980919
243	0x3dcdffcc	0.10058555
244	0xbe808374	-0.2510029
245	0x3e664e9c	0.22490925
246	0x3e186244	0.14881235
247	0x3e1703ed	0.14747591
248	0xbd6ac23f	-0.057314154
249	0xbd56a656	-0.052404724
250	0x3d444ddf	0.047925826
251	0x3e1a801d	0.15087934
252	0x3df364fd	0.11884496
253	0x3e352a15	0.17691834
254	0xbe765f96	-0.240599
255	0xbd16816f	-0.03674453

bn1.weight f4 [64]
0	0x3f856710	1.0422077
1	0x3f82dfc7	1.0224541
2	0x3f8307af	1.023672
3	0x3f79d401	0.9758912
4	0x3f82511d	1.0181004
5	0x3f8034bd	1.0016094
6	0x3f77ec2c	0.96844745
7	0x3f78d9b1	0.9720717
8	0x3f72875e	0.94737804
9	0x3f718f94	0.9435971
10	0x3f735e0f	0.950654
11	0x3f75783a	0.95886576
12	0x3f703004	0.93823266
13	0x3f866702	1.0500185
14	0x3f79e59b	0.97615975
15	0x3f7b6db9	0.982143
16	0x3f82a2ae	1.0205896
17	0x3f73ef1a	0.95286715
18	0x3f7704b8	0.96491575
19	0x3f727bc5	0.9472011
20	0x3f7c24dc	0.9849374
21	0x3f84e158	1.038127
22	0x3f7ac94c	0.97963405
23	0x3f748964	0.9552214
24	0x3f876b34	1.0579591
25	0x3f864876	1.0490863
26	0x3f74eb8c	0.95671916
27	0x3f73868a	0.95127165
28	0x3f721017	0.945558
29	0x3f809593	1.0045646
30	0x3f86cafc	1.0530696
31	0x3f70afa4	0.94018006
32	0x3f74eecb	0.9567687
33	0x3f785d69	0.9701753
34	0x3f82eda5	1.0228773
35	0x3f87aa44	1.0598836
36	0x3f8556ce	1.0417116
37	0x3f871b44	1.0555196
38	0x3f77b2f2	0.96757424
39	0x3f816e16	1.011172
40	0x3f776bdf	0.96648973
41	0x3f80e3a3	1.0069469
42	0x3f84ba84	1.036942
43	0x3f872bcb	1.056024
44	0x3f74c3bb	0.9561116
45	0x3f74b2db	0.9558541
46	0x3f827d1b	1.0194429
47	0x3f7de3b1	0.99175555
48	0x3f7b2c32	0.9811431
49	0x3f76436f	0.96196645
50	0x3f842003	1.0322269
51	0x3f857c13	1.042849
52	0x3f72ecb6	0.9489244
53	0x3f869e5a	1.0517075
54	0x3f7ad6f6	0.97984254
55	0x3f804374	1.0020585
56	0x3f742765	0.9537261
57	0x3f84f4d3	1.0387214
58	0x3f827437	1.0191716
59	0x3f7e69f6	0.99380434
60	0x3f725f67	0.9467682
61	0x3f872e22	1.0560954
62	0x3f8222d7	1.0166882
63	0x3f8328df	1.0246848

bn1.bias f4 [64]
0	0x3d05f2ba	0.032702185
1	0x3c985f53	0.018600142
2	0x3bf43ce8	0.0074535497
3	0xbc16b503	-0.00919843
4	0x3b81afe6	0.0039577363
5	0x3c245ae1	0.010031433
6	0xbcec59cb	-0.02885141
7	0xbcd6e2da	-0.026231218
8	0xbd4c2000	-0.049835205
9	0xbd43e25c	-0.047823295
10	0xbd44ab61	-0.048015002
11	0xbcc73f38	-0.024322137
12	0xbd254714	-0.04035099
13	0x3d40fe9d	0.04711782
14	0xbd031e09	-0.032011066
15	0xbd08e7c1	-0.033424143
16	0x3ce3df94	0.027816571
17	0xbd56bfbc	-0.052428946
18	0xbc5eca88	-0.013598092
19	0xbd09ada3	-0.03361286
20	0xbc06dc3b	-0.008231218
21	0x3cafc41e	0.02145582
22	0xbb2f711a	-0.0026770295
23	0xbd00400b	-0.031311076
24	0x3d5eddf1	0.05441088
25	0x3d41bcd3	0.047299217
26	0xbd3c3d6c	-0.045957014
27	0xbd46185e	-0.048363082
28	0xbd499d87	-0.049222495
29	0x3c1dfb42	0.009642424
30	0x3d3a2fff	0.04545593
31	0xbd472533	-0.04861946
32	0xbd387484	-0.045032993
33	0xbcc4cc89	-0.024023311
34	0x3c7911da	0.01520201
35	0x3d524ac8	0.05134085
36	0x3cf4122b	0.02979382
37	0x3d5df30d	0.05418687
38	0xbb8695d9	-0.0041072187
39	0x3c95b8ed	0.018276656
40	0xbc947372	-0.018121455
41	0x3bbb347d	0.005713044
42	0x3d1664ff	0.03671741
43	0x3d45b25b	0.048265796
44	0xbd45ade9	-0.048261557
45	0xbd3738bb	-0.044731837
46	0x3d25ca3b	0.040476065
47	0x3c3d4f26	0.011554515
48	0xbcf2096f	-0.029545514
49	0xbc9c68a9	-0.019092875
50	0x3c89e0eb	0.016830882
51	0x3d0a4bf2	0.033763833
52	0xbd51f82f	-0.051262077
53	0x3d3d44d0	0.046208203
54	0x3b1aa0fa	0.0023594485
55	0x3c1d4a22	0.009600194
56	0xbd1a36c9	-0.037649903
57	0x3cbeba18	0.023282096
58	0x3d0e107b	0.034683686
59	0x3b5cb428	0.0033676717
60	0xbd3527cf	-0.044227418
61	0x3d3a85df	0.045537826
62	0xbc0549ee	-0.008135302
63	0x3d148f3b	0.036269408

bn1.running_mean f4 [64]
0	0xbf3eb825	-0.7449973
1	0xbe1862fe	-0.14881513
2	0xbf875962	-1.0574152
3	0xc0243131	-2.5655024
4	0xbf31f332	-0.6951171
5	0x3dddd31f	0.10831284
6	0x3f4c72b4	0.79862523
7	0xbfa63cc2	-1.2987292
8	0x3f0dd77b	0.5540692
9	0x3fac60be	1.3467023
10	0xc0189f56	-2.384725
11	0xc0054d86	-2.0828567
12	0x3fb7dd74	1.4364457
13	0x3fb94fe3	1.4477504
14	0x40354daf	2.8328664
15	0xbec2bd70	-0.38035154
16	0x400bc34f	2.1837957
17	0x3ec2b54a	0.38028938
18	0xbf4fc702	-0.81163037
19	0x3fe02a6e	1.7512949
20	0xc01e4070	-2.472683
21	0x3f7daa81	0.99088293
22	0x401e120a	2.469851
23	0xbdcd3349	-0.100195475
24	0x3fd1c4b9	1.638816
25	0xbfb6f809	-1.4294444
26	0x3f45845e	0.771551
27	0x3d7885ae	0.060674362
28	0xbfc58d5e	-1.5433767
29	0x3e3d1b44	0.18467432
30	0xbfffb5d0	-1.997736
31	0xbf1f320f	-0.6218576
32	0x3fa8c651	1.3185521
33	0xbda70cdf	-0.08156752
34	0x3f418a05	0.75601226
35	0xbf99ec0a	-1.2025158
36	0x3f144ab2	0.57926476
37	0xc01b7e28	-2.429575
38	0x3eca5709	0.39519528
39	0x3f11ca64	0.5694945
40	0xbfd5132d	-1.6646477
41	0x3ef4e9e5	0.47834697
42	0xc00d6fef	-2.209957
43	0xbf0dfc5d	-0.554632
44	0xc03a6b90	-2.912815
45	0xbef290b5	-0.47376028
46	0xbf92bd35	-1.1463991
47	0x40392530	2.8928947
48	0xbf8658ab	-1.0495809
49	0xbf25d808	-0.6478276
50	0x401cb606	2.4486098
51	0x3fff61d2	1.9951727
52	0xc0676e66	-3.6161132
53	0xbec0e98b	-0.3767818
54	0xc019dad9	-2.4039824
55	0xc0369ab7	-2.853193
56	0x4048fbc7	3.1403673
57	0xbf4841ea	-0.78225577
58	0x3defd171	0.1170987
59	0x3f0bbace	0.54581916
60	0xc020d88d	-2.5132172
61	0x3f3572f7	0.7087855
62	0xc042ed4c	-3.0457335
63	0xbbd6070c	-0.006531602

bn1.running_var f4 [64]
0	0x3f56a6a9	0.83848053
1	0x3f05304d	0.52026826
2	0x3f40e979	0.7535625
3	0x3f0d9a9e	0.5531405
4	0x3f28c5ac	0.65926623
5	0x3f191104	0.5979159
6	0x3f3d95e5	0.74056846
7	0x3f2f88cc	0.6856811
8	0x3ef0b10a	0.4701007
9	0x3f0c2834	0.54748845
10	0x3f320888	0.6954427
11	0x3f596a70	0.84928036
12	0x3f395048	0.72388124
13	0x3f41c97b	0.7569806
14	0x3f4424e7	0.7661881
15	0x3f206d02	0.6266633
16	0x3f0a8288	0.54105425
17	0x3f18e351	0.5972186
18	0x3f0f05de	0.5586833
19	0x3f3878ab	0.72059125
20	0x3f19b8b7	0.6004748
21	0x3f3be44c	0.7339523
22	0x3f0061a5	0.50148994
23	0x3f60e876	0.8785471
24	0x3f27ccd8	0.6554694
25	0x3ef091ee	0.46986336
26	0x3f2e4489	0.68073326
27	0x3f492ea4	0.7858679
28	0x3ec7bd69	0.39011696
29	0x3f407819	0.75183254
30	0x3f2da95a	0.67836535
31	0x3f2ac882	0.667122
32	0x3f42f159	0.7614952
33	0x3f34613a	0.70460856
34	0x3f27ba8f	0.6551904
35	0x3f690fbb	0.9103963
36	0x3f233797	0.637567
37	0x3f12a062	0.57275975
38	0x3f41335e	0.75469005
39	0x3f6b5d43	0.9193918
40	0x3f59227e	0.84818256
41	0x3f3a198d	0.7269524
42	0x3fa1bc8b	1.2635664
43	0x3f022464	0.5083678
44	0x3f3571de	0.7087687
45	0x3f6fe3e5	0.93707114
46	0x3f2a31d9	0.6648231
47	0x3f1911c9	0.59792763
48	0x3f3937a4	0.72350526
49	0x3f6c0ef2	0.92210305
50	0x3f36e9b8	0.71450377
51	0x3f3e0748	0.7422986
52	0x3f2b61ea	0.6694628
53	0x3f08bac7	0.5341
54	0x3f5efa3e	0.8710059
55	0x3f629baf	0.88518804
56	0x3f03f7e1	0.5155011
57	0x3f55d7d2	0.8353244
58	0x3f65ef84	0.89818597
59	0x3f250c43	0.64471835
60	0x3ef6b19a	0.48182374
61	0x3f8be329	1.0928699
62	0x3f910d9d	1.133228
63	0x3f368f94	0.7131283

bn2.weight f4 [64]
0	0x3f6fcd9f	0.9367313
1	0x3f839e23	1.0282634
2	0x3f73b4d9	0.95197827
3	0x3f88dec2	1.069298
4	0x3f6db3ad	0.9285229
5	0x3f87902b	1.0590872
6	0x3f6e5d8f	0.9311151
7	0x3f6eb8d4	0.93250775
8	0x3f795b93	0.97405356
9	0x3f750945	0.9571727
10	0x3f6e01cd	0.929715
11	0x3f6ef3b1	0.93340594
12	0x3f74ff80	0.9570236
13	0x3f85ac55	1.0443217
14	0x3f71ef76	0.94506013
15	0x3f875f2c	1.0575919
16	0x3f8526cd	1.0402466
17	0x3f873bca	1.0565121
18	0x3f866464	1.0499387
19	0x3f7e3031	0.99292284
20	0x3f883784	1.0641942
21	0x3f751fb2	0.9575149
22	0x3f89b5c1	1.0758592
23	0x3f78dbac	0.9721019
24	0x3f6e8428	0.93170404
25	0x3f715af2	0.94279397
26	0x3f8a1e2c	1.0790458
27	0x3f893eb2	1.0722258
28	0x3f6f025a	0.93362963
29	0x3f6dce45	0.9289287
30	0x3f752824	0.95764375
31	0x3f6f7e27	0.9355187
32	0x3f8085b2	1.00408
33	0x3f6a765b	0.91586846
34	0x3f87c605	1.0607306
35	0x3f87abe7	1.0599335
36	0x3f6fd8a8	0.93689966
37	0x3f711355	0.94170123
38	0x3f874b06	1.056977
39	0x3f76ade7	0.96359104
40	0x3f6efbeb	0.93353146
41	0x3f7b7ad0	0.9823427
42	0x3f876d39	1.0580207
43	0x3f893d50	1.0721836
44	0x3f7c8c89	0.9865194
45	0x3f88e572	1.0695021
46	0x3f6f7d78	0.93550825
47	0x3f6d91f0	0.9280081
48	0x3f842eaa	1.0326741
49	0x3f86acf2	1.0521529
50	0x3f75adc8	0.95968294
51	0x3f846f79	1.0346519
52	0x3f85e1df	1.0459555
53	0x3f876857	1.0578717
54	0x3f889200	1.0669556
55	0x3f7671df	0.96267503
56	0x3f84a390	1.0362415
57	0x3f71d541	0.94466025
58	0x3f89bed3	1.076136
59	0x3f77c4ce	0.96784675
60	0x3f72545b	0.94659966
61	0x3f71493c	0.9425237
62	0x3f734c19	0.9503799
63	0x3f824ec1	1.0180284

bn2.bias f4 [64]
0	0xbd76706b	-0.060165804
1	0x3b5972ae	0.0033179927
2	0xbd0f6622	-0.03500951
3	0x3d860aea	0.065450504
4	0xbd874deb	-0.066066585
5	0x3d8663b3	0.06561985
6	0xbd83a02f	-0.06427037
7	0xbd4f5d68	-0.05062619
8	0xbd0342c0	-0.03204608
9	0xbd53ea83	-0.05173732
10	0xbd6cbaab	-0.057795208
11	0xbd8450e1	-0.06460739
12	0xbd29fabb	-0.04149888
13	0x3ce884f8	0.028383717
14	0xbd591f35	-0.053008277
15	0xba8a50c0	-0.001055263
16	0x3c90d1f7	0.017678244
17	0x3cde507f	0.027137993
18	0x3be5d2df	0.007013663
19	0xbd759923	-0.059960496
20	0x3d92d1b8	0.07168907
21	0xbd8d4ee9	-0.068998165
22	0x3d94f161	0.07272602
23	0xbd228f57	-0.03968748
24	0xbd83fdb9	-0.06444878
25	0xbd52236d	-0.051303316
26	0x3d2b9a13	0.041894984
27	0x3d917686	0.07102685
28	0xbd78c05b	-0.06073032
29	0xbd84a669	-0.06477053
30	0xbdbb30c4	-0.09140161
31	0xbd78cffa	-0.060745217
32	0xbc418091	-0.011810438
33	0xbd96d464	-0.07364729
34	0x3d939318	0.0720579
35	0x3d6a8366	0.057254218
36	0xbd74c44a	-0.05975751
37	0xbd62e48a	-0.055393733
38	0x3d783ba3	0.06060375
39	0xbcfb91e9	-0.030709224
40	0xbd7cf6c7	-0.061758783
41	0xbd4f6ee8	-0.050642878
42	0x3d758b3a	0.05994723
43	0x3d19261c	0.03738986
44	0xbc78ca7e	-0.015184997
45	0x3d9ce425	0.076607026
46	0xbd83614c	-0.06415042
47	0xbd880c88	-0.06643015
48	0xbcc030c8	-0.02346076
49	0x3d40cbb4	0.047069266
50	0xbd3dabeb	-0.046306532
51	0x3d394699	0.045233343
52	0x3d26304a	0.040573396
53	0x3d8b1165	0.06790427
54	0x3d9cb47f	0.076516144
55	0xbd04c9bf	-0.032418963
56	0x3d4491df	0.047990676
57	0xbd5c5aa0	-0.053797364
58	0x3d8834dc	0.06650707
59	0x3d6f5dcb	0.058439057
60	0xbd955ce6	-0.072931096
61	0xbd4b1c57	-0.049587574
62	0xbd8f4f88	-0.06997591
63	0xbd6040e8	-0.0547494

bn2.running_mean f4 [64]
0	0x3f4bc31c	0.7959459
1	0xbec9baf0	-0.39400434
2	0x3e9d9d41	0.30784038
3	0x3eada683	0.339161
4	0x3e26ca25	0.1628805
5	0xbebffd5f	-0.37497994
6	0xbf1ad973	-0.6048805
7	0xbc9bfe78	-0.019042239
8	0xbef07793	-0.46966228
9	0x3eef9be2	0.46798617
10	0x3bde1091	0.006776877
11	0x3c872c77	0.016500695
12	0x3ee929c2	0.4553967
13	0x3f337ef7	0.7011561
14	0x3ec43393	0.38320598
15	0xbcf39c19	-0.02973752
16	0x3eea912c	0.45813882
17	0x3f0570b5	0.521251
18	0x3f332854	0.6998341
19	0xbeedd987	-0.46455023
20	0xbea9ed75	-0.33188978
21	0x3ecefe60	0.40428448
22	0xbd81de46	-0.063412234
23	0xbe114f84	-0.14190489
24	0xbeb1eaee	-0.3474955
25	0x3f3ae29a	0.73002017
26	0x3f3ddffa	0.74169886
27	0x3f21c39c	0.631891
28	0xbf0efcd7	-0.55854553
29	0xbd451c81	-0.048122887
30	0xbf0093af	-0.5022535
31	0x3f8170d4	1.0112557
32	0x3eb6e61c	0.35722435
33	0xbe827dbc	-0.25486553
34	0x3efeb77d	0.49749365
35	0x3f456276	0.77103364
36	0x3f1dcb71	0.6163855
37	0x3f25ab3f	0.64714426
38	0x3e21eddb	0.15813391
39	0x3f452443	0.77008456
40	0x3f814977	1.0100545
41	0x3f730026	0.949221
42	0x3b66d27a	0.0035220669
43	0x3ef033a8	0.4691441
44	0x3f0d4d98	0.55196524
45	0xbd902a94	-0.07039371
46	0xbef6ae75	-0.48179975
47	0x3f24d669	0.64389664
48	0xbcc1998d	-0.023632789
49	0x3f7850ca	0.96998274
50	0x3dd9d441	0.10636187
51	0xbd094fc0	-0.03352332
52	0xbe86bd45	-0.26316276
53	0xbf279337	-0.6545901
54	0x3bfe9344	0.0077690203
55	0xbe819ace	-0.2531342
56	0x3d4b9d0c	0.04971032
57	0x3f221084	0.6330645
58	0xbdb8b173	-0.09018221
59	0xbe2cce0c	-0.16875476
60	0xbf4ef43d	-0.8084143
61	0x3e80262d	0.25029126
62	0x3dcf6d33	0.1012825
63	0x3e8f1f82	0.27953726

bn2.running_var f4 [64]
0	0x3e60148e	0.21882841
1	0x3ed84e17	0.42247078
2	0x3ec459d0	0.38349771
3	0x3f238b3c	0.6388433
4	0x3e96c22c	0.29445016
5	0x3ea6b54f	0.32560202
6	0x3ec89e5c	0.3918332
7	0x3e82636e	0.25466484
8	0x3f577d86	0.8417591
9	0x3eea3eba	0.45750982
10	0x3e9a4e07	0.30137655
11	0x3ede2279	0.43385676
12	0x3e8919e6	0.2677757
13	0x3efb6c6f	0.49106166
14	0x3f02f9ce	0.5116242
15	0x3f39d9c8	0.7259793
16	0x3ee23385	0.4417993
17	0x3f0dc790	0.55382633
18	0x3e9a7b6d	0.3017229
19	0x3e52171c	0.20516628
20	0x3eb4d6ca	0.3532012
21	0x3e885551	0.2662759
22	0x3ebff6ff	0.3749313
23	0x3e905eea	0.28197414
24	0x3f34d2f6	0.706344
25	0x3ecd2e86	0.40074557
26	0x3f3d1646	0.7386211
27	0x3f23a1aa	0.63918555
28	0x3f2c3f10	0.67283726
29	0x3ee94f58	0.45568347
30	0x3efc1486	0.49234408
31	0x3ee75166	0.4517929
32	0x3f00720d	0.5017403
33	0x3e991985	0.29902282
34	0x3ec8f68f	0.3925061
35	0x3ebc0f0b	0.36730227
36	0x3f0092e6	0.5022415
37	0x3e2f7a9c	0.17136616
38	0x3edfde3d	0.43724242
39	0x3eddd630	0.43327475
40	0x3ed9deeb	0.42552885
41	0x3ea623a9	0.32449082
42	0x3ed7cc8b	0.4214824
43	0x3edb8305	0.42873397
44	0x3f1ba9b3	0.60805815
45	0x3eab281e	0.33429044
46	0x3ee4816a	0.44629985
47	0x3e61c2d0	0.22046971
48	0x3eb1250e	0.34598583
49	0x3ef183d3	0.47170886
50	0x3eef0db7	0.4669015
51	0x3f0d8456	0.55280054
52	0x3efdd70f	0.4957814
53	0x3f047474	0.51740193
54	0x3f13a831	0.57678515
55	0x3e807c3a	0.25094777
56	0x3ec331d4	0.38123953
57	0x3efa8b8b	0.48934588
58	0x3f09901b	0.5373551
59	0x3ed3bf80	0.4135704
60	0x3f1a1f28	0.6020379
61	0x3f00eab4	0.5035813
62	0x3ea5c2e6	0.32375258
63	0x3ed1f0e5	0.410041

classifier.weight f4 [10, 64]
0	0x3da29469	0.07938463
1	0x3dfd2839	0.123611875
2	0x3d3883af	0.04504746
3	0x3cc90a83	0.024541145
4	0x3e200fff	0.15631102
5	0xbceae3a2	-0.028672997
6	0xbe36819a	-0.17822877
7	0xbdf7cd83	-0.12099745
8	0x3e42dfb4	0.19030648
9	0xbcdb0a5c	-0.026738338
10	0xbdadc4b8	-0.08484787
11	0x3e028aec	0.12748307
12	0xbd8b79b6	-0.06810324
13	0x3d5f2c82	0.054485805
14	0x3d56987b	0.05239151
15	0xbdb92284	-0.090397865
16	0xbc8d97fa	-0.017284382
17	0xbdc50964	-0.09620932
18	0x3e0e9762	0.13924935
19	0xbe0b3615	-0.1359485
20	0xbc769c95	-0.0150519805
21	0xbd0dbcf1	-0.034604017
22	0xbe16e487	-0.14735614
23	0xbdb61d31	-0.088922866
24	0xbe0277cf	-0.12741016
25	0xbde427c5	-0.11140398
26	0x3e267a1e	0.16257522
27	0xbd40fa3e	-0.04711365
28	0x3dc0941e	0.09403251
29	0xbe36fa3d	-0.17868896
30	0x3d6f1d58	0.058377594
31	0xbd7f1e03	-0.06228448
32	0xbe140537	-0.14455114
33	0x3dd4f763	0.10398748
34	0xbdcbbe41	-0.099483974
35	0xbad02d70	-0.0015882682
36	0xbd8acd4b	-0.06777438
37	0x3dee9ffa	0.11651607
38	0x3e4ca670	0.19985366
39	0xbe25017d	-0.16113849
40	0xbdae6a95	-0.08516423
41	0xbe198796	-0.14993128
42	0x3d4f798f	0.050653037
43	0xbd0207ff	-0.031745907
44	0x3ca5ec06	0.020254146
45	0xbccf9294	-0.025338449
46	0xbd2e3a37	-0.042535987
47	0x3dc8c731	0.09803618
48	0xbaf75868	-0.0018870952
49	0x3c875efc	0.016524784
50	0xbca0ff62	-0.019653026
51	0xbc8d3c1d	-0.017240578
52	0xbc9213a3	-0.01783163
53	0xbd9bfd6a	-0.07616694
54	0xbd925a83	-0.0714617
55	0x3cd1d8f1	0.025616141
56	0xbd0c3434	-0.034229472
57	0xbc4b3f11	-0.012405173
58	0xbe28fed8	-0.16503465
59	0x3e00e9ed	0.12589236
60	0x3d6e127b	0.058123093
61	0xbd296d8a	-0.04136423
62	0xbdebe3e1	-0.11518074
63	0xbdee61ca	-0.116397455
64	0xbd093250	-0.033495247
65	0xbc07d4f9	-0.008290523
66	0xbe25e030	-0.16198802
67	0xbe036b8b	-0.12833993
68	0x3e48e0d1	0.1961701
69	0x3e4182f3	0.1889761
70	0xbe274089	-0.16333212
71	0x3d591566	0.052998923
72	0x3dc81450	0.09769499
73	0x3d731d28	0.059353977
74	0x3e066944	0.13126093
75	0x3dd8545d	0.10562966
76	0x3d35b452	0.04436142
77	0xbc98a129	-0.018631535
78	0xbdcd0382	-0.10010435
79	0xbccb913e	-0.02484953
80	0xbcc14650	-0.023593098
81	0xbd5522de	-0.052035205
82	0x3bc224fc	0.005924819
83	0x3d52f57c	0.051503643
84	0x3e0eba20	0.13938189
85	0xbc158fb8	-0.0091285035
86	0xbe04ed1c	-0.12981075
87	0x3d210da4	0.03931965
88	0x3d34a127	0.044099
89	0x3def3624	0.116802484
90	0x3cb2ecfd	0.02184152
91	0xbd55b7fa	-0.052177407
92	0x3e5139bd	0.20432182
93	0x3bf06f5b	0.0073374934
94	0xbd60d755	-0.054892857
95	0xbd728447	-0.05920818
96	0xbdce28aa	-0.1006635
97	0xbb9beca2	-0.0047584334
98	0xbcf9f566	-0.030512523
99	0x3db83b53	0.0899569
100	0x3dca13ac	0.09867033
101	0x3c709609	0.014684209
102	0x3dd697c9	0.104781695
103	0xbe16eb1c	-0.14738125
104	0xbde03add	-0.10948727
105	0xbda7627c	-0.08173081
106	0xbe139a4b	-0.14414327
107	0x3ca87383	0.020562893
108	0xbd492fd9	-0.049117897
109	0x3cca6c49	0.024709838
110	0x3c1a178e	0.00940503
111	0xbc06b2d9	-0.008221352
112	0x3c18b588	0.009320624
113	0xbd0176a4	-0.031607285
114	0xbded541e	-0.1158831
115	0xbd0bbf6e	-0.03411811
116	0xbd2ed07d	-0.0426793
117	0x3d351b21	0.044215325
118	0x3dcc9b03	0.09990504
119	0x3e1657ce	0.14681932
120	0xbb00ead4	-0.0019671218
121	0x3e2d4f35	0.16924746
122	0xbd256fd2	-0.040389843
123	0x3d79593e	0.060876124
124	0x3d43d52c	0.04781072
125	0x3d80df7c	0.06292626
126	0xbd88b709	-0.06675536
127	0x3ae3b988	0.0017374018
128	0x3c7bd72c	0.015371125
129	0x3d1ede5b	0.038786273
130	0x3e0cf2ba	0.13764468
131	0x3d1c1a80	0.03811121
132	0xbde5a7ab	-0.11213621
133	0xbd9a888d	-0.07545576
134	0xbc76a9de	-0.015055148
135	0xbe0aad19	-0.13542594
136	0x3c0e8f3f	0.008701145
137	0x3d9a8d6b	0.075465046
138	0x3d320c52	0.04346878
139	0xbe23df43	-0.16003136
140	0xbd4efce7	-0.050534155
141	0xbdd69537	-0.10477679
142	0x3bbd402a	0.005775471
143	0xbcc520a2	-0.024063412
144	0x3d73c274	0.059511617
145	0x3d106575	0.035253007
146	0x3e2be542	0.16786674
147	0x3de44cd8	0.11147469
148	0xbe12b4df	-0.1432681
149	0x3dcf8864	0.10133436
150	0xbd12b126	-0.035813473
151	0xb7bb6aec	-2.2341927e-05
152	0x3e0743ed	0.13209505
153	0x3c1c6234	0.009544898
154	0x3cbef449	0.023309844
155	0x3bc9fa96	0.0061639054
156	0xbe2d4f6b	-0.16924827
157	0xbd4566c4	-0.048193708
158	0x3dbdd946	0.09269957
159	0xbdbe030d	-0.09277926
160	0xbd57f551	-0.052724186
161	0xba3c6d43	-0.0007187912
162	0xbe05a0d1	-0.13049628
163	0xbdd457b4	-0.103682905
164	0x3d2d87ac	0.042365715
165	0x3dd72852	0.10505737
166	0xbe2d5b0c	-0.16929263
167	0xbd080720	-0.03320992
168	0xbd42a72f	-0.04752272
169	0x3d09aab9	0.03361008
170	0xbd962bbc	-0.073325604
171	0x3e0ab6e6	0.13546333
172	0x3e2e9dec	0.1705243
173	0x3d9e695d	0.0773494
174	0x3b9020b3	0.0043984293
175	0xbd5a0d07	-0.05323508
176	0xbbafc0a3	-0.0053635403
177	0x3d143f50	0.036193192
178	0x3e025336	0.12727055
179	0xbe1e729f	-0.15473412
180	0xbdad91b9	-0.0847506
181	0x3e015967	0.1263176
182	0x3dce4306	0.100713775
183	0x3d39d364	0.045367613
184	0xbdaecdbf	-0.08535337
185	0xbde535cd	-0.11191902
186	0xbcffa924	-0.031208582
187	0xbe1586d6	-0.14602217
188	0xbd568e89	-0.052382026
189	0x3d790c00	0.06080246
190	0xbdb912ce	-0.0903679
191	0x3cf5dfa9	0.030013876
192	0xbda0408d	-0.07824812
193	0xbda4f146	-0.08053832
194	0x3c870ea8	0.01648648
195	0x3e2266a6	0.1585947
196	0xbd026c79	-0.03184173
197	0x3c437b91	0.011931316
198	0xbdf3aa00	-0.11897659
199	0x3dcbb00b	0.09945687
200	0xbcd41fba	-0.025894035
201	0x3d2fbc4a	0.042904176
202	0x3e177d30	0.14793849
203	0xbdc04241	-0.09387637
204	0x3d260ddd	0.040540565
205	0x3d7d8ed7	0.0619038
206	0xbd4f75fb	-0.050649624
207	0x3dd885ef	0.10572421
208	0x3d8c5d86	0.06853776
209	0xb8d9b45e	-0.00010380962
210	0xbc9d32a9	-0.019189196
211	0xbd5188ab	-0.051155727
212	0x3b8635e0	0.004095778
213	0x3dc6933d	0.09696052
214	0x3d06bcc7	0.032894876
215	0x3d155044	0.0364535
216	0xbe003a0c	-0.12522143
217	0x3cd5b177	0.026085598
218	0x3d54d9b5	0.051965434
219	0x3e21047a	0.15724364
220	0xbe22bcea	-0.15892377
221	0xbc207663	-0.009793851
222	0xbdedde4a	-0.11614664
223	0x3d33e029	0.043914948
224	0x3de67f1f	0.11254715
225	0xbdd5e3b7	-0.10443824
226	0x3e23e8a2	0.16006711
227	0xbd0cb397	-0.034350958
228	0x3daeb5d6	0.08530776
229	0x3c1c309b	0.009533073
230	0xbdae10d9	-0.08499307
231	0x3d06193d	0.032738913
232	0x3e23c5ad	0.15993376
233	0x3d2b3e1d	0.041807283
234	0xbd87e9cc	-0.0663639
235	0x3de1bdd2	0.110225335
236	0xbce91214	-0.028451003
237	0x3e1eb7b8	0.1549977
238	0xbe2a24a4	-0.1661554
239	0x3d9b19bb	0.07573267
240	0xbd8fa9d9	-0.07014818
241	0xbd25657e	-0.040379994
242	0x3d403ed2	0.04693491
243	0xbe14ae10	-0.14519525
244	0x3dc1330f	0.09433567
245	0x3dbbd467	0.09171372
246	0xbc893ace	-0.016751673
247	0x3ce02a01	0.027363779
248	0xbd05c828	-0.032661587
249	0x3c91f624	0.017817564
250	0x3e30f379	0.17280377
251	0x3a30b598	0.0006740927
252	0xbe2e233f	-0.17005633
253	0x3dc3faa0	0.09569287
254	0xbd323ded	-0.04351609
255	0xbbe17f53	-0.0068816333

classifier.bias f4 [10]
0	0x3d40258d	0.04691081
1	0x3c9a03b2	0.01880059
2	0x3cebc974	0.028782584
3	0x3dad9e37	0.08477443
4	0xbbdd9052	-0.006761589
5	0x3cbd40f4	0.023102261
6	0xbd020756	-0.031745277
7	0x3d13904b	0.03602628
8	0xbcdfa55f	-0.027300535
9	0x3c896fd4	0.016776957
