checkpoints/checkpoint_epoch_10.pt (torch, 547720 bytes, 37 tensors)

prototypes f4 [100, 64]
0.09282293 -0.28263864 -0.1554128 2.2342398 -0.58748317 0.69959 0.23335154 -0.82830685
0.025666134 2.9080906 -1.0483158 -0.9174986 -0.53556585 -0.9856328 -0.64199597 1.7075118
-0.7964798 0.44587052 0.9402645 1.5534008 -2.128798 -0.24046795 -0.479056 0.09356707
0.31033915 0.31094489 0.26820537 0.71208715 -0.45195252 0.5432973 -0.3507606 0.24655624
-1.8472093 1.5498136 -0.3276601 0.21855532 -0.21687284 -0.880677 0.91006905 -1.9000926
-0.52189606 0.105258994 1.1264653 0.3813693 1.2625158 -0.22887513 -0.18999436 0.27931023
1.9444534 -0.507356 0.2839351 -0.6328508 -0.7237397 -0.8719771 -0.62124276 0.53609
1.2367257 -0.22356991 0.062485214 -1.9463859 -0.27027518 0.92688125 -0.24666305 1.4103262
-0.097955585 1.7594303 -1.1730721 0.20016499 -1.3398528 -0.9530948 -0.3840259 0.09008215
-0.49464014 -0.17409989 0.11104943 1.0251852 0.05492882 0.89976025 -0.9644059 -0.23021647
0.48294982 0.8290375 -0.8516584 -0.56508744 0.29393524 -2.0371683 0.8246953 0.43609127
-1.1752752 1.8259739 -1.4865141 -0.25982168 1.6436211 0.4396075 0.666074 -0.55421996
1.0691366 -1.0166438 -1.7576078 -0.16247803 1.4172361 -1.0137919 -0.4226464 -0.36419392
-1.168471 -1.1950581 -0.053952824 -0.3827992 -1.1814605 0.087911196 0.31032848 1.9244764
-0.06632503 -0.30696237 -1.8228631 -1.0997527 -0.102747664 1.060552 -0.08338487 0.5842717
-1.3419247 0.09304516 -1.302462 -0.71178216 -1.0866185 -0.83356905 -1.9204094 1.1485919
0.42448533 -0.71760046 0.55372065 -1.7831804 0.51424474 0.5467427 -0.01058695 0.66909575
-1.4905831 -0.022142926 -0.6689741 0.18280853 1.513038 0.068500616 -1.8377105 -0.48992094
0.7349532 -1.7953675 1.1087003 0.057016127 0.17749774 -0.09425124 -0.92648834 3.1626701
1.3600931 -0.27394122 0.36722738 -1.1666111 0.016266631 -0.92482704 1.2382748 -1.6488653
1.042572 0.12655284 -2.068181 0.88436466 0.07004715 -0.79272336 -1.007165 -1.9816371
-0.036106326 -0.9034454 1.013187 0.0152979605 -1.2274957 -0.42928872 -0.3453034 2.0567594
0.64750475 0.31576037 -0.51874787 -1.8623812 -0.66370666 -0.1540308 -0.87309086 -0.50911653
-0.7211053 -0.90700376 -0.32355177 -1.1008723 -0.6490852 0.86643213 0.0723314 1.0038289
-0.1310654 1.284587 0.19417551 1.2718034 0.28993124 2.0402002 -0.4559858 0.30268875
3.4049714 1.8931141 -3.066338 0.3233149 0.40143853 0.3805489 0.9255013 0.26047817
-1.5333486 -1.206774 -1.7774284 0.33435693 0.6541041 -0.24713244 -0.31831118 0.47722965
0.630599 -0.96006805 -0.9289536 -0.46395776 1.3164247 0.046406653 1.1432884 -0.5974414
0.92323786 1.9192377 -0.2038089 -1.1649464 -0.46420836 0.7367675 0.030818354 0.77606356
1.5998011 -1.2594061 0.36745426 0.7935855 -0.60484725 -2.175235 0.25951186 0.5700006
-1.7817984 -0.6974584 -0.85999215 0.41094136 -0.043196037 0.39136022 0.609678 -0.11769587
0.6326683 -0.9303841 -0.35757074 0.9696737 1.2864196 0.55766964 -1.4891299 -1.1957738
00000000: f319 be3d 03b6 90be 8824 1fbe c9fd 0e40
00000010: 4c65 16bf 5518 333f b5f3 6e3e eb0b 54bf
00000020: c941 d23c 281e 3a40 362f 86bf 30e1 6abf
00000030: d81a 09bf 6e52 7cbf d959 24bf bf8f da3f
00000040: 1ae6 4bbf 2449 e43e 2db5 703f d6d5 c63f
00000050: 3a3e 08c0 3b3d 76be d446 f5be 18a0 bf3d
00000060: c6e4 9e3e 2b34 9f3e 3752 893e 584b 363f
00000070: 5266 e7be 8815 0b3f e596 b3be 3d79 7c3e
00000080: 5b71 ecbf 4b60 c63f 11c3 a7be f7cc 5f3e
00000090: ea13 5ebe 0c74 61bf 49fa 683f 3c36 f3bf
000000a0: fb9a 05bf 0792 d73d 0430 903f d642 c33e
000000b0: 1e9a a13f 3e5e 6abe e28d 42be c001 8f3e
000000c0: d9e3 f83f 15e2 01bf f15f 913e 8302 22bf
000000d0: 0147 39bf e439 5fbf c409 1fbf 323d 093f
000000e0: 074d 9e3f 83ef 64be 7ff0 7f3d 2c23 f9bf
000000f0: 8261 8abe 1748 6d3f 3d95 7cbe 9285 b43f
00000100: f09c c8bd 0335 e13f 3a27 96bf 0df8 4c3e
00000110: 4c80 abbf 05fe 73bf 0b9f c4be fe7c b83d
00000120: 7941 fdbe 3e47 32be e26d e33d 4539 833f
00000130: 0bfd 603d b056 663f 4ee3 76bf debd 6bbe
00000140: 3345 f73e cd3b 543f 4906 5abf 92a9 10bf
00000150: ae7e 963e f760 02c0 3b1f 533f 5b47 df3e
00000160: 6b6f 96bf 83b9 e93f 1846 bebf 5907 85be
00000170: 2d62 d23f 3c14 e13e d383 2a3f 5ce1 0dbf
00000180: 78d9 883f 6221 82bf 4bf9 e0bf a460 26be
00000190: fe67 b53f efc3 81bf 1c65 d8be a077 babe
000001a0: 7590 95bf aaf7 98bf a3fd 5cbd 42fe c3be
000001b0: 193a 97bf c90a b43d 60e3 9e3e 3e55 f63f
000001c0: 6bd5 87bd 2c2a 9dbe 9453 e9bf b2c4 8cbf
000001d0: 5e6d d2bd 2bc0 873f b0c5 aabd d592 153f
000001e0: 30c4 abbf 768e be3d 13b7 a6bf 5b37 36bf
000001f0: 5116 8bbf c864 55bf facf f5bf 0f05 933f
00000200: 2456 d93e aab4 37bf a3c0 0d3f 413f e4bf
00000210: 8ba5 033f 54f7 0b3f e374 2dbc dc49 2b3f
00000220: 6dcb bebf 1565 b5bc e341 2bbf 2932 3b3e
00000230: 3bab c13f 0d4a 8c3d 193a ebbf ebd6 fabe
00000240: e525 3c3f 9ace e5bf e4e9 8d3f be89 693d
00000250: f8c1 353e cb06 c1bd 572e 6dbf 3069 4a40
00000260: 8817 ae3f 0642 8cbe 3a05 bc3e 8353 95bf
00000270: 9941 853c 77c1 6cbf ca7f 9e3f 050e d3bf
00000280: 0073 853f 1197 013e 145d 04c0 b965 623f
00000290: e174 8f3d ebef 4abf c8ea 80bf 49a6 fdbf
000002a0: 3ae4 13bd 3348 67bf 1db0 813f 4ca4 7a3c
000002b0: 941e 9dbf bbcb dbbe 9bcb b0be f2a1 0340
000002c0: dfc2 253f 58ab a13e a9cc 04bf 8262 eebf
000002d0: aee8 29bf 40ba 1dbe e282 5fbf 7655 02bf
000002e0: 5b9a 38bf 6631 68bf 94a8 a5be 62e9 8cbf
000002f0: 732a 26bf 7fce 5d3f 7c22 943d 777d 803f
00000300: 0236 06be 596d a43f f2d5 463e 74ca a23f
00000310: de71 943e a492 0240 f976 e9be 05fa 9a3e
00000320: 0deb 5940 9051 f23f e23e 44c0 8889 a53e
00000330: 5a89 cd3e 4ed7 c23e a7ed 6c3f 655d 853e
00000340: c444 c4bf 9277 9abf c682 e3bf d530 ab3e
00000350: 5e73 273f 4910 7dbe aff9 a2be 7257 f43e
00000360: f06e 213f 05c7 75bf e7cf 6dbf df8b edbe
00000370: 9b80 a83f e714 3e3d 4657 923f ebf1 18bf
00000380: 5159 6c3f 95a9 f53f 48b3 50be f71c 95bf
00000390: b8ac edbe cb9c 3c3f c676 fc3c 1aac 463f
000003a0: 48c6 cc3f 3834 a1bf f722 bc3e 6b28 4b3f
000003b0: 45d7 1abf 0d37 0bc0 bdde 843e 8feb 113f
000003c0: f811 e4bf a28c 32bf 7228 5cbf e866 d23e
000003d0: 54ee 30bd 5e60 c83e db13 1c3f 880a f1bd
000003e0: 8df6 213f a72d 6ebf 8313 b7be 893c 783f
000003f0: 66a9 a43f 70c3 0e3f cf9b bebf 1e0f 99bf

conv1.bias f4 [64]
0.00018597639 -5.0144637e-05 -5.2930736e-05 -2.8542407e-05 9.210251e-05 -5.4194265e-05 0.00023166671 1.03285765e-05
-0.00014528977 1.1298112e-06 0.00024583278 -0.00021767194 3.1310632e-05 -6.503464e-05 -0.00016830859 1.2659119e-05
-0.00020251567 0.00022636582 2.7388476e-05 5.5697998e-05 -0.00018956157 -5.7149915e-05 -3.96474e-05 -0.000115375944
4.4282482e-05 -0.00014127986 0.0001363932 0.00013536573 0.00010969599 6.324693e-05 0.00021826552 8.222901e-05
3.1208474e-05 1.538758e-05 -4.5318822e-05 -0.00036765306 -5.156935e-07 0.00019060528 4.402963e-06 -4.3281332e-05
-7.834217e-05 -7.9722624e-05 -0.00011182912 0.00024084181 -0.00010501266 0.00030338843 0.00021395867 0.00044470702
-3.482759e-05 3.275414e-05 0.00017412749 0.00022809311 6.0884486e-05 -7.7775745e-05 0.00015290282 -0.00012912191
-0.0003333648 -2.0238193e-05 -0.00040900664 -4.1789634e-05 -7.6221586e-05 1.3043898e-05 6.585926e-05 3.6753818e-06
00000000: a802 4339 6552 52b8 f201 5eb8 5a6e efb7
00000010: 2927 c138 a64e 63b8 8feb 7239 e648 2d37
00000020: ed58 18b9 04a4 9735 1ee3 8039 de3e 64b9
00000030: 8953 0338 3563 88b8 fe7b 30b9 8162 5437
00000040: 635a 54b9 9d5c 6d39 4ec0 e537 459d 6938
00000050: 0cc5 46b9 41b4 6fb8 124b 26b8 fdf5 f1b8
00000060: f4bb 3938 8624 14b9 c504 0f39 f6f0 0d39
00000070: 960c e638 70a3 8438 34de 6439 5d72 ac38
00000080: d8e5 0238 9414 8137 b714 3eb8 8fc1 c0b9
00000090: 306e 0ab5 37dd 4739 2abd 9336 fa88 35b8
000000a0: a24b a4b8 c230 a7b8 cd85 eab8 7b8a 7c39
000000b0: 3e3a dcb8 1b10 9f39 185a 6039 9127 e939
000000c0: d713 12b8 7d61 0938 fe95 3639 472c 6f39
000000d0: 385e 7f38 891b a3b8 8a54 2039 e664 07b9
000000e0: 77c7 aeb9 30c5 a9b7 f16f d6b9 4747 2fb8
000000f0: 27d9 9fb8 1ed7 5a37 ec1d 8a38 94a6 7636

conv1.lin.weight f4 [64, 512]
-0.020123787 -0.010810012 -0.034687754 -0.06311275 -0.085979246 -0.099585265 0.054125413 -0.028084477
0.024677664 0.041336235 -0.035535954 0.02373703 -0.049698904 -0.10054548 0.009360134 -0.057057306
-0.08016459 -0.022158373 -0.025499897 0.06409486 -0.04249517 0.07433488 -6.8863534e-05 -0.008676927
0.024841579 -0.0693288 -0.09701652 -0.08245932 -0.04111553 0.00083012495 0.026753668 -0.028746946
0.08419552 0.01247843 0.051941432 -0.023255883 -0.05553211 -0.02782261 0.09731186 0.079269886
0.005076745 -0.059827354 -0.0057178466 0.01363296 0.08722512 -0.024668047 -0.08466999 0.033038855
-0.05003614 -0.018967662 -0.095368095 0.035267822 0.06903364 0.008808669 0.030974656 -0.07998867
-0.07967235 0.049566247 -0.04527726 -0.07338932 0.07486587 -0.10265664 -0.019579034 -0.020746019
0.057509303 0.06110944 -0.01563177 -0.031250857 0.094378926 0.04810151 -0.00075745396 0.0062413835
0.042932935 -0.023462636 -0.05270955 -0.0049794135 0.030070288 0.02798092 -0.067626856 -0.03940139
-0.092723414 -0.02442571 -0.008134238 -0.032013092 -0.006570831 0.0073380885 0.088595 0.019530434
0.04876884 0.018066846 0.043994673 -0.10251868 0.08000773 -0.04575277 -0.06033757 -0.07342944
0.09312702 0.014043705 0.06884785 0.08490305 0.08688591 -0.014588225 0.021897992 0.08789826
0.08479785 0.0426209 0.057749998 0.022900643 -0.041880753 0.044157792 0.012607788 0.0601405
-0.078677274 0.04129369 -0.03966293 -0.014661901 -0.01968706 0.091172576 0.08067659 -0.06964035
-0.042107034 0.08689894 -0.035011165 -0.041334722 0.053913306 0.07867219 -0.0616194 -0.046224747
0.09974726 -0.0010570224 -0.0788435 0.04822683 0.09463178 -0.08159236 -0.051110532 0.0023717792
-0.09522974 -0.028677635 -0.010491936 0.017333217 -0.07409196 0.0051813754 -0.047684964 -0.060697097
-0.008846497 -0.0149331195 0.04964618 0.0022319348 0.09628976 -0.0038785448 0.08311025 -0.07925798
0.06233706 0.025846118 0.07429721 0.07177794 0.023418281 -0.089494735 -0.03366399 0.09835283
0.05021855 -0.05217331 0.03558567 0.023628788 0.09923286 0.08792096 -0.04130182 0.025591826
-0.023312561 -0.0594107 0.08528723 -0.0384392 0.059314575 -0.0067676357 0.029302778 0.020491112
-0.096037656 -0.04886059 -0.089062124 -0.015224243 0.07814942 -0.068515606 -0.04255336 -0.013213403
0.0058008605 0.055569753 0.09117325 -0.0146266 -0.029469693 0.09328594 -0.027020052 0.045785267
-0.02115729 0.05854607 0.084244035 -0.102333866 0.04640517 -0.058802005 0.018965386 -0.020057028
-0.018539902 -0.021560831 -0.07284894 0.007854645 -0.007335142 -0.014885387 0.0914406 -0.013156784
-0.010181734 -0.055923175 0.039167482 -0.0019994155 0.005886194 -0.06392642 -0.09294091 -0.09362852
-0.018716013 0.05159383 0.08920035 -0.016834145 0.07590402 -0.08615019 -0.05513464 0.048805032
0.011752562 -0.07311461 0.0006577855 -0.029363334 0.0641785 0.076033056 0.0075877546 -0.06589767
-0.031514786 0.042364106 -0.02172788 -0.03385087 0.0020025042 -0.08537863 -0.103278615 -0.02054184
0.077044725 0.007157192 0.06227376 -0.10493265 -0.046637215 -0.002486056 -0.021981938 -0.09976678
0.049795188 -0.043938443 -0.08419604 0.039285723 -0.08717929 0.096926734 0.043190815 0.056361742
00000000: a4da a4bc 7a1c 31bc bf14 0ebd 4241 81bd
00000010: e315 b0bd 5cf3 cbbd 9cb2 5d3d 6b11 e6bc
00000020: d028 ca3c 2f50 293d 268e 11bd 2974 c23c
00000030: 1491 4bbd caea cdbd 3f5b 193c ecb4 69bd
00000040: 552d a4bd 7a85 b5bc 29e5 d0bc 2a44 833d
00000050: 6a0f 2ebd e33c 983d d46a 90b8 ab29 0ebc
00000060: 9180 cb3c 42fc 8dbd 99b0 c6bd 6fe0 a8bd
00000070: c268 28bd be9c 593a 822a db3c b77e ebbc
00000080: b36e ac3d 5472 4c3c 8ac0 543d 1f83 bebc
00000090: a375 63bd 3eec e3bc 714b c73d 4058 a23d
000000a0: d35a a63b 870d 75bd c65c bbbb c75c 5f3c
000000b0: 15a3 b23d a514 cabc 7667 adbd c053 073d
000000c0: b2f2 4cbd 1262 9bbc 5950 c3bd fe74 103d
000000d0: 8261 8d3d 3c52 103c 90be fd3c 1ad1 a3bd
000000e0: 422b a3bd fa05 4b3d a674 39bd 244d 96bd
000000f0: 4753 993d a53d d2bd 3664 a0bc 8ef3 a9bc
00000100: e08e 6b3d e44d 7a3d 330e 80bc e600 00bd
00000110: bd49 c13d 1706 453d e08f 46ba 8584 cc3b
00000120: 72da 2f3d b734 c0bc f8e5 57bd 592a a3bb
00000130: f755 f63c 3e38 e53c f37f 8abd 5a63 21bd
00000140: c6e5 bdbd 6d18 c8bc 7845 05bc 2920 03bd
00000150: 2050 d7bb 5974 f03b 4c71 b53d 4afe 9f3c
00000160: d6c1 473d ec00 943c c233 343d 50f5 d1bd
00000170: 18db a33d 4267 3bbd 8724 77bd 2d62 96bd
00000180: 61b9 be3d 9117 663c 1a00 8d3d a6e1 ad3d
00000190: 3df1 b13d 7303 6fbc 6b63 b33c 0104 b43d
000001a0: 7faa ad3d 4193 2e3d 438b 6c3d 219a bb3c
000001b0: 278b 2bbd cdde 343d e590 4e3c e355 763d
000001c0: 8d21 a1bd 9323 293d 9975 22bd 7838 70bc
000001d0: c246 a1bc b0b8 ba3d c539 a53d 9a9f 8ebd
000001e0: 6d78 2cbd 12f8 b13d de67 0fbd 994e 29bd
000001f0: 33d4 5c3d e31e a13d a064 7cbd 2956 3dbd
00000200: 4b48 cc3d c98b 8aba b378 a1bd 7f89 453d
00000210: 4fce c13d e519 a7bd 4759 51bd da6f 1b3b
00000220: cf07 c3bd 5ced eabc 5ee6 2bbc 64fe 8d3c
00000230: 87bd 97bd 87c8 a93b 4f51 43bd 859d 78bd
00000240: e6f0 10bc 0baa 74bc cb59 4b3d a745 123b
00000250: 9133 c53d 2f2f 7ebb b535 aa3d 0252 a2bd
00000260: 2555 7f3d 3dbb d33c 2329 983d 5000 933d
00000270: b2d7 bf3c 0449 b7bd 41e3 09bd 356d c93d
00000280: f7b1 4d3d aeb3 55bd 48c2 113d 2991 c13c
00000290: 993a cb3d e70f b43d 192c 29bd f3a5 d13c
000002a0: fcf9 bebc a258 73bd 12ab ae3d 6c72 1dbd
000002b0: d7f3 723d 0bc3 ddbb 610c f03c fadc a73c
000002c0: 64af c4bd 0b22 48bd 3466 b6bd 1a6f 79bc
000002d0: ce0c a03d e951 8cbd 6f4c 2ebd 077d 58bc
000002e0: 2515 be3b 1c9d 633d 0ab9 ba3d 68a4 6fbc
000002f0: 6d6a f1bc b30c bf3d 2859 ddbc 5589 3b3d
00000300: 0e52 adbc 01ce 6f3d 2388 ac3d 6b94 d1bd
00000310: 5913 3e3d 5fda 70bd 4c5d 9b3c a34e a4bc
00000320: fee0 97bc 57a0 b0bc d331 95bd c5b0 003c
00000330: a25b f0bb d7e1 73bc 3645 bb3d 8d8f 57bc
00000340: 4ad1 26bc b30f 65bd 156e 203d a008 03bb
00000350: f9e0 c03b dbeb 82bd ce57 bebd 4fc0 bfbd
00000360: 5352 99bc 0d54 533d acae b63d c3e7 89bc
00000370: 9173 9b3d 836f b0bd dcd4 61bd c9e7 473d
00000380: d18d 403c 1dbd 95bd 3d6f 2c3a 608b f0bc
00000390: 0470 833d 38b7 9b3d b3a2 f83b 5cf5 86bd
000003a0: a615 01bd fc85 2d3d abfe b1bc 36a7 0abd
000003b0: 723c 033b feda aebd bd83 d3bd 5c47 a8bc
000003c0: a0c9 9d3d e186 ea3b c512 7f3d eee6 d6bd
000003d0: aa06 3fbd 19ed 22bb 7713 b4bc 8752 ccbd
000003e0: 0af6 4b3d ccf8 33bd f96e acbd 11ea 203d
000003f0: 0e8b b2bd 8681 c63d dae8 303d 92db 663d

conv2.bias f4 [64]
-4.0103987e-05 -1.514001e-05 -0.00012233245 8.0081845e-05 -3.9687493e-05 0.00017307833 -0.00021042896 -0.00033990626
5.7334593e-05 -7.413326e-06 -2.1195081e-05 -0.00022741285 0.0006916368 -7.5931326e-05 0.0002560946 3.2059157e-05
5.311238e-06 -4.835953e-05 7.8600984e-05 -4.541484e-05 0.0005410025 -4.058644e-06 -4.3050433e-05 9.028409e-05
-3.9399947e-06 -2.9167826e-05 1.4121455e-05 -0.00014171952 -0.00035089723 0.0002627476 -6.0905553e-05 -1.9166722e-05
7.077286e-05 3.3791903e-06 0.0004996086 -6.34338e-05 0.0002952108 8.9249304e-05 0.00024781012 -0.00031168564
-0.00021708466 -0.000113705544 6.002287e-05 -3.0152185e-05 6.902268e-05 -3.329759e-05 -0.00027603356 0.00023587287
7.004276e-05 -0.000119146054 -1.1075707e-05 -1.0572972e-05 -0.00032934037 -7.134603e-05 -0.00037309926 -0.00018160345
-0.00049305474 0.000101268546 5.812504e-05 6.9482514e-05 0.00015598425 -4.7191403e-05 -3.679978e-05 -6.370518e-05
00000000: 5435 28b8 d901 7eb7 5e46 00b9 9df1 a738
00000010: 1f76 26b8 5c7c 3539 98a6 5cb9 7235 b2b9
00000020: 8d7a 7038 fcbf f8b6 17cc b1b7 ac75 6eb9
00000030: f64e 353a 523d 9fb8 6f44 8639 4277 0638
00000040: 3037 b236 a6d5 4ab8 95d6 a438 d07b 3eb8
00000050: 10d2 0d3a 7d2f 88b6 0d91 34b8 e756 bd38
00000060: 4c34 84b6 6ead f4b7 30eb 6c37 8b9a 14b9
00000070: a1f8 b7b9 63c1 8939 d774 7fb8 39c8 a0b7
00000080: e46b 9438 0cc6 6236 2af8 023a c307 85b8
00000090: 86c6 9a39 5b2b bb38 83ec 8139 bd69 a3b9
000000a0: 38a1 63b9 3375 eeb8 11c1 7b38 53ef fcb7
000000b0: 45c0 9038 04a9 0bb8 99b8 90b9 a454 7739
000000c0: ece3 9238 0dde f9b8 cdd1 39b7 9262 31b7
000000d0: 51ab acb9 9c9f 95b8 899c c3b9 ce6c 3eb9
000000e0: 5840 01ba 2360 d438 49cb 7338 24b7 9138
000000f0: b48f 2339 62ef 45b8 7759 1ab8 7599 85b8

conv2.lin.weight f4 [64, 64]
0.01318089 -0.19878699 -0.034257274 0.09103781 0.06476498 0.11399537 0.12374183 0.03638364
0.023715276 0.19766738 -0.16293944 -0.17700636 -0.16440412 -0.026094602 0.00778591 0.22174603
-0.16993757 -0.060435716 0.07308136 0.135278 0.21387589 -0.10086084 -0.18762635 -0.0749657
0.11849288 0.13456601 0.112781495 -0.20648251 -0.114889316 0.12842356 -0.061178833 -0.06397756
0.12628885 -0.11651827 0.050197147 -0.10178844 0.010610207 -0.017725298 0.14476989 0.096295424
-0.20308317 0.070108116 -0.020093942 0.0447036 0.077497296 -0.14753903 0.13007751 0.05290103
0.052114572 0.1291955 -0.19614796 -0.12820742 -0.06737336 0.043431625 -0.14991027 0.0067774476
-0.037103537 0.16148621 0.10674 -0.17975174 0.053167492 0.068549894 0.21494146 0.14582232
0.12629981 0.21173461 -0.06610478 0.18226528 -0.11662192 -0.06783505 0.15130948 -0.062772416
-0.13653407 -0.12551068 0.20030299 0.15249589 0.03631538 -0.22342856 0.20362698 -0.18559356
-0.0043088226 -0.14805625 -0.009649198 -0.117399834 -0.11857828 0.13771825 -0.15734671 0.104799256
-0.11500474 0.10450142 -0.0083484985 0.025924351 0.047127746 -0.20582846 0.04939518 0.09920517
0.019784011 0.07880913 0.11741589 -0.18533278 -0.14943907 -0.053013984 0.21852002 -0.007562252
0.16295175 0.06069664 -0.08022028 0.05104789 0.033829235 -0.15774138 0.1729535 -0.09813684
0.14968973 -0.07348802 0.04756402 -0.16314615 -0.027815126 -0.0018542497 0.09388772 0.010494258
0.14799829 -0.047426086 -0.059847582 0.022588337 0.10078505 -0.03142486 -0.19949777 -0.082184486
0.017267467 0.056472905 0.1051661 0.060756784 -0.15130794 0.116579704 -0.10852406 0.0063828537
-0.0767716 -0.088336945 -0.20340392 -0.16938315 0.020418895 0.06477179 0.0012907317 0.21738373
-0.20916142 -0.09081586 -0.1511299 0.13329494 -0.05274535 -0.18450874 0.20161045 0.12570485
0.14792643 0.17019437 0.048425265 -0.1740159 -0.13139053 0.04102329 0.16778722 -0.15841705
-0.073229074 0.028130952 -0.20078775 0.18697847 -0.035247456 -0.15975948 -0.12205499 0.092421085
0.003794045 0.16236325 0.16242722 -0.011559239 0.21883398 0.080394745 0.12743755 0.11444038
-0.020438738 0.19741358 -0.19522545 -0.13266014 -0.17860498 0.029536057 -0.18753362 0.20173012
-0.039339405 0.1218457 0.10110928 0.13079953 -0.1278237 0.0030604717 0.20411946 -0.05341462
-0.16166668 -0.018136904 -0.14880025 -0.21655476 0.10462351 0.0725125 0.20111214 0.21717066
-0.028599665 0.016336167 -0.052281592 0.14382914 -0.026894882 -0.10173849 -0.19041358 0.17515987
-0.020173749 0.15995273 -0.07795272 0.13370837 -0.06003168 0.04791796 0.07621657 0.06252702
-0.046137325 0.09242321 0.14827837 0.14935955 0.18354283 -0.13489884 -0.09626321 -0.1911724
0.08407777 0.12468157 0.069760926 -0.012874052 0.029963491 -0.1978624 0.15974319 0.14547987
0.18069033 0.10142691 -0.0884116 0.05566659 0.11554971 0.00901566 -0.20646027 -0.15994231
0.048101325 0.062355895 -0.053214412 0.120393656 -0.20807521 0.19908115 0.1804434 0.17487581
-0.08508126 -0.0054760193 0.0974605 0.1863143 0.15456636 0.19980992 -0.19601166 0.01109909
00000000: a9f4 573c d18e 4bbe 5b51 0cbd 0872 ba3d
00000010: 80a3 843d 6876 e93d 5b6c fd3d 0307 153d
00000020: 8a46 c23c 5169 4a3e 99d9 26be 2841 35be
00000030: 8e59 28be 59c4 d5bc f220 ff3b 6411 633e
00000040: 1d04 2ebe 718b 77bd aeab 953d 5186 0a3e
00000050: 4802 5b3e 2190 cebd 1f21 40be 9e87 99bd
00000060: 65ac f23d accb 093e fcf9 e63d 2770 53be
00000070: 174b ebbd 7781 033e a896 7abd ab06 83bd
00000080: dd51 013e 21a1 eebd 869b 4d3d 7576 d0bd
00000090: 6fd6 2d3c a534 91bc 8f3e 143e 8936 c53d
000000a0: 09f5 4fbe d894 8f3d 0d9c a4bc 1f1b 373d
000000b0: e7b6 9e3d 7914 17be 0a33 053e c0ae 583d
000000c0: 1776 553d d34b 043e 03db 48be ce48 03be
000000d0: 0bfb 89bd 5ce5 313d 1482 19be 5a15 de3b
000000e0: e1f9 17bd a45c 253e 809a da3d d710 38be
000000f0: 28c6 593d e363 8c3d 9d19 5c3e 7252 153e
00000100: bd54 013e f5d0 583e f161 87bd c0a3 3a3e
00000110: 79d7 eebd 1aed 8abd dff0 1a3e d38e 80bd
00000120: 96cf 0bbe df85 00be 3a1c 4d3e e227 1c3e
00000130: 70bf 143d 75ca 64be 9783 503e 3d0c 3ebe
00000140: 0631 8dbb 0f9c 17be ab17 1ebc 536f f0bd
00000150: 2bd9 f2bd 0306 0d3e 7f1f 21be fea0 d63d
00000160: 9b87 ebbd d704 d63d 24c8 08bc 4e5f d43c
00000170: 0609 413d b2c4 52be 9a52 4a3d 152c cb3d
00000180: 1412 a23c ae66 a13d be77 f03d e0c7 3dbe
00000190: 8e06 19be 3125 59bd b6c3 5f3e c5cc f7bb
000001a0: d3dc 263e 0a9d 783d 884a a4bd 9817 513d
000001b0: 8690 0a3d f586 21be b91a 313e f8fb c8bd
000001c0: 4448 193e e380 96bd 7dd2 423d c90f 27be
000001d0: 8cdc e3bc 4c0a f3ba 3448 c03d 1cf0 2b3c
000001e0: dd8c 173e db41 42bd bd22 75bd 2d0b b93c
000001f0: 6468 ce3d 5bb7 00bd 2549 4cbe 5750 a8bd
00000200: 8174 8d3c 2250 673d 5361 d73d 1bdc 783d
00000210: 78f0 1abe 57c1 ee3d dd41 debd 4227 d13b
00000220: 6e3a 9dbd 00ea b4bd 1e49 50be c772 2dbe
00000230: 8745 a73c 12a7 843d c52d a93a d799 5e3e
00000240: 692e 56be aafd b9bd ccc1 1abe 787e 083e
00000250: 820b 58bd dcef 3cbe f872 4e3e c6b8 003e
00000260: 077a 173e 6f47 2e3e 9259 463d 3931 32be
00000270: 3d8b 06be 0a08 283d 6ad0 2b3e 1438 22be
00000280: 20f9 95bd e272 e63c 4e9b 4dbe 4977 3f3e
00000290: a35f 10bd fd97 23be f7f7 f9bd 4447 bd3d
000002a0: 83a5 783b 8d42 263e 5253 263e f662 3dbc
000002b0: 0416 603e 00a6 a43d fd7e 023e b85f ea3d
000002c0: 246f a7bc c926 4a3e 2ee9 47be 0fd8 07be
000002d0: 39e4 36be 9af5 f13c d008 40be 5792 4e3e
000002e0: 5b22 21bd 3d8a f93d 6212 cf3d 50f0 053e
000002f0: 37e4 02be 3292 483b b104 513e 4ac9 5abd
00000300: f38b 25be d893 94bc 185f 18be 88c0 5dbe
00000310: da44 d63d 6f81 943d 57f0 4d3e fc61 5e3e
00000320: d849 eabc 6dd3 853c 3925 56bd f247 133e
00000330: a852 dcbc 455c d0bd c7fb 42be 1c5d 333e
00000340: 6b43 a5bc a6ca 233e ada5 9fbd d9ea 083e
00000350: c7e3 75bd 9f45 443d 6f17 9c3d 2b0e 803d
00000360: 7efa 3cbd 6148 bd3d 49d6 173e b6f1 183e
00000370: a7f2 3b3e ec22 0abe a525 c5bd b3c2 43be
00000380: f730 ac3d 0d59 ff3d d1de 8e3d b0ed 52bc
00000390: ff75 f53c 719c 4abe b893 233e adf8 143e
000003a0: e306 393e e9b8 cf3d 2411 b5bd a602 643d
000003b0: 54a5 ec3d 6bb6 133c 526a 53be ebc7 23be
000003c0: e505 453d e568 7f3d 5bf7 59bd f390 f63d
000003d0: ab11 55be eedb 4b3e 28c6 383e a512 333e
000003e0: 153f aebd 2e70 b3bb 5f99 c73d 2dc9 3e3e
000003f0: a546 1e3e f99a 4c3e 48b7 48be f5d8 353c

bn1.weight f4 [64]
1.0071775 1.0071754 0.994886 1.0028123 0.99709463 0.99309623 0.99131656 0.9915919
0.990627 0.9929371 0.98960567 0.9962525 0.9929204 1.0103601 0.99108964 1.0079385
1.009026 0.9942738 0.9928767 0.99451566 0.9912997 1.0091829 0.9904974 0.99105334
1.0042174 1.0045322 0.9904751 0.9898234 0.99561566 1.0056359 1.0085821 0.99163127
0.99032307 0.9904034 0.9961087 1.0061343 1.0065521 1.0094887 0.9980554 1.0092505
1.0030628 0.9922459 1.0103872 1.0011003 0.99056154 0.9891825 1.0078795 1.0082393
1.0021051 0.9918962 1.0045581 1.0085932 0.9923141 1.0091864 0.9990231 1.0075783
0.9901829 1.0084088 1.009785 1.0057303 0.99314314 1.0103409 0.9928835 1.0092692
00000000: 31eb 803f 20eb 803f d9b0 7e3f 275c 803f
00000010: 9841 7f3f 8e3b 7e3f ecc6 7d3f f7d8 7d3f
00000020: bb99 7d3f 2031 7e3f cc56 7d3f 670a 7f3f
00000030: 0830 7e3f 7b53 813f 0db8 7d3f 2104 813f
00000040: c427 813f ba88 7e3f 2b2d 7e3f 9498 7e3f
00000050: d1c5 7d3f e82c 813f 3d91 7d3f acb5 7d3f
00000060: 328a 803f 8394 803f c78f 7d3f 1165 7d3f
00000070: abe0 7e3f adb8 803f 3819 813f 8cdb 7d3f
00000080: d085 7d3f 148b 7d3f fb00 7f3f 02c9 803f
00000090: b3d6 803f ed36 813f 8f80 7f3f 1f2f 813f
000000a0: 5d64 803f d403 7e3f 5e54 813f 0e24 803f
000000b0: 7195 7d3f 103b 7d3f 3202 813f fc0d 813f
000000c0: fb44 803f e9ec 7d3f 5c95 803f 9519 813f
000000d0: 4c08 7e3f 052d 813f fabf 7f3f 53f8 803f
000000e0: a07c 7d3f 8a13 813f a340 813f c5bb 803f
000000f0: a13e 7e3f da52 813f 9d2d 7e3f bc2f 813f

bn1.bias f4 [64]
0.00804295 0.0064019235 -0.002617237 0.0067383233 -0.005408349 -0.0072362134 -0.007968973 -0.008511817
-0.008989693 -0.00566108 -0.0096211685 0.0019032328 -0.0008199315 0.009912978 -0.009328169 0.0064173746
0.009225846 -0.006372842 -0.0045731077 0.00024386989 -0.008174512 0.0092804 -0.008873843 -0.008881452
0.0051221773 0.0047472236 -0.008445905 -0.009888569 -0.0017206147 0.0062697153 0.0088115325 -0.00440531
-0.009144116 -0.009057538 -0.0011350088 0.0056289206 0.004045103 0.009195212 0.0029419025 0.008593516
0.005835784 -0.0067508733 0.010607076 0.0022139763 -0.009096822 -0.010650416 0.008283638 0.0078033097
-0.002699485 -0.0058091865 0.005310014 0.0076633324 -0.0069451197 0.009292802 -0.001052981 0.008653434
-0.009393062 0.008631972 0.009851864 0.0068341745 -0.0058463463 0.010582012 -0.0035908632 0.006706651
00000000: 94c6 033c 3ac7 d13b f385 2bbb 27cd dc3b
00000010: 8538 b1bb c21d edbb 4c90 02bc 2675 0bbc
00000020: 8149 13bc 9580 b9bb 1ba2 1dbc e575 f93a
00000030: acf0 56ba 0b6a 223c 2dd5 18bc d748 d23b
00000040: 0128 173c 46d3 d0bb 02da 95bb 53b7 7f39
00000050: 63ee 05bc d20c 183c 9863 11bc 8283 11bc
00000060: f0d7 a73b 998e 9b3b b160 0abc aa03 22bc
00000070: 4086 e1ba 2f72 cd3b 3f5e 103c 6b5a 90bb
00000080: 34d1 15bc 1166 14bc 93c4 94ba cf72 b83b
00000090: c98c 843b 84a7 163c efcc 403b d2cb 0c3c
000000a0: 1b3a bf3b 6e36 ddbb 4dc9 2d3c 5c18 113b
000000b0: d60a 15bc 157f 2ebc 19b8 073c e8b2 ff3b
000000c0: d8e9 30bb fd5a bebb a0ff ad3b b11c fb3b
000000d0: e393 e3bb d640 183c 2e04 8aba 22c7 0d3c
000000e0: 5ce5 19bc 1d6d 0d3c b669 213c 36f1 df3b
000000f0: b592 bfbb 2d60 2d3c b054 6bbb 77c3 db3b

bn1.running_mean f4 [64]
0.5957603 -1.2221141 -1.1644615 -0.7499008 0.16213742 -0.3191243 -0.3030139 -0.18952681
0.58893657 1.2711719 -0.89359105 -1.137366 0.16624358 0.1945291 1.9354632 -1.0527501
1.043912 0.98488104 0.55230796 1.037135 -0.66249895 0.10907205 0.03856267 0.15599786
0.08938498 -0.40704557 -0.45616382 -0.30227056 0.195742 -0.15192969 -1.3794934 0.06334874
0.18574212 -0.054286074 -0.79602844 -1.5657952 0.35755906 -1.105425 -0.003685496 -0.30811518
-1.0399178 0.032497734 -0.6300249 0.39365244 -1.7952713 0.78013456 0.24604599 1.1062987
1.3358511 0.07511948 1.4638234 1.0503454 -1.7233852 -0.107661515 -0.20891619 -0.9507924
1.3220837 0.13785645 1.0152758 0.05815689 -0.6905969 0.64960706 -0.6860859 0.6019056
00000000: bf83 183f 3c6e 9cbf 130d 95bf 80f9 3fbf
00000010: 5a07 263e 4364 a3be a324 9bbe 5113 42be
00000020: 8cc4 163f c3b5 a23f 62c2 64bf 3695 91bf
00000030: c23b 2a3e a332 473e 42bd f73f 84c0 86bf
00000040: e99e 853f 2a21 7c3f 0e64 0d3f d7c0 843f
00000050: 8899 29bf 2b61 df3d e4f3 1d3d e7bd 1f3e
00000060: 790f b73d 4768 d0be 4e8e e9be 35c3 9abe
00000070: 9770 483e 7593 1bbe 3d93 b0bf fcbc 813d
00000080: 2f33 3e3e 135b 5ebd 85c8 4bbf fa6b c8bf
00000090: fb11 b73e 917e 8dbf 5d88 71bb 46c1 9dbe
000000a0: 071c 85bf 581c 053d 5049 21bf d08c c93e
000000b0: 73cb e5bf e6b6 473f 7bf3 7b3e 329b 8d3f
000000c0: 2bfd aa3f 3ed8 993d 915e bb3f b871 863f
000000d0: e397 dcbf a47d dcbd 20ee 55be 2167 73bf
000000e0: 0a3a a93f 3e2a 0d3e 8ff4 813f eb35 6e3d
000000f0: f5ca 30bf a64c 263f 53a3 2fbf 7c16 1a3f

bn1.running_var f4 [64]
0.36910847 0.10542599 0.21344976 0.18083298 0.22720882 0.19112362 0.28156292 0.21189879
0.17536648 0.22395965 0.17020826 0.22004448 0.33970916 0.2481455 0.38895002 0.24852769
0.26172474 0.19983253 0.16743983 0.24066694 0.120890126 0.2343095 0.12861174 0.3508828
0.1035983 0.084799096 0.15062171 0.24278946 0.13792577 0.23482835 0.30135128 0.33703348
0.17664944 0.2101589 0.13995692 0.19681214 0.20328273 0.30438724 0.20177798 0.34224045
0.28301382 0.1712605 0.6724134 0.21271896 0.2962728 0.25662985 0.15460648 0.21139203
0.30477762 0.3534692 0.23413461 0.23811364 0.23733333 0.09878763 0.44689915 0.4050922
0.34470898 0.23712637 0.21341865 0.22829251 0.1622822 0.34060058 0.3862581 0.2218534
00000000: c9fb bc3e 95e9 d73d 9392 5a3e 482c 393e
00000010: 6ea9 683e e9b5 433e 0429 903e fffb 583e
00000020: 4593 333e ae55 653e 134b 2e3e 5753 613e
00000030: 5cee ad3e db19 7e3e 7524 c73e 0b7e 7e3e
00000040: c900 863e e6a0 4c3e 5975 2b3e 6571 763e
00000050: 3e95 f73d d4ee 6f3e ccb2 033e e9a6 b33e
00000060: 582b d43d 26ab ad3d 943c 1a3e cd9d 783e
00000070: 6a3c 0d3e d876 703e b74a 9a3e a78f ac3e
00000080: 97e3 343e e533 573e de50 0f3e 1f89 493e
00000090: 5929 503e a5d8 9b3e e39e 4e3e 243a af3e
000000a0: 30e7 903e ea5e 2f3e 4923 2c3f 00d3 593e
000000b0: 12b1 973e fd64 833e 2951 1e3e 2777 583e
000000c0: d00b 9c3e eaf9 b43e fcc0 6f3e 10d4 733e
000000d0: 8207 733e 2b51 ca3d f7cf e43e 3f68 cf3e
000000e0: b27d b03e 41d1 723e 6b8a 5a3e 83c5 693e
000000f0: 4e2d 263e 3363 ae3e 9fc3 c53e 8a2d 633e

bn2.weight f4 [64]
0.9897194 1.0097591 0.9903231 1.0069286 0.98955697 1.0102195 0.99153304 0.9908617
1.0087943 0.9927353 0.98917353 0.9898251 0.98956543 1.0095093 0.9898917 1.0097666
1.009029 1.0095236 0.99793136 1.008621 1.0098575 1.0063231 1.0064359 0.9897426
0.99059147 0.9902828 1.0052466 1.0102665 0.989212 0.99220866 1.0094107 0.9897625
0.9904038 0.9904214 1.0096451 1.0097691 0.98923844 0.98997235 1.0088845 0.9904096
0.9900385 1.0029699 1.0097073 0.9976118 0.9901 1.0100077 0.9896886 0.9899132
1.0097376 0.9954178 0.9915869 1.0103354 1.0095583 1.0094707 1.0103782 0.9901869
1.0094769 0.99017435 1.0095456 1.0028366 1.0071757 0.9918177 1.0082316 1.0098212
00000000: 405e 7d3f c93f 813f d185 7d3f 09e3 803f
00000010: 9b53 7d3f df4e 813f 1cd5 7d3f 1da9 7d3f
00000020: 2c20 813f e723 7e3f 7a3a 7d3f 2e65 7d3f
00000030: 2954 7d3f 9a37 813f 8b69 7d3f 0840 813f
00000040: dd27 813f 1238 813f 6e78 7f3f 7e1a 813f
00000050: 0343 813f 32cf 803f e4d2 803f c55f 7d3f
00000060: 6797 7d3f 2c83 7d3f ecab 803f 6a50 813f
00000070: ff3c 7d3f 6301 7e3f 5f34 813f 1361 7d3f
00000080: 1a8b 7d3f 428c 7d3f 0d3c 813f 1d40 813f
00000090: bb3e 7d3f d46e 7d3f 2123 813f 7c8b 7d3f
000000a0: 2a73 7d3f 5161 803f 173e 813f 7d63 7f3f
000000b0: 3277 7d3f ef47 813f 3b5c 7d3f f46a 7d3f
000000c0: 153f 813f b3d3 7e3f a4d8 7d3f ac52 813f
000000d0: 3539 813f 5636 813f 1354 813f e47c 7d3f
000000e0: 8a36 813f 117c 7d3f ca38 813f f35c 803f
000000f0: 22eb 803f c4e7 7d3f bc0d 813f d241 813f

bn2.bias f4 [64]
-0.0101165045 0.009756276 -0.0094014155 -0.0040493864 -0.010237953 0.010332068 -0.009294728 -0.008231236
0.009333369 -0.0103364745 -0.010316925 -0.0101074 -0.009738815 0.009018895 -0.009983199 -0.0073024784
0.0024326928 -0.0061641065 -0.008012547 -0.0075798165 0.010122639 -0.010300877 -0.003123487 -0.010529341
-0.0094345445 -0.009732644 -0.008115956 0.0009185193 -0.010438164 -0.008360479 -0.007967015 -0.009890018
-0.009589649 -0.010216732 0.007947997 -0.0011580497 -0.010224943 -0.010038125 0.0062410715 -0.0097356085
-0.009849438 -0.010492875 0.009963212 -0.008465966 -0.009878427 0.010136579 -0.010077401 -0.009842394
0.009127528 -0.006898031 -0.0095922155 0.011113481 0.009822495 0.009764441 0.010619443 -0.010101804
0.009749369 -0.009787358 -0.0043999376 0.006084761 -0.008297452 -0.009414366 -0.00888055 -0.007618688
00000000: b2bf 25bc cad8 1f3c 6508 1abc b7b0 84bb
00000010: 16bd 27bc d647 293c ea48 18bc 4edc 06bc
00000020: fdea 183c 515a 29bc 5208 29bc 8299 25bc
00000030: 8d8f 1fbc fdc3 133c 9290 23bc a149 efbb
00000040: d06d 1f3b 46fc c9bb 0f47 03bc 1c60 f8bb
00000050: 6dd9 253c 02c5 28bc 6bb3 4cbb 4283 2cbc
00000060: 5993 1abc ab75 1fbc c9f8 04bc c9c8 703a
00000070: d504 2bbc 64fa 08bc 1588 02bc be09 22bc
00000080: e71d 1dbc 1464 27bc 5138 023c b3c9 97ba
00000090: 8586 27bc f376 24bc e781 cc3b 1a82 1fbc
000000a0: 8a5f 21bc 4fea 2bbc bd3c 233c d6b4 0abc
000000b0: 20d9 21bc e513 263c af1b 25bc fe41 21bc
000000c0: a18b 153c e108 e2bb ab28 1dbc 5115 363c
000000d0: 88ee 203c 09fb 1f3c 2cfd 2d3c 0982 25bc
000000e0: d1bb 1f3c 285b 20bc 5a2d 90bb ad62 c73b
000000f0: 09f2 07bc b73e 1abc ba7f 11bc 30a6 f9bb

bn2.running_mean f4 [64]
0.17358488 0.011063667 0.16609347 0.6783873 -0.00694347 -0.20892969 -0.2525287 0.34329376
-0.622107 0.42758366 -0.30151442 -0.23180456 0.7625114 0.7184752 0.17597087 -0.41421473
0.68403745 0.21216787 0.3636168 0.38901424 0.44282418 0.026880018 -0.062500626 -0.6735669
0.02898451 0.3622038 0.40757096 0.41911918 -0.151469 0.33899957 -0.21802479 0.63511354
-0.119402446 -0.22888312 0.26395583 0.19727413 0.42112958 -0.005134224 0.50305647 0.3772687
0.4480335 0.44569227 0.22742961 0.08190531 0.1871366 -0.17239423 0.13999996 0.1448074
-0.18976589 0.61387134 0.03708806 -0.11820239 -0.6176348 -0.020770282 -0.18589951 -0.4461068
0.30070996 0.16435224 0.14213581 -0.10973872 -0.6255986 -0.24464415 0.06975097 0.13283609
00000000: 3cc0 313e 6244 353c 6814 2a3e caaa 2d3f
00000010: 0c86 e3bb aaf1 55be 714b 81be 33c4 af3e
00000020: 6842 1fbf 3fec da3e 1960 9abe 2d5e 6dbe
00000030: f233 433f feed 373f b531 343e f413 d4be
00000040: 141d 2f3f 8942 593e fb2b ba3e e02c c73e
00000050: dab9 e23e 7c33 dc3c 5400 80bd e16e 2cbf
00000060: ec70 ed3c c772 b93e 24ad d03e ca96 d63e
00000070: b11a 1bbe 5a91 ad3e e441 5fbe cd96 223f
00000080: 4589 f4bd 5660 6abe 3825 873e 3b02 4a3e
00000090: 4c9e d73e fe3c a8bb 4fc8 003f 5d29 c13e
000000a0: a664 e53e c731 e43e 4fe3 683e f9bd a73d
000000b0: bda0 3f3e 1d88 30be 265c 0f3e 6448 143e
000000c0: fd51 42be ac26 1d3f a6e9 173d 1814 f2bd
000000d0: 501d 1ebf 7026 aabc 715c 3ebe 1c68 e4be
000000e0: a8f6 993e f44b 283e 0d8c 113e b2be e0bd
000000f0: 3b27 20bf ff83 7abe 99d9 8e3d 2f06 083e

bn2.running_var f4 [64]
0.10112761 0.14342515 0.19332398 0.25722495 0.14450257 0.19949313 0.18122113 0.19156389
0.33739167 0.1440169 0.10531954 0.14917073 0.13437527 0.20740801 0.18318135 0.24601083
0.15716755 0.15603322 0.18739833 0.16457231 0.1677499 0.15039241 0.13020927 0.18424696
0.15248998 0.12878336 0.18953377 0.19163702 0.14434434 0.22453782 0.13014054 0.21327266
0.11686539 0.090522066 0.13115291 0.12529966 0.20952503 0.10289835 0.11452814 0.16361944
0.30203107 0.1266714 0.17880529 0.12769093 0.11187063 0.14551729 0.1261399 0.22394012
0.16862032 0.1419658 0.16631298 0.1850407 0.27515173 0.13005875 0.2082854 0.18820854
0.0943561 0.17992602 0.14591399 0.13172203 0.16460064 0.2750507 0.19328132 0.18369971
00000000: fe1b cf3d 0bde 123e b9f6 453e fdb2 833e
00000010: 7bf8 133e ed47 4c3e 0892 393e 5329 443e
00000020: 9abe ac3e 2b79 133e c5b1 d73d 36c0 183e
00000030: ac99 093e c462 543e e493 3b3e 43ea 7b3e
00000040: 88f0 203e 2cc7 1f3e 59e5 3f3e a585 283e
00000050: a1c6 2b3e 7800 1a3e 9455 053e 3cab 3c3e
00000060: 5526 1c3e c9df 033e 2415 423e 7f3c 443e
00000070: 01cf 133e 3eed 653e 9043 053e 2664 5a3e
00000080: 1f57 ef3d a263 b93d f34c 063e 8e4e 003e
00000090: bb8d 563e 5fbc d23d bb8d ea3d db8b 273e
000000a0: d1a3 9a3e 26b6 013e bc18 373e 69c1 023e
000000b0: 6e1c e53d 7c02 153e d12a 013e 8f50 653e
000000c0: ceaa 2c3e 7c5f 113e f34d 2a3e 4f7b 3d3e
000000d0: b0e0 8c3e 1f2e 053e c548 553e bdb9 403e
000000e0: c53d c13d 873e 383e 7a6a 153e 24e2 063e
000000f0: 128d 283e 72d3 8c3e 8aeb 453e c71b 3c3e

classifier.weight f4 [10, 64]
0.05197806 0.055872846 0.059855796 0.09687646 0.07533515 -0.08571108 -0.12139587 -0.06617202
0.12473754 0.032716863 -0.035714075 0.054679085 -0.07603199 0.05948841 0.11400557 -0.038723197
0.046654087 -0.10697148 0.10342433 -0.07213368 -0.08546396 0.0022812637 -0.10469501 -0.01789845
-0.124538645 -0.11995885 0.10704918 -0.0045854766 0.024494316 -0.11939664 0.0934812 -0.10876304
-0.0890799 0.044402145 -0.10689034 -0.06788238 -0.11983334 0.08319645 0.122625835 -0.108155236
-0.036938164 -0.1165898 -0.020316334 0.039606154 0.08117851 0.008064722 -0.029983263 0.11565248
0.04949194 -0.026287783 0.029222451 -0.08005541 -0.053900808 -0.09182383 -0.04876461 0.09401614
-0.098588996 -0.026037982 -0.08796077 0.059967455 0.07079613 -0.005829458 -0.07115478 -0.06932282
0.015501463 -0.06315998 -0.11399286 -0.067322075 0.13040335 0.12301007 -0.1107509 -0.011090156
0.04902805 0.09159904 0.09712484 0.036254395 0.10686001 -0.08224373 -0.03647082 0.022388496
0.035296336 -0.113251105 0.07781544 -0.030292725 0.06704784 0.056563422 -0.10506629 0.11276444
0.084894694 0.09610642 -0.034666825 0.005292197 0.13283621 0.062124774 -0.019131845 -0.09657721
-0.0389934 -0.067392424 -0.07196484 0.089672916 0.049857028 -0.009861778 0.034977045 -0.10305874
-0.06177445 -0.0334315 -0.08190496 0.08606096 0.0046770596 0.030852653 -0.06758849 0.030951835
0.06394623 -0.07912266 -0.064646535 -0.08348927 -0.100430556 -0.0026667782 0.049316105 0.07454297
-0.048431985 0.11238452 0.032555245 0.00828861 0.042150944 0.044841908 -0.020545483 0.053675767
-0.015681544 0.09772781 0.10263461 -0.023007935 -0.05104135 -0.005657174 -0.07770555 -0.111489035
0.060424916 0.037281685 0.027094226 -0.10196325 -0.10134195 -0.08303724 0.0041893413 -0.036539443
0.010541426 0.07020434 0.117975675 0.096981585 -0.07261261 0.053220112 -0.07059172 -0.058924697
0.08320194 0.033507884 0.06042987 -0.02904405 -0.111810595 -0.09612003 0.10204905 -0.07779422
-0.08198488 0.05051339 -0.09492956 -0.070240185 0.07904149 0.096734315 -0.098423526 -0.07329269
-0.08658091 0.022150576 -0.10756766 0.07019521 0.114201136 0.04822427 0.07227431 -0.05103276
-0.061166313 0.048130054 0.11081166 -0.1071019 -0.03260312 0.13069776 0.10319203 0.0005238185
-0.040287454 -0.08198881 -0.103506 -0.10205539 -0.08124798 0.06325626 -0.0950455 -0.002563462
-0.104034446 -0.012362407 -0.003868695 0.090439565 0.03400122 0.07130458 -0.11612268 0.11180519
0.025038164 -0.017647823 0.080939 -0.023606943 0.107387215 0.0451431 -0.088059716 0.042259216
0.04529105 -0.02039936 -0.06515442 -0.026308523 0.073310934 0.07573295 -0.019571288 -0.020167679
-0.051683597 -0.00080556114 -0.026005855 0.10182402 -0.09515393 0.013767402 -0.08097895 0.04045138
0.04610178 -0.06610612 0.091434374 -0.09193997 0.086212836 0.0076669334 -0.007951495 -0.03548945
0.12161919 0.02539716 0.011461391 0.044333685 -0.09922466 0.10682289 -0.08992042 0.09079934
-0.031864002 -0.08001827 0.012221982 -0.09488981 0.09690343 0.12200111 -0.08585234 -0.044347465
0.01236004 -0.004228794 0.0970581 0.039015118 -0.11836651 0.04059489 -0.09973602 -0.0058114845
00000000: f2e6 543d edda 643d 5a2b 753d 2a67 c63d
00000010: 5149 9a3d 4a89 afbd 669e f8bd 3285 87bd
00000020: 6576 ff3d 1e02 063d ec48 12bd 2df7 5f3d
00000030: a9b6 9bbd 1eaa 733d c17b e93d 379c 1ebd
00000040: 5b18 3f3d dd13 dbbd 23d0 d33d d3ba 93bd
00000050: bb07 afbd 4181 153b 566a d6bd c59f 92bc
00000060: 1e0e ffbd fcac f5bd 9a3c db3d c441 96bb
00000070: 4ea8 c83c 3a86 f4bd 1273 bf3d 28bf debd
00000080: 866f b6bd 06df 353d 53e9 dabd eb05 8bbd
00000090: 2f6b f5bd e662 aa3d 4123 fb3d 7e80 ddbd
000000a0: 794c 17bd a2c6 eebd 716e a6bc 103a 223d
000000b0: eb40 a63d e521 043c 769f f5bc 35db ec3d
000000c0: 0fb8 4a3d 7a59 d7bc ec63 ef3c 17f4 a3bd
000000d0: 18c7 5cbd 220e bcbd 66bd 47bd 898b c03d
000000e0: 07e9 c9bd 9b4d d5bc c724 b4bd 6fa0 753d
000000f0: 90fd 903d 0a05 bfbb 99b9 91bd 1ff9 8dbd
00000100: d9f9 7d3c 055a 81bd 1775 e9bd 28e0 89bd
00000110: 7588 053e b4ec fb3d 5ed1 e2bd 7cb3 35bc
00000120: a3d1 483d 4798 bb3d 63e9 c63d 7d7f 143d
00000130: 6cd9 da3d 676f a8bd 6d62 15bd 1468 b73c
00000140: e492 103d 32f0 e7bd b45d 9f3d 7328 f8bc
00000150: 6150 893d 0caf 673d ff2c d7bd 0bf1 e63d
00000160: 45dd ad3d 71d3 c43d cdfe 0dbd 2b6a ad3b
00000170: 3706 083e 8c76 7e3d 63ba 9cbc 46ca c5bd
00000180: 8bb7 1fbd 0a05 8abd 4d62 93bd 6fa6 b73d
00000190: e236 4c3d 4b93 21bc 1744 0f3d 7610 d3bd
000001a0: 3507 7dbd 78ef 08bd cabd a7bd bb40 b03d
000001b0: 0542 993b b4be fc3c d66b 8abd b48e fd3c
000001c0: 3ef6 823d 100b a2bd 6765 84bd 6cfc aabd
000001d0: 89ae cdbd 1dc5 2ebb afff 493d fca9 983d
000001e0: 9e60 46bd db29 e63d a658 053d f3cc 073c
000001f0: 78a6 2c3d 26ac 373d 004f a8bc 1fdb 5b3d
00000200: 9576 80bc 8525 c83d 1832 d23d 237b bcbc
00000210: bc10 51bd d15f b9bb 1624 9fbd 5d54 e4bd
00000220: 1e80 773d aeb4 183d b6f4 dd3c 1cd2 d0bd
00000230: 5e8c cfbd 6e0f aabd be46 893b 62aa 15bd
00000240: f2b5 2c3c 4bc7 8f3d 3b9d f13d 489e c63d
00000250: ecb5 94bd 55fd 593d 6492 90bd 065b 71bd
00000260: c765 aa3d 903f 093d 5085 773d caed edbc
00000270: f4fc e4bd 94da c4bd 18ff d03d 9352 9fbd
00000280: b0e7 a7bd 21e7 4e3d 6e6a c2bd 16da 8fbd
00000290: 81e0 a13d a41c c63d 4692 c9bd 7a1a 96bd
000002a0: 5551 b1bd 2075 b53c 6f4c dcbd 82c2 8f3d
000002b0: 49e2 e93d d086 453d 8e04 943d ba07 51bd
000002c0: 8789 7abd 0524 453d 39f1 e23d 3e58 dbbd
000002d0: d98a 05bd a2d5 053e 5856 d33d dd50 093a
000002e0: 7504 25bd c0e9 a7bd f4fa d3bd 6b02 d1bd
000002f0: 5765 a6bd 7f8c 813d 37a7 c2bd c1ff 27bb
00000300: 0310 d5bd b18b 4abc ef89 7dbb 6138 b93d
00000310: dd44 0b3d 2308 923d bad1 edbd 1ffa e43d
00000320: d61c cd3c 2b92 90bc 59c3 a53d 5963 c1bc
00000330: d4ed db3d f9e7 383d a758 b4bd 0018 2d3d
00000340: 1c83 393d 8f1c a7bc ae6f 85bd f984 d7bc
00000350: 0b24 963d e019 9b3d f753 a0bc b036 a5bc
00000360: 2eb2 53bd 4b2c 53ba 3b0a d5bc 1d89 d03d
00000370: 10e0 c2bd ab90 613c 4bd8 a5bd 59b0 253d
00000380: 38d5 3c3d a562 87bd f241 bb3d 064b bcbd
00000390: 5b90 b03d e63a fb3b fd46 02bc 635d 11bd
000003a0: 7b13 f93d b40d d03c 8fc8 3b3c 3d97 353d
000003b0: 4c36 cbbd f6c5 da3d 3228 b8bd 01f5 b93d
000003c0: d483 02bd 9ee0 a3bd b53e 483c 9755 c2bd
000003d0: 4e75 c63d b8db f93d 5ad3 afbd b0a5 35bd
000003e0: c481 4a3c b291 8abb 66c6 c63d 51ce 1f3d
000003f0: 246a f2bd d446 263d 6642 ccbd 446e bebb

classifier.bias f4 [10]
0.06411702 0.03648902 0.04991329 0.102372825 -0.017485293 0.024912354 -0.06158636 0.037805993
-0.056127753 0.033182405
00000000: c94f 833d 8375 153d e171 4c3d d8a8 d13d
00000010: 513d 8fbc fe14 cc3c fb41 7cbd 75da 1a3d
00000020: 37e6 65bd 46ea 073d

exp_avg f4 [100, 64]
-0.0011362188 -0.0002764616 -0.002316758 0.00032017406 -0.000107944965 -0.0003556128 0.0004461856 0.0018541036
-0.0013014718 -0.0012485101 -0.00032449362 0.0010116353 0.0004598374 0.00081966433 0.0006073317 0.0008583609
-0.0018141493 0.0026409256 -0.0007008332 -0.00027770238 0.00044924108 -0.0007986541 -0.0027314364 -0.00055514026
0.000541035 0.0022084655 0.000653712 -0.002554293 0.0010942573 -0.000988732 0.0045302804 -0.0019760204
0.0012324096 0.0011004983 0.0006731274 -0.000333225 0.0014394624 -0.0018708624 -0.00028133634 0.00039074465
-0.0004950921 0.0033040617 -0.00047347805 -0.00027798294 0.0007992206 -0.0041588647 0.00031877102 0.0033169386
0.0013944777 -0.00093659526 0.002432068 -0.0018884549 -0.0004892053 -0.0027457487 -0.00013405197 -0.00021032472
-0.0027168568 0.0008071005 5.8881844e-05 -0.0018291577 -0.0014536995 0.0013237597 0.0009216796 0.0017526454
-0.0008995647 -0.0008791252 -0.0020082637 0.0007409616 -0.0003052004 -0.00085243984 0.0005086608 0.001274555
-0.0016752984 -0.0006256823 -0.0004453765 0.00031290308 0.00038808823 0.0001202064 0.00073334936 0.0015001451
-0.001540919 0.0016532796 -0.00051202584 4.5908095e-05 -0.00017046748 -0.0007766443 -0.0022989328 -0.00051226653
0.00076062715 0.0016633363 0.0006205518 -0.0017477218 9.719657e-05 -0.00043946653 0.0035477786 -0.0021530932
0.0007544307 0.0013972158 0.0004968788 -0.0003198493 0.0012782946 -0.0017677079 -0.00021104877 0.000653363
-0.0001215129 0.0031602092 -0.00042811857 0.0003881872 0.0011019113 -0.0035650344 -8.906411e-05 0.002955117
0.0016639548 -0.0012666389 0.0028388742 -0.0022033008 -0.0011277137 -0.0034966078 -7.622182e-05 7.167609e-05
-0.002468479 0.00052104506 0.0005081126 -0.0017597803 -0.0013978455 0.0013290852 0.0015083413 0.0018936351
-0.0011422551 -0.00028700684 -0.0022818523 0.00067248 -0.00019035711 -0.00039814127 0.00029187233 0.0016023216
-0.0013170297 -0.0004931382 -0.00028086454 0.0008776895 0.00022644564 0.0006868257 0.0006486499 0.0015568455
-0.0020460738 0.0024104884 -0.0009486477 -6.311286e-05 0.00020267302 -0.0011439732 -0.0027109329 -0.00094498065
0.00032771478 0.0021134093 0.0009753872 -0.0020477425 0.0005874537 -0.00095586316 0.0036980435 -0.0018122111
0.0010910211 0.0015636064 0.0009732189 -0.000344636 0.0017455589 -0.0018549836 -8.114048e-05 0.0006642248
-0.0001431293 0.0030028038 -0.00092846167 0.00031551614 0.0010900672 -0.0037429507 6.0472736e-05 0.0031689063
0.0013683913 -0.0007394634 0.0026627476 -0.0020252485 -0.00056780514 -0.0030749813 0.00036140464 0.00020580884
-0.002221854 0.00092641823 0.00050849246 -0.0016093613 -0.0015967084 0.0016401036 0.0012708819 0.0013581683
-0.0011676127 -0.0014537703 -0.0017347297 0.00074714725 -0.0006993614 -0.001710323 0.0007521594 0.00095648126
-0.0025427064 -0.0009621911 -0.0004624944 -0.00029690308 0.0005081889 5.3608142e-05 0.00072279887 0.0015170985
-0.0015016787 0.0017830915 -0.00036407373 -0.00032448285 -0.0005761208 -0.00066169415 -0.002300367 -0.0004307112
0.00070739136 0.0020759709 0.00032455212 -0.0015426814 -6.89301e-05 -0.00013482248 0.0038310972 -0.0026066902
0.0011892157 0.0007319271 -0.0001773467 -0.00032001548 0.0014818086 -0.0016700202 -0.0008717503 0.00074380694
8.661925e-05 0.0036891564 -0.00033656892 0.00046769815 0.0010354181 -0.0034510542 -0.000372861 0.004001982
0.0021602048 -0.0014257355 0.003059828 -0.0029830385 -0.0016471975 -0.0038216666 -0.00064499624 -9.246445e-05
-0.0035287156 0.00032978586 0.0005486386 -0.0026131188 -0.0020699163 0.0009942345 0.0015348804 0.0024045003
00000000: 2ded 94ba 0cf2 90b9 c0d4 17bb 09dd a739
00000010: 8360 e2b8 8b71 bab9 04ee e939 6505 f33a
00000020: 2696 aaba 0ca5 a3ba cc20 aab9 d998 843a
00000030: 5516 f139 bede 563a 5735 1f3a a003 613a
00000040: c0c8 edba 6113 2d3b 1fb8 37ba 9598 91b9
00000050: 1e88 eb39 c55c 51ba e601 33bb d586 11ba
00000060: 3fd4 0d3a e7bb 103b df5d 2b3a ed65 27bb
00000070: 2f6d 8f3a 5798 81ba bf72 943b 1f80 01bb
00000080: ce88 a13a 983e 903a d174 303a b4b4 aeb9
00000090: 58ac bc3a ba37 f5ba 5380 93b9 dcdc cc39
000000a0: 12c9 01ba f588 583b 263d f8b9 3dbe 91b9
000000b0: c982 513a 1647 88bb b920 a739 ff60 593b
000000c0: e8c6 b63a d885 75ba 5563 1f3b 0886 f7ba
000000d0: 033e 00ba 05f2 33bb 4d90 0cb9 9d8a 5cb9
000000e0: 4b0d 32bb 9993 533a e6f7 7638 59c0 efba
000000f0: 108a beba 0182 ad3a df9c 713a 05b9 e53a
00000100: c4d0 6bba 1875 66ba 139d 03bb 173d 423a
00000110: 4e03 a0b9 4576 5fba a657 053a f80e a73a
00000120: b095 dbba d404 24ba 6c81 e9b9 240d a439
00000130: 5278 cb39 5217 fc38 3e3e 403a 84a0 c43a
00000140: a9f8 c9ba dcb2 d83a 7939 06ba 718d 4038
00000150: 84bf 32b9 b797 4bba b1a9 16bb a049 06ba
00000160: d364 473a 4e04 da3a 87ac 223a d013 e5ba
00000170: 03d6 cb38 3368 e6b9 d981 683b e91a 0dbb
00000180: fdc4 453a c822 b73a f940 023a 72b1 a7b9
00000190: 738c a73a 6fb2 e7ba f94c 5db9 7346 2b3a
000001a0: bed4 feb8 831b 4f3b 1a75 e0b9 9b85 cb39
000001b0: 026e 903a 5aa3 69bb eec7 bab8 a3aa 413b
000001c0: 0f19 da3a 5905 a6ba 680c 3a3b 4165 10bb
000001d0: cbcf 93ba 5827 65bb 47d9 9fb8 cf50 9638
000001e0: 35c6 21bb be96 083a dc32 053a 6ea8 e6ba
000001f0: e937 b7ba b334 ae3a 89b3 c53a da33 f83a
00000200: b9b7 95ba 6879 96b9 218b 15bb 5e49 303a
00000210: 999a 47b9 9ebd d0b9 7106 9939 fe04 d23a
00000220: 2fa0 acba f245 01ba 0041 93b9 bf14 663a
00000230: 0a72 6d39 180c 343a 280a 2a3a 110f cc3a
00000240: 6c17 06bb 49f9 1d3b abae 78ba 755b 84b8
00000250: a084 5439 5ff1 95ba e8a9 31bb 94b8 77ba
00000260: 22d1 ab39 2081 0a3b 20b1 7f3a 6b33 06bb
00000270: 5aff 193a e492 7aba e05a 723b b787 edba
00000280: 9800 8f3a edf1 cc3a 9d1f 7f3a 43b0 b4b9
00000290: 3dcb e43a ec22 f3ba f729 aab8 5f1f 2e3a
000002a0: fb14 16b9 b0ca 443b 0264 73ba dc6b a539
000002b0: 96e0 8e3a 4b4c 75bb 1ba4 7d38 6dad 4f3b
000002c0: 985b b33a 8cd8 41ba 7e81 2e3b 08ba 04bb
000002d0: c2d8 14ba a085 49bb e97a bd39 64ce 5739
000002e0: 869c 11bb e0da 723a 5a4c 053a 34f1 d2ba
000002f0: a548 d1ba bff8 d63a b893 a63a 9104 b23a
00000300: 950a 99ba 708c beba df5f e3ba 34dc 433a
00000310: 5955 37ba eb2c e0ba 902c 453a 5fbc 7a3a
00000320: 89a3 26bb 8d3b 7cba f37a f2b9 a8a9 9bb9
00000330: fb37 053a 4ed9 6038 367a 3d3a 61d9 c63a
00000340: fad3 c4ba 9fb6 e93a 26e1 beb9 5a1f aab9
00000350: d006 17ba 8b75 2dba c1c1 16bb 14d1 e1b9
00000360: 3b70 393a 030d 083b a628 aa39 cc33 caba
00000370: 918e 90b8 225f 0db9 2513 7b3b 01d5 2abb
00000380: 75df 9b3a ccde 3f3a 24f6 39b9 c0c7 a7b9
00000390: 3f39 c23a 94e4 daba 2c86 64ba 0afc 423a
000003a0: 5ba7 b538 c6c5 713b 8475 b0b9 6235 f539
000003b0: deb6 873a 152b 62bb 8e7c c3b9 0f23 833b
000003c0: 3992 0d3b bfdf baba 6587 483b 157f 43bb
000003d0: c7e6 d7ba ed74 7abb f714 29ba 79e9 c1b8
000003e0: 0642 67bb 1ce7 ac39 83d2 0f3a dc40 2bbb
000003f0: 6fa7 07bb f950 823a 0a2e c93a d294 1d3b
