checkpoints/checkpoint_epoch_90.pt (torch, 547720 bytes, 37 tensors)

prototypes f4 [100, 64]
0	0x3e2570d3	0.1615632
1	0xbe8fd058	-0.2808864
2	0xbd848484	-0.06470588
3	0x400e89a5	2.2271512
4	0xbf2d2922	-0.6764089
5	0x3f296158	0.6616416
6	0x3e53ddb1	0.20690037
7	0xbf6718a2	-0.9027196
8	0x3dd6b321	0.10483385
9	0x403e020d	2.9688752
10	0xbf800fc4	-1.0004811
11	0xbf7dd5fd	-0.99154645
12	0xbf0f9565	-0.5608733
13	0xbf863621	-1.0485269
14	0xbf260199	-0.6484619
15	0x3fd177b0	1.6364651
16	0xbf35b87b	-0.7098462
17	0x3eb8a0b4	0.36060107
18	0x3f80d71d	1.0065647
19	0x3fc0c2b8	1.5059423
20	0xc00eaa14	-2.2291307
21	0xbe28bbe8	-0.1647793
22	0xbec4fea8	-0.38475537
23	0x3e320d81	0.17387964
24	0x3e82594d	0.25458756
25	0x3e65a816	0.22427401
26	0x3e54fd26	0.20799693
27	0x3f4cc1df	0.79983324
28	0xbf06e7fb	-0.52697724
29	0x3f1b01b1	0.60549456
30	0xbee5fd59	-0.4491985
31	0x3ead12c6	0.33803385
32	0xbff1bab0	-1.8885098
33	0x3fbbacbb	1.4662088
34	0xbeba2cac	-0.36362207
35	0x3e822d66	0.2542526
36	0xbe96b4e8	-0.29434896
37	0xbf4c23a6	-0.79741895
38	0x3f59ea8b	0.8512351
39	0xbff51f00	-1.9150085
40	0xbee97e08	-0.45603967
41	0x3c2c61b6	0.010521343
42	0x3f985e75	1.1903826
43	0x3eef6e57	0.4676387
44	0x3f9b6102	1.213898
45	0xbe04c0ff	-0.12964247
46	0xbe8d48cc	-0.27594602
47	0x3e394812	0.18093899
48	0x3fee7905	1.8630682
49	0xbee0feb0	-0.4394431
50	0x3e3fe8a6	0.18741092
51	0xbf0aec45	-0.5426677
52	0xbf30a8c6	-0.6900753
53	0xbf4636e3	-0.774275
54	0xbf1ebb57	-0.6200461
55	0x3efff3b5	0.4999062
56	0x3faa1a76	1.3289325
57	0xbe8d3df5	-0.27586332
58	0x3e164900	0.14676285
59	0xbfeec9ba	-1.8655312
60	0xbe47f2ed	-0.19526263
61	0x3f5abe33	0.8544647
62	0xbe9fcd64	-0.31211388
63	0x3fa9428a	1.3223431
64	0xbd2a5f31	-0.041594688
65	0x3fea82fa	1.8321221
66	0xbf8ac9ba	-1.0842812
67	0x3dff3681	0.12461568
68	0xbfa4b710	-1.2868366
69	0xbf621fb3	-0.8832962
70	0xbed91801	-0.42401126
71	0x3c810b7f	0.015752552
72	0xbed3d5e6	-0.4137413
73	0xbdfc7876	-0.123276636
74	0x3e06bcd9	0.13157977
75	0x3f745c78	0.95453596
76	0x3b7f43ef	0.0038950404
77	0x3f529b44	0.82268167
78	0xbf82f602	-1.0231326
79	0xbe9be7b9	-0.30450228
80	0x3f11131b	0.5666978
81	0x3f3ca765	0.73692924
82	0xbf5567de	-0.83361614
83	0xbef1a9fb	-0.47199997
84	0x3ec60245	0.38673607
85	0xbffd4edc	-1.9789691
86	0x3f6af8dc	0.9178598
87	0x3eef6072	0.4675327
88	0xbf9b2601	-1.2120973
89	0x3fddf9e9	1.7341892
90	0xbfc72436	-1.5557926
91	0xbe2f740b	-0.1713411
92	0x3fd808d0	1.6877689
93	0x3efc9d0f	0.49338576
94	0x3f1074ce	0.5642823
95	0xbeeed961	-0.46650222
96	0x3f7e7f3e	0.99412906
97	0xbf8ac6ea	-1.0841954
98	0xbfea3fdd	-1.830074
99	0xbe46b8ed	-0.19406481
100	0x3fab781d	1.3396031
101	0xbf6e7ba4	-0.9315741
102	0xbec15f3d	-0.37767974
103	0xbedd4b4e	-0.43221515
104	0xbf97fd6a	-1.1874211
105	0xbfa53440	-1.290657
106	0x3c5ff381	0.013668896
107	0xbeef9770	-0.46795225
108	0xbf9f8666	-1.246289
109	0x3e3fbbc7	0.18723975
110	0x3ed48f56	0.41515607
111	0x3fe96f9b	1.8237184
112	0xbe16bf41	-0.14721395
113	0xbe7945a1	-0.24342968
114	0xbff55a29	-1.916814
115	0xbf814a3d	-1.0100781
116	0xbd1e1ed3	-0.038603615
117	0x3f93e64f	1.155466
118	0xbe2ec165	-0.17065962
119	0x3f02c82f	0.51086706
120	0xbf9fa352	-1.2471716
121	0x3d15d155	0.036576588
122	0xbfb02585	-1.376145
123	0xbf2009d3	-0.6251499
124	0xbf80fa17	-1.0076321
125	0xbf67ccfd	-0.9054716
126	0xbffe9d1c	-1.9891696
127	0x3f87817b	1.0586389
128	0x3ef87874	0.48529398
129	0xbf2580b2	-0.646495
130	0x3f249f23	0.64305323
131	0xbfec1b63	-1.8445858
132	0x3edb4b79	0.4283102
133	0x3ef9cc11	0.48788503
134	0x3d3b6bbf	0.04575705
135	0x3f168482	0.5879594
136	0xbfb49e81	-1.4110872
137	0x3c82b298	0.0159543
138	0xbf377656	-0.7166494
139	0x3dd5ac33	0.10433235
140	0x3fcb395b	1.5876878
141	0xbc524d7c	-0.0128358565
142	0xbfedb576	-1.8571002
143	0xbf1071bf	-0.5642356
144	0x3f518f16	0.81858957
145	0xbff0fdca	-1.882745
146	0x3f9525f5	1.1652209
147	0xbc8dff45	-0.017333636
148	0x3d8cb587	0.06870561
149	0xbcd4491b	-0.025913766
150	0xbf55e7f5	-0.83557063
151	0x404da802	3.2133794
152	0x3fb26492	1.3936942
153	0xbeb94298	-0.3618362
154	0x3e92d54c	0.28678358
155	0xbf8a0578	-1.0782919
156	0xbd85c568	-0.06531793
157	0xbf59ee4f	-0.85129255
158	0x3f9196d2	1.1374152
159	0xbfc759a9	-1.5574237
160	0x3f784563	0.96980876
161	0x3d46094a	0.048348702
162	0xc008e591	-2.1390116
163	0x3f525ff4	0.8217766
164	0xbbedf250	-0.007261552
165	0xbf369ac2	-0.7132989
166	0xbf8d7c03	-1.105347
167	0xc0028567	-2.0393922
168	0xbcb1d007	-0.02170564
169	0xbf7fc533	-0.9991028
170	0x3f8b3f20	1.0878639
171	0xbd8a4e5f	-0.06753229
172	0xbfa50b41	-1.289406
173	0xbea93b18	-0.33052897
174	0xbec3cf7f	-0.38244244
175	0x3ffaa3b6	1.9581211
176	0x3f123a21	0.5711995
177	0x3eb76dc0	0.3582592
178	0xbf1cfac4	-0.6132014
179	0xbfe30a3c	-1.7737498
180	0xbf298d93	-0.6623165
181	0xbd703363	-0.058642756
182	0xbf781e7d	-0.9692152
183	0xbf1b5199	-0.60671383
184	0xbf2056e0	-0.6263256
185	0xbf791e92	-0.9731227
186	0xbec5068f	-0.38481566
187	0xbf82933a	-1.020118
188	0xbf122b6d	-0.5709751
189	0x3f4a1bad	0.7894848
190	0x399b8195	0.0002966045
191	0x3f69696c	0.91176486
192	0xbda3f514	-0.08005729
193	0x3faee7cb	1.3664488
194	0x3e9267b8	0.28594756
195	0x3f97414a	1.18168
196	0x3ebe34ce	0.37149662
197	0x4007f2c5	2.1241925
198	0xbf048c1b	-0.51776284
199	0x3e647a64	0.22312313
200	0x405f31f7	3.4874246
201	0x3ff2949e	1.8951604
202	0xc03f8763	-2.9926383
203	0x3ed8d81c	0.42352378
204	0x3eaa67dc	0.33282363
205	0x3e923c35	0.2856156
206	0x3f58efcf	0.8474092
207	0x3e38d717	0.180508
208	0xbfb94dfb	-1.4476923
209	0xbfa623cc	-1.2979674
210	0xbfe2f455	-1.7730814
211	0x3ee068ee	0.43830055
212	0x3f425fb2	0.7592727
213	0xbe6642db	-0.22486441
214	0xbe645cbf	-0.22301005
215	0x3ed8481f	0.42242524
216	0x3f166a34	0.58755803
217	0xbf862a56	-1.048167
218	0xbf7f9c0e	-0.99847496
219	0xbebe5980	-0.37177658
220	0x3fb63878	1.4235983
221	0x3c9f4ea3	0.019446677
222	0x3f850dbd	1.0394818
223	0xbf0266f3	-0.5093834
224	0x3f57455c	0.8409021
225	0x3feed7a6	1.8659561
226	0xbe94d149	-0.29065922
227	0xbf8d4d40	-1.10392
228	0xbf0935aa	-0.5359751
229	0x3f521a9a	0.8207184
230	0x3dfed5f0	0.12443149
231	0x3f31ae0a	0.6940619
232	0x3fbe1aa7	1.4851884
233	0xbfad7a19	-1.3552886
234	0x3ee6a4be	0.45047563
235	0x3f31c96e	0.6944798
236	0xbf2dc0a5	-0.6787208
237	0xc004a1a6	-2.0723662
238	0x3eb883e5	0.36038128
239	0x3ef1d147	0.47229978
240	0xbfee599e	-1.8621099
241	0xbf21867b	-0.63095826
242	0xbf74d924	-0.9564383
243	0x3f00e3e2	0.5034772
244	0x3cd24ed3	0.025672352
245	0x3efa3b98	0.4887359
246	0x3f1b9cb1	0.6078597
247	0xbdbec62c	-0.09315142
248	0x3f3a67d1	0.7281466
249	0xbf77b38a	-0.9675833
250	0xbee523b5	-0.44753805
251	0x3f879979	1.0593711
252	0x3fae1db6	1.3602817
253	0x3ef1f92c	0.47260416
254	0xbfc790b2	-1.5591033
255	0xbfa46274	-1.2842546

conv1.bias f4 [64]
0	0xb9877330	-0.00025835028
1	0x372353ea	9.735095e-06
2	0x39a82515	0.00032071085
3	0x38ce22cd	9.8293276e-05
4	0xb8cb9cea	-9.709022e-05
5	0xb8f32225	-0.00011593503
6	0x395e05e1	0.0002117376
7	0xb7c35646	-2.3285986e-05
8	0xb885e033	-6.3836946e-05
9	0x389f230c	7.588239e-05
10	0xb64a632e	-3.0158076e-06
11	0x384e6d85	4.9216225e-05
12	0x380e54eb	3.3934524e-05
13	0x383edab7	4.5503224e-05
14	0xb73cf065	-1.1261644e-05
15	0xb7647f87	-1.3619551e-05
16	0x38246f4e	3.9204308e-05
17	0x378b557b	1.6609896e-05
18	0xb73fe436	-1.1437622e-05
19	0xb93cbedc	-0.00018000178
20	0xb97a7a3d	-0.00023887395
21	0xb946b854	-0.00018951419
22	0xb8f27992	-0.000115621035
23	0x3847e408	4.7657668e-05
24	0xb95ad635	-0.00020869898
25	0x383ba5a6	4.4738546e-05
26	0xb8335c1a	-4.2762702e-05
27	0xb79b2076	-1.8492556e-05
28	0x39a0fbb9	0.00030705126
29	0x37ac06cd	2.0507165e-05
30	0xb8b27028	-8.508592e-05
31	0xb77c195e	-1.5026277e-05
32	0x37dfa5c6	2.6660866e-05
33	0x38e14908	0.00010742439
34	0xb8b746c6	-8.7393026e-05
35	0xb770d44d	-1.4354545e-05
36	0x383b1d73	4.46117e-05
37	0x395f8ccb	0.00021319387
38	0xb8712179	-5.749005e-05
39	0xb6dcd29f	-6.5810304e-06
40	0x394107c3	0.00018408806
41	0x3881b530	6.184948e-05
42	0x3870f528	5.744878e-05
43	0xb88815c7	-6.489042e-05
44	0x38a5dba9	7.908728e-05
45	0x380b12e3	3.3157772e-05
46	0x38f2d397	0.00011578871
47	0x39a0e3a6	0.0003068719
48	0x37d03ae2	2.4822952e-05
49	0x3899d61c	7.3354895e-05
50	0xb82be977	-4.0987008e-05
51	0x393a19d4	0.00017747964
52	0x3906ef70	0.00012868433
53	0x384cf6db	4.8867292e-05
54	0xb8072be5	-3.2227388e-05
55	0xb76d6feb	-1.4152359e-05
56	0xb814b9bd	-3.5458932e-05
57	0xb8b72877	-8.733657e-05
58	0xb802be9f	-3.1171945e-05
59	0x389fd6ed	7.621744e-05
60	0xb7a4a37f	-1.9626457e-05
61	0x3867e21d	5.5285276e-05
62	0x369f6d32	4.7512813e-06
63	0x36d8e45c	6.463886e-06

conv1.lin.weight f4 [64, 512]
0	0xbc8c6798	-0.017139241
1	0xbd2d01b8	-0.042237967
2	0xbd84ed61	-0.06490589
3	0xbd2ecb59	-0.042674396
4	0xbd9254e9	-0.071451016
5	0xbdbb4728	-0.09144431
6	0x3cdf23e5	0.027238796
7	0xbcfaa63e	-0.030596849
8	0x3cc422c3	0.023942357
9	0x3d43f3ba	0.047839858
10	0xbca7967e	-0.020457502
11	0x3c4668f9	0.012109988
12	0xbd11f4ac	-0.035633728
13	0xbdcd615a	-0.10028334
14	0x3c842ec5	0.016135583
15	0xbd8a7038	-0.06759685
16	0xbdd68594	-0.10474697
17	0xbd252cfe	-0.04032611
18	0xbd085978	-0.03328845
19	0x3cfbe574	0.03074906
20	0xbd3b41c6	-0.045717023
21	0x3d9e6cd5	0.07735602
22	0x3a9d4ea1	0.0012001583
23	0xbc4c1e0e	-0.0124583375
24	0xbb0a1e5c	-0.0021075225
25	0xbd5de7cd	-0.05417614
26	0xbdd578f9	-0.10423464
27	0xbdb8ff5c	-0.09033081
28	0xbc573e42	-0.013137402
29	0x3c4c4c2f	0.012469335
30	0x3ce97dba	0.028502334
31	0x3bc7310c	0.006078845
32	0x3dd40d2f	0.10354077
33	0x3c6dd79b	0.014516736
34	0x3d24f82e	0.040275745
35	0xbc34fea6	-0.011047041
36	0xbd70059d	-0.058599103
37	0xbd1e18b5	-0.03859778
38	0x3dbe6875	0.09297267
39	0x3d379dbe	0.04482817
40	0x3c65e45c	0.014031496
41	0xbd209365	-0.039203066
42	0xbcc7359b	-0.024317553
43	0x3c989859	0.018627333
44	0x3da14119	0.078737445
45	0xbc253f41	-0.010085882
46	0xbdb07e6d	-0.08617864
47	0x3c7654f8	0.015034907
48	0xbd5a56bc	-0.053305373
49	0xbc9dd97f	-0.01926875
50	0xbdbc07d9	-0.09181184
51	0x3d61412d	0.054993797
52	0x3d8718bd	0.06596515
53	0xbc1a4add	-0.009417263
54	0x3d54daa1	0.051966313
55	0xbd8e4c64	-0.06948164
56	0xbd892453	-0.066963814
57	0x3d567bf4	0.052364305
58	0xbd812441	-0.06305743
59	0xbd7a7233	-0.061144065
60	0x3d5c3de4	0.05376996
61	0xbddf56c7	-0.10905223
62	0xbc8bc1b7	-0.017060144
63	0xbcb58d47	-0.022162093
64	0x3d804ac4	0.062642604
65	0x3d04bfeb	0.03240959
66	0xbd6969af	-0.056985553
67	0xbd25e26b	-0.040499132
68	0x3d59139c	0.052997217
69	0x3d426afe	0.047465317
70	0x3bb108ae	0.005402646
71	0xbc9e0bd9	-0.019292759
72	0x3ca4f353	0.020135557
73	0xbb832831	-0.004002594
74	0xbd9d2129	-0.076723404
75	0xbd3a33d8	-0.0454596
76	0x3d20f3ab	0.03929488
77	0x3d13571a	0.03597174
78	0xbda20096	-0.07910268
79	0xbd3af10b	-0.045640033
80	0xbdb987af	-0.09059083
81	0xbc04e4fb	-0.008111234
82	0x3c60f47a	0.013730163
83	0xbb831144	-0.003999861
84	0xbd25b9e8	-0.040460497
85	0x3bf7d0f4	0.007562751
86	0x3df2e27d	0.118596055
87	0x39c85f88	0.0003821815
88	0x3c304764	0.010759208
89	0xbcbd79cd	-0.023129368
90	0x3ce25ace	0.02763119
91	0xbdeb7e6b	-0.11498722
92	0x3d5dc31e	0.054141156
93	0xbd2a7820	-0.041618466
94	0xbd72d43b	-0.05928443
95	0xbd4e5e7c	-0.050383076
96	0x3dafcfa4	0.08584526
97	0xbc1f8bd0	-0.009737924
98	0x3d1be673	0.03806157
99	0x3d74defd	0.05978297
100	0x3dd37306	0.10324673
101	0x3c7019d2	0.014654594
102	0x3c97c51b	0.018526604
103	0x3dac81bc	0.08423182
104	0x3dcb8f28	0.09939414
105	0x3d5f69d1	0.054544274
106	0x3d64e1c0	0.055879354
107	0x3d147821	0.036247376
108	0xbd0176b6	-0.031607352
109	0x3c673df1	0.014113889
110	0x3cbb48bd	0.022861833
111	0x3cc465a5	0.02397425
112	0xbd8f1f0b	-0.06988343
113	0x3ca8c5ac	0.02060207
114	0xbd6fc1f5	-0.05853458
115	0xbcf5632f	-0.029954521
116	0xbca329d3	-0.019917404
117	0x3daba073	0.08380213
118	0x3dbca540	0.092112064
119	0xbd936faa	-0.071990326
120	0xbd301622	-0.042989857
121	0x3d7a2f01	0.061079983
122	0xbd140db0	-0.036145866
123	0xbd722460	-0.05911672
124	0x3d62a178	0.05532977
125	0x3ddcc127	0.107790284
126	0xbd578649	-0.0526183
127	0xbd030431	-0.03198642
128	0x3dc3fa00	0.09569168
129	0xbc69d9f9	-0.01427316
130	0xbdb65b5a	-0.08904143
131	0x3d240483	0.040043365
132	0x3d8fe7bb	0.07026621
133	0xbd90fd76	-0.07079594
134	0xbd3e20c1	-0.046417955
135	0x3ab6c68b	0.0013944668
136	0xbda64360	-0.081183195
137	0xbcfb87b9	-0.030704366
138	0x3c02726f	0.007961853
139	0x3cedeadb	0.029042652
140	0xbd8562c2	-0.06512977
141	0xbc9e2017	-0.019302411
142	0xbd6bc232	-0.057558246
143	0xbd7ba643	-0.061437856
144	0x3beec3d6	0.007286529
145	0xbcc94955	-0.0245711
146	0x3d1729af	0.036904987
147	0xbcd52b8e	-0.026021745
148	0x3dc6f7b4	0.09715214
149	0xbd2058be	-0.03914713
150	0x3da7e9b3	0.081988715
151	0xbd9f6c62	-0.07784344
152	0x3d813971	0.06309784
153	0x3d5d9ec0	0.054106474
154	0x3d25bdd5	0.04046424
155	0x3d97ba76	0.074086115
156	0x3d52659d	0.051366437
157	0xbd9a8d2b	-0.07546457
158	0xbc37dbc3	-0.011221829
159	0x3dd9dcfd	0.10637853
160	0x3c9f91eb	0.019478759
161	0xbd6dda0f	-0.058069285
162	0x3c5f1a54	0.013617117
163	0x3cacf3bd	0.021112317
164	0x3dccdc88	0.100030005
165	0x3db6bfd9	0.08923311
166	0xbd6ae957	-0.057351436
167	0x3d004c47	0.031322744
168	0x3bc845e8	0.006111849
169	0xbd38a963	-0.045083415
170	0x3d9e49f0	0.07728946
171	0xbd545cb9	-0.05184624
172	0x3d76ea64	0.060282126
173	0xbc69eb0c	-0.014277231
174	0xbbe955ce	-0.0071208244
175	0x3d083a9c	0.03325902
176	0xbda2bef7	-0.0794658
177	0xbd176af7	-0.036967244
178	0xbdc6f303	-0.097143196
179	0x3bad85aa	0.005295475
180	0x3d4e0e74	0.050306752
181	0xbdc3ad19	-0.095545
182	0xbcf74846	-0.03018583
183	0xbd174af1	-0.036936704
184	0x3c2429e5	0.010019754
185	0x3d68589d	0.056725133
186	0x3dbacf01	0.09121514
187	0xbc8402a1	-0.016114535
188	0xbd381b06	-0.044947647
189	0x3db73709	0.08946044
190	0xbd54e0a5	-0.05197205
191	0x3bf22e1c	0.0073907506
192	0xbc37d8ff	-0.0112211695
193	0x3d4c6109	0.049897227
194	0x3dadf13f	0.0849328
195	0xbdcb7074	-0.09933558
196	0x3d36db01	0.044642452
197	0xbd9b488e	-0.07582198
198	0x3cd9718a	0.026543397
199	0xbceebbca	-0.02914228
200	0xbc39806d	-0.011322123
201	0xbcfee829	-0.031116562
202	0xbdbb7d57	-0.09154766
203	0x3ce7147e	0.028208014
204	0xbc9503f0	-0.018190354
205	0xbd289f3d	-0.041167486
206	0x3dae7ce6	0.08519916
207	0xbc925fef	-0.01786801
208	0xbd271e01	-0.0408001
209	0xbd02298c	-0.031777903
210	0x3d34c9e3	0.044137847
211	0x3be61d75	0.0070225545
212	0xbb8534f5	-0.004065151
213	0xbd757407	-0.059925105
214	0xbdd20b35	-0.10256044
215	0xbdc2980f	-0.09501659
216	0xbd016901	-0.03159428
217	0x3d8739a1	0.06602789
218	0x3d8ebf51	0.069700845
219	0xbce1adbf	-0.027548669
220	0x3dacd23f	0.08438539
221	0xbdcdcc00	-0.100486755
222	0xbd8252c4	-0.063634425
223	0x3c56a903	0.013101819
224	0xbcc6b29b	-0.024255088
225	0xbd8c7d03	-0.068597816
226	0x3cc310b0	0.023811668
227	0xbd40666c	-0.046972677
228	0x3d1d7adb	0.038447242
229	0x3d9cbbfe	0.07653044
230	0xbbd85e3f	-0.006603032
231	0xbd8d5fcd	-0.06903038
232	0xbd5d16b2	-0.053976722
233	0x3d4ca3e6	0.049960993
234	0xbce6664c	-0.02812495
235	0xbcf51aa2	-0.029919926
236	0x3b32a36d	0.0027258054
237	0xbdcfe226	-0.10150556
238	0xbdf6391e	-0.12022613
239	0xbc8c18c3	-0.017101651
240	0x3da2b80c	0.079452604
241	0x3cb98959	0.0226485
242	0x3d9407c3	0.07228043
243	0xbde5b7e8	-0.11216718
244	0xbd2c6b0e	-0.042094283
245	0x3cb89212	0.02253059
246	0xbd76f4dc	-0.06029211
247	0xbdcff675	-0.1015443
248	0x3d953d41	0.07287074
249	0xbd411c46	-0.047146104
250	0xbda4cf88	-0.08047396
251	0x3d0efd5c	0.03490959
252	0xbde99e6e	-0.11407171
253	0x3dc8f516	0.098123714
254	0x3bf35746	0.0074261753
255	0x3d1521ff	0.036409374

conv2.bias f4 [64]
0	0xb7a73ce6	-1.993631e-05
1	0x38edd31d	0.000113403636
2	0xb876b501	-5.8819543e-05
3	0x3893edd9	7.053809e-05
4	0xb80fe363	-3.4305627e-05
5	0x383c291d	4.4860983e-05
6	0xb7bf994a	-2.2840355e-05
7	0xb81ee251	-3.788091e-05
8	0x38f015e3	0.000114481685
9	0x372329b0	9.725263e-06
10	0xb6d38e2d	-6.3048415e-06
11	0xb8bf4ee2	-9.122283e-05
12	0xb9322ca7	-0.00016992037
13	0xb95265d1	-0.0002006509
14	0x390bc0b1	0.00013327856
15	0x378776bd	1.6148546e-05
16	0xb8278dc8	-3.9947947e-05
17	0x37db8402	2.6168305e-05
18	0xb92ed655	-0.00016673778
19	0x38326fa0	4.2542466e-05
20	0xb746fc50	-1.1860466e-05
21	0x3825f223	3.9564573e-05
22	0x3871becb	5.7636567e-05
23	0x381f8e2d	3.8040966e-05
24	0x396d9f0c	0.00022661331
25	0xb72e0068	-1.0371303e-05
26	0x3974d1ee	0.00023347858
27	0xb888069e	-6.486218e-05
28	0x39b15dcc	0.00033829955
29	0xb838ac3f	-4.4029435e-05
30	0xba149c4d	-0.00056690426
31	0x38c99175	9.61152e-05
32	0x38b0eb4e	8.436163e-05
33	0x38dd5015	0.00010553018
34	0x39eb4554	0.00044874346
35	0xba054854	-0.0005084325
36	0xb96ac8ec	-0.00022390828
37	0x3a2fd74e	0.0006707803
38	0xb811796c	-3.4683777e-05
39	0xb7d2b20b	-2.5116859e-05
40	0xb95f2e43	-0.00021284171
41	0xb8a0f85e	-7.6756565e-05
42	0x39570c98	0.0002050869
43	0xb926de74	-0.00015913864
44	0xb8387b0e	-4.3983622e-05
45	0xb969892e	-0.00022271715
46	0x3909bbe0	0.00013135327
47	0xb9902de3	-0.0002750001
48	0xb80ec86f	-3.4042107e-05
49	0xb9c55508	-0.0003763812
50	0x3685f582	3.9922897e-06
51	0x38868bdc	6.415669e-05
52	0x38605d9d	5.3492946e-05
53	0x3931d073	0.00016957689
54	0x3889dadf	6.573437e-05
55	0x36b90203	5.513664e-06
56	0xb798cf65	-1.8216388e-05
57	0x37efabda	2.8571045e-05
58	0xb7ac2efc	-2.0525877e-05
59	0xb83e0d36	-4.5311834e-05
60	0x39b40b4b	0.0003434069
61	0x381ba543	3.710879e-05
62	0xb85a7cd1	-5.2091495e-05
63	0xb8a2be74	-7.7602366e-05

conv2.lin.weight f4 [64, 64]
0	0x3d5f4e51	0.054518048
1	0xbe239bd9	-0.1597742
2	0x3caaebff	0.020864485
3	0x3e1dfecf	0.15429233
4	0x3dd6273a	0.104567006
5	0x3e21b751	0.15792586
6	0x3e20ae4c	0.15691489
7	0x3db5a710	0.08869755
8	0x3d2014d7	0.039082374
9	0x3e322e98	0.17400587
10	0xbdc446fd	-0.095838524
11	0xbdd6533b	-0.10465094
12	0xbe390c94	-0.18071204
13	0xbd302cd8	-0.043011516
14	0xbc76691a	-0.015039707
15	0x3e75cc6b	0.2400376
16	0xbe4221bf	-0.18958186
17	0xbceeae2f	-0.029135792
18	0x3dd494b1	0.10379923
19	0x3dd0d781	0.10197354
20	0x3e876b19	0.26448897
21	0xbd47c6a7	-0.048773434
22	0xbe2edd60	-0.17076635
23	0xbcec5033	-0.028846836
24	0x3d9c88e6	0.07643299
25	0x3e389910	0.18027139
26	0x3dab788c	0.08372602
27	0xbe23f1d1	-0.16010214
28	0xbd6e93c4	-0.05824639
29	0x3e1aaa01	0.15103914
30	0xbb0290fd	-0.0019922846
31	0xbcc9e071	-0.024643155
32	0x3dd6c217	0.104862384
33	0xbd62bb03	-0.05535413
34	0x3d96d4cc	0.073648065
35	0xbd5f0bd9	-0.05445466
36	0x3d28bf1a	0.041197874
37	0x3d00e40d	0.031467486
38	0x3e20c569	0.15700306
39	0x3ddfd127	0.109285645
40	0xbe03ff5e	-0.12890384
41	0x3ddd22c3	0.10797646
42	0x3d23deaf	0.04000729
43	0x3da04163	0.078249715
44	0x3e0c26d4	0.13686687
45	0xbdd8c31d	-0.1058409
46	0x3e1884e8	0.1489445
47	0x3d3cef59	0.046126697
48	0x3db4e6de	0.08833097
49	0x3dcccc21	0.09999872
50	0xbe2159e3	-0.15756945
51	0xbda54f27	-0.08071738
52	0xba7eb4f6	-0.00097162963
53	0x3db1c03c	0.08679244
54	0xbdaf436e	-0.08557783
55	0x3d848e18	0.06472415
56	0xbd31411a	-0.043274976
57	0x3e419f3a	0.18908396
58	0x3deb9423	0.11502864
59	0xbdf6a0dd	-0.12042401
60	0x3ddd20cc	0.10797271
61	0x3dbd9af5	0.09258071
62	0x3e8ce36a	0.27517253
63	0x3e081cbf	0.13292216
64	0x3e0a122c	0.13483495
65	0x3e305814	0.17221099
66	0xbdcf03a2	-0.10108115
67	0x3e373c64	0.17894131
68	0xbe2bf8a5	-0.16794069
69	0xbdcbed7d	-0.09957407
70	0x3dfb7fbd	0.122802235
71	0xbdbe5692	-0.09293856
72	0xbda63b29	-0.08116753
73	0xbe28366d	-0.16427012
74	0x3e6ff8f5	0.23434813
75	0x3e40f058	0.18841684
76	0x3d7de18a	0.06198267
77	0xbe850f4e	-0.2598824
78	0x3e21e86c	0.15811318
79	0xbe64914f	-0.22321056
80	0x3d18610e	0.037201934
81	0xbe402b48	-0.1876651
82	0x3b845577	0.0040385085
83	0xbd911632	-0.070843115
84	0xbe0451d1	-0.12921835
85	0x3dcc6084	0.099793464
86	0xbe378a03	-0.17923741
87	0x3d892a6b	0.06697544
88	0xbe228f95	-0.15875085
89	0x3d556d6f	0.052106317
90	0xbd7444dd	-0.059635986
91	0xbca2a72a	-0.0198551
92	0x3b729307	0.0037013905
93	0xbe7a1122	-0.24420598
94	0x3c2e15c6	0.010625308
95	0x3dd50bb4	0.10402623
96	0xbcc7f16b	-0.02440711
97	0x3d90fbbb	0.07079264
98	0x3d885540	0.06656885
99	0xbe709ecd	-0.23498078
100	0xbd9a1cb8	-0.07525009
101	0xbd9244e6	-0.071420476
102	0x3e4af8ee	0.19821522
103	0xbc40df00	-0.011771917
104	0x3e302bf6	0.1720427
105	0x3c249aa9	0.0100466395
106	0xbd71fb24	-0.059077397
107	0x3b42f9b7	0.0029750892
108	0x3ce6dcdf	0.028181491
109	0xbe0338dd	-0.1281466
110	0x3e154c25	0.14579828
111	0xbd729c9c	-0.059231386
112	0x3dd94068	0.10607988
113	0xbd8207d5	-0.0634915
114	0xbbf41840	-0.00744918
115	0xbe4367e8	-0.19082606
116	0xbd1ad2ae	-0.037798576
117	0xbd1b3658	-0.037893623
118	0x3dfcf305	0.1235104
119	0xbc1ca086	-0.009559756
120	0x3dee2705	0.11628536
121	0xbdbe69f0	-0.0929755
122	0xbd2e17f9	-0.04250333
123	0xbce5e32c	-0.028062426
124	0x3e0a7e41	0.13524725
125	0xbd953ac8	-0.07286602
126	0xbe06be19	-0.13158454
127	0xbcbc5929	-0.022991734
128	0x3c1c05c5	0.00952286
129	0x3ce75a72	0.02824137
130	0x3e12eb2c	0.14347523
131	0x3df7b718	0.12095469
132	0xbdc515b8	-0.09623283
133	0x3ddbcc00	0.10732269
134	0xbd941e9a	-0.07232399
135	0x3d8cf68e	0.06882964
136	0xbc8247f7	-0.015903456
137	0xbdb87769	-0.09007151
138	0xbe0555e3	-0.13021044
139	0xbdd812b7	-0.105504446
140	0xbcbf7227	-0.023369862
141	0x3c4fa8f5	0.01267456
142	0xbd56df11	-0.052458826
143	0x3e5a3d6c	0.21312493
144	0xbe223f3f	-0.15844439
145	0xbd9c5366	-0.076330945
146	0xbdf29c57	-0.11846226
147	0x3dcdc8f3	0.10048094
148	0x3c614471	0.013749228
149	0xbe56810a	-0.20947662
150	0x3e0c453a	0.13698283
151	0x3ddfb109	0.10922439
152	0x3dc94377	0.09827321
153	0x3e56db77	0.20982157
154	0xbbc37e83	-0.005966009
155	0xbe2c639a	-0.1683487
156	0xbdcd0f33	-0.10012665
157	0x3cb4104c	0.021980427
158	0x3e54a669	0.20766605
159	0xbe1303cf	-0.14356922
160	0xbddd9100	-0.10818672
161	0x3db0cf3d	0.086332776
162	0xbe76e40d	-0.24110432
163	0x3e604d0d	0.21904393
164	0x3ce2cec6	0.027686488
165	0xbddd7e41	-0.10815097
166	0xbdd9c079	-0.10632414
167	0x3d7112c7	0.058855798
168	0x3d909571	0.07059754
169	0x3e1523dc	0.1456446
170	0x3e586004	0.21130377
171	0xbd0d5984	-0.034509197
172	0x3e8944f5	0.26810423
173	0x3d7c79ad	0.061639477
174	0x3dd8c464	0.105843335
175	0x3d60ad89	0.054852996
176	0x3cba22b9	0.022721635
177	0x3e26af91	0.16277911
178	0xbe452f51	-0.19256331
179	0xbe2df119	-0.16986503
180	0xbdcf9be1	-0.101371534
181	0x3d32d061	0.043655757
182	0xbe0200fb	-0.12695687
183	0x3e827d1b	0.25486073
184	0xbda97220	-0.08273721
185	0x3dec3fd1	0.115356095
186	0x3dce202a	0.100647286
187	0x3db9982c	0.090622276
188	0xbd87de24	-0.06634167
189	0xbd28d44d	-0.04121809
190	0x3e8482d3	0.2588106
191	0xbdb5875e	-0.0886371
192	0xbe5f87fd	-0.21829219
193	0x3d0ddd96	0.03463515
194	0xbddb29c5	-0.10701326
195	0xbe835208	-0.25648522
196	0x3dea0d98	0.11428374
197	0x3ddb2675	0.107006945
198	0x3e4e14db	0.20125143
199	0x3e4d9b6f	0.20078824
200	0xbcb4e8a8	-0.022083595
201	0x3d466731	0.048438255
202	0xbdd1213f	-0.10211419
203	0x3db62ca6	0.08895235
204	0xbd832b41	-0.064047344
205	0xbd730065	-0.059326548
206	0xbe1d86b9	-0.15383424
207	0x3e504219	0.20337714
208	0xbbfcf293	-0.007719347
209	0x3e4b5603	0.1985703
210	0xbe02c8ea	-0.12771955
211	0x3dc217d7	0.09477203
212	0xbda4364e	-0.0801817
213	0x3ca55356	0.02018134
214	0x3df72a25	0.12068585
215	0x3d9be810	0.07612622
216	0xbb933d55	-0.0044933953
217	0x3d9c253b	0.07624289
218	0x3e46a7b1	0.19399907
219	0x3da797ab	0.08183225
220	0x3de57379	0.11203665
221	0xbe37cf63	-0.17950206
222	0xbdafbbb9	-0.08580727
223	0xbe6b4378	-0.22974956
224	0x3d338dac	0.04383628
225	0x3ddc9f0a	0.10772522
226	0x3d83c48a	0.06433971
227	0x3d141d75	0.036160905
228	0x3d0a9bcd	0.03383999
229	0xbe881e86	-0.26585788
230	0x3ddd7b10	0.10814488
231	0x3dc2f6cc	0.09519729
232	0x3e00b101	0.12567522
233	0x3e0b8c03	0.13627629
234	0xbdf45168	-0.119295895
235	0xbba26a0d	-0.00495649
236	0x3d7464f4	0.05966659
237	0xbd8237c7	-0.06358295
238	0xbe887c4f	-0.2665734
239	0xbe246917	-0.16055714
240	0x3dac7530	0.08420789
241	0x3c3a3627	0.01136545
242	0xbd479564	-0.048726454
243	0x3dba0201	0.090824135
244	0xbe865d2d	-0.26242962
245	0x3e6b6836	0.22988972
246	0x3e0e7a48	0.13913834
247	0x3e0b50ee	0.13605091
248	0xbd45eae3	-0.04831971
249	0xbd90ce56	-0.070706055
250	0x3cfbc32b	0.030732712
251	0x3e097fb9	0.13427629
252	0x3ddbb655	0.107281365
253	0x3e2241ef	0.15845464
254	0xbe7ffee4	-0.24999577
255	0xbd602e29	-0.05473152

bn1.weight f4 [64]
0	0x3f87350c	1.0563064
1	0x3f85b814	1.0446801
2	0x3f82d3c5	1.0220877
3	0x3f7ab923	0.97938746
4	0x3f81c99e	1.0139654
5	0x3f8066f6	1.0031421
6	0x3f76a23b	0.96341294
7	0x3f773847	0.9657025
8	0x3f6d1e0e	0.92623985
9	0x3f6e15a4	0.9300177
10	0x3f726a98	0.946939
11	0x3f74b447	0.9558758
12	0x3f6b4ff8	0.919189
13	0x3f874f01	1.0570985
14	0x3f7910ff	0.9729156
15	0x3f7b592b	0.98182935
16	0x3f80c304	1.0059514
17	0x3f715ea9	0.94285065
18	0x3f745c6e	0.95453537
19	0x3f6e0010	0.92968845
20	0x3f7cdbeb	0.9877307
21	0x3f84d096	1.0376155
22	0x3f7a7c1d	0.9784563
23	0x3f723a1c	0.9461992
24	0x3f88de32	1.0692809
25	0x3f874b88	1.0569925
26	0x3f72222d	0.945834
27	0x3f708b7b	0.9396283
28	0x3f7028a5	0.9381202
29	0x3f7f2542	0.99666226
30	0x3f8889ce	1.0667055
31	0x3f6ccdb1	0.9250136
32	0x3f7232db	0.9460885
33	0x3f78d070	0.9719305
34	0x3f822235	1.0166689
35	0x3f894d20	1.0726662
36	0x3f865343	1.049416
37	0x3f891ae6	1.0711334
38	0x3f75a332	0.9595214
39	0x3f807e20	1.003849
40	0x3f76c465	0.96393424
41	0x3f81e6de	1.014858
42	0x3f85b975	1.0447222
43	0x3f88fbd1	1.0701848
44	0x3f742c5f	0.95380205
45	0x3f72dd4d	0.9486893
46	0x3f8318f3	1.0241989
47	0x3f78eb6c	0.97234225
48	0x3f7d6b1b	0.98991555
49	0x3f730e3e	0.94943607
50	0x3f859417	1.0435818
51	0x3f85ecc0	1.0462875
52	0x3f71b1fb	0.944122
53	0x3f8852b8	1.0650244
54	0x3f78060f	0.96884245
55	0x3f80fa06	1.0076301
56	0x3f7165b8	0.94295835
57	0x3f863686	1.0485389
58	0x3f810f2c	1.0082755
59	0x3f7b4e55	0.981664
60	0x3f70ac9c	0.9401338
61	0x3f877f62	1.0585749
62	0x3f841f8e	1.032213
63	0x3f82c7d2	1.021723

bn1.bias f4 [64]
0	0x3d08c94c	0.033395097
1	0x3d0ab579	0.033864472
2	0xbb674dc9	-0.0035294166
3	0xbc85797a	-0.016293276
4	0xbb47360c	-0.0030397205
5	0x3c72433b	0.014786537
6	0xbd1df895	-0.038567144
7	0xbd198be5	-0.03748693
8	0xbd91fb03	-0.07127955
9	0xbd748c3c	-0.05970405
10	0xbd6b14d9	-0.05739293
11	0xbd18bd70	-0.037290037
12	0xbd65a3dd	-0.056064475
13	0x3d578b4c	0.05262308
14	0xbd29e9ca	-0.041482724
15	0xbd3a5e0e	-0.045499854
16	0x3c96accd	0.018392945
17	0xbd8ab625	-0.067730226
18	0xbc440885	-0.011964922
19	0xbd38b3da	-0.045093395
20	0xbc1a8601	-0.009431363
21	0x3b81c860	0.003960654
22	0x396d96f2	0.00022658313
23	0xbd0932cb	-0.033495706
24	0x3d7e2a2c	0.062051937
25	0x3d43c316	0.04779347
26	0xbd5fea3f	-0.054666754
27	0xbd813c5e	-0.06310342
28	0xbd77e673	-0.060522508
29	0xbbd7dddb	-0.0065877265
30	0x3d5065c8	0.050878316
31	0xbd7dafb9	-0.06193516
32	0xbd759b99	-0.059962843
33	0xbcccbf73	-0.024993634
34	0x3b8fe03c	0.0043907445
35	0x3d66f239	0.056383345
36	0x3cccd85d	0.025005514
37	0x3d881107	0.06643873
38	0xbc372b08	-0.011179693
39	0x3c06d62c	0.0082297735
40	0xbd00ba5a	-0.03142772
41	0x3c0358f7	0.008016816
42	0x3d1ed84c	0.038780496
43	0x3d476135	0.04867669
44	0xbd714dac	-0.058911964
45	0xbd51179e	-0.051047914
46	0x3d545b18	0.051844686
47	0xb8699243	-5.5687746e-05
48	0xbcdc34a1	-0.026880564
49	0xbd096934	-0.033547595
50	0x3c4521fa	0.012032026
51	0x3ce3a601	0.027789118
52	0xbd70c16f	-0.058778223
53	0x3d6717cf	0.05641919
54	0xbbcdf441	-0.006285221
55	0x3b65fe59	0.003509423
56	0xbd3fa2ad	-0.046786
57	0x3c793005	0.015209203
58	0x3d03b358	0.032153457
59	0xbbc5abcd	-0.006032443
60	0xbd54941a	-0.051899053
61	0x3d1d3be1	0.038387183
62	0xbca55263	-0.020180887
63	0x3d1ceef0	0.038313806

bn1.running_mean f4 [64]
0	0xbfaab5be	-1.3336713
1	0x3d59086e	0.052986555
2	0xbfb024e7	-1.3761262
3	0xc0424581	-3.0354922
4	0xbf3ccddc	-0.73751616
5	0x3e75d0af	0.24005388
6	0x3f86a24c	1.0518279
7	0xbff3f843	-1.9060138
8	0x3ee5c4c4	0.44876683
9	0x3f9790bd	1.1841046
10	0xc0361bb0	-2.84544
11	0xc0231499	-2.5481322
12	0x3fd0707e	1.628433
13	0x3fe7a30f	1.8096637
14	0x403f0d39	2.985182
15	0xbecb87c4	-0.39752018
16	0x4014b988	2.323824
17	0x3d85222d	0.06500659
18	0xbfa15765	-1.2604796
19	0x3feed113	1.8657554
20	0xc033dcb1	-2.810345
21	0x3f8af771	1.0856763
22	0x402e0c8a	2.7195153
23	0xbe903e49	-0.2817252
24	0x400013b0	2.0012016
25	0xbfeb11af	-1.8364772
26	0x3f70edcc	0.9411285
27	0xbe56a50a	-0.20961395
28	0xc001d230	-2.0284538
29	0x3d6fe7d2	0.05857069
30	0xc019a2e3	-2.4005668
31	0xbf91394b	-1.134561
32	0x3fbf2ece	1.4936159
33	0xbea18ea8	-0.3155415
34	0x3f5ca636	0.8619112
35	0xbfbb8216	-1.4649074
36	0x3f2c6cce	0.6735352
37	0xc032fb76	-2.796598
38	0x3e226735	0.15859683
39	0x3f0344e4	0.51276994
40	0xc0040c7c	-2.063262
41	0x3f398ba1	0.7247868
42	0xc032c8f3	-2.793515
43	0xbf8d5d69	-1.1044132
44	0xc04921e0	-3.1426926
45	0xbf4daec4	-0.80344796
46	0xbfd080e5	-1.6289335
47	0x4048e703	3.1390998
48	0xbfe0b95a	-1.7556565
49	0xbf70ff8a	-0.9413992
50	0x40330551	2.7971995
51	0x4014b73c	2.3236837
52	0xc08148bf	-4.04013
53	0xbf19b8f2	-0.6004783
54	0xc03aba26	-2.9176116
55	0xc04f4e0e	-3.239139
56	0x4053107d	3.2978814
57	0xbfa61946	-1.2976463
58	0xbeb8c0f1	-0.36084703
59	0x3f48e8bd	0.7848013
60	0xc0381b05	-2.8766491
61	0x3ee646f8	0.4497602
62	0xc0671af4	-3.61102
63	0xbebcc6a2	-0.36870295

bn1.running_var f4 [64]
0	0x3f53328a	0.8249899
1	0x3f31f72b	0.69517773
2	0x3f54c49c	0.831125
3	0x3f1c6267	0.6108765
4	0x3f3edeac	0.7455852
5	0x3f2dca60	0.67886925
6	0x3f4519c1	0.7699242
7	0x3f5014f4	0.8128197
8	0x3f15beda	0.5849434
9	0x3f244c42	0.6417886
10	0x3f4e2725	0.8052848
11	0x3f863002	1.0483401
12	0x3f4b9af5	0.7953332
13	0x3f4fe7d6	0.8121313
14	0x3f4c9d60	0.79927635
15	0x3f33a3de	0.70171916
16	0x3f0e3fd4	0.55566144
17	0x3f375dd5	0.7162755
18	0x3f1ce20e	0.6128243
19	0x3f483ea9	0.7822061
20	0x3f354616	0.7081007
21	0x3f4d851e	0.80281246
22	0x3f158dbc	0.58419394
23	0x3f89a5d9	1.0753738
24	0x3f3e19f3	0.74258345
25	0x3f0baee2	0.54563725
26	0x3f503802	0.8133546
27	0x3f529445	0.8225749
28	0x3ee8c8fc	0.4546584
29	0x3f6071b8	0.8767352
30	0x3f34937c	0.70537543
31	0x3f30677b	0.689079
32	0x3f5cfe8e	0.8632592
33	0x3f4b8019	0.79492337
34	0x3f437862	0.76355565
35	0x3f81e5f7	1.0148305
36	0x3f34d08d	0.70630723
37	0x3f2341ea	0.6377245
38	0x3f6381ab	0.8886973
39	0x3f823be6	1.017453
40	0x3f90133e	1.1255872
41	0x3f5c5064	0.86060166
42	0x3fa0d407	1.2564706
43	0x3f1407c1	0.5782433
44	0x3f495042	0.7863809
45	0x3f8c80c1	1.0976793
46	0x3f3538c1	0.70789725
47	0x3f27af2f	0.65501684
48	0x3f627043	0.8845255
49	0x3f80afee	1.005369
50	0x3f4dc32a	0.8037592
51	0x3f4c9f30	0.799304
52	0x3f446a34	0.76724553
53	0x3f210455	0.62897235
54	0x3f54714d	0.82985383
55	0x3f819bd4	1.012568
56	0x3f2a8e72	0.66623604
57	0x3f6ac59d	0.91707784
58	0x3f7a7685	0.97837096
59	0x3f4811c0	0.78152084
60	0x3f065ce3	0.52485484
61	0x3f98f60f	1.1950091
62	0x3f9aa424	1.2081342
63	0x3f555716	0.8333601

bn2.weight f4 [64]
0	0x3f6a79d5	0.9159215
1	0x3f819be4	1.0125699
2	0x3f70d49e	0.9407443
3	0x3f8b8cfe	1.0902402
4	0x3f68b65f	0.90903276
5	0x3f8996b4	1.0749116
6	0x3f6b7791	0.9197932
7	0x3f6a3502	0.91487134
8	0x3f71489b	0.9425141
9	0x3f6a94e2	0.9163343
10	0x3f68da4a	0.9095808
11	0x3f699674	0.912452
12	0x3f77e9f0	0.96841335
13	0x3f886988	1.0657206
14	0x3f6d57f5	0.92712337
15	0x3f890e72	1.0707533
16	0x3f830bf2	1.023802
17	0x3f892e34	1.0717225
18	0x3f8a0df7	1.0785512
19	0x3f768e19	0.96310574
20	0x3f8b0ba3	1.0862926
21	0x3f6d3c67	0.9267029
22	0x3f8c51b5	1.0962435
23	0x3f7aa5c0	0.97909164
24	0x3f682685	0.90683776
25	0x3f6d2410	0.9263315
26	0x3f8da681	1.1066438
27	0x3f8bd972	1.0925734
28	0x3f6b3af3	0.91886824
29	0x3f69453f	0.91121286
30	0x3f6a5ca1	0.9154759
31	0x3f6b4675	0.91904384
32	0x3f837aab	1.027181
33	0x3f63e0f2	0.89015114
34	0x3f8a38d1	1.0798589
35	0x3f8a565e	1.0807607
36	0x3f6a055d	0.91414434
37	0x3f6c2c66	0.92255247
38	0x3f87cbbf	1.0609053
39	0x3f765e5b	0.96237725
40	0x3f6ab9a1	0.916895
41	0x3f710aa2	0.9415685
42	0x3f8a4f1c	1.0805392
43	0x3f8ca82b	1.0988821
44	0x3f802e36	1.0014102
45	0x3f8c6216	1.0967433
46	0x3f6a1562	0.9143888
47	0x3f66bb05	0.9012912
48	0x3f8352bc	1.0259624
49	0x3f89b4cb	1.0758299
50	0x3f6c3c6c	0.92279696
51	0x3f83bd3e	1.0292127
52	0x3f87dcb8	1.0614233
53	0x3f89f7ec	1.0778785
54	0x3f8b9d70	1.0907421
55	0x3f760b86	0.96111333
56	0x3f83c1a6	1.0293472
57	0x3f6e28de	0.9303111
58	0x3f8c595c	1.096477
59	0x3f755612	0.9583446
60	0x3f69fa7e	0.91397846
61	0x3f6c1c02	0.92230237
62	0x3f6ae2aa	0.9175211
63	0x3f812a79	1.0091087

bn2.bias f4 [64]
0	0xbda3154d	-0.07963047
1	0xbd13a3e6	-0.036044978
2	0xbd119085	-0.035538215
3	0x3db6817d	0.08911417
4	0xbda61f0a	-0.08111389
5	0x3daf0d2a	0.08547433
6	0xbda5ad86	-0.080897376
7	0xbd4225e5	-0.04739942
8	0xbd758b2f	-0.05994719
9	0xbda12eee	-0.07870279
10	0xbd92872e	-0.0715469
11	0xbdab1040	-0.08352709
12	0xbcd8578a	-0.02640893
13	0x3d68445d	0.05670582
14	0xbd8f5e00	-0.07000351
15	0x3c7e4ed1	0.015521721
16	0xbca9780a	-0.020687122
17	0x3d28264c	0.041052148
18	0x3d1c0803	0.038093578
19	0xbdb25a96	-0.08708684
20	0x3dc4ab8d	0.09603033
21	0xbdbcfaca	-0.09227522
22	0x3dcbb92e	0.099474296
23	0xbd1e8897	-0.03870448
24	0xbdba5635	-0.09098474
25	0xbd851928	-0.06498939
26	0x3d95c89d	0.073136546
27	0x3dc7eaa9	0.09761555
28	0xbd8fb40c	-0.07016763
29	0xbda4b3f2	-0.08042134
30	0xbe0626b9	-0.13100709
31	0xbd97b31b	-0.074072085
32	0x3c3bbf79	0.011459225
33	0xbdc6c204	-0.09704974
34	0x3dc34403	0.095344566
35	0x3dab296a	0.083575085
36	0xbda74436	-0.08167307
37	0xbd948cea	-0.0725344
38	0x3d6d4d48	0.05793503
39	0xbcc0a339	-0.02351533
40	0xbd9ac1da	-0.075565055
41	0xbd96c7f0	-0.07362354
42	0x3daae037	0.08343547
43	0x3d8b7f86	0.068114325
44	0x3b877d1d	0.0041347877
45	0x3ddf0e0a	0.108913496
46	0xbdaedf24	-0.085386544
47	0xbdba06c8	-0.09083325
48	0xbd647da1	-0.05578387
49	0x3d981cee	0.07427393
50	0xbd9536cc	-0.07285842
51	0x3d6ab5c5	0.057302255
52	0x3d82d5f0	0.063884616
53	0x3dc005d2	0.0937611
54	0x3dd6113d	0.10452507
55	0xbce25a9c	-0.027631097
56	0x3d5304e6	0.051518343
57	0xbd896c61	-0.06710125
58	0x3daad946	0.08342223
59	0x3db82ca5	0.0899289
60	0xbdd582b6	-0.10425322
61	0xbd7e4ccc	-0.062084958
62	0xbdc4379c	-0.09580919
63	0xbd99e66b	-0.07514652

bn2.running_mean f4 [64]
0	0x3f731a53	0.9496204
1	0xbec6823a	-0.3877123
2	0x3ee2f3aa	0.44326526
3	0x3e4b624c	0.19861716
4	0x3dbe0710	0.09278691
5	0xbf0c1ec3	-0.5473444
6	0xbf0c412f	-0.5478696
7	0xbe58bfe1	-0.21166946
8	0xbeb80d7e	-0.35947794
9	0x3eebc786	0.46050662
10	0x3be81209	0.007082228
11	0x3d1c456b	0.03815214
12	0x3edbff01	0.4296799
13	0x3f256dec	0.6462085
14	0x3ed640de	0.41846365
15	0x3d77b67b	0.06047676
16	0x3edeef47	0.4354193
17	0x3f0906a1	0.5352574
18	0x3f4eb433	0.8074371
19	0xbf346f06	-0.7048191
20	0xbf17817b	-0.59181947
21	0x3f046256	0.5171255
22	0xbde44fcf	-0.11148035
23	0xbd466e26	-0.04844489
24	0xbea20114	-0.31641448
25	0x3f4e73f4	0.8064568
26	0x3f4a460d	0.7901314
27	0x3f2cbbb4	0.6747391
28	0xbf39d443	-0.7258951
29	0xbe119945	-0.14218624
30	0xbec6c9fb	-0.38825974
31	0x3f8b834e	1.0899446
32	0x3ef19a16	0.4718787
33	0xbe987226	-0.29774588
34	0x3ef8b36b	0.48574385
35	0x3f615c25	0.88031226
36	0x3f371a0c	0.7152412
37	0x3f3ff3ca	0.7498137
38	0x3dc82b2c	0.097738594
39	0x3f599b5f	0.850027
40	0x3f93a143	1.1533588
41	0x3f89c652	1.0763648
42	0x3d99b6a6	0.075055405
43	0x3f1e650c	0.61872935
44	0x3f273604	0.65316796
45	0xbe68ca6c	-0.22733468
46	0xbf2e1916	-0.6800703
47	0x3f4e94a9	0.8069559
48	0x3dae8a9a	0.0852253
49	0x3f820a5c	1.0159411
50	0x3db96396	0.09052198
51	0xbcd46a86	-0.0259297
52	0xbe8f8a84	-0.28035367
53	0xbf57eb1e	-0.84343135
54	0x3d17cd9e	0.037061326
55	0xbe86dd1e	-0.26340574
56	0x3c8ea32e	0.017411795
57	0x3f31c4c4	0.69440866
58	0xbd176d36	-0.036969386
59	0xbe5068b7	-0.20352446
60	0xbf48eb13	-0.78483695
61	0x3ec18eee	0.3780436
62	0x3e041069	0.12896885
63	0x3eba2386	0.36355227

bn2.running_var f4 [64]
0	0x3e833afb	0.25630936
1	0x3f06f09d	0.52710897
2	0x3ee4d1d0	0.44691324
3	0x3f1ed300	0.6204071
4	0x3ec5800e	0.3857426
5	0x3ed498a6	0.41522712
6	0x3f01ba7c	0.5067518
7	0x3e8ea389	0.27859142
8	0x3f5c43bd	0.8604086
9	0x3efdbc81	0.4955788
10	0x3eb8906d	0.36047688
11	0x3efe8fd3	0.49719104
12	0x3ea764fa	0.32694227
13	0x3f183b74	0.5946572
14	0x3f1b2666	0.60605466
15	0x3f45a2ac	0.7720134
16	0x3f086117	0.5327315
17	0x3f37303b	0.7155797
18	0x3eaae0d1	0.33374646
19	0x3e8ccbf8	0.27499366
20	0x3ef32a86	0.4749338
21	0x3e96a528	0.2942288
22	0x3ec6b7a0	0.3881197
23	0x3ebeab02	0.37239844
24	0x3f5e7f47	0.8691296
25	0x3f03243b	0.5122716
26	0x3f6f861e	0.9356402
27	0x3f33f3c3	0.70293826
28	0x3f5187b0	0.8184767
29	0x3f1c3942	0.6102487
30	0x3f215eba	0.63035166
31	0x3f13aceb	0.57685727
32	0x3f1de057	0.6167044
33	0x3ec2e37c	0.38064182
34	0x3ef2be16	0.4741065
35	0x3eea43f1	0.4575496
36	0x3f22f1a5	0.6364997
37	0x3e63d644	0.22249705
38	0x3f068e9a	0.5256134
39	0x3f13e6d9	0.5777412
40	0x3f0c1c5e	0.54730785
41	0x3ed4aca9	0.4153798
42	0x3efecaeb	0.4976419
43	0x3f0c6462	0.5484067
44	0x3f47320d	0.77810746
45	0x3e8ab6e6	0.27092665
46	0x3f17319f	0.5906009
47	0x3e8d0e7b	0.2755011
48	0x3ec6130e	0.38686413
49	0x3f25f63d	0.64828855
50	0x3f0527cf	0.5201387
51	0x3f1b587d	0.606819
52	0x3f15bdd1	0.5849276
53	0x3f2f1a53	0.6839954
54	0x3f2e1b9a	0.68010867
55	0x3e90bcb9	0.28268984
56	0x3ed5ffd0	0.41796732
57	0x3f2033b4	0.6257889
58	0x3f18b80d	0.5965584
59	0x3eff3b8f	0.49850127
60	0x3f4500cb	0.76954335
61	0x3f21c332	0.6318847
62	0x3eaa9243	0.33314714
63	0x3ef70eb4	0.48253405

classifier.weight f4 [10, 64]
0	0x3dac0024	0.08398464
1	0x3e1cdaa9	0.15317787
2	0x3cf19073	0.029487824
3	0xbbd26647	-0.006420884
4	0x3e42b630	0.19014812
5	0x38e49cd9	0.00010901102
6	0xbe4fdfbc	-0.20300192
7	0xbe16aec3	-0.14715104
8	0x3e5e7d6f	0.21727537
9	0xbd68a92d	-0.056801964
10	0xbdf10c72	-0.11769952
11	0x3e201ddf	0.15636395
12	0xbd1b067b	-0.037847977
13	0x3cb6a5c4	0.02229584
14	0x3cc1f966	0.023678493
15	0xbdf0323d	-0.11728332
16	0xbd34ccf4	-0.04414077
17	0xbde1e9a6	-0.11030893
18	0x3e13351a	0.14375725
19	0xbe2106d8	-0.15725267
20	0x3c8b31f8	0.0169916
21	0xbd7ed715	-0.062216837
22	0xbe322ed0	-0.1740067
23	0xbdf26c5d	-0.11837075
24	0xbdcf38ba	-0.101182416
25	0xbdea1c93	-0.11431231
26	0x3e2bfce6	0.16795692
27	0xbd9035a3	-0.070414804
28	0x3e01d7b7	0.12679945
29	0xbe4e5a92	-0.20151737
30	0x3d37a0ca	0.044831075
31	0xbd3f1b53	-0.046656918
32	0xbe375cb9	-0.17906465
33	0x3e08172b	0.13290088
34	0xbdfdeacc	-0.123982996
35	0x3cc7c136	0.024384122
36	0xbd42e340	-0.047580004
37	0x3e0d00aa	0.13769785
38	0x3e6a84c1	0.22902204
39	0xbe44d7cf	-0.1922295
40	0xbdd9aa83	-0.10628226
41	0xbe2e025d	-0.16993089
42	0x3db6e01b	0.089294635
43	0xbd863524	-0.065531045
44	0xbc1d57b4	-0.00960343
45	0xbd3fb58b	-0.046803992
46	0xbaa95cfe	-0.0012921391
47	0x3dba216a	0.090884045
48	0xbcc5d428	-0.024149016
49	0x3ca7bd4a	0.020476002
50	0xbd2952c3	-0.041338693
51	0x3c2377c0	0.009977281
52	0xbc6c48f9	-0.014421695
53	0xbd80062c	-0.06251177
54	0xbde6f994	-0.11278072
55	0xbbab03a2	-0.005218939
56	0xbbcb96d1	-0.006213047
57	0xbd0923c8	-0.03348139
58	0xbe48bc73	-0.19603138
59	0x3e1dd3dc	0.15412849
60	0x3d76b130	0.060227573
61	0xbd875c3a	-0.06609388
62	0xbe09a05d	-0.1344008
63	0xbe0d93a3	-0.1382585
64	0xbd7b4ccf	-0.061352547
65	0x3ca01f8c	0.019546293
66	0xbe40ca1c	-0.18827099
67	0xbe21e992	-0.15811756
68	0x3e63b93b	0.22238629
69	0x3e5e0367	0.21680985
70	0xbe3e9b80	-0.18614006
71	0x3d98aa94	0.0745441
72	0x3df7ccf3	0.12099638
73	0x3ce54638	0.027987584
74	0x3e0d7e54	0.13817722
75	0x3e0c63a4	0.13709885
76	0x3c9f7324	0.019464083
77	0xbb4e4e98	-0.003147995
78	0xbe04d6e7	-0.12972604
79	0xbd4c49b6	-0.049874984
80	0xbd4d1240	-0.050066233
81	0xbd0f3ec1	-0.034971956
82	0xbcbe01f1	-0.023194285
83	0x3dab032c	0.08350214
84	0x3e3023ca	0.17201152
85	0xbd12d014	-0.03584297
86	0xbe1d4369	-0.15357746
87	0x3c05e45e	0.008172123
88	0x3d113c0b	0.035457652
89	0x3dfee8b3	0.124467276
90	0x3d0fa8c2	0.03507305
91	0xbda38b6c	-0.07985577
92	0x3e7159a8	0.23569357
93	0xbc8b7bb1	-0.017026754
94	0xbd86c8c6	-0.06581263
95	0xbd5b2ab0	-0.053507507
96	0xbe0cb3fd	-0.13740535
97	0x3cbcb256	0.023034256
98	0xbd019571	-0.03163666
99	0x3db9e6ba	0.09077211
100	0x3df09830	0.117477775
101	0x3cf2b32e	0.029626455
102	0x3e0fb295	0.14032967
103	0xbe378f45	-0.17925747
104	0xbe0a403f	-0.1350107
105	0xbdd4cffa	-0.10391231
106	0xbe259aaf	-0.16172288
107	0xbc2391ad	-0.009983462
108	0xbda427e3	-0.0801542
109	0x3bf9f745	0.007628354
110	0x3d27125a	0.040788986
111	0xbcc4dcfd	-0.024031157
112	0xbc6716fa	-0.014104599
113	0xbcb60b13	-0.022222077
114	0xbe0b6ecf	-0.13616489
115	0xbc3771f1	-0.011196599
116	0xbcabd3f7	-0.020975096
117	0x3d8fbf7a	0.07018943
118	0x3de02935	0.109453596
119	0x3e2c740b	0.16841142
120	0x3c9ff854	0.019527592
121	0x3e3c9db9	0.18419541
122	0xbd909202	-0.07059099
123	0x3dadd285	0.08487419
124	0x3d582a2c	0.052774593
125	0x3d89926b	0.0671738
126	0xbdacbae7	-0.08434086
127	0xbca4efd5	-0.020133892
128	0x3cedc727	0.029025627
129	0x3c88b2c1	0.016686799
130	0x3e1c453f	0.1526079
131	0x3d87242e	0.065986976
132	0xbe118f65	-0.14214857
133	0xbdd9db01	-0.10637475
134	0x3c4064e7	0.011742807
135	0xbe0e3759	-0.13888301
136	0xbc91c783	-0.01779533
137	0x3dbfaf5f	0.09359621
138	0x3d4e7999	0.050408933
139	0xbe3d2eaf	-0.1847484
140	0xbcd53764	-0.026027389
141	0xbdba2c07	-0.09090429
142	0x3cb55d0f	0.0221391
143	0xbbc2b70e	-0.005942232
144	0x3da3cd55	0.07998148
145	0x3ceb3f4a	0.028716702
146	0x3e47181c	0.19442791
147	0x3daf7484	0.085671455
148	0xbe32f359	-0.17475642
149	0x3dfe06ef	0.12403666
150	0xbcba099a	-0.022709657
151	0x3cd41fdd	0.0258941
152	0x3e180026	0.14843807
153	0x3c038ca9	0.008029141
154	0x3c8f0458	0.017458126
155	0x3ca47180	0.020073652
156	0xbe485a00	-0.19565582
157	0xbce06b9c	-0.027395062
158	0x3dc332cf	0.09531175
159	0xbdc52484	-0.096261054
160	0xbcbd7506	-0.02312709
161	0xbcb07208	-0.02153875
162	0xbe0c5836	-0.13705525
163	0xbe018b6b	-0.1265084
164	0x3d07a1ac	0.033113167
165	0x3dc8625e	0.09784387
166	0xbe4b079c	-0.19827121
167	0xbb8fe9e7	-0.004391897
168	0xbcdb8b12	-0.026799712
169	0x3d4d67b0	0.050147712
170	0xbd899f5d	-0.06719849
171	0x3e27fd66	0.16405258
172	0x3e4c27ea	0.19937101
173	0x3db52107	0.0884419
174	0xbcfb1818	-0.030651137
175	0xbd37674d	-0.04477625
176	0x3ca9c856	0.02072541
177	0x3d21b446	0.039478563
178	0x3e1149f9	0.14188375
179	0xbe36ddad	-0.17858
180	0xbdd6bd43	-0.104853176
181	0x3de2752b	0.11057504
182	0x3dec74bf	0.11545705
183	0x3d7fae5d	0.062422145
184	0xbdddd2f6	-0.10831253
185	0xbddf844f	-0.10913908
186	0xbae18838	-0.0017206734
187	0xbe304ba7	-0.17216359
188	0xbd3b26f4	-0.045691445
189	0x3d8e559a	0.06949921
190	0xbdb325eb	-0.08747467
191	0x3d5cb291	0.05388123
192	0xbd84b977	-0.06480687
193	0xbddea022	-0.10870387
194	0x3ca05ae7	0.019574596
195	0x3e3e3822	0.185761
196	0xbd70b641	-0.05876756
197	0xbc53a6df	-0.012918203
198	0xbe0f1851	-0.1397412
199	0x3de82e9a	0.113370135
200	0xbd54fee7	-0.052000906
201	0x3d88c20e	0.06677638
202	0x3e357234	0.17719346
203	0xbdf718f6	-0.12065308
204	0x3c2726a7	0.0102020865
205	0x3dd3042c	0.1030353
206	0xbced4ae7	-0.02896638
207	0x3e077964	0.132299
208	0x3d8e5b36	0.06950991
209	0x3d04f674	0.0324616
210	0x3be127a5	0.006871181
211	0xbda7bd6a	-0.08190425
212	0xbcd39c12	-0.025831256
213	0x3de726eb	0.1128672
214	0x3d65bb7c	0.056087002
215	0x3d837834	0.06419411
216	0xbe202bdb	-0.1564173
217	0x3d5bdd2e	0.05367773
218	0x3db4a178	0.0881986
219	0x3e381afe	0.17979047
220	0xbe3eab92	-0.18620136
221	0xbd2f2929	-0.042763863
222	0xbe0909f0	-0.13382697
223	0x3d736122	0.059418805
224	0x3e144072	0.14477709
225	0xbe002327	-0.1251341
226	0x3e466cb4	0.19377404
227	0xbba7c608	-0.0051200427
228	0x3de4fadc	0.1118066
229	0x3bda37b8	0.006659474
230	0xbded1eed	-0.11578164
231	0x3d81cee7	0.063382916
232	0x3e3a1852	0.1817334
233	0x3d78b4a9	0.060719166
234	0xbdcc879a	-0.099868014
235	0x3e0dda83	0.13852887
236	0x39e5cbfc	0.00043830264
237	0x3e359202	0.17731479
238	0xbe4a5a1e	-0.1976094
239	0x3d890e1b	0.066921435
240	0xbdb82894	-0.08992115
241	0xbb9c4c04	-0.004769804
242	0x3d783489	0.060596976
243	0xbe2d4f8e	-0.16924879
244	0x3dfdeed3	0.12399068
245	0x3d8c8bcb	0.06862601
246	0x3c811eaa	0.015761692
247	0x3d7a427d	0.061098564
248	0xbd6986eb	-0.057013433
249	0x3d632dd6	0.055463634
250	0x3e4c29c7	0.19937812
251	0xbcaad0e5	-0.020851562
252	0xbe4c81de	-0.19971415
253	0x3dfe1650	0.124065995
254	0xbcb38284	-0.02191282
255	0xbc300d7d	-0.010745403

classifier.bias f4 [10]
0	0x3d20a128	0.03921619
1	0x3c90b28e	0.017663267
2	0x3cc0e5c8	0.023547068
3	0x3da16d5f	0.07882189
4	0xbbe8f408	-0.007109169
5	0x3cc82ac1	0.02443445
6	0xbcb550bf	-0.02213323
7	0x3d0e1784	0.034690395
8	0xbc8bb183	-0.017052418
9	0x3c3aa8e0	0.011392802
