checkpoints/checkpoint_epoch_85.pt (torch, 547720 bytes, 37 tensors)

prototypes f4 [100, 64]
0	0x3e22f40f	0.15913413
1	0xbe8f53bd	-0.27993575
2	0xbd9001bc	-0.07031581
3	0x400e50cf	2.2236822
4	0xbf2baf75	-0.670646
5	0x3f2b3026	0.66870344
6	0x3e516060	0.2044692
7	0xbf66399d	-0.8993166
8	0x3dce6cb9	0.10079331
9	0x403de4f2	2.9670987
10	0xbf802653	-1.0011696
11	0xbf7ce6c3	-0.98789614
12	0xbf0fc00f	-0.56152433
13	0xbf85d06b	-1.0454229
14	0xbf26d665	-0.6517089
15	0x3fd1bf10	1.6386433
16	0xbf36f9da	-0.71474993
17	0x3ebb382d	0.36566296
18	0x3f807064	1.0034299
19	0x3fc17a3c	1.5115428
20	0xc00e50d3	-2.223683
21	0xbe2bc391	-0.16773821
22	0xbec81ea0	-0.39085865
23	0x3e2dad03	0.1696053
24	0x3e827f4d	0.25487748
25	0x3e6ad720	0.22933626
26	0x3e5825f2	0.21108225
27	0x3f4b63bd	0.79449064
28	0xbf05e0d3	-0.5229618
29	0x3f1a300c	0.60229564
30	0xbee2648d	-0.4421734
31	0x3eaa1be3	0.332244
32	0xbff1adb1	-1.8881131
33	0x3fbc25a6	1.4698989
34	0xbeb977a1	-0.36224082
35	0x3e821d8e	0.25413173
36	0xbe95192c	-0.29120767
37	0xbf4d44a7	-0.8018288
38	0x3f5b5025	0.85669166
39	0xbff5642f	-1.9171199
40	0xbeeb7a12	-0.4599157
41	0x3c8bc33c	0.017060868
42	0x3f97fb30	1.1873531
43	0x3eecf0c2	0.46277434
44	0x3f9b68da	1.2141373
45	0xbe0be731	-0.13662411
46	0xbe8b08ee	-0.2715525
47	0x3e40442a	0.18776003
48	0x3feef556	1.866862
49	0xbee20df6	-0.44151276
50	0x3e46a16e	0.19397518
51	0xbf0c65ed	-0.54843026
52	0xbf2fc719	-0.68663174
53	0xbf47f02b	-0.7810084
54	0xbf1dc7de	-0.616331
55	0x3f015492	0.5051967
56	0x3fa94a8c	1.3225875
57	0xbe8c3a53	-0.27388248
58	0x3e0fb5fe	0.14034268
59	0xbfef5e5b	-1.870067
60	0xbe4b904b	-0.19879262
61	0x3f5b7d3a	0.85737956
62	0xbe9f089c	-0.31061256
63	0x3fa9e9f6	1.3274524
64	0xbd2e40fe	-0.04254245
65	0x3fea17c0	1.8288498
66	0xbf8b8325	-1.0899397
67	0x3e035678	0.12825954
68	0xbfa4f56d	-1.2887398
69	0xbf62e30c	-0.88627696
70	0xbed8f1b1	-0.42371896
71	0x3c9c81c5	0.019104848
72	0xbed5e993	-0.41779765
73	0xbdfcf3cd	-0.12351189
74	0x3e0739ba	0.13205615
75	0x3f7559cb	0.9584014
76	0x3bde27be	0.00677964
77	0x3f53ac59	0.82684857
78	0xbf82a66f	-1.0207042
79	0xbe9a430c	-0.30129278
80	0x3f0fd784	0.56188226
81	0x3f3e11f4	0.74246144
82	0xbf54bf48	-0.8310437
83	0xbef51572	-0.47867924
84	0x3ec38b42	0.38192183
85	0xbffd7e01	-1.9804078
86	0x3f695781	0.91149145
87	0x3eef634f	0.46755454
88	0xbf9b3102	-1.2124331
89	0x3fdea828	1.7395067
90	0xbfc6aa84	-1.5520787
91	0xbe353ac1	-0.17698194
92	0x3fd771c7	1.6831597
93	0x3efb7fa0	0.49120808
94	0x3f125457	0.5715994
95	0xbef1b2f9	-0.47206858
96	0x3f7f4480	0.997139
97	0xbf8a6b2c	-1.0813956
98	0xbfe9bec6	-1.8261344
99	0xbe419771	-0.18905427
100	0x3fabe65f	1.3429679
101	0xbf6fa5cf	-0.9361238
102	0xbec21b12	-0.37911278
103	0xbedba3d4	-0.42898428
104	0xbf9780ae	-1.1836145
105	0xbfa46194	-1.2842278
106	0x3c30a859	0.010782325
107	0xbeed4f85	-0.4634973
108	0xbf9f356d	-1.2438179
109	0x3e385a54	0.18003207
110	0x3ed1e53f	0.40995213
111	0x3fea5183	1.8306125
112	0xbe12a2aa	-0.14319864
113	0xbe7b309c	-0.24530262
114	0xbff48d9a	-1.9105713
115	0xbf81fd6b	-1.0155462
116	0xbd26470f	-0.04059511
117	0x3f9315a8	1.1490984
118	0xbe29679a	-0.16543427
119	0x3f033f88	0.51268816
120	0xbfa06f66	-1.2533996
121	0x3d2046ba	0.03912995
122	0xbfafb1b0	-1.3726101
123	0xbf213d22	-0.62983906
124	0xbf816f23	-1.0112041
125	0xbf671435	-0.9026521
126	0xbffe4a30	-1.986639
127	0x3f882b3e	1.0638196
128	0x3ef797ce	0.48358005
129	0xbf263298	-0.6492095
130	0x3f233d8b	0.6376578
131	0xbfeba9fa	-1.8411248
132	0x3ede2de7	0.43394396
133	0x3efd8fd2	0.4952379
134	0x3d29355b	0.04131065
135	0x3f178566	0.59187925
136	0xbfb521bc	-1.415092
137	0x3c92a292	0.017899785
138	0xbf35ed62	-0.7106534
139	0x3dddc6b8	0.10828918
140	0x3fcab708	1.5837107
141	0xbc0b4916	-0.008501312
142	0xbfede3f0	-1.8585186
143	0xbf0f9bb9	-0.5609699
144	0x3f506f45	0.81419784
145	0xbff057a1	-1.8776742
146	0x3f94e884	1.1633458
147	0xbc1de1c9	-0.009636351
148	0x3d99538b	0.07486638
149	0xbce7fe4c	-0.0283195
150	0xbf576e9f	-0.8415317
151	0x404d9844	3.2124186
152	0x3fb1c7fc	1.3889155
153	0xbeb6b56c	-0.3568529
154	0x3e94fbd1	0.2909837
155	0xbf8ab559	-1.0836593
156	0xbd77bc8e	-0.060482554
157	0xbf5ac0e4	-0.8545058
158	0x3f928644	1.1447225
159	0xbfc8180d	-1.563234
160	0x3f79194a	0.97304213
161	0x3d54760f	0.051870402
162	0xc008a566	-2.1350951
163	0x3f53d840	0.82751846
164	0xbb810721	-0.0039376174
165	0xbf37b000	-0.7175293
166	0xbf8cbaf9	-1.099456
167	0xc00257d2	-2.0366101
168	0xbc9e3839	-0.019313918
169	0xbf7e180f	-0.9925546
170	0x3f8adb99	1.0848266
171	0xbd80eedc	-0.06295559
172	0xbfa4c37c	-1.2872157
173	0xbeacd613	-0.33757076
174	0xbec015ee	-0.3751673
175	0x3ffb8499	1.964984
176	0x3f13436b	0.57524747
177	0x3eb805c4	0.359419
178	0xbf1b5a6c	-0.6068485
179	0xbfe3bee0	-1.7792625
180	0xbf27e7fb	-0.6558835
181	0xbd84eed6	-0.06490867
182	0xbf76d796	-0.9642271
183	0xbf1a0033	-0.60156554
184	0xbf21fa8a	-0.6327292
185	0xbf78520b	-0.9700019
186	0xbec30ce6	-0.38095778
187	0xbf83231f	-1.0245093
188	0xbf1306c0	-0.57432175
189	0x3f4af754	0.7928364
190	0x3b4363bd	0.0029814087
191	0x3f6ad498	0.9173064
192	0xbda512a5	-0.08060197
193	0x3fae6bd6	1.3626659
194	0x3e8f544d	0.27994004
195	0x3f97d431	1.1861631
196	0x3ebbd73e	0.36687654
197	0x4007aa09	2.1197531
198	0xbf03c50a	-0.5147253
199	0x3e68606c	0.22693032
200	0x405eef44	3.4833536
201	0x3ff3268a	1.8996136
202	0xc03fc0ab	-2.9961345
203	0x3ed65e74	0.41868937
204	0x3eac409b	0.3364304
205	0x3e95c991	0.29255345
206	0x3f59ed7e	0.8512801
207	0x3e3c9a15	0.18418153
208	0xbfb9f3f0	-1.4527569
209	0xbfa564ab	-1.2921346
210	0xbfe25514	-1.7682214
211	0x3edd9c6f	0.43283412
212	0x3f410926	0.75404584
213	0xbe62ee2f	-0.22161172
214	0xbe6b075c	-0.22952026
215	0x3edb4f4a	0.4283393
216	0x3f1690ff	0.58814996
217	0xbf857ad1	-1.0428106
218	0xbf7e6574	-0.99373555
219	0xbec16456	-0.37771863
220	0x3fb58a53	1.4182838
221	0x3cd2675c	0.025684051
222	0x3f860141	1.0469133
223	0xbf03c9e4	-0.51479936
224	0x3f5849f2	0.8448783
225	0x3fef0560	1.8673515
226	0xbe91a8c3	-0.28449067
227	0xbf8da865	-1.1067015
228	0xbf085f15	-0.53270084
229	0x3f50e142	0.81593716
230	0x3df4da9f	0.11955761
231	0x3f32c672	0.69834054
232	0x3fbed54e	1.4908845
233	0xbfaca747	-1.3488549
234	0x3ee42fa0	0.44567585
235	0x3f33181c	0.69958663
236	0xbf2ce7e3	-0.6754133
237	0xc0051a4d	-2.0797303
238	0x3eb5d6f3	0.35515556
239	0x3ef545e4	0.47904885
240	0xbfedd595	-1.8580805
241	0xbf21fb97	-0.6327452
242	0xbf733873	-0.9500801
243	0x3eff04dc	0.49808395
244	0x3cbea690	0.023272783
245	0x3ef6ef8c	0.48229635
246	0x3f1ca1d7	0.6118445
247	0xbdbac690	-0.09119904
248	0x3f38e229	0.72220093
249	0xbf773e11	-0.9657908
250	0xbee2bd68	-0.4428513
251	0x3f86fafd	1.0545346
252	0x3fadb543	1.3570942
253	0x3ef3cffa	0.4761961
254	0xbfc73ae7	-1.556485
255	0xbfa3b964	-1.2790952

conv1.bias f4 [64]
0	0x38e1d7e7	0.00010769051
1	0xb5887fc5	-1.0169975e-06
2	0x3898bc36	7.282982e-05
3	0xb858ae0a	-5.16605e-05
4	0xb7d849ad	-2.5783515e-05
5	0x38d50009	0.00010156638
6	0xb90b8773	-0.00013306532
7	0x3910d400	0.00013811886
8	0xb6bbb7be	-5.5944247e-06
9	0x3847b362	4.761236e-05
10	0xb8f016ba	-0.00011448325
11	0xb8e73868	-0.00011025445
12	0xb93febf7	-0.00018303083
13	0x392eb2c6	0.00016660531
14	0xb9495939	-0.00019202092
15	0x37d8b136	2.5831727e-05
16	0xb9544e81	-0.0002024714
17	0x381e4686	3.7735816e-05
18	0x38e92f6a	0.00011119137
19	0x37f9ad84	2.9763913e-05
20	0xb9a7a06e	-0.00031972252
21	0xb88919fa	-6.5375076e-05
22	0xb6d3ac54	-6.3083517e-06
23	0xb7ea7a06	-2.7951795e-05
24	0xb90bcb14	-0.00013331725
25	0xb99836aa	-0.00029032427
26	0x36e5a4a0	6.8438967e-06
27	0xb64055c3	-2.866015e-06
28	0x3904ae69	0.00012653474
29	0xb7a4fc1a	-1.9667717e-05
30	0xb8ab9a4d	-8.182656e-05
31	0xb8404a61	-4.5845638e-05
32	0x37862686	1.5991984e-05
33	0x3822fbd5	3.8858347e-05
34	0xb7cfe9ec	-2.4785251e-05
35	0xb82650f6	-3.9652885e-05
36	0xb8e84681	-0.000110757544
37	0xb9510f80	-0.00019937567
38	0x3771f072	1.4420702e-05
39	0x38b165d5	8.4589854e-05
40	0xb859892a	-5.1864576e-05
41	0x38d48c11	0.00010135037
42	0x3875578e	5.8494094e-05
43	0x3686cf12	4.0176174e-06
44	0xb5a3e7d8	-1.2211922e-06
45	0xb83d0fe2	-4.5075903e-05
46	0xb908b4cd	-0.00013037324
47	0xb966bac5	-0.00022004086
48	0x381d93a5	3.756922e-05
49	0x366d7cc8	3.5388384e-06
50	0x38b1e5cf	8.482823e-05
51	0x3803f4df	3.1460888e-05
52	0x38c0d720	9.1953436e-05
53	0x38a80517	8.011812e-05
54	0x38ab6cf4	8.1742095e-05
55	0x38a65263	7.9308425e-05
56	0x394b6732	0.00019398032
57	0x382725fe	3.9851286e-05
58	0x37527f42	1.2546605e-05
59	0xb897a53f	-7.2310206e-05
60	0xb9102b4a	-0.00013749037
61	0xb87d9d32	-6.04663e-05
62	0xb8c0516c	-9.1704394e-05
63	0xb78703a8	-1.6094957e-05

conv1.lin.weight f4 [64, 512]
0	0xbc914f82	-0.017738108
1	0xbd27e857	-0.04099306
2	0xbd81d8f7	-0.06340211
3	0xbd2fe4f6	-0.042942964
4	0xbd92637f	-0.071478836
5	0xbdbd7e2b	-0.0925258
6	0x3cdf336d	0.027246201
7	0xbd0058f9	-0.03133485
8	0x3cc5d166	0.0241477
9	0x3d406bc1	0.046977762
10	0xbcaee319	-0.021348523
11	0x3c516b42	0.01278192
12	0xbd15d820	-0.036583066
13	0xbdce2a9f	-0.10066723
14	0x3c82dbd3	0.015973961
15	0xbd8b300b	-0.06796273
16	0xbdd3f941	-0.10350276
17	0xbd255874	-0.04036756
18	0xbd093e8e	-0.033506922
19	0x3d050adc	0.03248106
20	0xbd38bf63	-0.045104396
21	0x3d9cd02c	0.07656893
22	0x3af9e823	0.0019066375
23	0xbc2ef74c	-0.010679077
24	0xbabdc5a2	-0.0014478455
25	0xbd6080c4	-0.0548103
26	0xbdd6c55a	-0.104868606
27	0xbdb80b0c	-0.08986482
28	0xbc7e4ce7	-0.015521265
29	0x3c4a4d33	0.012347507
30	0x3ceb17de	0.028697904
31	0x3b836768	0.0040101297
32	0x3dd3ad91	0.103358395
33	0x3c838e7b	0.01605915
34	0x3d29cb9c	0.041453943
35	0xbc3e4de4	-0.01161525
36	0xbd6a760b	-0.05724148
37	0xbd1a50ea	-0.037674822
38	0x3dbfc734	0.09364167
39	0x3d39166a	0.04518739
40	0x3c5cc0eb	0.01347373
41	0xbd1fe6bd	-0.03903841
42	0xbcc06898	-0.023487374
43	0x3c97d040	0.018531919
44	0x3da13310	0.078710675
45	0xbc1c13de	-0.009526221
46	0xbdafd311	-0.085851796
47	0x3c89004f	0.01672378
48	0xbd5a174d	-0.053244878
49	0xbca9d34d	-0.020730639
50	0xbdbb401e	-0.09143089
51	0x3d5f2c43	0.05448557
52	0x3d880b3c	0.06642768
53	0xbc0be799	-0.008539104
54	0x3d54b5a1	0.051931027
55	0xbd8f4e1c	-0.0699732
56	0xbd8b4900	-0.06801033
57	0x3d53f872	0.051750608
58	0xbd7cda25	-0.061731476
59	0xbd80f61c	-0.06296942
60	0x3d60aaac	0.054850265
61	0xbddf7e60	-0.10912776
62	0xbc85d5c2	-0.01633728
63	0xbca9d18a	-0.020729799
64	0x3d7fc283	0.06244136
65	0x3d04535d	0.032306064
66	0xbd6623aa	-0.056186356
67	0xbd25e7d8	-0.040504307
68	0x3d5cb276	0.05388113
69	0x3d429830	0.04750842
70	0x3bc7d93b	0.006098894
71	0xbc928bed	-0.017888987
72	0x3cb5f51a	0.0222116
73	0xbb5a4c4c	-0.0033309637
74	0xbd9b6fb8	-0.07589668
75	0xbd31b3a6	-0.043384217
76	0x3d21d9a2	0.03951419
77	0x3d168ee0	0.03675735
78	0xbda2d800	-0.07951355
79	0xbd34e51c	-0.04416381
80	0xbdb748af	-0.0894941
81	0xbbfadbe7	-0.007655609
82	0x3c534f20	0.012897283
83	0xbbaedf9b	-0.0053367144
84	0xbd1e529b	-0.038652997
85	0x3c04b8d1	0.008100704
86	0x3df0c3d0	0.11756098
87	0x3a20ca7b	0.00061336876
88	0x3c4b4c2e	0.012408299
89	0xbcb07fb6	-0.021545272
90	0x3cee2bde	0.029073652
91	0xbde9d79d	-0.11418078
92	0x3d63a7ec	0.055580065
93	0xbd27257b	-0.04080723
94	0xbd750232	-0.059816547
95	0xbd4f7d76	-0.05065676
96	0x3db49141	0.088167675
97	0xbc09925b	-0.00839671
98	0x3d20623c	0.039156184
99	0x3d777701	0.060416225
100	0x3dd07ae2	0.10179688
101	0x3c5facc1	0.013652028
102	0x3c96b9d7	0.018399162
103	0x3dad9032	0.08474769
104	0x3dcbe780	0.099562645
105	0x3d6216f2	0.055197664
106	0x3d661dac	0.05618064
107	0x3d166d36	0.036725245
108	0xbd006256	-0.03134378
109	0x3c81a096	0.015823644
110	0x3cb6f509	0.022333639
111	0x3cd02038	0.025405988
112	0xbd8ca1fa	-0.06866832
113	0x3cba0efe	0.022712227
114	0xbd6ae38b	-0.057345908
115	0xbcdfe033	-0.027328586
116	0xbc990fe6	-0.018684339
117	0x3dae6f2a	0.085172966
118	0x3dba13e4	0.09085825
119	0xbd9298b4	-0.07158032
120	0xbd343595	-0.043996412
121	0x3d7b27ff	0.06131744
122	0xbd12e07d	-0.03585862
123	0xbd6d4ccf	-0.05793458
124	0x3d662de6	0.056196116
125	0x3dd8fc4b	0.10594996
126	0xbd55e078	-0.052216023
127	0xbd04c944	-0.032418504
128	0x3dc53461	0.09629131
129	0xbc60ef05	-0.013728862
130	0xbdb26c11	-0.08712018
131	0x3d28cb7f	0.041209694
132	0x3d90883f	0.07057237
133	0xbd911473	-0.070839785
134	0xbd3b3027	-0.04570022
135	0x3b49e0ec	0.003080423
136	0xbda79841	-0.08183337
137	0xbcf10a98	-0.029423997
138	0x3bfd78a7	0.00773533
139	0x3cee9fa4	0.029128857
140	0xbd85ca80	-0.065327644
141	0xbca143ab	-0.019685587
142	0xbd69ed43	-0.057111036
143	0xbd79190d	-0.060814906
144	0x3bde577c	0.0067853313
145	0xbcca2144	-0.024674065
146	0x3d1895cc	0.037252232
147	0xbcc18610	-0.023623496
148	0x3dc53fa2	0.096312776
149	0xbd2042e8	-0.039126307
150	0x3da7f47c	0.082009286
151	0xbda03293	-0.07822146
152	0x3d804ad4	0.06264272
153	0x3d5bda63	0.053675067
154	0x3d2a426b	0.041567247
155	0x3d999d0e	0.07500659
156	0x3d4ec660	0.050482154
157	0xbd9bb635	-0.076031126
158	0xbc480097	-0.012207172
159	0x3dd8aad2	0.105794564
160	0x3ca9e88f	0.020740775
161	0xbd6efa35	-0.058344085
162	0x3c640a32	0.013918446
163	0x3cb573d1	0.022149952
164	0x3dcd248d	0.10016737
165	0x3db89a43	0.09013798
166	0xbd6902b6	-0.05688735
167	0x3cffb641	0.031214835
168	0x3ba5cdb6	0.005059923
169	0xbd363bd7	-0.04449066
170	0x3da16e02	0.078823105
171	0xbd5246b5	-0.051336963
172	0x3d7af3bf	0.06126761
173	0xbc7101a2	-0.014709862
174	0xbbc23ee6	-0.0059279082
175	0x3d0e4405	0.034732837
176	0xbda22510	-0.07917225
177	0xbd13eaec	-0.03611271
178	0xbdc765c3	-0.097362064
179	0x3ba7b838	0.005118396
180	0x3d51bd4c	0.05120592
181	0xbdc32517	-0.09528559
182	0xbcfe7f99	-0.031066703
183	0xbd0fc3c8	-0.03509882
184	0x3c3b8f48	0.011447735
185	0x3d695676	0.05696722
186	0x3dbe7aaa	0.0930074
187	0xbc7fa46f	-0.015603169
188	0xbd2ec5fd	-0.042669285
189	0x3dbbfca4	0.09179047
190	0xbd4d3ae6	-0.050104998
191	0x3c07dc4b	0.008292268
192	0xbc2b27aa	-0.010446468
193	0x3d4de6ed	0.050269056
194	0x3db14aec	0.08656868
195	0xbdca5cd0	-0.09880984
196	0x3d3e540e	0.04646688
197	0xbd99f6d5	-0.075177826
198	0x3cddd37d	0.027078385
199	0xbce7fdd8	-0.028319284
200	0xbc3027d3	-0.010751682
201	0xbcfeddd6	-0.031111639
202	0xbdbb7668	-0.091534436
203	0x3ce5a85f	0.028034387
204	0xbc99bdea	-0.018767316
205	0xbd21123f	-0.03932404
206	0x3db079bb	0.08616968
207	0xbc8e0523	-0.017336434
208	0xbd228c03	-0.039684307
209	0xbd085605	-0.03328516
210	0x3d380338	0.044924945
211	0x3bf17632	0.0073688263
212	0xbb8a4849	-0.004220043
213	0xbd733d64	-0.05938472
214	0xbdd00674	-0.10157481
215	0xbdc3468e	-0.095349416
216	0xbcfc3eb3	-0.030791616
217	0x3d859db5	0.06524221
218	0x3d8fa301	0.070135124
219	0xbce377ee	-0.027767148
220	0x3dae501d	0.08511374
221	0xbdcdbfa4	-0.10046318
222	0xbd827d18	-0.06371516
223	0x3c602e7a	0.013682956
224	0xbcc08a10	-0.023503333
225	0xbd8db0f2	-0.06918515
226	0x3cbd6087	0.023117317
227	0xbd3bf45b	-0.045887332
228	0x3d22c3e5	0.0397376
229	0x3d9e3781	0.0772543
230	0xbbbd1a5e	-0.0057709655
231	0xbd8a95fc	-0.067668885
232	0xbd59749a	-0.053089716
233	0x3d4f3f7c	0.050597653
234	0xbcd61b36	-0.026136022
235	0xbcec9bd8	-0.028882906
236	0x3b7677fd	0.003760814
237	0xbdccb244	-0.09994939
238	0xbdf43d13	-0.119257115
239	0xbc88f39b	-0.016717723
240	0x3da1b484	0.07895759
241	0x3cbf57d8	0.023357317
242	0x3d90d359	0.07071561
243	0xbde621f9	-0.112369485
244	0xbd2bb001	-0.041915897
245	0x3cbd0626	0.02307422
246	0xbd705ec4	-0.058684126
247	0xbdcea07f	-0.10089206
248	0x3d94f687	0.07273584
249	0xbd458073	-0.0482182
250	0xbda632af	-0.08115136
251	0x3d10d456	0.03535875
252	0xbdeae0b0	-0.11468637
253	0x3dcdb8b9	0.10044999
254	0x3c12facd	0.008970928
255	0x3d145687	0.03621533

conv2.bias f4 [64]
0	0xb93fe819	-0.00018301643
1	0xb7acc854	-2.0597283e-05
2	0x38b4a3ca	8.613577e-05
3	0x37d92cf2	2.5889345e-05
4	0xb86f7897	-5.709435e-05
5	0x3906d3a7	0.00012858082
6	0x385b9dd0	5.2360643e-05
7	0xb797cbde	-1.8095536e-05
8	0x39343444	0.00017185608
9	0x390d6af1	0.00013486647
10	0x382756ec	3.9896855e-05
11	0xb85819e6	-5.1522533e-05
12	0x37977499	1.8054898e-05
13	0xb8ae637b	-8.315496e-05
14	0xb8e006cd	-0.00010682419
15	0xb80996aa	-3.2803662e-05
16	0x37eb9e79	2.8087978e-05
17	0xb9078696	-0.0001292474
18	0x39857d71	0.00025461198
19	0x3928f6de	0.00016113694
20	0x38649eae	5.4507218e-05
21	0xb8e70dfa	-0.00011017542
22	0xb8be1e99	-9.065605e-05
23	0xb83a7d57	-4.4462588e-05
24	0xb8d72e7c	-0.00010260657
25	0xb8addb8f	-8.290179e-05
26	0xb8b137e1	-8.450426e-05
27	0xb8d7ee84	-0.00010296426
28	0x3a0166c3	0.0004936272
29	0x37c0dac0	2.2990047e-05
30	0x3a25ee85	0.00063297927
31	0x3831e80c	4.24162e-05
32	0x382fa6ad	4.187848e-05
33	0x392ed971	0.00016674936
34	0xb9665ee6	-0.00021969862
35	0x380b1cc8	3.3166987e-05
36	0xb99c15aa	-0.0002977078
37	0x3a6735c0	0.000881996
38	0xb84e5a6e	-4.9198447e-05
39	0x37b586b8	2.1639615e-05
40	0x38ec6dae	0.000112737864
41	0x380c04fb	3.338324e-05
42	0xb8081b74	-3.2450494e-05
43	0x39399414	0.00017698138
44	0xb93ff7f3	-0.00018307548
45	0xb9544dbc	-0.00020246854
46	0x39b036e1	0.00033610224
47	0xb90491cc	-0.00012642815
48	0x389472c7	7.078569e-05
49	0xb9e59016	-0.00043785636
50	0x383ba869	4.474112e-05
51	0xb72477ab	-9.803024e-06
52	0x38a24437	7.737468e-05
53	0xb8f187da	-0.0001151708
54	0x37e9244e	2.779267e-05
55	0xb916938b	-0.00014360079
56	0xb7bc7b10	-2.2468652e-05
57	0xb8549780	-5.0685834e-05
58	0x3612f65c	2.1899095e-06
59	0x381e482b	3.7737347e-05
60	0xb9e2da72	-0.00043268834
61	0x37f8ec90	2.9674062e-05
62	0xb7d01054	-2.4803136e-05
63	0xb88e91bb	-6.798232e-05

conv2.lin.weight f4 [64, 64]
0	0x3d556cdc	0.05210577
1	0xbe23ff71	-0.16015412
2	0x3c9c67d9	0.019092487
3	0x3e1b40d3	0.15161447
4	0x3dd4becf	0.10387956
5	0x3e216345	0.15760525
6	0x3e206bbb	0.15666096
7	0x3db33282	0.08749868
8	0x3d174388	0.036929637
9	0x3e343c28	0.17601073
10	0xbdcb7f61	-0.09936405
11	0xbddc8957	-0.10768383
12	0xbe397681	-0.18111612
13	0xbd29f48c	-0.041492984
14	0xbc78465b	-0.015153493
15	0x3e766b59	0.24064387
16	0xbe42c520	-0.1902051
17	0xbcf156da	-0.02946036
18	0x3dd05769	0.10172922
19	0x3dd28b4b	0.10280474
20	0x3e86ee03	0.26353464
21	0xbd5185ae	-0.051152878
22	0xbe2fd18c	-0.1716978
23	0xbcf6ac1d	-0.030111367
24	0x3da1d5c2	0.07902099
25	0x3e37647c	0.17909425
26	0x3db1b87f	0.08677768
27	0xbe260863	-0.16214137
28	0xbd76a0f3	-0.060212087
29	0x3e19c708	0.1501733
30	0xbb850c49	-0.0040603024
31	0xbcdeba1a	-0.02718835
32	0x3dd88a82	0.10573293
33	0xbd6a4a57	-0.057199802
34	0x3d95fc73	0.073235415
35	0xbd65ff3b	-0.05615161
36	0x3d239a98	0.039942354
37	0x3cf20a0c	0.029545806
38	0x3e1fa5e3	0.15590625
39	0x3ddd54cb	0.108071886
40	0xbe076f4e	-0.13226053
41	0x3ddd1803	0.107955955
42	0x3d1aae15	0.037763674
43	0x3d9dda31	0.07707632
44	0x3e09eb2b	0.13468616
45	0xbde0229d	-0.10944102
46	0x3e1769a7	0.14786397
47	0x3d3e9b5f	0.046534892
48	0x3db26ad7	0.08711784
49	0x3dcd2271	0.10016335
50	0xbe23f4e3	-0.16011386
51	0xbda86899	-0.082230754
52	0xbb9579c3	-0.0045616343
53	0x3db036d6	0.08604209
54	0xbdb642fd	-0.08899496
55	0x3d8074d1	0.06272281
56	0xbd2f5e50	-0.042814553
57	0x3e405a01	0.18784334
58	0x3de840ca	0.113404825
59	0xbdfa5c79	-0.12224669
60	0x3dd7e6c8	0.10542065
61	0x3dbd8de8	0.09255582
62	0x3e8bf516	0.27335423
63	0x3e079aef	0.13242696
64	0x3e07ce77	0.13262354
65	0x3e31649a	0.17323533
66	0xbdcebf16	-0.100950405
67	0x3e361cb6	0.1778439
68	0xbe2b414c	-0.16724128
69	0xbdcd3ab5	-0.10020963
70	0x3dfb3763	0.122664236
71	0xbdbe9c9e	-0.09307216
72	0xbdac0365	-0.08399085
73	0xbe272bc6	-0.16325292
74	0x3e6d15a8	0.23152792
75	0x3e3eabd1	0.1862023
76	0x3d7a2691	0.061071936
77	0xbe84851f	-0.25882813
78	0x3e235ada	0.15952626
79	0xbe63d08c	-0.22247523
80	0x3d15bd7d	0.036557663
81	0xbe40606d	-0.18786784
82	0x3b36031b	0.0027772847
83	0xbd972b36	-0.07381289
84	0xbe064b7d	-0.13114734
85	0x3dcec0ce	0.10095368
86	0xbe369ce9	-0.17833294
87	0x3d8bde29	0.06829483
88	0xbe210338	-0.15723884
89	0x3d593abb	0.053034525
90	0xbd6e9e6b	-0.058256548
91	0xbc998a3d	-0.018742675
92	0x3ba249d7	0.00495265
93	0xbe79b59f	-0.24385689
94	0x3c3a6d37	0.011378578
95	0x3dd1f14b	0.10251101
96	0xbcc33541	-0.023829104
97	0x3d8d4324	0.06897572
98	0x3d8bfc95	0.068352856
99	0xbe6f9cce	-0.2339966
100	0xbda2eae0	-0.07954955
101	0xbd95d753	-0.073164605
102	0x3e4b1dee	0.19835636
103	0xbc51f742	-0.0128152985
104	0x3e2e8490	0.17042756
105	0x3c403733	0.0117319105
106	0xbd7e6d0e	-0.06211572
107	0x3b915720	0.004435435
108	0x3cd52799	0.026019858
109	0xbe06eddc	-0.13176674
110	0x3e147a43	0.14499764
111	0xbd78fdf1	-0.060789052
112	0x3ddaa2f4	0.10675612
113	0xbd857650	-0.06516707
114	0xbbc68d44	-0.0060593206
115	0xbe43d0da	-0.1912264
116	0xbd2138c7	-0.039360788
117	0xbd1bed69	-0.03806821
118	0x3dfa2c1f	0.12215447
119	0xbc2320de	-0.009956567
120	0x3defe82c	0.11714205
121	0xbdbccaf6	-0.09218399
122	0xbd32be53	-0.04363854
123	0xbcde7f42	-0.02716029
124	0x3e08c5c5	0.13356693
125	0xbd942327	-0.07233267
126	0xbe0acd96	-0.13554987
127	0xbcdf6e09	-0.027274149
128	0x3be606cb	0.0070198528
129	0x3cee22a9	0.029069262
130	0x3e11fba7	0.14256154
131	0x3df273a2	0.118384615
132	0xbdc8d8b2	-0.09806956
133	0x3ddc39ae	0.10753189
134	0xbd962aca	-0.0733238
135	0x3d884c7d	0.06655214
136	0xbc9c36a1	-0.019069018
137	0xbdb621d5	-0.08893172
138	0xbe08fbc5	-0.13377292
139	0xbdddaf0e	-0.10824405
140	0xbcb4037a	-0.021974314
141	0x3c6ebd74	0.014571536
142	0xbd500866	-0.05078926
143	0x3e5adedf	0.21374081
144	0xbe251a5c	-0.16123337
145	0xbd9cd545	-0.076578654
146	0xbdf9f1d5	-0.12204329
147	0x3dcee4aa	0.10102208
148	0x3c3b766f	0.011441811
149	0xbe5754f3	-0.210285
150	0x3e0e8b6f	0.13920377
151	0x3de0788d	0.10960493
152	0x3dce0e8d	0.10061369
153	0x3e552398	0.20814359
154	0xbb833eeb	-0.004005303
155	0xbe2def8e	-0.16985914
156	0xbdd2d81f	-0.10295128
157	0x3cafa95f	0.021443067
158	0x3e5299d0	0.20566487
159	0xbe16f451	-0.14741637
160	0xbddbc8d1	-0.10731662
161	0x3dac983e	0.084274754
162	0xbe76ab63	-0.24088816
163	0x3e5f39df	0.2179942
164	0x3cd535e1	0.026026668
165	0xbde2a281	-0.110661514
166	0xbddef7dd	-0.1088712
167	0x3d73fe71	0.059568826
168	0x3d8beed4	0.06832662
169	0x3e16eb02	0.14738086
170	0x3e56afe6	0.20965537
171	0xbd114aba	-0.035471655
172	0x3e883e63	0.26610097
173	0x3d7b6620	0.06137669
174	0x3dd8a708	0.10578734
175	0x3d687677	0.056753602
176	0x3ca6687c	0.020313494
177	0x3e269ed2	0.16271523
178	0xbe46be79	-0.19408597
179	0xbe2d3f0c	-0.16918582
180	0xbdd6c1e9	-0.10486204
181	0x3d315087	0.043289687
182	0xbe05962b	-0.13045566
183	0x3e81d538	0.25357985
184	0xbda60ad9	-0.08107538
185	0x3de7f7c1	0.11326552
186	0x3dcb7c50	0.0993582
187	0x3dbbfdff	0.09179305
188	0xbd8e3eeb	-0.069455944
189	0xbd239335	-0.03993531
190	0x3e8374fc	0.2567519
191	0xbdb5e2c7	-0.08881145
192	0xbe5d0f55	-0.2158788
193	0x3cfebfaa	0.031097252
194	0xbde10600	-0.109874725
195	0xbe82cb96	-0.2554595
196	0x3deb7499	0.114968486
197	0x3dd95f78	0.10613912
198	0x3e4e2890	0.20132661
199	0x3e4f31b9	0.20233811
200	0xbcbf61e3	-0.023362106
201	0x3d46165d	0.04836117
202	0xbdcdcc2b	-0.100487076
203	0x3dba494b	0.09096011
204	0xbd7f531f	-0.06233513
205	0xbd7bfaa8	-0.06151834
206	0xbe1fbfb9	-0.1560048
207	0x3e4fafe0	0.20281935
208	0xbc121997	-0.008917234
209	0x3e4ab377	0.19795023
210	0xbe007aec	-0.12546891
211	0x3dc6403e	0.09680222
212	0xbda4e33e	-0.080511555
213	0x3cb91842	0.022594575
214	0x3df5c141	0.11999751
215	0x3d9b56bf	0.07584905
216	0xbbe099c2	-0.006854267
217	0x3d9eb5fb	0.07749554
218	0x3e45f1fe	0.19330594
219	0x3daebb80	0.085318565
220	0x3deb4754	0.11488214
221	0xbe34f4c0	-0.1767149
222	0xbdb36d8f	-0.08761131
223	0xbe699a54	-0.22812778
224	0x3d3cf71f	0.04613411
225	0x3ddf887c	0.10914704
226	0x3d88a49c	0.06672022
227	0x3d06f0bb	0.032944422
228	0x3d05bc73	0.032650422
229	0xbe86d177	-0.26331684
230	0x3de40743	0.111341976
231	0x3dc8c137	0.09802478
232	0x3e022650	0.12709928
233	0x3e0af23c	0.13568968
234	0xbdf3a05d	-0.11895821
235	0xba33cf4e	-0.0006859199
236	0x3d7cdf01	0.06173611
237	0xbd760a42	-0.060068376
238	0xbe8724af	-0.26395175
239	0xbe253dc7	-0.16136847
240	0x3daa6549	0.083201
241	0x3c646af2	0.013941513
242	0xbd46e0f5	-0.04855438
243	0x3dbdff1a	0.092771724
244	0xbe85641c	-0.2605294
245	0x3e6a6174	0.22888738
246	0x3e102e82	0.14080241
247	0x3e0d5759	0.13802852
248	0xbd4da5fb	-0.05020712
249	0xbd89d2d0	-0.067296624
250	0x3d0a7f66	0.033812903
251	0x3e0c9927	0.13730298
252	0x3de00a37	0.10939448
253	0x3e25b958	0.16183984
254	0xbe7e5f3a	-0.24841014
255	0xbd522d9c	-0.051313028

bn1.weight f4 [64]
0	0x3f86e9f7	1.054015
1	0x3f8515f2	1.0397322
2	0x3f82f3d9	1.0230666
3	0x3f7a60bc	0.97803855
4	0x3f81e52b	1.0148062
5	0x3f8071a3	1.0034679
6	0x3f76e33c	0.9644048
7	0x3f775026	0.9660667
8	0x3f6e00da	0.9297005
9	0x3f6ebd2d	0.9325741
10	0x3f72855a	0.9473473
11	0x3f74d731	0.95640856
12	0x3f6c3072	0.9226142
13	0x3f872c97	1.0560483
14	0x3f795920	0.9740162
15	0x3f7b32e9	0.9812456
16	0x3f8125ad	1.0089623
17	0x3f71d456	0.94464624
18	0x3f74e4b8	0.956615
19	0x3f6eec25	0.9332908
20	0x3f7cb7c5	0.9871791
21	0x3f84e470	1.0382214
22	0x3f7a4819	0.9776626
23	0x3f72bb81	0.9481736
24	0x3f889233	1.0669616
25	0x3f871fd9	1.0556594
26	0x3f72c513	0.9483196
27	0x3f711b06	0.9418186
28	0x3f705a9a	0.93888247
29	0x3f7f73f6	0.9978632
30	0x3f8830f3	1.0639938
31	0x3f6d9194	0.9280026
32	0x3f72c148	0.94826174
33	0x3f78a2f4	0.97123647
34	0x3f827026	1.0190475
35	0x3f8910b3	1.0708221
36	0x3f863aaa	1.0486653
37	0x3f88bf40	1.0683365
38	0x3f75e93c	0.9605901
39	0x3f80b226	1.0054367
40	0x3f76b675	0.9637216
41	0x3f81ab65	1.013043
42	0x3f85915a	1.0434983
43	0x3f88b5ba	1.0680459
44	0x3f741c7a	0.9535595
45	0x3f73356b	0.95003384
46	0x3f82f8b4	1.0232148
47	0x3f79d101	0.9758454
48	0x3f7ce966	0.9879364
49	0x3f739be0	0.9515972
50	0x3f854fec	1.0415015
51	0x3f85eeb5	1.0463473
52	0x3f71cc9f	0.9445285
53	0x3f8806b6	1.0627048
54	0x3f786c2e	0.9704007
55	0x3f80c638	1.0060492
56	0x3f71d4ec	0.9446552
57	0x3f860702	1.0470889
58	0x3f8162e1	1.01083
59	0x3f7c038d	0.9844292
60	0x3f70dd55	0.94087726
61	0x3f877f2b	1.0585684
62	0x3f83ce44	1.0297322
63	0x3f82d631	1.0221616

bn1.bias f4 [64]
0	0x3d0bd5c2	0.034139402
1	0x3cfbc776	0.030734759
2	0xba8832ad	-0.0010391079
3	0xbc6f0502	-0.014588596
4	0xbadded77	-0.0016931732
5	0x3c6b8cf9	0.014376872
6	0xbd13678d	-0.035987426
7	0xbd113a77	-0.035456147
8	0xbd89f0ec	-0.06735405
9	0xbd6bfa31	-0.057611648
10	0xbd633458	-0.05546984
11	0xbd0c5387	-0.034259345
12	0xbd5a7d9e	-0.053342454
13	0x3d53d6c7	0.0517185
14	0xbd217745	-0.039420385
15	0xbd321e73	-0.04348607
16	0x3ca5605f	0.020187555
17	0xbd84be1a	-0.064815715
18	0xbc488975	-0.012239804
19	0xbd2dcd7b	-0.04243229
20	0xbc11c134	-0.008896161
21	0x3c002e72	0.007823573
22	0xba353d58	-0.0006913743
23	0xbd053511	-0.03252131
24	0x3d771e15	0.060331423
25	0x3d45e3d8	0.04831299
26	0xbd58f606	-0.052969
27	0xbd775762	-0.06038607
28	0xbd6f90f5	-0.05848785
29	0xbb348ab1	-0.0027548487
30	0x3d4ddb12	0.05025775
31	0xbd737b18	-0.059443563
32	0xbd690495	-0.056889135
33	0xbcc69d0c	-0.024244808
34	0x3be0a179	0.0068551865
35	0x3d655548	0.055989534
36	0x3ce00d52	0.027350102
37	0x3d83e0e0	0.06439376
38	0xbc1f52aa	-0.0097242985
39	0x3c35b2bf	0.01108998
40	0xbcf117eb	-0.02943035
41	0x3bf5ba31	0.0074990024
42	0x3d1f3e7c	0.03887795
43	0x3d4d6418	0.050144285
44	0xbd6993f8	-0.05702588
45	0xbd4c628f	-0.04989868
46	0x3d4bba50	0.04973823
47	0x3b060f94	0.0020456063
48	0xbcdf589f	-0.027263938
49	0xbcf6c169	-0.030121522
50	0x3c5e0ce7	0.013552881
51	0x3cf411b8	0.029793605
52	0xbd6c6cfb	-0.05772112
53	0x3d60e2ed	0.054903913
54	0xbbaa9d14	-0.0052067135
55	0x3ba770b9	0.005109873
56	0xbd38cdc4	-0.04511811
57	0x3c91b3a4	0.017785855
58	0x3d085698	0.033285707
59	0xbb5e1d48	-0.0033891965
60	0xbd4f7676	-0.050650083
61	0x3d26a1a5	0.0406815
62	0xbc8ca110	-0.017166644
63	0x3d1b0b4d	0.037852574

bn1.running_mean f4 [64]
0	0xbf9cae12	-1.2240622
1	0xbc4b4077	-0.012405506
2	0xbfa59d11	-1.2938558
3	0xc03ddea2	-2.9667134
4	0xbf3d2799	-0.73888546
5	0x3e42aea5	0.19011934
6	0x3f7f9a6b	0.99845
7	0xbfe185c6	-1.761895
8	0x3f010429	0.5039697
9	0x3f98e949	1.1946193
10	0xc03002fc	-2.7501822
11	0xc01cec07	-2.451906
12	0x3fc6a42d	1.5518852
13	0x3fda1388	1.703721
14	0x403cb8f7	2.9487894
15	0xbed0fddf	-0.40818688
16	0x4016bd47	2.3553026
17	0x3dd02211	0.10162748
18	0xbf8e093f	-1.1096572
19	0x3fe8a49c	1.8175235
20	0xc031b16f	-2.7764547
21	0x3f87dc87	1.0614175
22	0x402bcf39	2.6845229
23	0xbe89cbfc	-0.2691344
24	0x3ff532f5	1.9156176
25	0xbfdc205e	-1.7197378
26	0x3f668203	0.9004213
27	0xbe164874	-0.14676076
28	0xbff4e01b	-1.9130892
29	0x3d94c303	0.07263758
30	0xc0161276	-2.3448768
31	0xbf83a5e8	-1.0285006
32	0x3fb5347a	1.415664
33	0xbe9d75f4	-0.30754054
34	0x3f4f7c5e	0.81049144
35	0xbfb66fdd	-1.4252888
36	0x3f24cfc6	0.6437954
37	0xc02dc4fd	-2.7151482
38	0x3e61eb4e	0.22062418
39	0x3f0a5918	0.54042196
40	0xc001299e	-2.018165
41	0x3f1fd0ce	0.62427986
42	0xc02c2ef6	-2.6903663
43	0xbf7a05d8	-0.97665167
44	0xc0489aa2	-3.134438
45	0xbf346e5b	-0.7048089
46	0xbfbf5a93	-1.4949516
47	0x40484a34	3.129529
48	0xbfd2461d	-1.6427647
49	0xbf5f55d8	-0.8724036
50	0x402b599a	2.6773438
51	0x4010264a	2.252337
52	0xc07c0767	-3.9379518
53	0xbf1081fe	-0.5644835
54	0xc034245a	-2.8147187
55	0xc04b4915	-3.1763356
56	0x4050ce7e	3.2626033
57	0xbf95ffeb	-1.1718725
58	0xbe7d45d1	-0.24733664
59	0x3f3a7c2d	0.7284573
60	0xc033e96c	-2.811122
61	0x3f104abf	0.56364053
62	0xc05fc796	-3.4965568
63	0xbe8442fb	-0.25832352

bn1.running_var f4 [64]
0	0x3f564c89	0.83710533
1	0x3f2990cd	0.66236573
2	0x3f55be12	0.8349315
3	0x3f183155	0.59450275
4	0x3f3dc44e	0.7412766
5	0x3f2fd70d	0.68687516
6	0x3f454259	0.77054363
7	0x3f4cd207	0.80007976
8	0x3f0cb4dd	0.54963475
9	0x3f22f3e7	0.63653415
10	0x3f4713d4	0.7776463
11	0x3f808bd7	1.0042676
12	0x3f48f052	0.784917
13	0x3f4dfbb0	0.8046217
14	0x3f4a285a	0.7896782
15	0x3f331368	0.69951487
16	0x3f09e788	0.53868914
17	0x3f31840d	0.6934212
18	0x3f1e67de	0.6187724
19	0x3f483765	0.78209525
20	0x3f31f9c2	0.69521725
21	0x3f4b29bb	0.7936055
22	0x3f102564	0.56307054
23	0x3f87371f	1.0563697
24	0x3f3a690f	0.72816557
25	0x3f0ba241	0.54544455
26	0x3f4ce456	0.80035913
27	0x3f5291ef	0.82253927
28	0x3ee5d119	0.4488609
29	0x3f5b1d77	0.85591835
30	0x3f365264	0.7121947
31	0x3f32f630	0.699069
32	0x3f55ee03	0.835663
33	0x3f4b7b14	0.7948468
34	0x3f3ca575	0.7368997
35	0x3f809353	1.004496
36	0x3f33cb12	0.70231736
37	0x3f21bd80	0.6317978
38	0x3f5e0b83	0.86736315
39	0x3f7f9feb	0.9985339
40	0x3f8800fe	1.0625303
41	0x3f56a6ff	0.83848566
42	0x3fa43dc3	1.2831348
43	0x3f1601ba	0.58596385
44	0x3f4710bd	0.77759916
45	0x3f88cd61	1.0687677
46	0x3f36939d	0.7131899
47	0x3f2357dc	0.6380594
48	0x3f5f04c1	0.8711663
49	0x3f802b64	1.0013242
50	0x3f4911ac	0.7854259
51	0x3f4c868e	0.79892814
52	0x3f3e1621	0.74252516
53	0x3f20bb70	0.62786007
54	0x3f59a07e	0.85010517
55	0x3f7e72c3	0.9939386
56	0x3f210ad1	0.6290713
57	0x3f69b189	0.9128652
58	0x3f7c452a	0.98543036
59	0x3f4149c7	0.755032
60	0x3f05728a	0.521279
61	0x3f98721a	1.1909821
62	0x3f98926d	1.1919686
63	0x3f5219d4	0.8207066

bn2.weight f4 [64]
0	0x3f6b7edc	0.9199045
1	0x3f8229d5	1.0169016
2	0x3f71503a	0.9426304
3	0x3f8b0e98	1.0863829
4	0x3f6995dd	0.912443
5	0x3f893503	1.0719303
6	0x3f6bc3a5	0.92095405
7	0x3f6afb0f	0.91789335
8	0x3f72fa5a	0.94913256
9	0x3f6cac22	0.92450154
10	0x3f69c00b	0.9130866
11	0x3f6a9d50	0.9164629
12	0x3f76e195	0.9643796
13	0x3f87dd0a	1.0614331
14	0x3f6e3b4c	0.9305923
15	0x3f88b579	1.0680381
16	0x3f83b2eb	1.0288976
17	0x3f88dd4e	1.0692537
18	0x3f894882	1.0725253
19	0x3f77d25b	0.9680535
20	0x3f8a8aa6	1.0823562
21	0x3f6ec6c6	0.93272054
22	0x3f8bd6f3	1.0924972
23	0x3f7a68ab	0.9781596
24	0x3f697f23	0.9120962
25	0x3f6ded39	0.929401
26	0x3f8d0011	1.1015645
27	0x3f8b60ff	1.0888976
28	0x3f6bcf70	0.921134
29	0x3f69ece8	0.91377115
30	0x3f6c6efd	0.92356855
31	0x3f6c10e3	0.9221327
32	0x3f82f193	1.0229973
33	0x3f65031c	0.8945787
34	0x3f89c96d	1.0764595
35	0x3f89dd28	1.0770617
36	0x3f6b281a	0.91858065
37	0x3f6d1908	0.9261632
38	0x3f87dddb	1.061458
39	0x3f766176	0.96242464
40	0x3f6b7384	0.9197314
41	0x3f738a6f	0.9513311
42	0x3f89b8b3	1.0759491
43	0x3f8c0c82	1.0941317
44	0x3f7f8bd4	0.99822736
45	0x3f8bad97	1.091235
46	0x3f6b1990	0.9183588
47	0x3f681271	0.9065314
48	0x3f839980	1.028122
49	0x3f892e65	1.0717283
50	0x3f6e0b7f	0.9298629
51	0x3f83f2ca	1.0308468
52	0x3f876cf9	1.0580131
53	0x3f8974e6	1.07388
54	0x3f8b099b	1.0862306
55	0x3f75f5c2	0.9607812
56	0x3f840c35	1.0316225
57	0x3f6ed95b	0.9330041
58	0x3f8be86c	1.0930305
59	0x3f75ac8a	0.959664
60	0x3f6b9ad6	0.92033136
61	0x3f6d3424	0.92657685
62	0x3f6c6861	0.9234677
63	0x3f8168f3	1.0110153

bn2.bias f4 [64]
0	0xbd9b7626	-0.075908944
1	0xbce4160e	-0.027842548
2	0xbd136f5e	-0.03599488
3	0x3dad8aba	0.084737256
4	0xbda16fc0	-0.07882643
5	0x3da6f5a2	0.081523195
6	0xbda074dc	-0.07834789
7	0xbd4a79d4	-0.04943259
8	0xbd5d7dc1	-0.054075006
9	0xbd957587	-0.07297807
10	0xbd8e03e1	-0.069343336
11	0xbda3b5ed	-0.07993684
12	0xbd000fa9	-0.031264935
13	0x3d50c38d	0.05096774
14	0xbd889bad	-0.06670318
15	0x3c399dd7	0.011329136
16	0xbc4899f4	-0.012243737
17	0x3d1e24bc	0.03860925
18	0x3d007660	0.03136289
19	0xbda9c050	-0.08288634
20	0x3dbb632f	0.09149777
21	0xbdb3a165	-0.08771018
22	0x3dc11cf4	0.094293505
23	0xbd1f6b7d	-0.03892087
24	0xbdaec265	-0.085331716
25	0xbd7fb667	-0.06242981
26	0x3d896870	0.06709373
27	0x3dbd9cc2	0.09258415
28	0xbd8df3ce	-0.06931268
29	0xbda0e39d	-0.07855914
30	0xbdfcac1d	-0.123375155
31	0xbd92c16b	-0.07165798
32	0x3bd70cbb	0.006562797
33	0xbdbebaf9	-0.09313006
34	0x3dbb2977	0.09138768
35	0x3da30fd2	0.07962002
36	0xbd9e90cb	-0.07742461
37	0xbd8e07f0	-0.06935108
38	0x3d77108d	0.06031852
39	0xbccfaccb	-0.025350949
40	0xbd96425e	-0.07336877
41	0xbd8b46cf	-0.06800615
42	0x3da0cb2e	0.078512534
43	0x3d800ce0	0.06252456
44	0xb9b0b2d1	-0.00033702565
45	0x3dd19b44	0.10234693
46	0xbda6d686	-0.08146386
47	0xbdb01de0	-0.08599448
48	0xbd49f1ce	-0.04930287
49	0x3d8e2895	0.06941334
50	0xbd8a219a	-0.0674469
51	0x3d60086e	0.05469554
52	0x3d6d94ea	0.058003344
53	0x3db5255e	0.08845018
54	0x3dcaf3a7	0.09909754
55	0xbcf2a8a1	-0.029621424
56	0x3d5277ee	0.051383905
57	0xbd847c18	-0.064689815
58	0x3da4ed68	0.08053094
59	0x3dab0de1	0.083522566
60	0xbdc8e724	-0.098097116
61	0xbd73fb06	-0.059565566
62	0xbdba7cdd	-0.09105847
63	0xbd922425	-0.071358

bn2.running_mean f4 [64]
0	0x3f6dbf74	0.9287026
1	0xbecc73bc	-0.39932048
2	0x3ed87281	0.4227486
3	0x3e5b5c32	0.21421888
4	0x3ddf0381	0.1088934
5	0xbf051d11	-0.51997477
6	0xbf1171f4	-0.56814504
7	0xbe35286e	-0.17691204
8	0xbec186e9	-0.3779824
9	0x3ee9b1f7	0.4564359
10	0x3bf3ca15	0.0074398615
11	0x3d2c89f0	0.042123735
12	0x3ee06176	0.43824357
13	0x3f291642	0.6604959
14	0x3ed48e1a	0.41514665
15	0x3d3b51be	0.045732252
16	0x3ee0e41c	0.43924034
17	0x3f09d450	0.5383959
18	0x3f4bd0cc	0.79615474
19	0xbf2a088b	-0.66419286
20	0xbf0acf0c	-0.5422218
21	0x3f0063d3	0.5015232
22	0xbdcf4694	-0.101208836
23	0xbd61ac7d	-0.05509614
24	0xbea7188d	-0.32635918
25	0x3f4b3232	0.79373467
26	0x3f492a6b	0.7858035
27	0x3f2b47f2	0.66906655
28	0xbf33160b	-0.6995551
29	0xbdeec105	-0.11657909
30	0xbed5b45a	-0.4173916
31	0x3f8a05ba	1.0782998
32	0x3ee7bab5	0.45259634
33	0xbe92766b	-0.2860597
34	0x3ef8ee72	0.4861942
35	0x3f5d6464	0.8648131
36	0x3f326a3f	0.6969337
37	0x3f3d634a	0.7397963
38	0x3dd6f81a	0.1049654
39	0x3f56ee49	0.83957344
40	0x3f90dbc0	1.1317062
41	0x3f87a79f	1.0598029
42	0x3d8bd2a7	0.06827288
43	0x3f16eaa3	0.5895178
44	0x3f21cea1	0.63205916
45	0xbe41270f	-0.18862556
46	0xbf25c94b	-0.64760274
47	0x3f4867aa	0.7828318
48	0x3d8df7f0	0.06932056
49	0x3f80f433	1.0074524
50	0x3dc60b20	0.09670091
51	0xbc65291e	-0.013986854
52	0xbe881f35	-0.2658631
53	0xbf4f0aa5	-0.8087562
54	0x3d051668	0.03249207
55	0xbe855fa9	-0.26049545
56	0x3cc726ff	0.024310587
57	0x3f3022d3	0.6880314
58	0xbd4d2064	-0.05007972
59	0xbe48cb50	-0.19608808
60	0xbf4b34e5	-0.79377586
61	0x3eb3a489	0.35086468
62	0x3df3515b	0.11880752
63	0x3eb41207	0.35170004

bn2.running_var f4 [64]
0	0x3e822c8a	0.25424606
1	0x3f00a3c5	0.5024989
2	0x3ee25722	0.44207102
3	0x3f1feb71	0.6246863
4	0x3ebf0f40	0.37316322
5	0x3eccce29	0.40001038
6	0x3ef975b3	0.4872261
7	0x3e8a7cf0	0.27048445
8	0x3f5ea34d	0.8696793
9	0x3efa908c	0.48938406
10	0x3eaff65e	0.3436765
11	0x3efb6f4d	0.49108353
12	0x3ea183df	0.31545922
13	0x3f113fb8	0.5673785
14	0x3f19fa6e	0.6014775
15	0x3f4562e4	0.7710402
16	0x3f0496ea	0.51792777
17	0x3f2d4e58	0.6769767
18	0x3ea6cd69	0.3257859
19	0x3e892126	0.26783103
20	0x3ee850c3	0.45374116
21	0x3e97ce31	0.296495
22	0x3eca49d3	0.39509448
23	0x3eb12596	0.34598988
24	0x3f5423d9	0.828672
25	0x3ef9be2d	0.48777905
26	0x3f658683	0.89658374
27	0x3f35b702	0.7098237
28	0x3f4ee741	0.80821615
29	0x3f1436c0	0.5789604
30	0x3f1c226e	0.60990036
31	0x3f0cd1a2	0.55007374
32	0x3f17117e	0.59011066
33	0x3ebeb906	0.37250537
34	0x3eeac249	0.45851353
35	0x3edd3e60	0.4321165
36	0x3f1cbcbb	0.6122548
37	0x3e56e04f	0.20984004
38	0x3f06d6f2	0.5267173
39	0x3f0d261a	0.55136263
40	0x3f07b060	0.530035
41	0x3ecd6ea7	0.40123484
42	0x3ef0215c	0.4690045
43	0x3f0814ad	0.5315655
44	0x3f4028c1	0.75062186
45	0x3e95c372	0.29250675
46	0x3f110321	0.566454
47	0x3e8749b2	0.26423413
48	0x3ec53bf9	0.38522318
49	0x3f1b113f	0.6057319
50	0x3f036fca	0.5134245
51	0x3f18cb67	0.5968537
52	0x3f0fa2cd	0.5610779
53	0x3f2884e4	0.65827775
54	0x3f27cfb2	0.6555129
55	0x3e8cd6b1	0.27507547
56	0x3ed83c75	0.42233625
57	0x3f1705c4	0.5899317
58	0x3f165c56	0.58734643
59	0x3efe8a26	0.49714774
60	0x3f3bcf7a	0.7336346
61	0x3f1a0a02	0.6017152
62	0x3eaaeba6	0.3338291
63	0x3ef25971	0.47333863

classifier.weight f4 [10, 64]
0	0x3daaec52	0.08345856
1	0x3e16c22b	0.14722507
2	0x3d062634	0.032751277
3	0xb95f888d	-0.00021317806
4	0x3e3beb15	0.18351395
5	0xbbc37523	-0.0059648915
6	0xbe4ad739	-0.19808663
7	0xbe117e34	-0.14208299
8	0x3e591664	0.21199948
9	0xbd4fde74	-0.050749257
10	0xbde3b9ba	-0.11119409
11	0x3e1a491d	0.15066953
12	0xbd367fa5	-0.044555325
13	0x3ced4510	0.028963596
14	0x3cf14ea7	0.02945645
15	0xbde49d52	-0.11162819
16	0xbd1f6e52	-0.03892357
17	0xbdda77bb	-0.10667368
18	0x3e140af9	0.1445731
19	0xbe1d220a	-0.15345016
20	0x3c2b7fff	0.010467528
21	0xbd67e74e	-0.056617074
22	0xbe2c97a5	-0.16854723
23	0xbde68a0e	-0.112568006
24	0xbddb9bd3	-0.107230805
25	0xbde80d65	-0.1133068
26	0x3e2c45fc	0.16823572
27	0xbd8612a4	-0.06546524
28	0x3df5ec27	0.12007933
29	0xbe49d270	-0.19709182
30	0x3d41e62b	0.047338646
31	0xbd4acb55	-0.04951032
32	0xbe3064a2	-0.17225888
33	0x3e023c9c	0.12718433
34	0xbdf15804	-0.11784366
35	0x3c9f65d9	0.019457744
36	0xbd524832	-0.051338382
37	0x3e085334	0.1331299
38	0x3e64af28	0.22332442
39	0xbe3e36a0	-0.18575525
40	0xbdd0ccab	-0.10195287
41	0xbe29b889	-0.16574301
42	0x3da72cc0	0.08162832
43	0xbd703805	-0.058647174
44	0xbb6541ec	-0.003498192
45	0xbd2d2be1	-0.042278174
46	0xbc3a6a4b	-0.011377881
47	0x3dbd2fba	0.09237619
48	0xbca2cecb	-0.019873997
49	0x3ca7f20e	0.020501163
50	0xbd17b05b	-0.03703342
51	0x3b969381	0.0045952206
52	0xbc707623	-0.0146766035
53	0xbd8742be	-0.06604527
54	0xbdd60179	-0.104495
55	0x3a5c0537	0.0008393111
56	0xbc3fd863	-0.011709305
57	0xbce840b9	-0.028351175
58	0xbe427995	-0.18991692
59	0x3e183543	0.14864068
60	0x3d732ddf	0.059369918
61	0xbd795b1e	-0.06087791
62	0xbe057153	-0.13031511
63	0xbe092e83	-0.13396649
64	0xbd648851	-0.055794064
65	0x3c6455a2	0.013936432
66	0xbe3b83f8	-0.18312061
67	0xbe1bbe48	-0.15209305
68	0x3e5e65fc	0.21718591
69	0x3e58669f	0.21132897
70	0xbe39f8f2	-0.18161371
71	0x3d903a75	0.070424
72	0x3dee3e52	0.116329804
73	0x3d0c0653	0.03418572
74	0x3e0c3422	0.13691762
75	0x3e061242	0.13092902
76	0x3cc74f29	0.024329739
77	0xbbc26e60	-0.005933568
78	0xbdfd6218	-0.123722255
79	0xbd36fe7e	-0.044676296
80	0xbd381d87	-0.044950034
81	0xbd1bfcad	-0.038082767
82	0xbc8e7d24	-0.017393656
83	0x3d9e1c03	0.077201866
84	0x3e299742	0.16561607
85	0xbcfa7512	-0.030573402
86	0xbe182e07	-0.14861308
87	0x3c69e2a6	0.014275229
88	0x3d16c004	0.036804214
89	0x3dfc70bb	0.12326189
90	0x3d071754	0.03298123
91	0xbd984712	-0.074354306
92	0x3e6af7a3	0.22946028
93	0xbc4813bc	-0.012211736
94	0xbd82a560	-0.06379199
95	0xbd5e238a	-0.05423311
96	0xbe055704	-0.13021475
97	0x3c90401d	0.017608697
98	0xbcf6ef41	-0.030143382
99	0x3dba9e7a	0.09112258
100	0x3de98c84	0.11403754
101	0x3cd85254	0.026406445
102	0x3e08a600	0.13344574
103	0xbe30bb6a	-0.17258993
104	0xbe04bf9f	-0.12963723
105	0xbdcbb399	-0.09946365
106	0xbe2261f7	-0.15857683
107	0xbb7fb2eb	-0.0039016556
108	0xbd974ff1	-0.073882945
109	0x3c3c3a65	0.011488532
110	0x3d0d3c00	0.03448105
111	0xbcab8585	-0.02093769
112	0xbc1bda27	-0.009512461
113	0xbcc1bd85	-0.02364994
114	0xbe075326	-0.13215312
115	0xbc8137ae	-0.01577362
116	0xbcce8542	-0.025210027
117	0x3d84d6ae	0.064862594
118	0x3ddd9919	0.10820217
119	0x3e284870	0.16433883
120	0x3c79c9a2	0.015245827
121	0x3e39df3a	0.1815156
122	0xbd846124	-0.064638406
123	0x3da3f9df	0.080066435
124	0x3d5330df	0.05156028
125	0x3d8918ab	0.06694158
126	0xbda58e74	-0.080838114
127	0xbc818e55	-0.01581494
128	0x3cd6703d	0.026176566
129	0x3cac108a	0.02100398
130	0x3e192f95	0.14959557
131	0x3d76a6d6	0.0602177
132	0xbe0b7900	-0.13620377
133	0xbdcd451e	-0.10022949
134	0x3bd450f9	0.0064793793
135	0xbe0da409	-0.13832106
136	0xbc4d7543	-0.012540164
137	0x3db7da72	0.08977212
138	0x3d4a3668	0.049368292
139	0xbe381fb4	-0.17980844
140	0xbcfc4896	-0.03079633
141	0xbdc0676c	-0.09394726
142	0x3c91e86b	0.01781102
143	0xbc26ae5c	-0.010173406
144	0x3d9b7ebc	0.07592532
145	0x3cf35a9d	0.029706294
146	0x3e417a74	0.18894368
147	0x3dbc197c	0.09184548
148	0xbe2c8ee2	-0.1685138
149	0x3df48027	0.119385056
150	0xbccedfc3	-0.025253182
151	0x3ca9748a	0.020685453
152	0x3e14bd55	0.1452535
153	0x3c033e15	0.008010407
154	0x3c963b38	0.018338785
155	0x3c8db254	0.017296948
156	0xbe42ccdc	-0.1902346
157	0xbd01771f	-0.031607743
158	0x3dc159bf	0.09440946
159	0xbdc3e061	-0.09564281
160	0xbcee3eed	-0.02908274
161	0xbc8e3198	-0.017357633
162	0xbe0b799a	-0.13620606
163	0xbdf9bb02	-0.12193872
164	0x3d0ea888	0.034828693
165	0x3dcc53c2	0.09976913
166	0xbe452ce6	-0.19255409
167	0xbc29aef0	-0.01035665
168	0xbd011214	-0.03151138
169	0x3d3dfd74	0.04638429
170	0xbd8ba181	-0.06817914
171	0x3e220c43	0.1582499
172	0x3e463f4a	0.1936008
173	0x3db0f99f	0.086413614
174	0xbcbf7f68	-0.023376182
175	0xbd3fff82	-0.04687453
176	0x3c7eed28	0.015559472
177	0x3d1e0e42	0.038587816
178	0x3e0de288	0.13855946
179	0xbe31eeb8	-0.1737622
180	0xbdce0f75	-0.10061542
181	0x3dea5ab5	0.11443082
182	0x3de584d7	0.11206978
183	0x3d71cb0a	0.059031524
184	0xbdd4558f	-0.103678815
185	0xbde16d5b	-0.11007186
186	0xbbf92510	-0.007603295
187	0xbe2ae700	-0.16689682
188	0xbd409f9b	-0.04702721
189	0x3d8a2afc	0.0674648
190	0xbdb46bc9	-0.08809621
191	0x3d48b92a	0.04900471
192	0xbd8a47ac	-0.067519516
193	0xbdd354ab	-0.103188835
194	0x3c9dccda	0.01926272
195	0x3e38cf16	0.18047747
196	0xbd5b1bb3	-0.053493213
197	0xbc02e4a5	-0.007989083
198	0xbe0a61bd	-0.13513847
199	0x3de15af4	0.11003676
200	0xbd405502	-0.04695607
201	0x3d7e874d	0.06214075
202	0x3e2f8512	0.17140606
203	0xbdec9d58	-0.115534484
204	0x3c843a40	0.016141057
205	0x3dc2ef62	0.09518315
206	0xbd06e122	-0.032929547
207	0x3e022435	0.12709124
208	0x3d8f1879	0.0698709
209	0x3cd44edc	0.02591651
210	0x3ac8c1cc	0.0015316545
211	0xbd99fcf0	-0.07518947
212	0xbca35502	-0.019937996
213	0x3de15aa4	0.110036165
214	0x3d52f4a9	0.051502857
215	0x3d7169dc	0.058938846
216	0xbe19f116	-0.15033373
217	0x3d446573	0.047948312
218	0x3da6374b	0.08116015
219	0x3e33954a	0.17537418
220	0xbe3922b0	-0.18079638
221	0xbd1307a5	-0.035895962
222	0xbe054b81	-0.13017084
223	0x3d64cd52	0.05585987
224	0x3e0dc890	0.1384604
225	0xbdf7c066	-0.12097244
226	0x3e3fbadb	0.18723623
227	0xbc36c03c	-0.011154231
228	0x3dd8a17d	0.105776764
229	0x3bf40d3f	0.007447868
230	0xbde12ea7	-0.10995226
231	0x3d6abc57	0.05730852
232	0x3e35ba69	0.17746891
233	0x3d6898e9	0.05678645
234	0xbdbf2788	-0.09333712
235	0x3e08249e	0.13295218
236	0xbbaa4b0c	-0.0051969346
237	0x3e310123	0.1728559
238	0xbe440a00	-0.1914444
239	0x3d8cbf10	0.0687238
240	0xbdaf9377	-0.085730486
241	0xbc4184fd	-0.011811492
242	0x3d6e2ee2	0.05815018
243	0xbe288f8a	-0.16461006
244	0x3df0a948	0.11751038
245	0x3d963a1a	0.07335301
246	0x3c181122	0.0092814285
247	0x3d5f8d46	0.05457809
248	0xbd55f7c4	-0.05223824
249	0x3d447764	0.047965422
250	0x3e46cb1e	0.1941342
251	0xbc8899a3	-0.016674822
252	0xbe4687f8	-0.19387805
253	0x3df28a70	0.11842811
254	0xbcd5c6b1	-0.02609572
255	0xbc1cce7c	-0.009570714

classifier.bias f4 [10]
0	0x3d271b0b	0.040797275
1	0x3c90630c	0.017625354
2	0x3cc6a79a	0.02424984
3	0x3da3f976	0.08006565
4	0xbbe3febc	-0.006957857
5	0x3cc37056	0.023857277
6	0xbcc49ffd	-0.02400207
7	0x3d0fa536	0.035069667
8	0xbc99aeed	-0.018760169
9	0x3c4e54e8	0.012593485
