checkpoints/checkpoint_epoch_40.pt (torch, 547720 bytes, 37 tensors)

prototypes f4 [100, 64]
00000000: 1057 fc3d 8443 8bbe f0fe fabd a7f8 0d40
00000010: a8ac 1bbf 3c67 363f 5729 563e f1f2 5bbf
00000020: 13e5 653d 50f5 3b40 077b 82bf e086 72bf
00000030: 2706 0ebf 73b8 81bf b7fd 28bf 458e d63f
00000040: a28d 43bf 0efc d33e 1139 783f 12a0 c73f
00000050: 32b1 0ac0 c1f6 53be 1d1e e4be a709 013e
00000060: 1670 8f3e f0b8 8e3e 30a1 783e e582 3e3f
00000070: 57e0 f6be eed4 113f 2782 c4be 0e99 8e3e
00000080: 8a69 efbf ebf8 c13f 47cc b1be b853 783e
00000090: 8d76 7fbe a82f 59bf 9521 693f d27e f5bf
000000a0: 2185 fdbe 0495 953d 21a3 933f 5f52 d53e
000000b0: 5626 9e3f 97ed 47be 2c2a 67be 83b4 7b3e
000000c0: 1ebf f43f ec15 f5be b995 803e 37ee 19bf
000000d0: 3ba0 32bf 18a8 56bf 0ea1 19bf 09ae 0b3f
000000e0: 1a4e a23f 5226 80be 5b0b a73d 104c f5bf
000000f0: 7ce4 75be 47a2 653f 7a86 8dbe 9c5f b03f
00000100: 288f 90bd 533f e53f 0626 92bf 592d 2c3e
00000110: 3afc a7bf cdfc 6bbf 23be d1be 829c 773d
00000120: aabd ecbe 00e5 16be 74b5 043e 9f3d 803f
00000130: 502d fb3c 0e3e 5f3f 30f1 7dbf dcda 85be
00000140: 4082 033f 1ec0 4b3f 3e8f 54bf a275 0dbf
00000150: bd88 a93e cc99 00c0 3d28 5b3f 2f31 ea3e
00000160: 0191 99bf e05d e53f 8cc1 c1bf bf75 6abe
00000170: 537b d33f e0aa ec3e 8edc 213f 5cc7 05bf
00000180: 4787 843f 6eb6 85bf 7990 e4bf 2216 1cbe
00000190: d060 b13f ada2 7bbf b6c1 cabe cab8 c9be
000001a0: 2d7f 94bf 803b 9dbf dccc d1bc ff9f d5be
000001b0: c401 9bbf d2bb f63d e570 b53e b4e2 f13f
000001c0: 7da2 c8bd ae37 8ebe 0b8d edbf 178b 88bf
000001d0: 7161 94bd 50fb 8b3f 2ec7 d6bd 65ad 0b3f
000001e0: fb6e a7bf 6d41 8b3d 04b7 aabf 88b6 2dbf
000001f0: 75fa 86bf 163e 5dbf fcab f9bf 1eb7 8e3f
00000200: a792 e73e 59d4 2fbf c129 163f 1763 e7bf
00000210: 76ce fc3e 09eb 0c3f 070f 9ebb b1d9 223f
00000220: 83e3 babf 64bd 153b 33cf 29bf 035b 1a3e
00000230: fdf9 c33f 5d76 0d3d f8b3 edbf 4f65 05bf
00000240: 639c 443f 7d07 eabf 748d 913f c86b 513d
00000250: cf86 083e 9c2d 7fbd 4df2 64bf a637 4c40
00000260: 298c ad3f 436b 9dbe 5e22 ab3e 3b31 91bf
00000270: 0df3 76bc 4782 64bf f949 9a3f abf3 cebf
00000280: c15c 813f fafa bf3d 2930 06c0 197c 613f
00000290: a6b2 193d 5cf8 42bf e8c1 84bf 0570 00c0
000002a0: 5d7d 4bbc bb8f 6fbf f5e0 853f 75c9 83bc
000002b0: 06d5 a0bf 0ad4 cabe 9ce2 bcbe 0e7d 0140
000002c0: ccc3 1e3f 2a7c ad3e d120 0dbf c757 eabf
000002d0: 28af 24bf dca7 f5bd 5fa8 69bf f375 0cbf
000002e0: 5748 30bf 62c6 6fbf 5ab0 b1be fa13 89bf
000002f0: 0dae 1dbf f87d 553f 8848 293d e89d 783f
00000300: 500f d8bd 62d5 a83f 7616 673e 02f0 9d3f
00000310: 5bcd a33e e4a6 0440 6cd6 f7be a29d 8b3e
00000320: 9000 5c40 109d f43f 4f4b 42c0 dc9a bb3e
00000330: 4ff6 bd3e 0d1d b83e 5e52 643f 8e25 693e
00000340: 9d57 c0bf f072 9ebf 522c e1bf 5bc6 bd3e
00000350: a1ab 313f 156d 67be f796 92be c0b9 f53e
00000360: accf 1a3f a3e1 7dbf 39b6 73bf fb6f ddbe
00000370: 960e ae3f ac92 5b3d dcee 8d3f 2c86 10bf
00000380: 4b83 633f 9ee8 f23f 53d3 61be 27f8 91bf
00000390: 171e fcbe a76e 443f d2ec 893d 2a1f 3e3f
000003a0: 94cd c63f 9c7d a5bf ed2f cb3e f9ed 403f
000003b0: 68e9 22bf 870b 09c0 90b5 993e ee5e 093f
000003c0: 5211 e8bf e985 2abf c0e5 64bf 152b e43e
000003d0: 6b24 3cbc 29c6 d93e 4d77 203f 74f1 cbbd
000003e0: 97e2 2a3f 5d97 72bf 740c cabe fc7f 803f
000003f0: 6d91 a83f 12ca 053f 948e c2bf b83d 9dbf
0.12321293 -0.27199948 -0.12255657 2.2183015 -0.6081033 0.71251273 0.20914207 -0.85917574
0.056126665 2.9368477 -1.0193795 -0.9473705 -0.5547814 -1.0134414 -0.6601214 1.6762167
-0.7638799 0.4140324 0.96962076 1.5595725 -2.1670651 -0.20699598 -0.44554225 0.12601338
0.28015202 0.2787547 0.24280238 0.7441848 -0.48218033 0.5696553 -0.38380548 0.27851146
-1.8704083 1.5154089 -0.34726164 0.24250686 -0.24947567 -0.8483834 0.9106687 -1.9179327
-0.49515632 0.07303813 1.1534158 0.41664407 1.2355449 -0.19524227 -0.22574681 0.24580579
1.9120824 -0.47868288 0.2511423 -0.6012911 -0.6977574 -0.8385024 -0.60011375 0.5456243
1.2680085 -0.25029236 0.08156463 -1.9163837 -0.24012941 0.8970074 -0.2764166 1.3779178
-0.07058555 1.790995 -1.1417854 0.16814174 -1.3123848 -0.9218262 -0.40965375 0.06045199
-0.46238452 -0.14735794 0.12959844 1.0018805 0.030661255 0.8720406 -0.9919615 -0.2614354
0.5137062 0.7959002 -0.8303107 -0.5525762 0.33112136 -2.009387 0.85608274 0.4574065
-1.1997377 1.7919273 -1.5137191 -0.22896479 1.652201 0.46224117 0.63227165 -0.52257323
1.0353783 -1.0446298 -1.785659 -0.15242818 1.385767 -0.982951 -0.39600915 -0.39398795
-1.1601311 -1.2283783 -0.02561038 -0.4172363 -1.2109914 0.12047543 0.35437694 1.8897309
-0.09796617 -0.27776855 -1.8558668 -1.0667447 -0.07245148 1.093607 -0.10487209 0.54561454
-1.3080744 0.06799588 -1.3337102 -0.67856646 -1.0545183 -0.8642286 -1.950561 1.1149633
0.45229074 -0.6868339 0.5865746 -1.8077115 0.49376267 0.55046135 -0.0048235687 0.6361342
-1.4600681 0.0022848481 -0.66331786 0.1507378 1.5310665 0.03453671 -1.8570547 -0.5210771
0.7680113 -1.8283535 1.1371293 0.05112818 0.13332675 -0.062299356 -0.8943222 3.1908965
1.3558398 -0.30745897 0.33424658 -1.1343149 -0.015072596 -0.8926129 1.2053825 -1.6168112
1.0106431 0.09374042 -2.0966895 0.88079983 0.037523888 -0.76160216 -1.0371675 -2.0068371
-0.012420026 -0.9357869 1.0459276 -0.016087273 -1.256501 -0.39614898 -0.3689164 2.0232577
0.6201751 0.33883792 -0.551282 -1.8308038 -0.6432977 -0.11994907 -0.9127254 -0.54867476
-0.6886038 -0.93662083 -0.34704858 -1.0709221 -0.61593705 0.8339534 0.041328937 0.97115946
-0.10549796 1.3190119 0.22567162 1.233887 0.3199261 2.0726862 -0.48405778 0.27268702
3.4375343 1.9110432 -3.0358465 0.36641586 0.3710198 0.35959664 0.8918818 0.22768232
-1.5026737 -1.2378826 -1.759165 0.37065396 0.6940251 -0.22600205 -0.28630802 0.47993279
0.6047313 -0.9917242 -0.95199925 -0.43249497 1.3598201 0.053606674 1.1088519 -0.5645473
0.8887221 1.8977239 -0.2205327 -1.1403855 -0.49241707 0.7673134 0.06734623 0.742663
1.5531487 -1.2928958 0.39685002 0.7536312 -0.636374 -2.1413286 0.30021334 0.53660476
-1.8130286 -0.6661058 -0.8941307 0.4456412 -0.011483292 0.42533997 0.6268204 -0.09958163
0.66752 -0.9476221 -0.39462626 1.0039058 1.316938 0.5226146 -1.5199761 -1.228446

conv1.bias f4 [64]
00000000: 38fd 40b7 d4a0 9b38 ee03 82b6 d769 6038
00000010: 7698 e7b5 30df 8d37 dbb5 deb8 24af c038
00000020: 1169 07b9 d8c1 a937 c17e cbb8 1e24 6f38
00000030: 6ed1 8339 5c17 9638 a60e ae37 d7b9 8738
00000040: 6193 4c37 19f9 3fb8 1a0c c237 a35f aa36
00000050: bd3c de38 d0d8 6ab8 3641 8db9 2a49 3cb7
00000060: 9077 56b9 104e 4038 0234 32b5 b4b8 78b7
00000070: dc87 4538 e845 7f38 88b9 4f39 d134 bf38
00000080: 13da 06b9 460e fb37 7ec7 f437 e2ff 9a38
00000090: c3b5 bc38 f252 413a c250 d4b8 c506 e5b7
000000a0: d320 3239 7a58 bcb7 ab95 d0b7 9bdf 09b8
000000b0: f5c0 f3b8 da5d 4b38 8691 d0b8 508d d138
000000c0: d01d b1b6 f4e9 e4b6 78dd 4538 3e42 6539
000000d0: ff35 a939 c1c7 f837 f187 bb38 7093 72b8
000000e0: a451 c3b9 041d 9bb8 fdb4 4939 947f 1fb8
000000f0: 98c2 2539 82cc 0db9 0f95 61b8 2e0a 0538
-1.1503049e-05 7.4209325e-05 -3.8747594e-06 5.3504333e-05 -1.7255213e-06 1.691244e-05 -0.00010619658 9.187896e-05
-0.00012913744 2.0236635e-05 -9.703404e-05 5.7015677e-05 0.00025142304 7.1569084e-05 2.0749238e-05 6.471917e-05
1.2193662e-05 -4.576994e-05 2.3132237e-05 5.0775284e-06 0.00010597098 -5.599187e-05 -0.00026942202 -1.1222708e-05
-0.00020453171 4.584907e-05 -6.638585e-07 -1.4824956e-05 4.709499e-05 6.0861843e-05 0.00019810174 9.1174275e-05
-0.00012860475 2.9928178e-05 2.9179962e-05 7.390954e-05 8.998394e-05 0.00073747255 -0.0001012399 -2.730208e-05
0.00016987631 -2.2452547e-05 -2.4865227e-05 -3.2871594e-05 -0.00011623084 4.8486378e-05 -9.945319e-05 9.992218e-05
-5.2784817e-06 -6.8221652e-06 4.717472e-05 0.00021863819 0.00032274422 2.9656921e-05 8.942176e-05 -5.7834608e-05
-0.00037254125 -7.3963805e-05 0.00019236277 -3.802737e-05 0.00015808118 -0.00013522993 -5.3783002e-05 3.171915e-05

conv1.lin.weight f4 [64, 512]
00000000: deb8 b2bc 39c6 a4bc 4515 3cbd 93ad 37bd
00000010: f2ce 9abd b9de c3bd f722 133d 1d48 e2bc
00000020: 27b6 c83c 5672 253d 92cd dabc ed12 a33c
00000030: 9df8 2cbd 86a1 d2bd fdb9 0c3c e014 8dbd
00000040: 75f1 afbd 0464 14bd c78c 01bd 0721 543d
00000050: 2ecc 28bd a6f0 8c3d 18d3 b43b e628 9d3a
00000060: 45d7 293c 7544 76bd be38 d8bd 284c b8bd
00000070: 8563 fdbc f4f2 333c cd20 ee3c d21d 2cbc
00000080: 4a55 d13d e72d 993c 3902 623d 6d6d 94bc
00000090: 1156 46bd 8d5e 0bbd 526e c43d 0cd3 703d
000000a0: 5652 423c b45c 2abd e5f8 76bc 3d33 343c
000000b0: 17b3 a43d 5140 2ebc 2669 b3bd fe3a d43c
000000c0: 3555 4fbd a5a1 cabc 9d81 babd fb29 3a3d
000000d0: 8790 943d f28e b5ba bce6 473d d90a 9ebd
000000e0: c6bd 86bd eab3 3f3d a898 4bbd 9aae 8ebd
000000f0: 7393 7a3d 9a2a e2bd 5a4b 6abc 0904 72bc
00000100: 2a04 6e3d fa04 2a3d 5b7f 1fbd ac58 1ebd
00000110: aa67 943d 7bd0 383d 2094 833b 166c 82bb
00000120: 9cfb 173d 7732 40bc 6a7c 83bd 411a a3bc
00000130: fe9c 133d 1894 173d 9dcd 9ebd 8d6a 17bd
00000140: ac61 b1bd 5204 15bc b9bf c43b ea3a c2bc
00000150: b1bd a1bc a384 863c a29b d53d bb09 033c
00000160: 62dd 083d 3ef6 aeba 826a 2e3d 1a37 e2bd
00000170: 0a32 883d 56fd 09bd b066 7bbd 2d15 6cbd
00000180: 0fba c13d 635c 66ba 6bad 633d e09d 993d
00000190: f098 b73d ac3e ae3b 2820 b83c 0ee1 c33d
000001a0: 5e80 c53d 887d 5f3d ae2d 6a3d 0ae1 133d
000001b0: db18 10bd 09bf 0f3d 84fb 623c e3b7 3b3d
000001c0: 0e31 89bd e147 203d acb8 49bd e2f5 89bc
000001d0: 86a7 47bc f3c1 bb3d de6a a53d 2e14 8cbd
000001e0: 6230 3dbd 9a54 9d3d bfa8 e9bc 762b 42bd
000001f0: 3b96 5a3d b96b b23d 4d84 69bd 52f7 02bd
00000200: 944f db3d bbab 1abc a905 9bbd 5d20 503d
00000210: 05ae a33d 5d13 8dbd e679 24bd 9003 4d3c
00000220: fb69 b7bd 31dd bcbc 35ff 2bbb a4b7 f03c
00000230: 906c 86bd 50fc 36bc 47bc 3bbd b419 66bd
00000240: acc3 f03a 1f40 b9bc cd42 1b3d 99c8 30bc
00000250: f4e0 c23d 71d3 b7bc a722 a73d b535 a4bd
00000260: 40a7 743d a136 173d 5d2e 773d ca61 973d
00000270: ea55 0f3d 6108 b3bd bf3f 9bbc 34aa c83d
00000280: b869 243d 1e98 77bd 4771 bc3c f9e8 ba3c
00000290: 2927 cc3d e22b b83d ea92 34bd ef97 dc3c
000002a0: cfd7 b4bb dcff 42bd 744c ad3d 3e95 36bd
000002b0: 8b28 793d c0e4 83bc bf6b 373c b13d 153d
000002c0: 0978 a6bd 4e44 22bd d35f c1bd 7644 81ba
000002d0: 8410 853d fa16 b2bd 07ae ffbc bfe5 a4bc
000002e0: 2109 993c 94f1 623d 5d73 c03d 4ebe 60bc
000002f0: 534e 06bd 2ece c83d abce ffbc 5a0c e03c
00000300: 4cc4 fcbb 7d8e 813d 7fa0 c03d 1616 c0bd
00000310: 598a 473d 2b6c 89bd 4bd0 e73c 10dd 85bc
00000320: 76fe ccbb 7697 d8bc f906 b0bd 4f01 c23c
00000330: c99d 8abc 31f2 d8bc 2025 c23d 224f 96bc
00000340: 1aa5 e4bc 2b00 48bd 545d 3e3d 8567 b23b
00000350: 763f 903b 8dea 69bd ada7 c9bd 9579 bbbd
00000360: be53 9abc db49 673d 578e a13d c3f4 cfbc
00000370: d798 b03d e8fc c3bd fab7 73bd 11f4 e83c
00000380: 460d e9bb 8b99 9bbd 3331 863c d9d9 08bd
00000390: 8a75 4b3d 8348 a93d 748d 423a 0601 81bd
000003a0: 1415 2dbd 4cbe 563d c5f2 7ebc 0abe cfbc
000003b0: 590d ec3b 7c0a b4bd a967 e9bd 945d a8bc
000003c0: 3939 9f3d e01c a93c fda9 803d 3aa6 d7bd
000003d0: 8f88 3bbd 5302 693c 5f8d 16bd 5b7d d3bd
000003e0: 8bef 873d a93e 52bd 0f58 b9bd c194 213d
000003f0: 7c68 dabd c73e db3d 1a78 da3c 33c5 2b3d
-0.021816667 -0.020114051 -0.04591872 -0.044843268 -0.07559003 -0.09563965 0.035922017 -0.027622277
0.02450092 0.040392242 -0.026709352 0.019906485 -0.042229284 -0.102847144 0.008589265 -0.06888747
-0.08590976 -0.036228195 -0.031628396 0.05178931 -0.041210346 0.068818375 0.0055183284 0.0011990338
0.010366266 -0.06012388 -0.10557698 -0.08998901 -0.030931244 0.0109832175 0.029068375 -0.010505157
0.10221346 0.018698646 0.0551779 -0.018118585 -0.048421923 -0.034025718 0.095913544 0.05879502
0.011860451 -0.041592315 -0.0150739895 0.010998544 0.08041971 -0.010635451 -0.0876029 0.025907036
-0.05061837 -0.024735281 -0.09106753 0.045450192 0.07254129 -0.0013851805 0.04880403 -0.07716913
-0.06579165 0.04680244 -0.04970613 -0.06966896 0.061175775 -0.11043282 -0.014300192 -0.01477147
0.05810944 0.041508652 -0.038939815 -0.038658783 0.07246335 0.045120697 0.0040154606 -0.00398017
0.037105188 -0.011730782 -0.064202145 -0.01990998 0.03603839 0.037006468 -0.07754061 -0.03696685
-0.086612076 -0.009095268 0.0060043004 -0.023709733 -0.019743772 0.016420668 0.10430075 0.007997925
0.033414252 -0.0013348532 0.042582043 -0.11045666 0.06650169 -0.033688866 -0.061377227 -0.057637382
0.09459316 -0.00087875704 0.055585306 0.075008154 0.089647174 0.0053175297 0.02247627 0.0956441
0.09643625 0.054563075 0.05717247 0.036103286 -0.035179954 0.035094295 0.013853911 0.045829665
-0.066988096 0.03913105 -0.049248382 -0.016840879 -0.012185937 0.09167852 0.08077024 -0.068397865
-0.04618872 0.07682152 -0.028522847 -0.04740473 0.053365927 0.08711953 -0.057010937 -0.031974144
0.10708538 -0.009440358 -0.07569439 0.050812114 0.07992176 -0.06888459 -0.040155314 0.012513056
-0.08955761 -0.023054691 -0.0026244645 0.029384442 -0.065636754 -0.011168554 -0.045833852 -0.056176856
0.0018368862 -0.022613583 0.037905503 -0.010790014 0.09515563 -0.02243969 0.08160906 -0.08018056
0.059729815 0.036917333 0.06034695 0.07391699 0.034994043 -0.087418325 -0.018951295 0.09798089
0.040139884 -0.060447805 0.023003234 0.022816168 0.09968407 0.08992745 -0.04408542 0.026927916
-0.0055188905 -0.047607288 0.08461848 -0.044575922 0.06082968 -0.016100287 0.011195122 0.036435787
-0.08128364 -0.03961592 -0.09442105 -0.0009862322 0.06497291 -0.08695789 -0.031210912 -0.020129083
0.01868111 0.055406168 0.09397004 -0.013717247 -0.03278954 0.09804951 -0.031226477 0.02734964
-0.00771383 0.063260056 0.09405612 -0.093792126 0.048715923 -0.067100845 0.028297564 -0.016340762
-0.00625592 -0.02643941 -0.0859508 0.023682265 -0.016920941 -0.026482673 0.09479737 -0.01834828
-0.027910758 -0.048828285 0.046475723 0.0054444694 0.0044020964 -0.05710845 -0.09846435 -0.09154049
-0.01883876 0.05646692 0.07888477 -0.025385266 0.08622902 -0.095697224 -0.059501626 0.028436692
-0.007112178 -0.07597645 0.016380882 -0.03341088 0.04967264 0.08265784 0.0007421591 -0.06299023
-0.04225643 0.052427575 -0.01556081 -0.025359172 0.0072037396 -0.08791062 -0.11396725 -0.020552434
0.07774586 0.020643651 0.06282423 -0.10529752 -0.04578453 0.014221746 -0.036755916 -0.10326644
0.06637486 -0.05132929 -0.09049999 0.039448503 -0.1066446 0.10705333 0.026668597 0.04193611

conv2.bias f4 [64]
00000000: fad7 06ba 449e d2b8 771b 0db9 94ff 3339
00000010: f8fb 7037 324c 6a38 483c 7b37 96bc 0c37
00000020: 7b1f 43b9 68bc 61b8 a0cd 2338 a8b4 7c39
00000030: 8872 90b8 1e8c 83b8 6f68 1eb9 70de 0bb8
00000040: dc58 5638 fb73 7339 c88d 5a39 ac8b 6335
00000050: 56bd 5538 464b 4237 4c3c a738 dd38 0b38
00000060: c0eb 0939 01d2 2139 b7e2 a339 4c61 9539
00000070: 350f 90b9 685d 77b8 1dd0 0239 969c 42b9
00000080: 0a63 2f38 eeda 9c38 9c50 113a 46e0 2fb9
00000090: 71a3 3739 ad30 9039 aaec b238 330f 18b8
000000a0: 0d7e 43ba 0813 6139 a1dc 62b8 4df4 a4b9
000000b0: 2c6a 89b8 bfeb 7138 a21a b538 ea24 c438
000000c0: c93f e938 ab49 d939 8413 1b38 c237 ebb7
000000d0: b413 46b8 3a8c e3b5 1d7b f138 0965 8037
000000e0: de40 e7b7 f4ec cc37 0ee8 1ab8 d7ed 1bb8
000000f0: 57f9 0639 b237 2438 ca49 3eb6 0d7d 19b8
-0.00051438774 -0.000100430596 -0.0001345704 0.0001716598 1.4363781e-05 5.586091e-05 1.4974801e-05 8.388559e-06
-0.00018608377 -5.3819647e-05 3.905373e-05 0.00024099892 -6.887788e-05 -6.2726656e-05 -0.00015106959 -3.3347344e-05
5.1104333e-05 0.00023217492 0.00020842918 8.476734e-07 5.095949e-05 1.1580827e-05 7.974412e-05 3.319314e-05
0.00013153162 0.00015432389 0.00031258698 0.00028491986 -0.0002747715 -5.897638e-05 0.00012475294 -0.00018559615
4.181549e-05 7.4794385e-05 0.0005543323 -0.00016772849 0.00017513127 0.00027502087 8.5317835e-05 -3.625378e-05
-0.00074574427 0.00021464762 -5.4088076e-05 -0.00031462536 -6.552445e-05 5.7678433e-05 8.635713e-05 9.352884e-05
0.00011122187 0.00041444352 3.6973055e-05 -2.8040147e-05 -4.722523e-05 -1.6953629e-06 0.00011514707 1.5305837e-05
-2.7567552e-05 2.4429035e-05 -3.693258e-05 -3.7176385e-05 0.00012872122 3.9152517e-05 -2.8355157e-06 -3.6594505e-05

conv2.lin.weight f4 [64, 64]
00000000: 003f a13c 0396 32be 2eda 4dbb 8f51 f33d
00000010: 5017 b63d 0599 113e c6f6 163e 151d 8a3d
00000020: 2869 823c d8a6 4c3e 99f3 0bbe fd11 16be
00000030: 00de 37be 3896 c7bc 25ef 28bc d684 763e
00000040: 1e13 3fbe e285 23bd 3e91 a63d 321d ec3d
00000050: de84 7a3e 3fb7 9dbd 771a 39be 6720 47bd
00000060: cd75 d83d 0b92 243e 6459 e53d 7096 3dbe
00000070: d53e aebd ec7a 0e3e 9050 eebc a601 69bd
00000080: 091d f03d 5d70 a9bd 7663 873d 37dd 99bd
00000090: 6954 c13c fd8d ce3b 0dfe 163e 06b6 c33d
000000a0: 1a77 2fbe 844b c93d 3270 2d3c b9b5 803d
000000b0: 95f3 d93d 5a9f 0ebe ba99 073e 5e58 493d
000000c0: 352d 963d 2d82 e23d 656d 3cbe c10f dabd
000000d0: 566b 33bd 8d25 923d 82e6 04be 482a 193d
000000e0: be11 15bd 6fbb 313e 46b0 d03d 88d8 16be
000000f0: 5326 993d d56a ad3d 6daa 7a3e 4b6e 073e
00000100: e047 053e 3b08 4c3e c2ab b3bd 7d4e 393e
00000110: 796a 13be 62da babd f512 073e d74d a9bd
00000120: b8b2 e3bd 35ec 14be 7751 5a3e 0fa9 2d3e
00000130: e019 553d 1a68 77be 86cd 403e ce83 51be
00000140: e6c3 973c 6f6f 2ebe c1cf 1e39 2125 cabd
00000150: dfed 0abe 2e11 f13d 556e 2ebe ecf0 b03d
00000160: 9a8f 0bbe 1945 9c3d ab23 08bd 8879 cf39
00000170: cbd1 c93c 1e91 6abe 633d e43c 361b d03d
00000180: 2644 05bc 89e4 813d 081d bd3d e602 5bbe
00000190: 608d 00be 7c65 93bd de05 5a3e 3956 00bc
000001a0: 874d 253e d466 143d 90ca afbd a217 db3c
000001b0: f77f 9f3c 422f 19be f978 203e 71df 9fbd
000001c0: c8bd 003e a693 93bd 674b 8d3c c8b6 36be
000001d0: 2315 29bd cb72 c3bc e624 e03d 29cd 89bb
000001e0: 2332 063e 1cf6 95bd 99f8 48bd 0b44 bcbb
000001f0: b284 f73d c147 56bd 9a49 32be 87e1 7ebd
00000200: bb28 cd3a ae96 343d 4a3b 033e 1b4f b33d
00000210: d9c7 ffbd a725 da3d 1466 b9bd c8d0 093d
00000220: 8622 63bd 86e1 abbd ac3f 32be 8107 11be
00000230: 3726 913a 766d 1f3d 5001 ebbc be83 603e
00000240: 3fb2 40be 93c5 a7bd 16c3 1cbe 55d9 ef3d
00000250: 1a4a acbc abbd 50be 437f 2c3e 6cab ee3d
00000260: 27b2 fb3d 795c 413e 46f0 b33c c031 37be
00000270: f884 04be d737 eb3c c2dd 3e3e af5c 29be
00000280: 8dda bbbd 55dc 643d e46b 68be 2b8a 523e
00000290: 5e41 95bb f915 0cbe 7119 f3bd dee9 933d
000002a0: 4a42 0d3d d530 203e 52bb 3e3e 54c0 00bd
000002b0: 510b 783e 9621 823d f6f2 e43d e965 ad3d
000002c0: 608b 8bbb 6420 323e ffd1 50be ff16 22be
000002d0: f868 17be c1bf 123d ed8f 2abe 32e5 6b3e
000002e0: 64ed 78bd caa7 e53d ab8b c73d 5bd5 dd3d
000002f0: fc61 cfbd 030d c4bc 5c89 6b3e b5d9 9ebd
00000300: 10e9 3bbe c5dc 1ebb f056 05be e8da 70be
00000310: acb4 ec3d 4098 c23d 4ef0 553e 34c8 653e
00000320: 46a2 dbbc 69a9 0f3d bb19 99bd e881 f13d
00000330: 9387 37bd bdc1 a9bd c999 32be 3e41 433e
00000340: 7528 99bc a3ef 3c3e 3627 c9bd 1aac f03d
00000350: 1a2f 8dbd 62cf 3f3d adc4 d13d feef 933d
00000360: e663 e1bc 5f95 ca3d ca92 303e bc80 fe3d
00000370: 2d7a 1f3e 61aa 14be 341d bbbd 6526 54be
00000380: c470 8d3d 5fc7 f93d 4477 9f3d a600 013c
00000390: 56a3 063d 1926 69be 0f2c 103e dd79 013e
000003a0: c7b8 1b3e 8ce0 f93d 4d1b d0bd 506a 3c3d
000003b0: f780 b33d 0c0e babc 3079 6fbe 6d8d 27be
000003c0: ae71 8e3d b98b 2c3d 66a5 4ebd 60c2 e43d
000003d0: b1a0 6cbe b48d 5e3e c14a 253e 2a62 263e
000003e0: 83de 8abd fe55 f5bc 2780 903d a743 313e
000003f0: 4abd 083e be4e 483e 6344 65be 365d 6cbc
0.019683361 -0.17440037 -0.0031410563 0.118807904 0.08891165 0.14218529 0.14742574 0.06743828
0.015919283 0.19985521 -0.13667144 -0.146553 -0.1795578 -0.024363622 -0.010310923 0.2407411
-0.18659636 -0.039922602 0.081331715 0.11529006 0.24464747 -0.07700967 -0.18076502 -0.048614886
0.10569344 0.16071336 0.111986905 -0.18514419 -0.08508078 0.13914078 -0.02909115 -0.056886338
0.11724288 -0.08273385 0.066107675 -0.075128965 0.02359982 0.0063035474 0.1474535 0.095562026
-0.17135277 0.098288566 0.0105858315 0.06284661 0.10642163 -0.13927975 0.13242236 0.04915654
0.07332841 0.11059985 -0.18401106 -0.10647536 -0.043803535 0.071360685 -0.12978557 0.03739384
-0.036393873 0.17356656 0.101898715 -0.14731038 0.07478013 0.08467642 0.24479075 0.13225667
0.130157 0.19925015 -0.087729946 0.18096347 -0.14396085 -0.091236845 0.13190825 -0.082668
-0.11118072 -0.14543231 0.21320139 0.16959022 0.05202663 -0.24160805 0.18828401 -0.20460436
0.018526029 -0.17034696 0.00015145449 -0.09870363 -0.13567303 0.11770855 -0.17034276 0.08639702
-0.13628998 0.07630367 -0.03323714 0.00039572665 0.02463617 -0.2290692 0.027861303 0.1016144
-0.008133924 0.06342418 0.09234053 -0.21387824 -0.1255393 -0.07197091 0.212913 -0.007833057
0.16142856 0.036230877 -0.085835576 0.026744667 0.019470198 -0.14959434 0.15671147 -0.0780629
0.12572396 -0.07205896 0.017247869 -0.17843163 -0.041279923 -0.023858448 0.10944538 -0.004205365
0.13105063 -0.07322332 -0.049065206 -0.005745416 0.120858565 -0.052314524 -0.1741089 -0.0622268
0.0015652397 0.04408901 0.12815586 0.087553225 -0.1248929 0.10651713 -0.09052673 0.033646375
-0.055452846 -0.083926246 -0.17407101 -0.14163019 0.0011074011 0.03892275 -0.02868715 0.21925256
-0.18817995 -0.08191981 -0.15308794 0.11711375 -0.021031428 -0.20384853 0.16845421 0.1165379
0.12289839 0.18882932 0.021965157 -0.17890072 -0.12941349 0.02871315 0.18639281 -0.16539262
-0.09172545 0.055874187 -0.22697407 0.2056052 -0.0045549115 -0.13680257 -0.11870087 0.07222341
0.034487046 0.15643628 0.18626145 -0.03143342 0.24223067 0.06354062 0.111791536 0.084667034
-0.004258558 0.17395169 -0.20392607 -0.15829085 -0.14786136 0.035827402 -0.16656466 0.2303665
-0.06077327 0.11213644 0.097434364 0.1083171 -0.10126111 -0.023931986 0.23001617 -0.07756368
-0.18350625 -0.0024240476 -0.13021445 -0.23521006 0.11557898 0.09501696 0.2089245 0.22439653
-0.026810776 0.03507367 -0.07475611 0.11792356 -0.044807028 -0.08288906 -0.17441477 0.19067857
-0.01869605 0.18450789 -0.09821932 0.11751576 -0.068937495 0.046828635 0.10242591 0.07223509
-0.027513456 0.098917715 0.17243496 0.12426898 0.1557395 -0.1451812 -0.091364294 -0.20717771
0.06906274 0.1219623 0.0778642 0.00787369 0.032870613 -0.2276844 0.14079307 0.12644143
0.15207206 0.12201032 -0.10161457 0.045999825 0.087648325 -0.022711776 -0.23386073 -0.16362543
0.069552764 0.042125437 -0.050450705 0.111698866 -0.23108174 0.21733743 0.16141798 0.16248384
-0.06780722 -0.02994823 0.07055693 0.17310964 0.13353458 0.19561288 -0.22389369 -0.01442652

bn1.weight f4 [64]
00000000: 9573 833f 2d07 813f 7d0e 823f a96e 7c3f
00000010: ceff 813f 126c 803f 6b86 793f 855f 7b3f
00000020: cea1 783f 3aff 753f 018a 763f aecb 783f
00000030: 3c90 763f 7a91 843f bc0c 7b3f 4953 7d3f
00000040: 0c68 833f fd9b 773f b5c8 783f cd88 773f
00000050: 9e46 7c3f fae3 833f 6b81 7b3f a486 773f
00000060: 961f 853f 237e 843f 9b0b 783f b541 773f
00000070: 3058 763f 537a 803f d4a3 843f 4086 753f
00000080: 28ae 773f ace3 783f 8419 823f a500 853f
00000090: a4d3 833f ec91 843f e548 7a3f 8be1 813f
000000a0: 1e4b 7a3f 64e2 7f3f a38f 833f d710 843f
000000b0: fc6a 773f 98f7 763f 20cf 813f 2179 813f
000000c0: 93ea 7b3f 4727 7a3f 8bbf 813f 1970 843f
000000d0: 37dd 753f f7b5 843f 47e8 7e3f 8fa9 803f
000000e0: c9af 773f cd1e 833f b809 833f 46f2 803f
000000f0: 19b6 763f a95a 853f e14e 803f 7026 833f
1.0269648 1.0080315 1.0160671 0.98606354 1.015619 1.003298 0.9747073 0.98192626
0.97121894 0.9609257 0.9630433 0.9718579 0.96313834 1.0356896 0.98066306 0.9895521
1.0266128 0.96722394 0.97181255 0.96693116 0.98545253 1.0303948 0.9824435 0.9668982
1.0400264 1.0350994 0.9689271 0.96584636 0.96228313 1.003733 1.0362496 0.95907974
0.96750116 0.972224 1.0164037 1.0390822 1.0298963 1.0357032 0.9776748 1.0146955
0.9777087 0.9995482 1.027821 1.0317639 0.9664762 0.9647155 1.0141335 1.0115091
0.98404807 0.9771618 1.0136579 1.034671 0.9604067 1.0368031 0.9957318 1.0051745
0.967526 1.0243775 1.0237341 1.0073936 0.9637161 1.0418292 1.0024072 1.0246105

bn1.bias f4 [64]
00000000: a122 db3c f0fd ff3b da3a 4b3c c522 0a3b
00000010: 9791 023c 75cf e43b b896 b4bc 7a9f 72bc
00000020: 8def d9bc cb0e 05bd 5722 0dbd 67c8 17bc
00000030: 1f32 95bc 58e3 0b3d f0d7 a9bc d59f 8cbc
00000040: 48f3 ee3c 3e59 0bbd 2bd9 8fbc ec10 a2bc
00000050: 4c8d 25bc d852 dd3c 3d74 babb 6540 e1bc
00000060: 5469 213d 2c4d 0d3d 4873 01bd 9cac 03bd
00000070: 68b2 fdbc 1bb7 663c 8c7b 0c3d 0c82 f3bc
00000080: 7e48 00bd 10a9 bfbc 3f60 853c f917 0c3d
00000090: 3b9d c73c dabd 113d 9549 37ba acdc a43c
000000a0: 7b03 5cbb e3cf 063b c2b9 f43c 5f63 fa3c
000000b0: 2449 09bd f18b 0ebd 3982 e23c 8812 9d3c
000000c0: 68ec cebc 0661 09bc f4be 4d3c c96d 053d
000000d0: 2ff8 1cbd b6db 0b3d 7a51 143c e532 793c
000000e0: 9674 e0bc 500e ad3c 4ace f23c 9363 443c
000000f0: 23fc dfbc e80f 1e3d 8005 87ba 2a44 f93c
0.02674991 0.007812254 0.012404168 0.0021077853 0.007969282 0.0069827386 -0.022044525 -0.01480853
-0.026603485 -0.03248481 -0.034456577 -0.009264088 -0.018212376 0.03415236 -0.02073285 -0.017166058
0.02916874 -0.034020655 -0.017559608 -0.01978346 -0.010104489 0.027017042 -0.005690126 -0.027496526
0.03940709 0.034497425 -0.03160408 -0.032147035 -0.03096886 0.014081742 0.03429751 -0.029725097
-0.031319134 -0.023396045 0.016281245 0.03420255 0.024366966 0.035581447 -0.00069918606 0.020124756
-0.003357141 0.0020570687 0.029873732 0.030564962 -0.033517018 -0.034801427 0.027649986 0.019173875
-0.025259212 -0.008384949 0.012557734 0.032575402 -0.038322624 0.03414508 0.009052629 0.015209888
-0.027399343 0.021124989 0.029639382 0.011986631 -0.027341908 0.038589388 -0.0010301322 0.030428011

bn1.running_mean f4 [64]
00000000: 9e65 a03c 6245 0fbf c73d 56bf 2a2a e7bf
00000010: b53b 11bf 36fc bb3b fa26 c63e 22ec 1fbf
00000020: ddaf e13e a6c2 b03f 6018 f5bf a722 c6bf
00000030: 1630 963f 2284 9e3f 2705 2740 49d8 27bf
00000040: 5e2c e43f f270 203f d481 c4be 1c87 c63f
00000050: c8a7 f3bf e97a 4d3f b0c1 e23f 4e16 12be
00000060: 202a 9a3f 83d0 81bf 69c7 e83e e0f4 a43e
00000070: 807f 45bf 51d0 923e 1590 c1bf 9013 81be
00000080: e562 893f 28ce 463e 5370 c23e 0656 9dbf
00000090: 705d 133f e7a7 eebf 294e e73e cc2b bd3e
000000a0: a525 9dbf d3bb 8f3e 259e bfbf dc66 0fbd
000000b0: 2515 20c0 5fc0 e3bd f954 1cbf 8c6a 1740
000000c0: ecb4 cabc 654b acbe aa2e 0c40 227a e13f
000000d0: b91d 3ec0 420a 92be 10e6 d1bf f932 13c0
000000e0: f1b6 2c40 e1db 4abe 962e 1a3f ecf3 793e
000000f0: f0b6 eebf e3ab 573f 37b6 0ac0 bb0d f03e
0.019579705 -0.55965245 -0.83688015 -1.8059742 -0.5673173 0.005736853 0.38701612 -0.62469685
0.44079486 1.3809402 -1.9148064 -1.5479325 1.1733425 1.2384074 2.6096895 -0.655644
1.782604 0.6267234 -0.383803 1.5509982 -1.9035578 0.8026567 1.7715359 -0.14266321
1.2044106 -1.0141758 0.45464638 0.32218075 -0.77147675 0.28674558 -1.5122095 -0.25210238
1.0733305 0.1941458 0.37976322 -1.2291877 0.5756445 -1.864499 0.4517682 0.36947477
-1.2277113 0.28072986 -1.4970137 -0.035010204 -2.5012906 -0.11120676 -0.6106716 2.365878
-0.024744473 -0.3365127 2.1903481 1.7615397 -2.9705641 -0.2852345 -1.6398335 -2.2999861
2.6986659 -0.1981044 0.60227334 0.24409455 -1.8649578 0.84246653 -2.1673715 0.46885476

bn1.running_var f4 [64]
00000000: caa5 473f 6f6d 9a3e 2259 173f 3a4e db3e
00000010: 0e6a 003f 18e0 ef3e 764e 1a3f 0e12 043f
00000020: f17d ba3e f4af ce3e 2a99 003f b359 0e3f
00000030: 1a24 1a3f e5bc 153f 9c53 1e3f 9fc0 f03e
00000040: 4472 f53e c1aa e43e 57b0 ca3e 4891 0f3f
00000050: d7b4 e03e afc7 133f de8e b23e b0ac 173f
00000060: 981a e73e 3880 a73e 34ea e73e 5e7a 253f
00000070: a4eb 933e 019c 0c3f b161 153f 5fe5 1f3f
00000080: 04af 163f fbce 043f 24af ec3e 125d 273f
00000090: c339 003f 2cd9 dd3e 833b 0a3f c141 353f
000000a0: b3b7 083f ce60 0a3f 6dc3 913f 8308 a93e
000000b0: 6acb 133f e2dd 2e3f 565e fe3e eb54 f23e
000000c0: 8534 103f c57b 433f 1940 053f 92cb 0e3f
000000d0: 3136 e83e 8a3d b63e 3401 433f 7d7a 333f
000000e0: 3bea c03e 8100 1f3f 7a3d 333f 874f ed3e
000000f0: 1972 b63e 52fd 553f a781 6a3f a5fc 063f
0.7798735 0.30161616 0.5912038 0.4283312 0.50161827 0.46850657 0.6027597 0.5159005
0.3642421 0.40368617 0.5023371 0.5560562 0.60211337 0.58491355 0.6184633 0.47021958
0.4793874 0.44661525 0.39587662 0.56081057 0.4388797 0.5772657 0.34874624 0.59247875
0.45137477 0.3271501 0.4529587 0.6463984 0.28890717 0.54925543 0.5835219 0.6245937
0.588608 0.5187833 0.46227372 0.6537639 0.5008814 0.43329751 0.5399706 0.7080346
0.534053 0.5405396 1.1387764 0.33014306 0.5773226 0.68307316 0.49681348 0.47330412
0.5633014 0.7636073 0.5205093 0.55779374 0.45353845 0.35593826 0.7617371 0.7010878
0.37678704 0.62110144 0.7001568 0.46349737 0.35633925 0.8358966 0.91604084 0.52729255

bn2.weight f4 [64]
00000000: 289a 753f a79a 833f 7ad1 773f 7cac 853f
00000010: 1622 743f 5609 853f ae64 743f 06da 743f
00000020: 3a56 803f 5ce8 7c3f 5f7c 743f b924 753f
00000030: 883c 773f 567e 833f 92d7 763f 0e2d 853f
00000040: 8a84 843f 4ed6 843f 48c2 823f 8840 823f
00000050: 9ef8 843f 4246 7d3f b652 863f 99af 783f
00000060: 3809 753f 356e 763f bde0 853f b517 863f
00000070: 4c9c 743f 15c3 743f bdf3 7f3f 93ae 743f
00000080: e85d 7b3f 0c03 733f f1d6 843f 59ad 843f
00000090: d8fd 753f bf5e 763f c8f7 843f 1750 783f
000000a0: 51cd 743f 97ed 7e3f 219f 843f 75f6 843f
000000b0: af95 7a3f 4477 853f 416f 753f e28e 743f
000000c0: a2a9 833f bc9a 823f 5926 7d3f 1814 843f
000000d0: 7047 843f 009d 843f 224c 853f 71ba 783f
000000e0: 29f6 833f 234b 763f f841 863f 5ef1 7d3f
000000f0: faeb 7a3f 7798 763f 722f 7d3f 0ad3 823f
0.9593835 1.0281571 0.9680401 1.0443263 0.9536451 1.0393474 0.95466125 0.9564518
1.0026314 0.9879205 0.95502275 0.9575916 0.9657674 1.027293 0.96422684 1.0404375
1.0352948 1.0377901 1.021554 1.0175943 1.0388372 0.9893533 1.0493991 0.9714294
0.9571719 0.9626191 1.045921 1.0475985 0.9555099 0.9561017 0.9998129 0.9557888
0.98190165 0.94926524 1.0378095 1.0365402 0.9609046 0.9623832 1.0388117 0.9699721
0.9562579 0.99581283 1.0361062 1.0387713 0.9788465 1.0427022 0.95872885 0.9553052
1.0286143 1.0203471 0.9888664 1.0318632 1.0334301 1.0360413 1.0413859 0.97159487
1.0309497 0.962084 1.0488882 0.9919642 0.9801632 0.9632639 0.9890052 1.0220654

bn2.bias f4 [64]
00000000: 1c9a 1fbd 3695 c83c 01ae dbbc 7280 123d
00000010: 7e3c 2fbd 4aa9 2c3d 84d8 27bd d65a 14bd
00000020: 2e6f 18ba ca46 fdbc 3c58 1dbd 745f 29bd
00000030: c83d 06bd 7442 833c 9a1a 0fbd 5aa1 14bc
00000040: 6f3f e93c d7e6 633c da5f 5dbc f543 e4bc
00000050: a4ec 313d c3bc 31bd d417 2b3d abef 0bbd
00000060: 874e 1dbd c94f 0bbd 928c 093c 1efe 283d
00000070: 7201 28bd 220d 20bd 5623 4fbd 2073 2cbd
00000080: fe61 c6bc 47ae 31bd 5eb7 303d 3115 e13c
00000090: 058a 14bd 62f6 14bd 25f8 2d3d b81f eebc
000000a0: af97 29bd b45c 0fbd 3ddf 1a3d 498a 2a3b
000000b0: a0ec bcbc fb8d 3b3d 95f6 25bd 7e68 2abd
000000c0: 8da4 ad3b 1e95 513c b36d d4bc e412 133d
000000d0: be26 fc3c 9b71 293d 672e 403d 65de e3bc
000000e0: c886 163d d1d4 16bd ecdf 1e3d 7313 133d
000000f0: b445 32bd 0444 0dbd 79c5 28bd 9cb5 05bd
-0.03896533 0.024485212 -0.02681637 0.035767026 -0.0427823 0.042153634 -0.04097797 -0.03621944
-0.0005814907 -0.030917544 -0.038414225 -0.041350797 -0.032773763 0.016022898 -0.03493748 -0.009071672
0.02847263 0.013910017 -0.013511622 -0.027864436 0.04343857 -0.043392908 0.04177077 -0.034164112
-0.038404968 -0.034011636 0.008395331 0.04125797 -0.041017003 -0.039075024 -0.05057081 -0.04210198
-0.024216648 -0.043379094 0.043143623 0.027475925 -0.03626444 -0.03636778 0.042472977 -0.029067859
-0.041404422 -0.035000518 0.037810553 0.0026022366 -0.02306205 0.0457897 -0.040518362 -0.041603558
0.005299157 0.0127919 -0.025931215 0.035906687 0.030780192 0.04136811 0.046919253 -0.027816007
0.03674963 -0.03682405 0.038787767 0.03590722 -0.043523505 -0.034488693 -0.04120395 -0.0326439

bn2.running_mean f4 [64]
00000000: 97c8 0b3f ac26 83be 9b41 5e3e 1f96 093f
00000010: 8c9e 0b3e 7101 44be faac 0cbf 3c51 0e3e
00000020: 1edf 10bf e716 f73e 548d 9cbd f646 a7bd
00000030: c114 033f 481f 323f ab3e a83e 22b0 36be
00000040: 579c 083f 793c c93e a7a5 0e3f 4d29 dcbd
00000050: e7ed c53c dd7d 563e 6051 5ebc 0f29 b3be
00000060: 72d4 89be 1d03 143f ebc9 1e3f 7828 113f
00000070: 3152 b3be e607 c43d 12c1 e8be 24dc 5b3f
00000080: 5276 373e bd1b 8abe 8470 ee3e c49c 0e3f
00000090: 3be8 f83e e701 d83e 42d4 9f3e 6c9b 223f
000000a0: 265d 433f db42 423f 97e1 773c aa04 983e
000000b0: 39fd d23e d8e9 42bd 60a4 57be 3a6c e23e
000000c0: 0e27 18be fe75 563f 086d ee3d 9aaf f0bd
000000d0: 7bc1 d8be 1a09 cbbe 0178 a4bd aceb 96be
000000e0: e2c5 073e 4ca6 ef3e 4d32 c8bc 3be9 1bbe
000000f0: c9cf 41bf fcb0 5d3d 0e2c 933d e166 533e
0.5460295 -0.25615442 0.21704714 0.5374469 0.136347 -0.19141175 -0.5495144 0.13898176
-0.5659045 0.4825966 -0.07644144 -0.081678316 0.5120354 0.6957898 0.32860312 -0.17840627
0.53363556 0.3930395 0.55721515 -0.10750065 0.024161292 0.2094645 -0.013569206 -0.34992263
-0.26919895 0.5781725 0.6202685 0.56702375 -0.35023645 0.09571819 -0.454598 0.8588278
0.1791623 -0.26974288 0.46570218 0.55707955 0.48614678 0.4218895 0.31216627 0.63518405
0.7631401 0.75883263 0.015129468 0.29691058 0.4120882 -0.047586292 -0.21058798 0.44223195
-0.14858648 0.8377379 0.1164189 -0.11752243 -0.42335114 -0.3965538 -0.080307014 -0.29476678
0.1325908 0.46806562 -0.024438048 -0.15225689 -0.7570768 0.054123864 0.07186137 0.20644714

bn2.running_var f4 [64]
00000000: 96ad 1f3e 69ca 893e 245a a63e e650 153f
00000010: df7c 423e e4e8 803e 5861 7f3e 793b 5f3e
00000020: 375a 443f a9b1 be3e 06cf 5c3e 79f0 a53e
00000030: 605c 473e 0dc7 a33e 44b5 bb3e d4d0 143f
00000040: a66f a63e bec2 a33e 968a 813e 0fef 113e
00000050: a201 6e3e 4811 783e ecf9 a43e 9b73 643e
00000060: d1cc dd3e e97c 6c3e a50f f43e c4bd dc3e
00000070: 6751 dd3e ae87 b33e f84a 953e 87ac 993e
00000080: a484 9e3e 22b9 4e3e 86e1 6b3e 1aad 7d3e
00000090: a186 a73e 5244 f13d 07d2 8a3e b951 833e
000000a0: eef8 933e d2f8 443e f17b a33e a431 843e
000000b0: 35e8 c43e 5e2a 8f3e 98f5 913e 63d5 533e
000000c0: 2bc4 8a3e c6f4 893e b740 cf3e e863 e73e
000000d0: 3213 e23e 8440 aa3e f2fa c53e 91f4 493e
000000e0: 529b 873e 74f5 963e d553 f03e c859 903e
000000f0: efe8 bc3e 32bc be3e 12fd 873e df24 ac3e
0.15593562 0.2691224 0.32490647 0.58326566 0.18992947 0.2517768 0.24939477 0.21800031
0.76700157 0.3724492 0.21563348 0.3241003 0.19468832 0.319878 0.36661732 0.58131146
0.32507056 0.31984514 0.25301045 0.1425135 0.2324281 0.24225342 0.32221925 0.22309725
0.43320325 0.23094524 0.47668186 0.4311353 0.43226168 0.35064453 0.2915876 0.3001444
0.30960572 0.2018781 0.23035249 0.24773064 0.327199 0.11780609 0.27113363 0.25648287
0.28900856 0.19235542 0.31930497 0.25819123 0.3845841 0.2796201 0.28507686 0.2068687
0.2710279 0.2694456 0.4047906 0.4519341 0.4415527 0.33252347 0.3866802 0.19722201
0.26485687 0.2948414 0.4693896 0.28193498 0.36896464 0.37252957 0.26560265 0.3362188

classifier.weight f4 [10, 64]
00000000: 5d38 903d cf9f bf3d aaf3 6e3d 74c2 653d
00000010: 94df f43d 9f29 63bd ace7 1bbe 0793 bfbd
00000020: c34c 253e e2b6 7f3b 8081 54bd 4be7 c53d
00000030: 0db8 adbd 08b1 9d3d c47c a43d 9e5c 88bd
00000040: 491f 423c d3de c1bd 652c fa3d 414f dfbd
00000050: e10c 40bd 6a42 0ebc f417 fabd 6fcc 6cbd
00000060: 51b6 0cbe be2b e9bd 03eb 123e 5e0c d6bc
00000070: 2c34 7f3d bf92 1dbe a889 963d b8d2 a5bd
00000080: bcb9 dcbd ff32 983d ed69 bdbd 71f5 fdbc
00000090: e9cd babd 4c05 cb3d d2dd 2b3e 3d5a 09be
000000a0: 45c6 82bd af86 08be 188f 323c 5784 c53a
000000b0: 25b3 493d 5b5a c6bb 3f3d 2fbd 3a49 d53d
000000c0: 12eb b03c 750a 3a3b 1f62 f33a bf50 3bbd
000000d0: c74b e5bc 176a a8bd 9f22 11bd 3701 6c3d
000000e0: 92b7 83bd 5cf2 12bc f846 07be d32e c33d
000000f0: b5e6 803d b2e3 a7bc 2372 c7bd c3e4 c0bd
00000100: f6ec a4bb c816 05bd 192d 0abe 7d38 cebd
00000110: 2b0d 2c3e 6dab 233e ea31 0fbe 53e3 d73c
00000120: 4258 9b3d 0b64 b03d cded f33d b393 983d
00000130: 317c 913d c67e 2cbd 5fde 92bd 7432 2bbb
00000140: 9fae a93b 457c 9bbd 167b 153d 5765 833c
00000150: 1c3d d93d addc 9d3c 392d e5bd 650d 933d
00000160: 4469 723d c40f d33d 18a0 5a3a f420 c7bc
00000170: e775 303e 795e 003d 1701 26bd 77f8 92bd
00000180: 38ee 88bd 7d0c 12bd d30c 32bd 488d b13d
00000190: 56cc 953d 5d04 373b eec0 903d 25cb fcbd
000001a0: e9bf b2bd 30b4 74bd db6a f5bd 6f58 4e3d
000001b0: b995 b0bc d65f 083d f02b b5bc 3caa 0d3c
000001c0: a3d3 0a3d 8b0d 47bd 04ec c0bd 28dc 65bd
000001d0: 7e0f 8abd 6831 aa3c f016 a43d eacb f03d
000001e0: 2165 b6bc eeda 173e 4f68 18bc a1cb 183d
000001f0: 2f37 433d 73b3 4e3d 1350 41bd 0cfa c83c
00000200: c14e 1b3b 9c42 803d 6272 fa3d 2506 2a3c
00000210: 38fa a3bd 143b 31bd fd35 32bd 4851 03be
00000220: 4a2b 143d 0ada 6f3d bbdb 103d ebaf 09be
00000230: dab3 96bd 2d84 d5bd e3f3 c0ba aabb 11bd
00000240: c373 1c3d 08fe 403d 987d 133e 0640 f03d
00000250: 7235 e2bd ebc4 a33d a3e5 4cbd 9c13 d3bc
00000260: 07c1 e63d 35a8 893c e3b8 103d 43b8 0abc
00000270: e51f 13be 0c48 8ebd dbd2 be3d 4d6b b1bd
00000280: 2604 9dbd 9571 b03c 63bd f2bd 1c34 a5bd
00000290: b7a8 683d 21be d93d cbe4 0dbe 5bdd 6ebd
000002a0: bbc6 83bd a56a ba3c d4a5 aebd 63d0 da3d
000002b0: 86a0 113e 8d08 863d 3672 103d 967d 68bd
000002c0: c861 04bd dc91 213d 9214 ee3d 432c 06be
000002d0: a47e 80bd 2ab3 083e a5df ca3d 69bf d83c
000002e0: 6454 7fbd 1dd7 d9bd 2e99 80bd b1cb f7bd
000002f0: e08c 80bd 79bf 6d3d d0a2 bfbd 08cc 163c
00000300: 978d bbbd d86e 51bd bee1 f83b 6003 053e
00000310: 819b 5cba c77e 273d 3989 e2bd 6ae0 c63d
00000320: 8ba4 c93a b78d 8d3c c60a f23d 03c3 82bd
00000330: 30b9 933d 8ad7 f63c 8669 9bbd a822 a03d
00000340: fdaa 713d 7e55 bdbc 30a2 3abd bde7 b0bc
00000350: 0984 123d 1423 9f3d f852 043c bfc2 8f3b
00000360: 810c bbbd 8ef8 d83b bf0a 573c 6588 083e
00000370: 24b4 05be fae2 833c 44b3 ccbd 1afd 153d
00000380: c1de 9d3d 90c4 a6bd 3725 fc3d dfa7 79bd
00000390: cdde a23d 9307 253c 11cc 4ebd 427c 953a
000003a0: e75f 113e b5c1 d83c 2c99 ffbc 4f54 a53d
000003b0: fdea 73bd 4fa3 073e 545a 08be b45f ac3d
000003c0: c394 57bd 8607 94bd 468e f53c 718e f6bd
000003d0: 202e ae3d 8d0a e43d cdaf 4bbd 4e25 dabb
000003e0: d702 febb 26d5 3fbc d6aa 113e 93b3 be3c
000003f0: ca11 10be 88c5 8c3d fe33 8abd 9ca7 f4bb
0.070420004 0.09356653 0.058337845 0.056093648 0.11956707 -0.055459615 -0.15225095 -0.09354215
0.16142564 0.0039018919 -0.051881313 0.09663256 -0.084823705 0.07699782 0.0803161 -0.0665829
0.011848279 -0.094663285 0.12215499 -0.10903788 -0.046887282 -0.0086828265 -0.122116 -0.05781215
-0.13741423 -0.11385296 0.14347462 -0.026128944 0.062305614 -0.1538801 0.073504746 -0.08096832
-0.107776135 0.07431602 -0.09248719 -0.031000825 -0.091213055 0.0991312 0.16783836 -0.1341333
-0.06385473 -0.13332628 0.010898374 0.0015069348 0.04924311 -0.0060532517 -0.04278302 0.104143575
0.021596465 0.002838758 0.0018568671 -0.045731302 -0.027990235 -0.0822336 -0.035433408 0.057618346
-0.06431498 -0.008968916 -0.13210666 0.095304154 0.06294004 -0.020494316 -0.09738567 -0.09418633
-0.0050331308 -0.03249243 -0.13493766 -0.10069368 0.16801898 0.15983362 -0.13983884 0.026353514
0.07585193 0.08612832 0.11910591 0.074500464 0.07103766 -0.042113088 -0.0717132 -0.0026122602
0.005178287 -0.07592062 0.036494337 0.016039534 0.10607359 0.019270265 -0.11190266 0.07180289
0.05918242 0.103057414 0.0008339896 -0.024307705 0.17232476 0.031340096 -0.040528383 -0.07176297
-0.066860616 -0.03565644 -0.04346926 0.086695254 0.073143646 0.0027926185 0.070680484 -0.12343434
-0.0872801 -0.059742153 -0.11983272 0.050377306 -0.021555768 0.03329452 -0.022115678 0.008646544
0.03389324 -0.0485969 -0.094200164 -0.05611816 -0.06741236 0.020775512 0.080121875 0.117576435
-0.022265019 0.14829609 -0.009302213 0.03730357 0.04766005 0.050464105 -0.047195505 0.024533294
0.0023698064 0.06262705 0.12228848 0.0103774415 -0.0800671 -0.043269232 -0.04350852 -0.12823975
0.036174096 0.058557548 0.0353658 -0.13446014 -0.07358523 -0.10425601 -0.0014721121 -0.03557936
0.038196336 0.047117263 0.14403379 0.117309615 -0.1104535 0.079965435 -0.050023686 -0.025766186
0.11267286 0.01680384 0.03533257 -0.008466783 -0.14367636 -0.069473356 0.09317561 -0.08663044
-0.07666807 0.021538535 -0.11852529 -0.0806658 0.056801524 0.10631967 -0.13856809 -0.05831657
-0.06434389 0.02275593 -0.08527723 0.10684278 0.14221391 0.065446 0.03526517 -0.056760393
-0.032319814 0.039445743 0.11625017 -0.13102822 -0.06274155 0.13349596 0.09905938 0.026458459
-0.06233634 -0.10636733 -0.06279217 -0.12099398 -0.0627687 0.05804393 -0.09357226 0.009203918
-0.091578655 -0.0511311 0.00759527 0.12989569 -0.0008415506 0.04089239 -0.110613294 0.09710772
0.0015384121 0.017279489 0.11818461 -0.06384852 0.07213056 0.030132074 -0.075884864 0.0781911
0.059000958 -0.023112055 -0.04556483 -0.021594876 0.03577045 0.077703625 0.008076422 0.004387229
-0.09133244 0.006621427 0.013125121 0.1333328 -0.13057 0.016099442 -0.0999513 0.03661833
0.077085026 -0.0814296 0.12311786 -0.06095111 0.07952652 0.010072607 -0.05048758 0.001140483
0.1419674 0.026459554 -0.031200968 0.08072721 -0.059550274 0.13245891 -0.13315707 0.084166914
-0.052632105 -0.072279975 0.029975068 -0.12038887 0.085048914 0.11134825 -0.049728204 -0.006657279
-0.0077518034 -0.011708533 0.14225325 0.023278987 -0.14069286 0.068736136 -0.06748198 -0.0074662697

classifier.bias f4 [10]
00000000: 1e02 5a3d 9629 c13c dda2 143d 4be2 bb3d
00000010: 03d3 0fbc af57 c83c c163 30bd 2e52 193d
00000020: 850b 23bd bafa b93c
0.053224675 0.0235794 0.03628813 0.09174021 -0.008778336 0.024455873 -0.043063883 0.03743189
-0.039805908 0.022702564

exp_avg f4 [100, 64]
00000000: 0e17 98ba 8c0d f7b7 5e5f 40bb d898 d538
00000010: 81b9 7139 e01a 5b37 6f80 8b39 6161 f63a
00000020: 7b97 b8ba 0baa 8eba 3a23 88b9 b76d 813a
00000030: 4372 2b39 8f80 2a3a 437b 0639 c126 7d3a
00000040: 79ef 10bb f631 453b 496a 23ba 1319 0139
00000050: 1c4c 643a 6873 85ba bc66 6ebb ce8d 1dba
00000060: 5e3e 0d3a 26df 303b 351e d339 e619 44bb
00000070: 88ca 8b3a afa6 36ba 7a9a c53b 4546 27bb
00000080: 39a1 243a 7a5d cd3a eaf4 2a39 c76b 40b9
00000090: 5f97 eb3a 9f00 0cbb d943 2839 5864 0939
000000a0: 2a95 aeb9 7f01 873b 9335 c9b9 86ac a6b9
000000b0: bb94 113a af7f bbbb 6538 f039 1c1c 983b
000000c0: bf1c de3a 7d5a 7eba 15b9 563b 1183 18bb
000000d0: 1aae afb9 87ea 73bb f0bb 3135 02eb 7138
000000e0: a49d 55bb 5a16 003a 2421 49b9 fd37 f9ba
000000f0: 7f5c bcba 5715 b43a f9bf 7c3a f01e 0e3b
00000100: a468 35ba 505e 72ba b59e 1abb 933e 583a
00000110: dc47 5db9 bf2f 61ba da5f 9139 71c0 a53a
00000120: a124 feba fc0a e3b9 04e4 d3b8 fb79 9639
00000130: 7c65 3d39 7be1 1439 3787 123a 0608 d23a
00000140: 9b8d e2ba 53ca 103b 9b3d 3db9 ef73 1fb9
00000150: a8ba bbb9 6406 22ba 1bc3 34bb eed0 47b9
00000160: 0f65 c639 70a0 153b a2cd 0d3a c998 02bb
00000170: 2a04 42b8 0128 8fb9 92f3 a53b d1ab 22bb
00000180: eff0 7b3a a34e 9b3a 2601 f639 55a9 8138
00000190: 6d0b b33a 2de7 fdba 9e67 13b9 66ab 1a3a
000001a0: 6993 3937 b495 8a3b f4f9 d2b9 e8ee 103a
000001b0: 09c4 833a bb58 99bb ce08 aab9 0e55 8f3b
000001c0: dbab f13a 89eb 93ba 9b43 743b 9675 37bb
000001d0: 4aa0 8aba 5f67 96bb 2795 0939 762f f438
000001e0: f9cc 5bbb 602a ba39 b933 123a b08e 14bb
000001f0: 2499 d6ba 6af0 b63a 43cd bd3a 1974 243b
00000200: 245d 7cba f365 bab9 fa9f 3cbb 4d40 f939
00000210: 0b24 bd39 f847 2b39 369d 4bb9 aff9 fb3a
00000220: 2b1d beba 9d9c adb9 114d b338 133e 813a
00000230: e948 abb9 1e9b 5a3a ed9c 4b39 6250 dd3a
00000240: ed22 26bb a594 453b 0cba 29ba 58d8 8338
00000250: b80d 083a e8f5 95ba ea08 53bb 55be 26ba
00000260: d67a 87b8 90d3 353b e231 943a 673c 1ebb
00000270: 7582 2a3a 9eb8 84ba c074 a43b eada 15bb
00000280: 8cc0 983a 0e03 f43a 8e14 513a 9ca6 7139
00000290: ac88 053b a804 f8ba c8e3 8339 9e39 ec39
000002a0: 15ee 0fb8 995e 7f3b 33a1 8aba 507d d939
000002b0: 9f56 743a 5cf3 a1bb e0b0 49b7 0d80 8e3b
000002c0: 5ad9 a23a b189 fcb9 7a8b 663b 5f0a 20bb
000002d0: b860 58b9 9469 8bbb 3186 353a 059e f939
000002e0: 1dd3 3bbb 8428 4f3a 81fc b739 03fb e0ba
000002f0: 32ba fcba dffc f83a b156 b33a 5609 ec3a
00000300: 8119 4bba 85da f0ba 9a37 0bbb 30ef 9a3a
00000310: 0619 45ba d5c4 03bb 9383 093a d5c4 8e3a
00000320: 4ddd 48bb 70d5 50b9 273d f1b9 0ac5 42ba
00000330: 7bb5 d639 708e 0439 a061 653a 7c62 ee3a
00000340: d5b1 dfba dfdd 0f3b 1a94 fdb8 f81d 2eba
00000350: 6670 bcba 91a9 98b9 e4b7 3fbb ba72 5239
00000360: 9f3e cb39 f730 203b f79d 9a39 0fbc f8ba
00000370: 54a6 31ba 828a 7f37 4a50 bc3b 30bd 4bbb
00000380: 05aa d23a 3ab6 d239 fd02 9b39 8713 52b9
00000390: 9933 aa3a ba2d fcba ab4c c4ba 7057 6c3a
000003a0: 2f9f f339 1e46 a33b 81c9 eab9 1d08 7a3a
000003b0: 29bc 9a3a 4535 a5bb 7017 52ba 7079 b13b
000003c0: f610 1a3b 9ec7 b0ba f942 8b3b 40ae 8abb
000003d0: d79c dfba 8bc7 b0bb 851e e7b8 4517 b5b7
000003e0: bfd9 a8bb 62b8 2739 0f4a 5f3a 28bd 6bbb
000003f0: 3c25 0bbb d282 c13a 5559 c73a 26fd 433b
-0.001160355 -2.9451003e-05 -0.0029353718 0.00010185101 0.00023052657 1.30596745e-05 0.00026607836 0.0018797332
-0.0014083231 -0.0010884417 -0.00025966187 0.0009874617 0.00016350397 0.0006504142 0.00012825154 0.0009656959
-0.0022115393 0.0030089593 -0.0006233794 0.0001231174 0.0008708851 -0.0010181488 -0.0036377152 -0.0006010205
0.00053880166 0.0026988476 0.00040267562 -0.0029922663 0.0010665217 -0.0006967587 0.006030378 -0.0025524062
0.00062801276 0.0015668117 0.00016303701 -0.00018350697 0.0017974189 -0.0021362675 0.00016047004 0.00013102719
-0.00033299002 0.0041200514 -0.00038377623 -0.00031790527 0.00055534736 -0.005722008 0.00045818384 0.004642023
0.0016945823 -0.0009702815 0.0032764126 -0.002327148 -0.00033508317 -0.0037218647 6.6211123e-07 5.7677746e-05
-0.0032595182 0.0004886143 -0.000191812 -0.0019013878 -0.0014370828 0.001373927 0.0009641643 0.002168592
-0.0006920195 -0.0009245621 -0.0023593132 0.00082490704 -0.00021102972 -0.00085901836 0.0002772797 0.0012645853
-0.0019389578 -0.00043304998 -0.00010103735 0.00028701112 0.0001806225 0.00014198378 0.00055896066 0.001602412
-0.0017284633 0.002209325 -0.00018047394 -0.0001520661 -0.0003580649 -0.0006180762 -0.0027582112 -0.00019055951
0.00037840797 0.0022831224 0.0005409365 -0.0019927493 -4.6257082e-05 -0.0002730489 0.0050644362 -0.002482165
0.0009610792 0.0011848997 0.00046921632 6.18274e-05 0.0013660021 -0.0019371264 -0.00014057613 0.0005900174
1.1061181e-05 0.004229272 -0.0004024055 0.0005528764 0.001005293 -0.004679767 -0.00032431487 0.004374153
0.0018438058 -0.0011285405 0.0037271741 -0.002799367 -0.0010576334 -0.0045899595 0.00013120902 0.00011643667
-0.0033538921 0.00035508256 0.0005577165 -0.0022668056 -0.0016372544 0.0013957147 0.0014480728 0.0025093614
-0.0009626916 -0.00035552643 -0.0028781877 0.0004754089 0.00036075743 0.00016334641 -0.00019418154 0.0019224192
-0.0014504542 -0.00033113817 8.54974e-05 0.0009860419 -0.00032669984 0.00083391543 0.00019418048 0.0016884918
-0.0025350407 0.0030148413 -0.00064745615 6.286864e-05 0.00051900325 -0.0011441084 -0.0032201358 -0.0006360759
-6.4601816e-05 0.002774451 0.001130637 -0.002414489 0.0006504425 -0.0010125821 0.0050188005 -0.0022866079
0.0011654063 0.0018616633 0.000797578 0.00023045618 0.0020375652 -0.0018922286 0.00025155977 0.00045056356
-3.4315588e-05 0.0038966297 -0.0010576606 0.0004148283 0.0009320769 -0.004942341 -1.20217155e-05 0.004348761
0.0012424395 -0.00048167774 0.003517835 -0.0024420244 -0.00020635396 -0.0042545293 0.0006924598 0.00047610715
-0.002865977 0.00079024606 0.0003509261 -0.0017164651 -0.0019281565 0.001899626 0.0013682452 0.0018008153
-0.0007747636 -0.0018375671 -0.0021242858 0.0011820551 -0.00075186824 -0.0020106335 0.00052457413 0.0010892401
-0.0030649484 -0.00019915937 -0.00046012664 -0.0007429874 0.00040952474 0.00012641563 0.0008750204 0.001818731
-0.0017066548 0.0021952314 -0.00012091566 -0.0006642039 -0.0014376759 -0.00029118036 -0.0029253894 0.000200699
0.00038765834 0.0024443248 0.00029490862 -0.0018976944 -0.0006776799 1.5231433e-05 0.005746876 -0.0031088106
0.0016072398 0.0004019009 0.0002956613 -0.00020034435 0.0012985348 -0.0019239702 -0.0014976462 0.0009015715
0.00046467173 0.004982724 -0.0004478209 0.0009537952 0.0011805344 -0.0050417506 -0.0008014357 0.005416088
0.0023508645 -0.0013487225 0.004249927 -0.004232198 -0.0017060292 -0.005394881 -0.00011020623 -2.1587717e-05
-0.0051529105 0.00015995049 0.00085178105 -0.00359709 -0.002123191 0.0014763719 0.0015209118 0.0029905527
