checkpoints/checkpoint_epoch_95.pt (torch, 547720 bytes, 37 tensors)

prototypes f4 [100, 64]
0	0x3e2796c4	0.16366106
1	0xbe901e94	-0.2814833
2	0xbd72b441	-0.059253935
3	0x400ec5f3	2.2308319
4	0xbf2e849d	-0.681711
5	0x3f27adff	0.6549987
6	0x3e56b65d	0.20968004
7	0xbf67dfba	-0.90575755
8	0x3dde34be	0.108499035
9	0x403e1a85	2.9703686
10	0xbf800053	-1.0000099
11	0xbf7eb54f	-0.99495405
12	0xbf0f60e9	-0.5600725
13	0xbf869a60	-1.0515862
14	0xbf251ddc	-0.64498687
15	0x3fd14273	1.6348404
16	0xbf3487cf	-0.7051973
17	0x3eb620a5	0.3557178
18	0x3f813d03	1.0096744
19	0x3fc01239	1.5005561
20	0xc00eff2d	-2.2343247
21	0xbe25ead4	-0.16202861
22	0xbec1ea96	-0.37874287
23	0x3e36523c	0.17804807
24	0x3e8274e6	0.2547981
25	0x3e60b4d2	0.21943977
26	0x3e5214d4	0.20515758
27	0x3f4e13f6	0.8049921
28	0xbf07e569	-0.5308443
29	0x3f1bcb48	0.6085706
30	0xbee99d54	-0.45627844
31	0x3eaff35f	0.34365365
32	0xbff1be7b	-1.8886255
33	0x3fbb3f3c	1.4628673
34	0xbebac091	-0.36475042
35	0x3e82406f	0.25439784
36	0xbe9813b6	-0.29702538
37	0xbf4b18a5	-0.7933448
38	0x3f589f6a	0.84618247
39	0xbff4cd01	-1.9125062
40	0xbee77e3c	-0.45213497
41	0x3b836851	0.004010238
42	0x3f98c0c2	1.1933825
43	0x3ef1e28c	0.47243154
44	0x3f9b660a	1.2140515
45	0xbdfb2882	-0.122635856
46	0xbe8f6c89	-0.28012493
47	0x3e324983	0.17410855
48	0x3fee0d0a	1.8597729
49	0xbee0394b	-0.4379371
50	0x3e393e1a	0.18090096
51	0xbf097e05	-0.53707916
52	0xbf31c075	-0.6943429
53	0xbf447f74	-0.7675698
54	0xbf1f9d29	-0.6234918
55	0x3efd41f3	0.49464378
56	0x3faae982	1.3352511
57	0xbe8e38e9	-0.27777794
58	0x3e1cd73a	0.15316477
59	0xbfee3fe8	-1.8613253
60	0xbe44b50a	-0.19209686
61	0x3f5a1b2c	0.8519771
62	0xbea03f15	-0.31298128
63	0x3fa8a433	1.317511
64	0xbd286f44	-0.041121736
65	0x3feae5b9	1.8351356
66	0xbf8a15a6	-1.0787857
67	0x3df820c3	0.12115624
68	0xbfa47ad4	-1.2849984
69	0xbf616994	-0.88051724
70	0xbed939bd	-0.42426863
71	0x3c51b937	0.012800506
72	0xbed1f193	-0.4100462
73	0xbdfceb33	-0.12349548
74	0x3e062d7b	0.13103287
75	0x3f7372e0	0.9509716
76	0x3a8fc7ae	0.0010969543
77	0x3f519f0f	0.8188333
78	0xbf834161	-1.0254327
79	0xbe9d5f1f	-0.30736634
80	0x3f123dd8	0.57125616
81	0x3f3b4acd	0.7316101
82	0xbf561976	-0.836326
83	0xbeee7eb9	-0.46581057
84	0x3ec84652	0.3911615
85	0xbffd2aaa	-1.9778645
86	0x3f6c9526	0.9241508
87	0x3eef55d1	0.4674516
88	0xbf9b14ae	-1.2115686
89	0x3fdd5328	1.7291002
90	0xbfc795e6	-1.559262
91	0xbe29df60	-0.16589117
92	0x3fd88d81	1.6918184
93	0x3efda51b	0.49540028
94	0x3f0e9196	0.55690897
95	0xbeec1230	-0.46107626
96	0x3f7dc7ff	0.99133295
97	0xbf8b15f6	-1.0866077
98	0xbfeab71e	-1.8337133
99	0xbe4bb4ee	-0.19893238
100	0x3fab18bb	1.3366922
101	0xbf6d66cc	-0.9273498
102	0xbec0ba36	-0.37642068
103	0xbedede18	-0.4352882
104	0xbf987e82	-1.1913607
105	0xbfa60602	-1.2970583
106	0x3c85702e	0.016288843
107	0xbef1be85	-0.47215667
108	0xbf9fd01d	-1.2485386
109	0x3e472919	0.19449271
110	0x3ed71499	0.42007902
111	0x3fe88d72	1.8168166
112	0xbe1a6b10	-0.15079904
113	0xbe77da06	-0.24204263
114	0xbff62525	-1.9230086
115	0xbf809c77	-1.0047749
116	0xbd1730f4	-0.03691192
117	0x3f94b5ab	1.1617941
118	0xbe33b100	-0.17547989
119	0x3f02605a	0.5092827
120	0xbf9ed890	-1.240984
121	0x3d0be653	0.0341552
122	0xbfb09346	-1.3794944
123	0xbf1eea1b	-0.62075967
124	0xbf809181	-1.0044404
125	0xbf686859	-0.9078422
126	0xbffee2c7	-1.9912957
127	0x3f86dfda	1.0537064
128	0x3ef926ea	0.48662502
129	0xbf24e651	-0.64413935
130	0x3f25f553	0.6482746
131	0xbfec8ad2	-1.8479865
132	0x3ed88655	0.42289987
133	0x3ef62282	0.48073202
134	0x3d4c3efd	0.049864758
135	0x3f159779	0.58434254
136	0xbfb4287d	-1.4074856
137	0x3c5a177f	0.013311266
138	0xbf38f910	-0.7225504
139	0x3dcde7cf	0.100539796
140	0x3fcbae91	1.5912648
141	0xbc8c0c49	-0.017095702
142	0xbfed84b1	-1.8556119
143	0xbf1132ca	-0.5671812
144	0x3f529da1	0.8227177
145	0xbff19e06	-1.887635
146	0x3f955de6	1.166928
147	0xbccdf77f	-0.02514243
148	0x3d800f1f	0.06252884
149	0xbcc2cd21	-0.023779454
150	0xbf546699	-0.8296905
151	0x404db35a	3.2140718
152	0x3fb2fa84	1.3982701
153	0xbebbb3aa	-0.3666051
154	0x3e90c4e8	0.28275228
155	0xbf895bef	-1.0731181
156	0xbd8fa8c4	-0.07014611
157	0xbf5928ab	-0.8482768
158	0x3f90a60d	1.1300675
159	0xbfc6a108	-1.5517893
160	0x3f777a5b	0.96671075
161	0x3d38ded1	0.04513437
162	0xc00922ad	-2.1427414
163	0x3f50f312	0.81620896
164	0xbc273b7b	-0.010207052
165	0xbf359c57	-0.7094168
166	0xbf8e34db	-1.110988
167	0xc002b098	-2.0420284
168	0xbcc914ba	-0.024546016
169	0xbf80b7e7	-1.0056123
170	0x3f8b98f6	1.0906055
171	0xbd9328ed	-0.0718554
172	0xbfa54bcf	-1.291376
173	0xbea59c5d	-0.32345858
174	0xbec806d0	-0.39067698
175	0x3ff9c2ad	1.9512535
176	0x3f1150f3	0.56764144
177	0x3eb64a83	0.35603723
178	0xbf1e9752	-0.61949646
179	0xbfe25bad	-1.7684227
180	0xbf2b50c8	-0.6692014
181	0xbd56b4c2	-0.052418478
182	0xbf7958b6	-0.9740099
183	0xbf1ca30c	-0.6118629
184	0xbf1eb619	-0.6199661
185	0xbf79e4a4	-0.976145
186	0xbec6fa25	-0.3886272
187	0xbf82101d	-1.0161167
188	0xbf1167c3	-0.5679895
189	0x3f495760	0.7864895
190	0xbb01de43	-0.0019816316
191	0x3f68116b	0.9065158
192	0xbda402fb	-0.08008381
193	0x3faf5909	1.3699046
194	0x3e9563a5	0.29177585
195	0x3f96b5b4	1.1774201
196	0x3ec07356	0.37587994
197	0x400836ec	2.1283522
198	0xbf055806	-0.5208744
199	0x3e61016a	0.21973196
200	0x405f6f66	3.4911742
201	0x3ff1f7de	1.8903768
202	0xc03f52fa	-2.9894395
203	0x3edb3f32	0.42821652
204	0x3ea89713	0.3292776
205	0x3e8ec326	0.2788326
206	0x3f57f994	0.843652
207	0x3e356e5b	0.17717879
208	0xbfb8b1db	-1.4429277
209	0xbfa6dcab	-1.3036093
210	0xbfe3a141	-1.7783586
211	0x3ee2fd2e	0.44333786
212	0x3f439a83	0.7640764
213	0xbe6a2e3f	-0.22869204
214	0xbe5dcd9f	-0.2166047
215	0x3ed55aa2	0.4167071
216	0x3f16450a	0.58699095
217	0xbf86d39a	-1.0533326
218	0xbf8062e9	-1.0030185
219	0xbebb6bfc	-0.36605823
220	0x3fb6da74	1.4285417
221	0x3c4f42e1	0.0126502225
222	0x3f841923	1.0320171
223	0xbf010dc2	-0.5041162
224	0x3f564c6a	0.8371035
225	0x3feec773	1.8654617
226	0xbe97bc31	-0.29635766
227	0xbf8d028d	-1.1016403
228	0xbf09ef31	-0.538806
229	0x3f533bdb	0.8251321
230	0x3e041b97	0.1290115
231	0x3f309f75	0.6899331
232	0x3fbd65dd	1.4796711
233	0xbfae4bb6	-1.3616855
234	0x3ee8e772	0.4548908
235	0x3f308966	0.68959653
236	0xbf2e8de4	-0.6818526
237	0xc00428f2	-2.064999
238	0x3ebb0239	0.36525133
239	0x3eee5bee	0.46554512
240	0xbfeed1cc	-1.8657775
241	0xbf213618	-0.62973166
242	0xbf7675e1	-0.9627362
243	0x3f02379c	0.50866103
244	0x3ce33665	0.027735898
245	0x3efd7d6a	0.49509746
246	0x3f1a91b7	0.60378593
247	0xbdc6609b	-0.09686395
248	0x3f3be747	0.73399776
249	0xbf7840f1	-0.9697409
250	0xbee76b07	-0.45198843
251	0x3f882dfa	1.0639031
252	0x3fae787c	1.3630519
253	0x3ef05fa1	0.4694796
254	0xbfc7d915	-1.5613123
255	0xbfa503a9	-1.2891742

conv1.bias f4 [64]
0	0x36c9a4e4	6.0094626e-06
1	0xb86d685c	-5.6602395e-05
2	0x38fdb407	0.00012097513
3	0xb86e6a52	-5.684264e-05
4	0x3908a51c	0.00013031479
5	0xb7cdfed0	-2.455656e-05
6	0xb808549f	-3.2503736e-05
7	0xb91bd8ee	-0.00014862765
8	0x376528fc	1.3659006e-05
9	0x382541c6	3.9400322e-05
10	0x381161ef	3.46619e-05
11	0xb8101ca8	-3.4358964e-05
12	0xb8715dae	-5.7546124e-05
13	0x385614aa	5.104082e-05
14	0xb92dc452	-0.000165717
15	0x38bcd825	9.0047986e-05
16	0x3860d803	5.360694e-05
17	0x382049e6	3.8215796e-05
18	0xb888dd30	-6.526185e-05
19	0xb8e7e3c9	-0.00011057367
20	0xb9879c48	-0.00025865645
21	0x3901423a	0.0001232707
22	0xb8c87f2c	-9.560431e-05
23	0xb819d4ad	-3.6676112e-05
24	0x384c62c3	4.872937e-05
25	0xb8eedf04	-0.00011390264
26	0xb7696278	-1.3910809e-05
27	0xb751d591	-1.2507096e-05
28	0xb9be07de	-0.00036245486
29	0x3823a9e8	3.9020466e-05
30	0xb94cf242	-0.00019545204
31	0x3790d4f7	1.7265307e-05
32	0xb89fe6e9	-7.624721e-05
33	0x39046d2f	0.00012629175
34	0xb880a663	-6.1345076e-05
35	0x38e6f46a	0.0001101278
36	0x3894a4fc	7.087921e-05
37	0x389e446d	7.5467724e-05
38	0x3849ed1a	4.8142952e-05
39	0xb79c0270	-1.8597784e-05
40	0xb68e2e31	-4.237307e-06
41	0x390562e6	0.00012720711
42	0x385c3828	5.2504387e-05
43	0x387784ba	5.9013e-05
44	0xb8d46a4f	-0.00010128749
45	0xb7a6bfc6	-1.9878044e-05
46	0x38d33ddf	0.000100727884
47	0x3812229a	3.4841338e-05
48	0x380f2422	3.4127508e-05
49	0x3810ce5f	3.4524473e-05
50	0x39586bb8	0.00020639494
51	0x37b5fd79	2.1694914e-05
52	0xb887d2b9	-6.476552e-05
53	0xb915b156	-0.0001427581
54	0xb9cc8fa1	-0.00039016924
55	0xb9002b25	-0.00012223104
56	0xb93a6847	-0.00017777189
57	0x3969337e	0.00022239794
58	0xb741ba34	-1.154705e-05
59	0x388f96a3	6.84683e-05
60	0xb72ca544	-1.0290478e-05
61	0x38b2b3ac	8.521168e-05
62	0x38d90061	0.00010347437
63	0xb8af6dba	-8.3650884e-05

conv1.lin.weight f4 [64, 512]
0	0xbc89cbb0	-0.016820759
1	0xbd31b66e	-0.04338687
2	0xbd87e9ec	-0.06636414
3	0xbd314976	-0.04328295
4	0xbd91c647	-0.071178965
5	0xbdbc9ea4	-0.09209946
6	0x3cdcc100	0.026947498
7	0xbcf7b0be	-0.030235644
8	0x3cbee263	0.023301309
9	0x3d451c9d	0.04812299
10	0xbca71ae5	-0.020398566
11	0x3c4b5705	0.012410884
12	0xbd0e8aae	-0.034800224
13	0xbdcc2ba0	-0.09969258
14	0x3c80f207	0.015740408
15	0xbd8989d3	-0.06715741
16	0xbdd8769c	-0.10569498
17	0xbd293a5e	-0.04131543
18	0xbd0bed43	-0.034161817
19	0x3cefe0fc	0.029282086
20	0xbd3d5bd9	-0.04623017
21	0x3d9f0cee	0.07766138
22	0x3a0b9701	0.00053249305
23	0xbc7019aa	-0.014654556
24	0xbb17969b	-0.002313054
25	0xbd613cf8	-0.054989785
26	0xbdd3101c	-0.10305807
27	0xbdb82430	-0.08991277
28	0xbc403f49	-0.011733838
29	0x3c4c4623	0.012467894
30	0x3ce9a24a	0.028519768
31	0x3bf83238	0.007574346
32	0x3dd40f66	0.103544995
33	0x3c4b168d	0.012395513
34	0x3d20a3c6	0.039218687
35	0xbc269b88	-0.0101689175
36	0xbd767b15	-0.060175974
37	0xbd241345	-0.04005744
38	0x3dbce289	0.09222896
39	0x3d39e2af	0.045382198
40	0x3c5fc997	0.013658903
41	0xbd23c72d	-0.03998487
42	0xbccc4b71	-0.024938317
43	0x3c982d29	0.018576222
44	0x3da17ec8	0.0788551
45	0xbc297bf9	-0.010344499
46	0xbdb0231f	-0.08600449
47	0x3c5512e9	0.013004997
48	0xbd5bbf2c	-0.053649113
49	0xbc9366b2	-0.017993305
50	0xbdbd5090	-0.09243882
51	0x3d6162c0	0.055025816
52	0x3d859b2b	0.065237366
53	0xbc31e373	-0.010857451
54	0x3d530ce2	0.051525958
55	0xbd8bcacd	-0.068257906
56	0xbd88a6c5	-0.06672434
57	0x3d593eb8	0.05303833
58	0xbd841c2a	-0.06450684
59	0xbd7c0393	-0.061526846
60	0x3d5aaed9	0.053389404
61	0xbddfc62d	-0.10926471
62	0xbc96a927	-0.018391205
63	0xbcb6a0b2	-0.022293422
64	0x3d7f81b1	0.062379543
65	0x3d067712	0.032828398
66	0xbd6dcafd	-0.058054913
67	0xbd25fba3	-0.040523183
68	0x3d54d469	0.051960383
69	0x3d3f19d3	0.046655487
70	0x3baf2b5d	0.0053457455
71	0xbca56ad7	-0.020192547
72	0x3c9483df	0.018129287
73	0xbb9a3061	-0.0047054742
74	0xbd9f05ec	-0.077648014
75	0xbd4450d8	-0.04792866
76	0x3d210968	0.03931561
77	0x3d108678	0.03528449
78	0xbda1d9e4	-0.079028875
79	0xbd457e74	-0.0482163
80	0xbdba77fd	-0.09104917
81	0xbc0e7d87	-0.00869692
82	0x3c5064c1	0.012719334
83	0xbb1defe4	-0.0024099285
84	0xbd2d2df2	-0.042280145
85	0x3bcce291	0.0062525948
86	0x3df402ef	0.11914622
87	0xb9b93020	-0.00035321806
88	0x3c198557	0.00937017
89	0xbcd18952	-0.025578175
90	0x3cdc380b	0.026882192
91	0xbdea7d86	-0.11449723
92	0x3d5a4aed	0.05329411
93	0xbd2f436f	-0.04278892
94	0xbd714002	-0.058898933
95	0xbd4d1292	-0.05006654
96	0x3dac8a58	0.084248245
97	0xbc29cc4a	-0.010363648
98	0x3d169d01	0.036770824
99	0x3d6ec909	0.05829719
100	0x3dd6ee57	0.104946785
101	0x3c7fdca6	0.0156165715
102	0x3c8e2234	0.017350294
103	0x3da944af	0.082650535
104	0x3dcb449f	0.09925198
105	0x3d5b9fca	0.053619184
106	0x3d65a48a	0.05606512
107	0x3d1442c0	0.03619647
108	0xbd044c4e	-0.032299332
109	0x3c4ae07a	0.012382621
110	0x3cbf62ed	0.023362601
111	0x3cbaf90c	0.022823833
112	0xbd8fa8bb	-0.07014605
113	0x3c94cdbc	0.018164508
114	0xbd75e3da	-0.06003175
115	0xbd014331	-0.03155822
116	0xbcb62d27	-0.022238327
117	0x3dab3db0	0.08361375
118	0x3dbddf6e	0.092711315
119	0xbd942e33	-0.07235374
120	0xbd2c8333	-0.04211731
121	0x3d764767	0.06012669
122	0xbd16debd	-0.036833514
123	0xbd758ac5	-0.059946794
124	0x3d5c782c	0.053825542
125	0x3de0af3a	0.10970922
126	0xbd56c522	-0.052434094
127	0xbd03b365	-0.032153506
128	0x3dc318a4	0.09526184
129	0xbc79d59c	-0.015248682
130	0xbdba0e5e	-0.090847716
131	0x3d1f2ab2	0.038859077
132	0x3d8d1380	0.06888485
133	0xbd937f21	-0.07201982
134	0xbd3fffe8	-0.04687491
135	0xb9a15ac2	-0.00030775933
136	0xbda43550	-0.08017981
137	0xbd0161f8	-0.03158757
138	0x3c0d6d86	0.008632069
139	0x3ce64e0f	0.028113393
140	0xbd869089	-0.06570537
141	0xbc9add20	-0.018904269
142	0xbd6f5b8f	-0.058436926
143	0xbd7f6dfb	-0.062360745
144	0x3bfbab4a	0.0076803314
145	0xbcc9d10d	-0.024635816
146	0x3d173b7b	0.03692196
147	0xbce09340	-0.027413964
148	0x3dc73f15	0.09728829
149	0xbd211b60	-0.039332747
150	0x3da8e9ed	0.08247743
151	0xbd9dad46	-0.07699065
152	0x3d82883f	0.06373643
153	0x3d619e7b	0.05508278
154	0x3d1f461e	0.03888523
155	0x3d9756bd	0.07389591
156	0x3d549a2b	0.05190484
157	0xbd98540a	-0.07437904
158	0xbc3be19b	-0.011467363
159	0x3ddab13c	0.10678336
160	0x3c913b32	0.017728422
161	0xbd6da0d3	-0.058014702
162	0x3c552f8f	0.013011827
163	0x3cac38aa	0.021023113
164	0x3dcb71d7	0.099338226
165	0x3db58100	0.088624954
166	0xbd6f2125	-0.05838122
167	0x3d01cb1e	0.03168785
168	0x3bdadb55	0.0066789784
169	0xbd3ea581	-0.046544556
170	0x3d9b12c0	0.07571936
171	0xbd55dd36	-0.052212916
172	0x3d75900f	0.059951838
173	0xbc5d27cf	-0.013498261
174	0xbc0d04c5	-0.008607094
175	0x3cfb5991	0.030682357
176	0xbda35edf	-0.079770796
177	0xbd1a2a5e	-0.03763806
178	0xbdc7bf29	-0.09753258
179	0x3b8ca4f8	0.0042921267
180	0x3d499538	0.04921457
181	0xbdc37f5e	-0.09545778
182	0xbcf29f15	-0.029616872
183	0xbd1f71e3	-0.03892697
184	0x3c17bc1e	0.009261159
185	0x3d68b1e4	0.056810275
186	0x3db8156e	0.089884624
187	0xbc8d93e3	-0.017282432
188	0xbd422fee	-0.04740899
189	0x3db10dbb	0.08645197
190	0xbd5af0b3	-0.053452205
191	0x3bd1b0ea	0.0063992636
192	0xbc5487fd	-0.012971875
193	0x3d48423b	0.048891287
194	0x3da9eab1	0.08296717
195	0xbdcdfbdc	-0.10057804
196	0x3d31a0d5	0.043366272
197	0xbd9cb8a1	-0.07652403
198	0x3cccec29	0.025014954
199	0xbcf67955	-0.030087152
200	0xbc50a5ed	-0.012734872
201	0xbcfbe81e	-0.03075033
202	0xbdbcd824	-0.09220913
203	0x3ce32b7a	0.027730692
204	0xbc8d0a0e	-0.017216709
205	0xbd2b7e55	-0.041868526
206	0x3dac7568	0.08420831
207	0xbc968d7c	-0.018378012
208	0xbd270fea	-0.04078666
209	0xbcf55e45	-0.029952178
210	0x3d32a0ea	0.04361049
211	0x3bcddc91	0.006282397
212	0xbba89be5	-0.005145537
213	0xbd749ff6	-0.059722863
214	0xbdd4b44d	-0.10385952
215	0xbdc1300e	-0.09432994
216	0xbd043a34	-0.03228207
217	0x3d87a454	0.0662314
218	0x3d8d1723	0.068891786
219	0xbce4f575	-0.027949074
220	0x3dab7028	0.083710015
221	0xbdce6307	-0.10077482
222	0xbd8404c5	-0.06446222
223	0x3c432d18	0.011912607
224	0xbcd3386e	-0.025783744
225	0xbd8a3078	-0.06747526
226	0x3cc3c118	0.023895785
227	0xbd429ab7	-0.04751083
228	0x3d19f977	0.037591424
229	0x3d9cb1d7	0.07651108
230	0xbbe8e595	-0.0071074464
231	0xbd8ec2b1	-0.06970728
232	0xbd5fee38	-0.054670542
233	0x3d4bf1bd	0.049791086
234	0xbcfa9e61	-0.0305931
235	0xbcf61181	-0.030037643
236	0x3aeee907	0.0018227407
237	0xbdd107f7	-0.10206597
238	0xbdf78776	-0.12086384
239	0xbc90bbf3	-0.017667746
240	0x3da402d4	0.08008352
241	0x3cb0ebbd	0.021596784
242	0x3d971018	0.073761165
243	0xbde7f0ae	-0.11325203
244	0xbd2c6a7c	-0.04209374
245	0x3cbae927	0.022816254
246	0xbd7b9b30	-0.061427295
247	0xbdd16277	-0.10223859
248	0x3d93c7f0	0.072158694
249	0xbd3b4613	-0.045721125
250	0xbda2c651	-0.07947982
251	0x3d0f8ce7	0.035046484
252	0xbde942af	-0.11389672
253	0x3dc51f2c	0.09625086
254	0x3bc03e13	0.005866775
255	0x3d11c995	0.035592634

conv2.bias f4 [64]
0	0xb94142ed	-0.00018430846
1	0xb8677889	-5.518695e-05
2	0xb8ad826e	-8.273577e-05
3	0x38bcc4fa	9.001228e-05
4	0x3854a80b	5.070124e-05
5	0x35c8c548	1.4958578e-06
6	0x393c0d90	0.0001793413
7	0x378b89cd	1.663426e-05
8	0x38638a8c	5.425005e-05
9	0x3965783c	0.00021883933
10	0x37c66f0b	2.3655148e-05
11	0xb8154a66	-3.5593657e-05
12	0xb7e74ddd	-2.7573604e-05
13	0x383473e5	4.302328e-05
14	0xb9a72e73	-0.0003188733
15	0x385b9ad8	5.235788e-05
16	0x393754ae	0.00017483786
17	0xb901959c	-0.00012358133
18	0xb89424e5	-7.064062e-05
19	0xb95eb6d0	-0.00021239673
20	0x38f0afd4	0.00011476842
21	0xb88d8400	-6.747991e-05
22	0xb89c5bc1	-7.45575e-05
23	0x369aa71b	4.6090113e-06
24	0x38c835f2	9.546791e-05
25	0xb89f69f3	-7.6014454e-05
26	0xb891c1b1	-6.9502166e-05
27	0xb43d7300	-1.7643833e-07
28	0x3a1d7240	0.0006006099
29	0xb8231c78	-3.8888742e-05
30	0x39ed657d	0.00045279777
31	0xb487ea70	-2.5316285e-07
32	0xb93459d2	-0.00017199598
33	0x397b6861	0.0002397611
34	0x3991a1ad	0.00027777013
35	0xb985b769	-0.00025504388
36	0x3a300be3	0.00067156384
37	0xb94b32c6	-0.00019378503
38	0xb88c1691	-6.6799235e-05
39	0x386ceeb4	5.6489094e-05
40	0xb920117e	-0.00015265305
41	0xb812a899	-3.496613e-05
42	0xb835dc3b	-4.335887e-05
43	0xb89fc28d	-7.617949e-05
44	0x38b58954	8.656332e-05
45	0x39927543	0.00027934657
46	0x39a2e44a	0.00031069136
47	0xb95b542d	-0.00020916825
48	0x382ce574	4.122169e-05
49	0xb8d4363c	-0.0001011905
50	0xb81991d4	-3.6613856e-05
51	0x3631b17a	2.647836e-06
52	0xb82342e1	-3.8924514e-05
53	0xb81477ab	-3.53974e-05
54	0xb876a024	-5.8800113e-05
55	0x38ff1134	0.00012162552
56	0xb767b727	-1.3811316e-05
57	0x3919257f	0.00014605185
58	0xb80f72d2	-3.420079e-05
59	0x388391de	6.273737e-05
60	0xb98d400f	-0.00026941343
61	0xb79e93f9	-1.8903973e-05
62	0x3903bc08	0.0001256318
63	0xb8ecafd0	-0.000112861046

conv2.lin.weight f4 [64, 64]
0	0x3d68a1ef	0.056795057
1	0xbe23402c	-0.15942448
2	0x3cb758fb	0.022381296
3	0x3e209a5f	0.15683888
4	0x3dd6f18e	0.10495292
5	0x3e21ebda	0.15812626
6	0x3e209d33	0.15684967
7	0x3db8abc5	0.090171374
8	0x3d2b7555	0.041859943
9	0x3e2fc4dc	0.1716494
10	0xbdbd930f	-0.09256565
11	0xbdd0b05a	-0.101898864
12	0xbe38d897	-0.18051372
13	0xbd3a5950	-0.04549533
14	0xbc791bc6	-0.015204376
15	0x3e749b71	0.23887421
16	0xbe41626c	-0.18885201
17	0xbcea295a	-0.028584171
18	0x3dd8bcef	0.10582911
19	0x3dcf0db7	0.10110038
20	0x3e87c823	0.2651988
21	0xbd3f9715	-0.046774942
22	0xbe2dff10	-0.1699183
23	0xbce320ab	-0.027725538
24	0x3d96c381	0.07361508
25	0x3e39b0f6	0.18133911
26	0x3da51041	0.08059741
27	0xbe220b33	-0.15824585
28	0xbd67d0e1	-0.056595687
29	0x3e1ab382	0.1510754
30	0xb88c4e8f	-6.690353e-05
31	0xbcb46a5d	-0.022023374
32	0x3dd43bc8	0.10362965
33	0xbd5b0dfb	-0.05348013
34	0x3d9591d9	0.07303209
35	0xbd59db2a	-0.053187527
36	0x3d2c57ae	0.042075805
37	0x3d077323	0.033068787
38	0x3e21f4ec	0.15816087
39	0x3de0fdf8	0.10985941
40	0xbe00b20a	-0.12567917
41	0x3ddc8da7	0.107692055
42	0x3d2d4a0c	0.042306945
43	0x3da15a51	0.078785546
44	0x3e0e4cfd	0.13896556
45	0xbdd40842	-0.103531376
46	0x3e1a0fd9	0.15045108
47	0x3d3ba5ef	0.045812543
48	0x3db7bcd6	0.089715645
49	0x3dcc27b5	0.09968511
50	0xbe1febf5	-0.15617354
51	0xbda26e2b	-0.07931169
52	0x3b185555	0.0023244221
53	0x3db27961	0.087145574
54	0xbda8dadc	-0.08244869
55	0x3d88a43d	0.06671951
56	0xbd31906e	-0.04335063
57	0x3e42510b	0.18976228
58	0x3dedfe25	0.1162074
59	0xbdf35fb1	-0.11883486
60	0x3de27ca1	0.11058927
61	0x3dbd0fe5	0.09231547
62	0x3e8e166d	0.27751485
63	0x3e08a45e	0.13343951
64	0x3e0cf01f	0.13763474
65	0x3e2eeb39	0.17081918
66	0xbdcf18ff	-0.101121895
67	0x3e38f9ba	0.18064013
68	0xbe2c62a0	-0.16834497
69	0xbdcab126	-0.0989707
70	0x3dfc179a	0.12309189
71	0xbdbcde20	-0.092220545
72	0xbda14844	-0.07875112
73	0xbe292624	-0.16518456
74	0x3e732494	0.23744422
75	0x3e4313cb	0.19050519
76	0x3d80e3fc	0.062934846
77	0xbe8578df	-0.2606878
78	0x3e200cb2	0.15629843
79	0xbe654485	-0.2238942
80	0x3d1d6442	0.03842569
81	0xbe402206	-0.18762979
82	0x3bacef56	0.0052775545
83	0xbd8a1a39	-0.06743283
84	0xbe018f1f	-0.12652253
85	0x3dc9704c	0.09835872
86	0xbe37e783	-0.17959408
87	0x3d874c88	0.06606394
88	0xbe242c05	-0.16032417
89	0x3d5212a5	0.051287312
90	0xbd799115	-0.060929377
91	0xbcaa482a	-0.020786364
92	0x3b2f06ee	0.0026707011
93	0xbe7a3b1a	-0.24436608
94	0x3c2db789	0.01060284
95	0x3dda7fc5	0.10668901
96	0xbcc7dedc	-0.02439826
97	0x3d95cd1c	0.07314512
98	0x3d84d540	0.06485987
99	0xbe711f5f	-0.23547123
100	0xbd906354	-0.07050195
101	0xbd8d8edd	-0.06912015
102	0x3e4b6eda	0.19866505
103	0xbc27d256	-0.010243019
104	0x3e325bce	0.17417833
105	0x3c0c4ec9	0.008563706
106	0xbd62d484	-0.055378452
107	0x3ad50200	0.0016251206
108	0x3d006fd0	0.031356633
109	0xbdfdcca0	-0.12392545
110	0x3e163dff	0.14672087
111	0xbd6a2e9e	-0.057173364
112	0x3dd8fab4	0.10594693
113	0xbd783cb9	-0.060604785
114	0xbc130126	-0.008972442
115	0xbe42e254	-0.1903165
116	0xbd12cd28	-0.035840183
117	0xbd1b2c13	-0.03788383
118	0x3e005317	0.12531696
119	0xbc128bbe	-0.00894445
120	0x3dec5587	0.115397505
121	0xbdbf5b64	-0.09343603
122	0xbd237409	-0.03990558
123	0xbced45e5	-0.028963992
124	0x3e0cade2	0.13738206
125	0xbd97a738	-0.07404941
126	0xbe028694	-0.1274665
127	0xbc98aa05	-0.01863576
128	0x3c3e22a4	0.011604939
129	0x3cdc8ccc	0.026922606
130	0x3e139a77	0.14414392
131	0x3dfc75a0	0.12327123
132	0xbdc23267	-0.0948227
133	0x3ddab2ce	0.106786355
134	0xbd921de6	-0.07134609
135	0x3d93166d	0.07182012
136	0xbc581df4	-0.013190735
137	0xbdb93426	-0.0904315
138	0xbe01f40b	-0.12690751
139	0xbdd2f499	-0.103005596
140	0xbcc7936b	-0.024362287
141	0x3c2c399b	0.010511781
142	0xbd5b0cb7	-0.053478923
143	0x3e59c698	0.21267164
144	0xbe1f69b2	-0.15567663
145	0xbd9b4288	-0.07581049
146	0xbdecee9e	-0.1156895
147	0x3dcc10dc	0.09964153
148	0x3c81ed3d	0.015860194
149	0xbe565fa3	-0.2093492
150	0x3e0a2b51	0.13493086
151	0x3ddf91b8	0.109164655
152	0x3dc5e1b6	0.096621916
153	0x3e582e3b	0.21111386
154	0xbc036bfc	-0.008021351
155	0xbe2a1bcb	-0.16612165
156	0xbdc7694b	-0.0973688
157	0x3cb64194	0.022248067
158	0x3e5695e8	0.20955622
159	0xbe0fa625	-0.14028223
160	0xbddec44f	-0.10877287
161	0x3db3c275	0.08777324
162	0xbe776242	-0.24158576
163	0x3e60fe94	0.21972114
164	0x3ceefc14	0.029172935
165	0xbdd81fcc	-0.1055294
166	0xbdd4cbed	-0.10390458
167	0x3d725597	0.059163656
168	0x3d953d40	0.07287073
169	0x3e13ed81	0.1444607
170	0x3e59b85d	0.21261735
171	0xbd0c381b	-0.034233194
172	0x3e8a2e36	0.2698838
173	0x3d8161f2	0.0631751
174	0x3dd97e45	0.10619787
175	0x3d598b12	0.053111143
176	0x3cce2f59	0.025169061
177	0x3e265cb2	0.16246298
178	0xbe437bb4	-0.19090158
179	0xbe2e8f69	-0.17046894
180	0xbdc94211	-0.09827054
181	0x3d343f13	0.044005465
182	0xbdfc2c56	-0.12313144
183	0x3e83495e	0.25641912
184	0xbdab4711	-0.08363164
185	0x3df074a3	0.11740997
186	0x3dd1ad83	0.10238173
187	0x3db73e57	0.08947437
188	0xbd81e8da	-0.06343241
189	0xbd2a4c58	-0.041576713
190	0x3e857543	0.26066026
191	0xbdb56fdb	-0.08859225
192	0xbe61aa57	-0.22037636
193	0x3d1b194b	0.037865918
194	0xbdd68874	-0.10475245
195	0xbe83b32d	-0.25722638
196	0x3de9025c	0.11377403
197	0x3ddbbaaf	0.107289664
198	0x3e4d537d	0.2005138
199	0x3e4aa611	0.19789912
200	0xbcb3bc24	-0.021940298
201	0x3d494cb0	0.0491454
202	0xbdd35935	-0.10319749
203	0x3db26fce	0.08712731
204	0xbd85acf3	-0.06527128
205	0xbd6ac61a	-0.05731783
206	0xbe1a2dba	-0.15056506
207	0x3e50ca80	0.20389748
208	0xbbcfda67	-0.0063431743
209	0x3e4b775a	0.19869748
210	0xbe04f5d6	-0.12984404
211	0x3dbeda7a	0.09319015
212	0xbda2f390	-0.07956612
213	0x3c95d156	0.018288296
214	0x3df75c9f	0.12078213
215	0x3d9cbad1	0.0765282
216	0xbb14fd8f	-0.002273414
217	0x3d9aaad2	0.07552113
218	0x3e47f6e1	0.1952777
219	0x3da1c164	0.078982145
220	0x3ddf8ba4	0.10915306
221	0xbe3a4838	-0.18191612
222	0xbdac8694	-0.08424106
223	0xbe6c9aeb	-0.23105972
224	0x3d2d6e0c	0.042341277
225	0x3ddbf8a9	0.107407875
226	0x3d823019	0.0635683
227	0x3d1bf5b8	0.038076133
228	0x3d0f3933	0.03496666
229	0xbe894772	-0.2681232
230	0x3dd7e8eb	0.105424725
231	0x3dbe45ce	0.09290658
232	0x3dff6764	0.12470892
233	0x3e0c7dcc	0.13719863
234	0xbdf34794	-0.11878887
235	0xbc0aff73	-0.008483755
236	0x3d6d30f8	0.05790803
237	0xbd87e969	-0.06636316
238	0xbe896984	-0.26838315
239	0xbe238008	-0.15966809
240	0x3dae0297	0.08496588
241	0x3c118387	0.008881456
242	0xbd436643	-0.047704946
243	0x3db7eeba	0.0898108
244	0xbe879572	-0.26481205
245	0x3e6cae3b	0.23113339
246	0x3e0cd7e6	0.13754234
247	0x3e09b46f	0.13447736
248	0xbd3f0bdf	-0.04664218
249	0xbd96e03e	-0.073669896
250	0x3ce35b3c	0.027753465
251	0x3e080089	0.13281454
252	0x3dd810fb	0.10550114
253	0x3e1ef311	0.1552241
254	0xbe8089e7	-0.2510521
255	0xbd6c9059	-0.05775485

bn1.weight f4 [64]
0	0x3f87800a	1.058595
1	0x3f865dcd	1.0497376
2	0x3f829e89	1.0204631
3	0x3f7b227f	0.9809951
4	0x3f818c06	1.0120857
5	0x3f8055c5	1.0026175
6	0x3f767cc7	0.96284145
7	0x3f770782	0.9649583
8	0x3f6c2f5a	0.9225975
9	0x3f6d7d2d	0.9276913
10	0x3f7281f3	0.94729537
11	0x3f74d935	0.9564393
12	0x3f6a6559	0.91560894
13	0x3f8758de	1.0573995
14	0x3f78e259	0.9722038
15	0x3f7b9caf	0.98285955
16	0x3f805b6a	1.0027897
17	0x3f70e886	0.941048
18	0x3f73d868	0.95252085
19	0x3f6d4a40	0.9269142
20	0x3f7cfa40	0.9881935
21	0x3f84c7ae	1.0373437
22	0x3f7a6c45	0.97821456
23	0x3f71d2a4	0.9446204
24	0x3f8922fb	1.07138
25	0x3f876eba	1.0580666
26	0x3f718da0	0.9435673
27	0x3f700f10	0.93772984
28	0x3f6ffbf2	0.93743813
29	0x3f7e56a3	0.9935095
30	0x3f88df1f	1.0693091
31	0x3f6c3229	0.9226404
32	0x3f71ad8e	0.9440545
33	0x3f7921c2	0.97317135
34	0x3f81f9a3	1.0154308
35	0x3f897081	1.0737458
36	0x3f866ea2	1.0502512
37	0x3f89724d	1.0738007
38	0x3f7594d6	0.9593023
39	0x3f803f81	1.001938
40	0x3f76d985	0.9642566
41	0x3f822b70	1.0169506
42	0x3f85e5a7	1.0460709
43	0x3f893001	1.0717775
44	0x3f742c01	0.95379645
45	0x3f728f4c	0.94749904
46	0x3f830d07	1.0238351
47	0x3f77e300	0.9683075
48	0x3f7e0d3e	0.99238956
49	0x3f72b3cb	0.9480559
50	0x3f85b5f4	1.0446153
51	0x3f85dd9c	1.0458255
52	0x3f71b678	0.9441905
53	0x3f88a93a	1.0676644
54	0x3f77e81e	0.9683856
55	0x3f813ae9	1.0096103
56	0x3f70f1ba	0.94118845
57	0x3f86526e	1.0493906
58	0x3f80d153	1.0063881
59	0x3f7ac4a4	0.979563
60	0x3f7078e0	0.9393444
61	0x3f87701b	1.0581087
62	0x3f84815a	1.0351975
63	0x3f82862d	1.0197197

bn1.bias f4 [64]
0	0x3d0443d8	0.032291263
1	0x3d18b7c1	0.037284616
2	0xbbb9c47f	-0.005669176
3	0xbc8f9f5e	-0.017532047
4	0xbb9089b8	-0.0044109486
5	0x3c71dbd5	0.014761885
6	0xbd26a698	-0.04068622
7	0xbd2107f9	-0.039314244
8	0xbd99cd2b	-0.07509836
9	0xbd7b1a69	-0.061304484
10	0xbd705b7b	-0.058680993
11	0xbd227ebb	-0.03967164
12	0xbd73ba0a	-0.059503593
13	0x3d584dae	0.052808456
14	0xbd2d0691	-0.04224259
15	0xbd428e6c	-0.047499105
16	0x3c834eb7	0.016028745
17	0xbd9003f1	-0.07032002
18	0xbc43fc66	-0.011962032
19	0xbd3ebe74	-0.04656835
20	0xbc29a455	-0.010354121
21	0xb6a6f580	-4.9757655e-06
22	0x3a2e4b35	0.000664878
23	0xbd0b8280	-0.03406
24	0x3d81114f	0.063021295
25	0x3d3f5526	0.046712063
26	0xbd6636b4	-0.056204513
27	0xbd86c9f3	-0.065814875
28	0xbd7ea479	-0.062168572
29	0xbc41f00e	-0.011837019
30	0x3d534819	0.05158243
31	0xbd829c8b	-0.063775145
32	0xbd807c44	-0.06273702
33	0xbcc82728	-0.024432734
34	0x3b28b63f	0.0025743393
35	0x3d6205d4	0.05518134
36	0x3cc0353c	0.023462884
37	0x3d8b6a21	0.06807352
38	0xbc3fe2dc	-0.011711802
39	0x3bb40a86	0.0054944186
40	0xbd0cc4d6	-0.034367405
41	0x3c0ba428	0.008523025
42	0x3d1f40ea	0.038880266
43	0x3d3e91cc	0.04652576
44	0xbd7a8539	-0.061162207
45	0xbd550d97	-0.052014913
46	0x3d588cb6	0.052868567
47	0xbb45d0f3	-0.0030184358
48	0xbcd7d6a8	-0.026347473
49	0xbd139cb7	-0.036038127
50	0x3c2fd7f7	0.010732642
51	0x3ccc7a7f	0.024960754
52	0xbd729df6	-0.059232675
53	0x3d6de25d	0.058077205
54	0xbbdbc8c7	-0.006707284
55	0x3ad6db64	0.0016392288
56	0xbd463472	-0.04838986
57	0x3c4b195f	0.012396186
58	0x3cfdcda6	0.03098185
59	0xbbf4bbcf	-0.0074686776
60	0xbd59f329	-0.05321041
61	0x3d128197	0.035768118
62	0xbcb7e1d2	-0.022446547
63	0x3d18b5e9	0.037282858

bn1.running_mean f4 [64]
0	0xbfbc23d2	-1.4698431
1	0x3d61e6d2	0.055151768
2	0xbfb98a9e	-1.4495428
3	0xc0450000	-3.078125
4	0xbf417baf	-0.7557935
5	0x3e79bb5e	0.24387881
6	0x3f8e98e0	1.1140404
7	0xc004aaac	-2.072917
8	0x3ec8f5ed	0.39250126
9	0x3f945352	1.1587927
10	0xc03996d8	-2.8998318
11	0xc02947c5	-2.6450055
12	0x3fd89a5c	1.6922107
13	0x3feb5bc6	1.8387382
14	0x4042308e	3.0342135
15	0xbec84fd1	-0.39123395
16	0x40187517	2.3821466
17	0xbd4f9d65	-0.050687212
18	0xbfae271e	-1.3605688
19	0x3ff3cbfb	1.9046625
20	0xc0397a33	-2.8980834
21	0x3f874c0c	1.0570083
22	0x4030e95a	2.7642426
23	0xbeb45e9e	-0.35228437
24	0x4004d2db	2.0753696
25	0xbff7e4f8	-1.9366751
26	0x3f847aae	1.0349939
27	0xbe9639be	-0.2934093
28	0xc006cf06	-2.1063857
29	0x3d99e675	0.07514659
30	0xc0241962	-2.5640492
31	0xbfa0fd14	-1.2577233
32	0x3fbdb181	1.4819795
33	0xbeb9c05e	-0.36279577
34	0x3f5c4c61	0.86054045
35	0xbfbf6f6c	-1.4955878
36	0x3f362409	0.71148735
37	0xc037b4b2	-2.8704038
38	0x3da044fa	0.07825656
39	0x3ecb9edf	0.39769647
40	0xc007db18	-2.1227474
41	0x3f45de61	0.7729245
42	0xc0379eae	-2.86906
43	0xbf99cdb1	-1.2015897
44	0xc04d27c7	-3.2055528
45	0xbf49816a	-0.78713095
46	0xbfdd9ae0	-1.7312889
47	0x4049ca38	3.1529675
48	0xbff1e38f	-1.889757
49	0xbf814d83	-1.010178
50	0x4035f551	2.843098
51	0x4016d966	2.357019
52	0xc08382e0	-4.109726
53	0xbf2b57c2	-0.6693078
54	0xc040fef2	-3.0155606
55	0xc054a871	-3.3227808
56	0x4053a455	3.306905
57	0xbfb86fa1	-1.4409066
58	0xbeefaccf	-0.4681153
59	0x3f4e5fc0	0.8061485
60	0xc03b0bd9	-2.9225981
61	0x3ea75459	0.3268154
62	0xc06c7e35	-3.695203
63	0xbef55aa6	-0.47920722

bn1.running_var f4 [64]
0	0x3f51b467	0.819159
1	0x3f3a6a37	0.7281832
2	0x3f5863a3	0.84527034
3	0x3f1b0baa	0.6056467
4	0x3f413702	0.7547456
5	0x3f317e02	0.693329
6	0x3f44adce	0.76827705
7	0x3f5589a5	0.83413154
8	0x3f1c505f	0.61060137
9	0x3f27e1a5	0.6557868
10	0x3f4e308e	0.8054284
11	0x3f8af78a	1.0856793
12	0x3f4e1fe2	0.805174
13	0x3f511c73	0.81684035
14	0x3f4d5059	0.80200726
15	0x3f36695f	0.71254534
16	0x3f0ea4bf	0.5572013
17	0x3f3d9b06	0.7406467
18	0x3f17e90e	0.5933999
19	0x3f4a1be1	0.7894879
20	0x3f39348a	0.72345793
21	0x3f4cdd7c	0.8002546
22	0x3f152365	0.5825713
23	0x3f8ff86d	1.1247689
24	0x3f3e00b2	0.7421981
25	0x3f0e3ffb	0.55566376
26	0x3f5522c0	0.8325615
27	0x3f52f23d	0.82400876
28	0x3eeeb5ba	0.4662302
29	0x3f66379a	0.8992859
30	0x3f33761a	0.70102084
31	0x3f301021	0.6877461
32	0x3f5da72d	0.86583215
33	0x3f4b2196	0.79348123
34	0x3f4646ad	0.7745159
35	0x3f84f461	1.0387079
36	0x3f329ce8	0.6977067
37	0x3f24b0f7	0.64332527
38	0x3f677c9e	0.90424526
39	0x3f815523	1.0104107
40	0x3f96029c	1.1719546
41	0x3f5ff924	0.87489533
42	0x3f9ee325	1.2413069
43	0x3f17e53a	0.59334147
44	0x3f4c0177	0.79689735
45	0x3f908bfe	1.1292722
46	0x3f345f12	0.70457566
47	0x3f2a0e53	0.6642811
48	0x3f6a8e06	0.9162296
49	0x3f8126dc	1.0089984
50	0x3f4e5dbc	0.8061178
51	0x3f4b8980	0.79506683
52	0x3f46b136	0.7761415
53	0x3f25a3d3	0.647031
54	0x3f4f1b1b	0.80900735
55	0x3f844820	1.0334511
56	0x3f2e5493	0.680978
57	0x3f69471c	0.9112413
58	0x3f7a4fbe	0.97777927
59	0x3f4dba7a	0.80362666
60	0x3f069314	0.52568173
61	0x3f974176	1.1816852
62	0x3f998ca5	1.1996046
63	0x3f5653e6	0.8372177

bn2.weight f4 [64]
0	0x3f698214	0.9121411
1	0x3f80f124	1.007359
2	0x3f707ad7	0.9393744
3	0x3f8c0665	1.0939451
4	0x3f67eb00	0.90592957
5	0x3f89f420	1.0777626
6	0x3f6b4ac9	0.9191099
7	0x3f697e04	0.9120791
8	0x3f6faefe	0.9362639
9	0x3f689830	0.9085722
10	0x3f6807ec	0.9063709
11	0x3f68914d	0.9084671
12	0x3f791998	0.9730468
13	0x3f88fd4c	1.07023
14	0x3f6c7ac3	0.9237482
15	0x3f895341	1.0728532
16	0x3f824f83	1.0180515
17	0x3f897ed1	1.0741826
18	0x3f8acb06	1.0843208
19	0x3f752bb8	0.95769835
20	0x3f8b82f5	1.089934
21	0x3f6bc5f9	0.9209896
22	0x3f8cbee0	1.099575
23	0x3f7b07fa	0.98059046
24	0x3f66d28c	0.9016502
25	0x3f6c7187	0.9236073
26	0x3f8e47a0	1.1115608
27	0x3f8c4b0d	1.0960404
28	0x3f6aa64c	0.9166
29	0x3f68b877	0.9090647
30	0x3f6845df	0.90731615
31	0x3f6a85c1	0.9161034
32	0x3f83f98b	1.031053
33	0x3f62d9a9	0.88613373
34	0x3f8aa4a3	1.0831493
35	0x3f8ad751	1.0846959
36	0x3f68e57f	0.90975183
37	0x3f6b443b	0.91900986
38	0x3f879db5	1.0595003
39	0x3f766585	0.96248657
40	0x3f6a1973	0.9144508
41	0x3f6ea605	0.93222076
42	0x3f8adca6	1.0848587
43	0x3f8d3524	1.1031842
44	0x3f809b08	1.0047312
45	0x3f8d19be	1.1023481
46	0x3f690dd5	0.9103673
47	0x3f6566f5	0.89610225
48	0x3f830ac9	1.0237666
49	0x3f8a2ae5	1.079434
50	0x3f6a7d3a	0.9159733
51	0x3f838795	1.0275751
52	0x3f884c06	1.06482
53	0x3f8a7794	1.0817742
54	0x3f8c2a10	1.0950336
55	0x3f76479e	0.9620303
56	0x3f8379f7	1.0271596
57	0x3f6d807c	0.92774177
58	0x3f8cc7b2	1.0998442
59	0x3f752904	0.9576571
60	0x3f6848a8	0.90735865
61	0x3f6b2259	0.91849285
62	0x3f6969fe	0.91177356
63	0x3f80edb8	1.0072546

bn2.bias f4 [64]
0	0xbdaa5d1a	-0.08318539
1	0xbd35fdfc	-0.04443167
2	0xbd0d5554	-0.034505203
3	0x3dbf4535	0.09339372
4	0xbda991d1	-0.082797654
5	0x3db6e95a	0.08931227
6	0xbdaa96cd	-0.08329544
7	0xbd35cad8	-0.0443829
8	0xbd86226e	-0.06549536
9	0xbdacdcc5	-0.08440546
10	0xbd9636e4	-0.07334688
11	0xbdb23543	-0.08701565
12	0xbca8d931	-0.020611377
13	0x3d82f3a4	0.06394127
14	0xbd96189b	-0.07328912
15	0x3c9ddfe7	0.019271804
16	0xbcef4e84	-0.029212244
17	0x3d3621e9	0.044465933
18	0x3d370b88	0.04468873
19	0xbdbac429	-0.09119446
20	0x3dcd1766	0.100142285
21	0xbdc625cc	-0.09675178
22	0x3dd5a8c4	0.1043258
23	0xbd1bf4ac	-0.038075134
24	0xbdc59926	-0.09648351
25	0xbd8966ab	-0.067090355
26	0x3da21c93	0.07915606
27	0x3dd1f7b1	0.102523215
28	0xbd911f46	-0.07086043
29	0xbda84f43	-0.08218243
30	0xbe0df128	-0.13861525
31	0xbd9c5353	-0.0763308
32	0x3c84835f	0.016175924
33	0xbdce0f58	-0.1006152
34	0x3dcbb1fe	0.09946059
35	0x3db4ba3d	0.08824585
36	0xbdafc0f1	-0.085817225
37	0xbd9ae8b6	-0.07563917
38	0x3d5fdf45	0.054656286
39	0xbcb082c0	-0.021546721
40	0xbd9e38fe	-0.07725714
41	0xbda2ae1d	-0.07943366
42	0x3db4b15a	0.088228896
43	0x3d95ec00	0.07320404
44	0x3c0f148a	0.008732924
45	0x3decec9a	0.11568566
46	0xbdb71790	-0.08940041
47	0xbdc3ed10	-0.095667005
48	0xbd7c8a20	-0.061655164
49	0x3da251ba	0.07925744
50	0xbd9fe02c	-0.07806429
51	0x3d7739c3	0.06035782
52	0x3d8f78b3	0.070054434
53	0x3dcab2df	0.09897398
54	0x3de0f8fc	0.1098499
55	0xbccc4e3d	-0.02493965
56	0x3d553b3e	0.05205845
57	0xbd8defa3	-0.06930473
58	0x3daf196e	0.08549772
59	0x3dc5dc36	0.096611425
60	0xbde2d695	-0.110760845
61	0xbd834c31	-0.06411017
62	0xbdcde7f7	-0.100540094
63	0xbda10521	-0.078623064

bn2.running_mean f4 [64]
0	0x3f7a2e07	0.9772648
1	0xbebb8bc8	-0.36630082
2	0x3ef20f21	0.47277167
3	0x3e342f4d	0.17596169
4	0x3d64a59f	0.05582201
5	0xbf146089	-0.579598
6	0xbf090829	-0.53528076
7	0xbe85b841	-0.26117137
8	0xbeac1018	-0.3360603
9	0x3eedb4b2	0.46426922
10	0xbbc4839a	-0.0059971334
11	0x3d2d16fb	0.042258244
12	0x3edc46d3	0.43022785
13	0x3f1d8413	0.61529654
14	0x3eda4bae	0.42635864
15	0x3d885519	0.06656856
16	0x3edf530a	0.4361804
17	0x3f07a5b4	0.5298722
18	0x3f527db6	0.8222307
19	0xbf3bbb4a	-0.73332655
20	0xbf1f9cf5	-0.6234887
21	0x3f0a50b4	0.54029393
22	0xbdfb52e3	-0.12271669
23	0xbd2b50d6	-0.041825138
24	0xbe931fc9	-0.28735188
25	0x3f51438f	0.8174371
26	0x3f4ba960	0.7955532
27	0x3f2d87c1	0.6778527
28	0xbf41d69e	-0.75718105
29	0xbe187d5a	-0.14891568
30	0xbeb4030e	-0.3515858
31	0x3f8cdc48	1.1004725
32	0x3ef7f750	0.48430872
33	0xbe9de60b	-0.3083957
34	0x3ef7a72b	0.48369727
35	0x3f67b8ad	0.9051617
36	0x3f3c5524	0.73567414
37	0x3f42c905	0.7608798
38	0x3dc20754	0.09474054
39	0x3f5e0399	0.8672424
40	0x3f96bf7c	1.1777186
41	0x3f8ce08b	1.1006025
42	0x3db99f34	0.09063569
43	0x3f27913c	0.65455985
44	0x3f2bdef9	0.67137104
45	0xbe99cd1d	-0.30039302
46	0xbf346068	-0.70459604
47	0x3f567ffb	0.8378903
48	0x3dd40a17	0.10353487
49	0x3f82084e	1.0158784
50	0x3dad8394	0.08472362
51	0xbcdbc768	-0.026828483
52	0xbe9b2035	-0.3029801
53	0xbf5fcd90	-0.8742304
54	0x3cd08a97	0.02545671
55	0xbe94b522	-0.29044443
56	0x3bf04a6a	0.0073330896
57	0x3f32cff1	0.69848543
58	0xbcd98d6f	-0.026556699
59	0xbe6056ba	-0.21908084
60	0xbf43b235	-0.764438
61	0x3ec91b63	0.39278707
62	0x3e08c20f	0.13355277
63	0x3ec73131	0.38904718

bn2.running_var f4 [64]
0	0x3e8fe21f	0.28102204
1	0x3f0d1964	0.5511687
2	0x3eeeb9c4	0.46626103
3	0x3f1d8af6	0.6154016
4	0x3ecff509	0.40616634
5	0x3edf8d1c	0.43662345
6	0x3f06a6d7	0.5259833
7	0x3e8f0aeb	0.27938017
8	0x3f59ee71	0.8512946
9	0x3ef7954c	0.48356092
10	0x3eb98401	0.36233523
11	0x3f03dffc	0.5151365
12	0x3ea9fcef	0.33200786
13	0x3f1a9ad4	0.603925
14	0x3f2289b9	0.634914
15	0x3f46f313	0.7771465
16	0x3f0baec6	0.5456356
17	0x3f3df4e5	0.74201804
18	0x3eb110cb	0.34583125
19	0x3e95411b	0.29151234
20	0x3f00fd45	0.5038646
21	0x3e9bd9c8	0.3043959
22	0x3ec4115c	0.38294494
23	0x3ec248e1	0.37946227
24	0x3f64e1ac	0.8940685
25	0x3f07f230	0.53103924
26	0x3f7623bc	0.96148276
27	0x3f387167	0.7204804
28	0x3f5a4479	0.8526073
29	0x3f234ed8	0.6379218
30	0x3f29b514	0.6629193
31	0x3f171bd0	0.59026814
32	0x3f23c474	0.6397164
33	0x3ed02892	0.40655953
34	0x3efa10a4	0.4884082
35	0x3ef8b141	0.48572734
36	0x3f288d60	0.6584072
37	0x3e6ed4bd	0.2332334
38	0x3f08ee38	0.5348849
39	0x3f1b53b2	0.60674584
40	0x3f141fe8	0.57861185
41	0x3ee03f97	0.43798515
42	0x3f005862	0.5013486
43	0x3f166622	0.5874959
44	0x3f5065a9	0.8140512
45	0x3e71758a	0.23579994
46	0x3f209c89	0.62738854
47	0x3e95b474	0.29239237
48	0x3ecadccb	0.39621577
49	0x3f2cd7cf	0.675168
50	0x3f05859d	0.52157
51	0x3f1ccd7d	0.6125105
52	0x3f1a6348	0.6030774
53	0x3f39937d	0.72490674
54	0x3f32d822	0.6986104
55	0x3e8ac2d9	0.27101782
56	0x3ed8cae7	0.42342302
57	0x3f204368	0.62602854
58	0x3f190a6c	0.5978153
59	0x3f042d66	0.5163177
60	0x3f4d2850	0.80139637
61	0x3f264db5	0.6496232
62	0x3eaab0a2	0.33337885
63	0x3f00a3c2	0.50249875

classifier.weight f4 [10, 64]
0	0x3dac9574	0.084269434
1	0x3e22fe52	0.15917328
2	0x3cd6d36f	0.026223866
3	0xbc4e1c83	-0.01258004
4	0x3e495210	0.1966021
5	0x3bc845b5	0.0061118254
6	0xbe54ce75	-0.20781882
7	0xbe1bef51	-0.1522801
8	0x3e63dcb1	0.22252156
9	0xbd80684f	-0.06269895
10	0xbdfe6402	-0.12421419
11	0x3e25e81a	0.16201821
12	0xbcfec7ca	-0.031101126
13	0x3c7c0d8b	0.015384088
14	0x3c92798b	0.017880222
15	0xbdfbdae2	-0.12297608
16	0xbd49dd41	-0.04928327
17	0xbdeac62c	-0.114635795
18	0x3e115c64	0.141954
19	0xbe24d54a	-0.16096988
20	0x3cc01226	0.023446154
21	0xbd8ae438	-0.067818105
22	0xbe37b45c	-0.17939895
23	0xbdfe32c5	-0.12412027
24	0xbdc223e6	-0.09479503
25	0xbded305a	-0.11581488
26	0x3e2b078a	0.16702095
27	0xbd9a784b	-0.07542475
28	0x3e08ac65	0.13347013
29	0xbe52ddc9	-0.20592417
30	0x3d2d2e84	0.04228069
31	0xbd33add5	-0.04386695
32	0xbe3e4c3e	-0.18583772
33	0x3e0dfa68	0.13865054
34	0xbe059dd0	-0.13048482
35	0x3cee9910	0.02912572
36	0xbd348ebf	-0.044081446
37	0x3e11dad0	0.14243627
38	0x3e705625	0.23470362
39	0xbe4b6d84	-0.19865996
40	0xbde2c035	-0.11071817
41	0xbe327032	-0.17425612
42	0x3dc67ae0	0.09691405
43	0xbd94176d	-0.072310306
44	0xbc809e82	-0.015700582
45	0xbd525aac	-0.051356003
46	0x3c073d0e	0.008254303
47	0x3db6acff	0.08919715
48	0xbce84067	-0.028351022
49	0x3ca332b7	0.019921644
50	0xbd3b15a2	-0.045674928
51	0x3c7ab152	0.0153010655
52	0xbc6d0f27	-0.014468945
53	0xbd6ff925	-0.058587212
54	0xbdf778ad	-0.12083564
55	0xbc380ec0	-0.011233985
56	0xba4a0f08	-0.00077079283
57	0xbd21ae6b	-0.03947298
58	0xbe4ee6a0	-0.20205164
59	0x3e2376e3	0.1596332
60	0x3d7b8478	0.06140563
61	0xbd91f35b	-0.071264945
62	0xbe0de5e7	-0.13857232
63	0xbe11fc5a	-0.1425642
64	0xbd89498f	-0.06703483
65	0x3cce771d	0.025203282
66	0xbe45eef0	-0.19329429
67	0xbe281549	-0.1641437
68	0x3e69002d	0.22753973
69	0x3e638ea5	0.22222383
70	0xbe432ae4	-0.1905933
71	0x3da11ad4	0.07866445
72	0x3e00ad3b	0.12566082
73	0x3cb1e9c1	0.021717908
74	0x3e0e9ea5	0.13927706
75	0x3e1293a5	0.14314134
76	0x3c7079d5	0.0146774845
77	0xb9f8905c	-0.00047409802
78	0xbe0af21e	-0.13568923
79	0xbd623028	-0.055221707
80	0xbd612889	-0.054970298
81	0xbd032c00	-0.032024384
82	0xbced9b28	-0.029004648
83	0x3db7d17c	0.08975503
84	0x3e36967a	0.1783084
85	0xbd284b63	-0.04108752
86	0xbe223226	-0.15839443
87	0x3b0efcab	0.0021818082
88	0x3d0c65d0	0.034276783
89	0x3e003650	0.12520719
90	0x3d1739a7	0.036920216
91	0xbdae9c37	-0.08525889
92	0x3e77b49a	0.24189988
93	0xbcb191d1	-0.021675976
94	0xbd8b2ea7	-0.067960076
95	0xbd59058e	-0.052983813
96	0xbe13ebe2	-0.14445451
97	0x3ce781dd	0.028260166
98	0xbd0a4a2f	-0.033762153
99	0x3db759e1	0.0895269
100	0x3df6ffa5	0.12060479
101	0x3d07c84d	0.033150006
102	0x3e167cce	0.14696047
103	0xbe3e5f29	-0.18590988
104	0xbe0fc9a8	-0.1404177
105	0xbdde06ce	-0.10841142
106	0xbe289d29	-0.16466202
107	0xbc835cf2	-0.01603553
108	0xbdb0dc8e	-0.086358175
109	0x3b80707c	0.003919659
110	0x3d40cf39	0.047072623
111	0xbcdf2c3c	-0.027242772
112	0xbc988f6c	-0.018623076
113	0xbcab83a3	-0.020936793
114	0xbe0f974d	-0.1402256
115	0xbbd4ef64	-0.006498264
116	0xbc88dbd5	-0.016706387
117	0x3d9b1112	0.07571615
118	0x3de228f4	0.110429674
119	0x3e30b307	0.17255794
120	0x3cc3c664	0.023898311
121	0x3e3f57f1	0.1868589
122	0xbd9c98cb	-0.076463304
123	0x3db7da23	0.08977153
124	0x3d5ec931	0.05439109
125	0x3d893a6d	0.06700597
126	0xbdb40602	-0.087902084
127	0xbcc89b82	-0.024488214
128	0x3d03d64f	0.032186802
129	0x3c4ce479	0.012505644
130	0x3e1f4cbd	0.15556617
131	0x3d92d41f	0.07169365
132	0xbe17a484	-0.14808851
133	0xbde61d5b	-0.11236068
134	0x3c8be557	0.017077131
135	0xbe0f28dd	-0.13980432
136	0xbcbb60e1	-0.022873344
137	0x3dc78889	0.09742839
138	0x3d52a1bd	0.051423777
139	0xbe424778	-0.18972576
140	0xbcaab271	-0.02083704
141	0xbdb3ed16	-0.08785455
142	0x3cd64e4d	0.026160384
143	0xbaca3a4c	-0.0015428751
144	0x3dac20be	0.084046826
145	0x3ce1d80b	0.027568838
146	0x3e4cba2b	0.19992892
147	0x3da2bb5d	0.07945893
148	0xbe393f60	-0.18090582
149	0x3e03cb26	0.12870464
150	0xbca5d9dc	-0.020245485
151	0x3cff2a1d	0.03114801
152	0x3e1b5f53	0.15173082
153	0x3c047462	0.008084388
154	0x3c880496	0.01660375
155	0x3cbb5b69	0.022870736
156	0xbe4de05c	-0.20105118
157	0xbcbdce4e	-0.023169663
158	0x3dc51edc	0.096250266
159	0xbdc64a1f	-0.09682106
160	0xbc8ee087	-0.017441047
161	0xbcd29224	-0.02570445
162	0xbe0d5a95	-0.13804086
163	0xbe05ff31	-0.13085629
164	0x3d00efa0	0.031478524
165	0x3dc414d1	0.09574283
166	0xbe50b25e	-0.20380542
167	0x3aabbba1	0.0013102182
168	0xbcb4cefa	-0.02207135
169	0x3d5cecba	0.053936698
170	0xbd88939e	-0.06668781
171	0x3e2de253	0.16980867
172	0x3e5211a5	0.20514543
173	0x3db957a8	0.09049922
174	0xbd19d140	-0.037553072
175	0xbd2e52c9	-0.04255942
176	0x3cd50cec	0.026007138
177	0x3d2665b2	0.040624328
178	0x3e14ad9a	0.14519349
179	0xbe3be167	-0.18347703
180	0xbddfe7d8	-0.109328926
181	0x3dda31e4	0.10654047
182	0x3df347fc	0.11878964
183	0x3d862b46	0.065512225
184	0xbde6fb26	-0.112783715
185	0xbddd664d	-0.10810528
186	0x3b850737	0.004059698
187	0xbe35abf0	-0.1774137
188	0xbd35cb59	-0.04438338
189	0x3d920030	0.07128942
190	0xbdb16511	-0.08661855
191	0x3d70b80b	0.058769267
192	0xbd7d5de6	-0.061857127
193	0xbde9d498	-0.11417502
194	0x3c9f119f	0.019417582
195	0x3e437d22	0.19090703
196	0xbd82800d	-0.0637208
197	0xbc90c44e	-0.01767173
198	0xbe148475	-0.14503653
199	0x3def96cf	0.11698686
200	0xbd69454e	-0.05695086
201	0x3d92155f	0.071329825
202	0x3e3b5e5e	0.18297717
203	0xbe0099a5	-0.1255861
204	0x3b8fee28	0.004392404
205	0x3de32526	0.1109107
206	0xbccfb116	-0.025352996
207	0x3e0cc016	0.1374515
208	0x3d8c4fae	0.06851135
209	0x3d205a88	0.039148837
210	0x3c4904d2	0.012269216
211	0xbdb50f50	-0.08840811
212	0xbd015bf1	-0.031581823
213	0x3dec4b6a	0.115378216
214	0x3d781fb3	0.060577106
215	0x3d8d7457	0.06906956
216	0xbe264524	-0.16237313
217	0x3d7434af	0.059620555
218	0x3dc2d835	0.095138945
219	0x3e3c87cd	0.18411179
220	0xbe4418f7	-0.19150148
221	0xbd4af9a6	-0.04955449
222	0xbe0cba3d	-0.1374292
223	0x3d818b3d	0.06325386
224	0x3e1a9583	0.15096097
225	0xbe04584c	-0.12924308
226	0x3e4cfd7c	0.20018572
227	0x3a8048a6	0.0009787276
228	0x3df21566	0.11820488
229	0x3bb95a1f	0.005656495
230	0xbdf8c42c	-0.12146792
231	0x3d8e0cbc	0.06936023
232	0x3e3e4ed9	0.18584765
233	0x3d846d9a	0.06466217
234	0xbdd9b8a9	-0.10630924
235	0x3e137b8e	0.14402601
236	0x3bc3bae7	0.005973208
237	0x3e3a14d5	0.1817201
238	0xbe508d0a	-0.20366302
239	0x3d8597bb	0.06523081
240	0xbdc13dbb	-0.09435602
241	0x3b0eedaf	0.002180915
242	0x3d80c700	0.06287956
243	0xbe320757	-0.17385612
244	0x3e060d20	0.13090944
245	0x3d829a44	0.0637708
246	0x3cb5aaca	0.022176165
247	0x3d8a1e47	0.06744056
248	0xbd7cabcc	-0.061687276
249	0x3d80a9c4	0.0628238
250	0x3e514008	0.20434582
251	0xbccb7af2	-0.024838898
252	0xbe5256d8	-0.20540941
253	0x3e04d2b0	0.12970996
254	0xbc928552	-0.017885838
255	0xbc4b013b	-0.01239043

classifier.bias f4 [10]
0	0x3d1906ee	0.037360124
1	0x3c8ef598	0.017451093
2	0x3cba8330	0.022767633
3	0x3d9f34c6	0.077737376
4	0xbbe9146d	-0.0071130306
5	0x3cce4e2e	0.025183763
6	0xbca66c90	-0.020315439
7	0x3d0d0f86	0.034438632
8	0xbc7a519c	-0.015278246
9	0x3c281ec2	0.0102612395
